Results/FM/20250106_230644_batch1024_epoch10_lr0.01_k10_FM/control_fm.pth (torch, 2345 bytes, 2 tensors)

v f4 [13, 10]
0	0x3c82fd6d	0.015989983
1	0x3cffa19c	0.031204991
2	0xbcfef4e6	-0.031122636
3	0x3bbb1ec5	0.005710455
4	0x3c90f3df	0.017694412
5	0x3cef840b	0.029237768
6	0xbc590802	-0.013246538
7	0x3c94655b	0.018114736
8	0xba72fa54	-0.0009268869
9	0x3c956775	0.018237809
10	0x3bbc45d1	0.0057456275
11	0xbc9a0e6c	-0.018805705
12	0x3c110e44	0.008853499
13	0xbc58bde2	-0.013228865
14	0x3c46df3e	0.012138186
15	0xbc555a93	-0.013022083
16	0x3c2c6439	0.010521942
17	0xbc346cec	-0.011012297
18	0x3c777fa0	0.015106112
19	0xbb7d345c	-0.0038635945
20	0xbd0533de	-0.032520168
21	0xbd85337d	-0.06503961
22	0xbc9f922e	-0.019478884
23	0xbb42d1d1	-0.002972711
24	0xbd4e288f	-0.05033165
25	0xbca6b2ad	-0.020348871
26	0xbc3424a1	-0.010995061
27	0xbc5fd436	-0.013661435
28	0x3b854ef2	0.004068249
29	0xbc3077db	-0.010770763
30	0xbc3a19ac	-0.01135866
31	0x3c4e414c	0.01258881
32	0x3c9e65cd	0.019335652
33	0xbc363627	-0.011121309
34	0x3c514018	0.012771629
35	0x3a90026b	0.0010987049
36	0x3bf8fae8	0.0075982697
37	0x3bd30eae	0.006440959
38	0xbcdafc7e	-0.026731726
39	0x3bce5be2	0.0062975744
40	0x3de6c608	0.1126824
41	0x3deacb22	0.11464526
42	0xb9b0a20f	-0.0003369008
43	0x3c997304	0.018731602
44	0x3d71fa6b	0.059076708
45	0x3d44852b	0.04797856
46	0x3c3c209f	0.011482387
47	0x3d7b938e	0.061420016
48	0xbd537b85	-0.05163147
49	0x3be031f5	0.006841893
50	0xbbb56380	-0.005535543
51	0x3b5ccfb9	0.0033693148
52	0x3c326972	0.010889398
53	0x3a689473	0.00088722183
54	0xbb213277	-0.002459673
55	0xbca6204a	-0.020279068
56	0x3c1b4691	0.009477274
57	0x3adbdd43	0.0016774315
58	0x3bedc1e0	0.0072557777
59	0xbb48bd46	-0.0030630394
60	0xbd1114ed	-0.035420347
61	0x3cedd89e	0.029033955
62	0x3d47130d	0.048602153
63	0x3b3d4024	0.0028877342
64	0xbcf3fe3b	-0.029784312
65	0xbce87018	-0.028373763
66	0x3ace5a15	0.0015743399
67	0xbc8bc8d8	-0.017063543
68	0x3c3e5633	0.011617231
69	0x3bf426c1	0.007450909
70	0x3be39b52	0.006946006
71	0xbcf01f4d	-0.0293118
72	0xbc7776e9	-0.015104034
73	0xbc1a062f	-0.009400888
74	0x3c62bfb7	0.013839654
75	0x3c134fae	0.008991165
76	0xbb212844	-0.002459065
77	0xbb9eb0b0	-0.00484284
78	0x3acfd6de	0.0015856882
79	0xbcb3ecae	-0.021963444
80	0x3c06982f	0.008214994
81	0xbc6b0614	-0.014344711
82	0x3c41afe7	0.011821724
83	0x3cc7ebea	0.024404485
84	0xbb6572d0	-0.003501106
85	0x3c2d6044	0.010582034
86	0x3c004a3a	0.007830197
87	0xbc6e5fc0	-0.014549196
88	0xbc8e6412	-0.017381702
89	0xbca90c8d	-0.020635867
90	0x3d28b2ca	0.04118613
91	0x3d945e88	0.07244593
92	0x3ce37374	0.027765013
93	0x3c374997	0.011186979
94	0x3c8b8f6f	0.017036168
95	0x3c0c1763	0.008550498
96	0x3c1b5416	0.009480497
97	0x3cbb79e5	0.022885272
98	0xbcb62439	-0.02223407
99	0x3bd571c2	0.006513805
100	0x3d7b1686	0.061300777
101	0x3d588d84	0.052869335
102	0xba9c4a04	-0.0011923914
103	0x3c21cf42	0.009876074
104	0x3d44e0d2	0.048065968
105	0x3d067141	0.03282285
106	0x3bd5ba1c	0.00652243
107	0x3d061bba	0.032741286
108	0xbc503ee1	-0.012710304
109	0x3ad4d0e3	0.001623657
110	0xbc129901	-0.008947612
111	0xbac4df2e	-0.0015020126
112	0x3ccaec1b	0.024770787
113	0xbc1f9e5e	-0.0097423475
114	0xbb854661	-0.0040672277
115	0xbc89f856	-0.016842049
116	0x3bf4b13f	0.0074674184
117	0xbbed6f10	-0.0072459057
118	0x3b96b0c2	0.004598708
119	0x3916a8a4	0.00014367938
120	0x3ca1d3be	0.019754287
121	0x3c80a589	0.015703933
122	0x3c695b82	0.014243009
123	0x3ba47546	0.005018863
124	0x3c15f50c	0.009152662
125	0x3b98f5a9	0.004667957
126	0xbaa8ad0f	-0.0012868958
127	0xbc323943	-0.01087791
128	0xbc41a493	-0.011819023
129	0x3b876311	0.0041316827

linear.weight f4 [1, 13]
0	0xbe8e3f7b	-0.27782807
1	0x3dd0b165	0.10190085
2	0xbe4b5cec	-0.19859666
3	0xbdfafdf2	-0.122554675
4	0xbe642b2a	-0.22282091
5	0x3df2f594	0.118632466
6	0x3d1a1b9e	0.037623994
7	0x3d9ecc05	0.077537574
8	0xbe5e3365	-0.21699293
9	0xbdf114af	-0.11771523
10	0xbe6584ad	-0.22413893
11	0x3e3dbb4b	0.18528478
12	0x3dfb3e20	0.12267709
