Results/DIN_batch1024_epoch10_lr0.001_emb64/treatment_din.pth (torch, 79242 bytes, 7 tensors)

embedding_layer.weight f4 [3, 64]
000000 da 4c 4f 3e 29 52 55 3e 07 47 5e 3c 50 75 75 bd
       0.2024416 0.20832123 0.013566739 -0.05992633
000010 27 53 30 bd 7f 72 db bc 80 e2 03 bd d3 74 88 3c
       -0.04304805 -0.026787994 -0.03219843 0.016657269
000020 48 2f ca bd 62 3d ae bd d8 1e aa 3d 6d ec 93 3d
       -0.098722994 -0.085078016 0.08306664 0.07222829
000030 6d 61 39 bd 4a a5 d6 bd 66 9b 06 be 29 17 8c be
       -0.045258928 -0.10480745 -0.13145217 -0.2736142
000040 e3 2c 98 bd e1 9b 9b bb e1 2b 0a 3e 4c 70 89 3d
       -0.074304365 -0.004748807 0.13493301 0.06710872
000050 c9 be 54 be 20 88 f9 bd 98 29 70 bd 8b c8 8c 3e
       -0.20775904 -0.12184167 -0.058633417 0.27496752
000060 d5 9d 4d bc b0 44 56 bd d6 3f 02 bb c4 d2 e5 3a
       -0.012549837 -0.0523116 -0.0019874475 0.0017534127
000070 00 43 a9 bd 18 65 f3 3a ad 8e 43 bd f5 90 a2 bd
       -0.08264732 0.0018569557 -0.047743488 -0.079378046
000080 30 68 99 be f3 b9 26 3d b6 91 43 3e 80 91 50 3d
       -0.299623 0.04070468 0.19098553 0.05092001
000090 bb b8 82 be dc 67 e7 bd 5e 83 14 be 4c 06 c2 3d
       -0.25531563 -0.112991065 -0.14503238 0.09473857
0000a0 f3 95 cb 3d 05 07 12 3e f9 f7 fb 3d 16 93 a6 3c
       0.0994071 0.1426049 0.123031564 0.020333808
0000b0 a5 fc d1 3c 0d 8b e9 bd b7 69 d5 be eb a2 e9 bd
       0.025633166 -0.11403475 -0.41682217 -0.11408027
0000c0 71 3b 1c 3e f6 b4 08 bd 32 a8 31 3d 55 da 01 be
       0.1525705 -0.033375703 0.043373294 -0.12680943
0000d0 92 5b e7 bc 6a 5e 83 be d3 ef c2 bd 96 08 ce 3d
       -0.028241906 -0.2565797 -0.09518399 0.100602314
0000e0 8e 93 2e 3b 12 ca 98 3c 2e cd 12 be c2 db b8 bd
       0.0026638242 0.018651042 -0.14336082 -0.090262905
0000f0 09 b3 16 bd d2 e9 57 bd 98 53 08 3d ca 61 8e be
       -0.036791835 -0.052713223 0.033282846 -0.27808982
000100 94 2d 46 3e f8 8f a2 be 58 e4 08 3e 48 7e 28 3e
       0.19353324 -0.31750464 0.13368356 0.16454422
000110 60 4a aa 3c d1 2a c7 bc dc 85 02 bd ba 7a 22 be
       0.020787418 -0.024312409 -0.03186594 -0.15867129
000120 e1 09 c1 3d 01 5b 7c 3e b2 50 1d bd 79 17 5b 3d
       0.094257124 0.2464409 -0.038407035 0.053489182
000130 f4 ef 14 bd 6f e7 52 bd 5a c0 97 3e 67 a7 61 be
       -0.03636165 -0.051490244 0.2963894 -0.22036515
000140 f4 2c 34 3e 4f 54 1c bc 5e 8a f8 3d 6d e1 90 bd
       0.17595273 -0.009541585 0.121357664 -0.070742466
000150 5e cb 3e be f5 e6 ec 3d b0 55 8e 3d 3a c7 d8 be
       -0.18632266 0.11567489 0.06949937 -0.42339498
000160 6e 95 ac bc 3f e6 25 bd 45 37 98 ba 09 38 57 3b
       -0.021067347 -0.040502783 -0.0011613151 0.0032839796
000170 16 6d 4b bd 39 b7 b3 b9 a4 19 a7 ba d0 74 88 3e
       -0.04966458 -0.00034278052 -0.001274873 0.2665162
000180 5d 56 a3 3e 67 50 d0 bc d0 a8 84 bd d1 4a 92 bd
       0.31901827 -0.025428964 -0.06477511 -0.07143176
000190 b9 d5 90 be e1 15 7b bd f1 8e c1 3d d2 f6 92 bd
       -0.28288057 -0.061300162 0.09451092 -0.071759835
0001a0 bb cc 94 be 59 49 16 be 9f 20 83 be 5d 29 01 bd
       -0.29062447 -0.14676417 -0.25610825 -0.031533588
0001b0 9c 6f 90 bb d4 6f 36 bd f5 30 be bd 9e 27 8d bd
       -0.004407836 -0.04454024 -0.092866816 -0.06892322
0001c0 37 8c a4 be 75 66 89 3e cc df 0e 3d 14 c8 95 3d
       -0.32138225 0.2683598 0.034881398 0.073135525
0001d0 5f cc 9c bc 8c 5f 21 3e 29 da 74 3e 47 f0 26 3d
       -0.01914042 0.15759104 0.23911346 0.04075649
0001e0 be 8c d2 bb ce e6 44 3c f7 c6 b3 3e 2a e0 a4 3d
       -0.006425469 0.012017919 0.35112736 0.080505684
0001f0 10 9f 71 3e 37 64 83 3e 1f a7 f3 3c d5 43 1e 3e
       0.23595834 0.25662395 0.029742775 0.15455563
000200 f9 a5 2b bf 04 4d f8 be 28 b1 d0 3e bf 02 d9 3e
       -0.6705013 -0.48496258 0.4076016 0.42384908
000210 15 b3 ba be 4c 03 b9 be af 66 ba be 05 35 0f bf
       -0.36464754 -0.36135328 -0.36406466 -0.55940276
000220 6f 4f dd be 5d 17 96 be c4 67 c7 3e e4 af 57 3e
       -0.43224666 -0.293147 0.38946354 0.2106319
000230 27 93 b5 be 78 d5 c4 be 6b ca 06 3f db 27 c2 be
       -0.3546383 -0.38444114 0.52652615 -0.37921032
000240 76 cf 84 be f7 21 ce 3c 7d 23 07 bf 5f 19 a4 be
       -0.2593953 0.02516268 -0.52788526 -0.32050607
000250 25 3d 7b bd 90 24 90 be b3 24 cc be 8c 7b 33 bf
       -0.06133761 -0.28152895 -0.3987175 -0.7011039
000260 9b 2c cd be eb dc 7b be 8d ca a3 ba f3 d5 82 3a
       -0.40073094 -0.24595992 -0.0012496278 0.0009981975
000270 3e 89 a4 be c5 5e b0 3a 04 b4 bb 3e 76 8e 12 3e
       -0.32135957 0.0013455978 0.3666078 0.14312157
000280 dd f4 26 3f b4 d5 95 3e cb f2 25 bf 05 7c 58 3e
       0.6521738 0.29264605 -0.648236 0.2114106
000290 bd 90 21 3f 49 65 20 3e 3c de dc be 81 2e 00 3f
       0.6311148 0.15663637 -0.431383 0.5007096
0002a0 75 a3 db be 37 ba 15 bf 67 46 28 bf f6 e6 2c 3e
       -0.42898145 -0.58487266 -0.65732425 0.1688498
0002b0 30 3f 93 3e 88 da e0 3e bf 49 34 be 03 df 9b be
       0.28759146 0.43916726 -0.17606257 -0.30443582
0002c0 72 c3 15 bf 94 90 3c 3d 21 ac d9 3e 28 a0 71 3e
       -0.5850135 0.046036318 0.42514136 0.23596251
0002d0 11 61 7e be c1 6f 87 be 7a b7 e6 be ff de c6 be
       -0.24841715 -0.2645245 -0.45061857 -0.38842008
0002e0 b4 ba cb 3d 4f af 47 3e ab 52 0b 3f 59 77 fc be
       0.0994772 0.19500469 0.54423016 -0.49309805
0002f0 6d 98 ce 3e e6 34 67 be 16 3a 94 3e fa bd 37 3f
       0.40350667 -0.22578773 0.28950566 0.71774256

attention.attention_layer.0.weight f4 [64, 256]
000000 3d 8b 9a bd 5a 0a f8 3c 42 fe 74 be 2e b3 03 bd
       -0.07546089 0.030278374 -0.23925117 -0.0321533
000010 1d f3 00 bd 3a 4e 05 3e 1b e2 00 be 8a 57 59 3d
       -0.03148185 0.13018122 -0.12586252 0.053062
000020 58 c0 c9 3d 7a 2a 36 3d b1 23 27 bd 00 22 e2 bd
       0.0985114 0.044474103 -0.040805522 -0.11041641
000030 0d da 52 3d 08 2d c7 3d 34 44 b8 3c 3d 75 78 3d
       0.05147748 0.09725386 0.02249346 0.060658682
000040 da 1c 66 3c 7d 1f 78 bd 04 72 ac bd 4a 42 a7 bb
       0.014044965 -0.060576905 -0.08420184 -0.005104338
000050 13 c0 90 3d 0f 3c b1 3b 56 42 21 bd 8e 21 6f bd
       0.07067885 0.005408771 -0.039369904 -0.05838161
000060 b7 5f bf 3d 97 f1 00 3e f0 c1 04 bd e9 d9 7b 3d
       0.09344428 0.12592159 -0.032411516 0.061487112
000070 ed 9e 08 3e fe 09 b4 bb 29 8c 17 3e 44 f1 84 bd
       0.13341875 -0.005494355 0.1479956 -0.0649133
000080 66 a3 14 3c 4e 95 de bc a1 c2 b5 bd 5e 0f b6 bd
       0.00907216 -0.027170803 -0.08875013 -0.0888965
000090 7e e4 b1 3d 1a 2e 69 3d 4f d2 2f 3c d8 00 80 bb
       0.086861596 0.05692873 0.010731294 -0.0039063506
0000a0 b7 bf 81 3d bf e0 d4 bc f1 23 90 bc 40 12 dd bd
       0.06335395 -0.025986074 -0.017595263 -0.107944965
0000b0 db 4d a3 3d b7 42 8d 3d e2 7a d7 3d 32 39 88 3d
       0.07973834 0.068974905 0.10521485 0.06651534
0000c0 f9 cc bd bc 05 0a f0 3b 5c 15 e3 3b 0e 29 b7 3d
       -0.023169028 0.007325413 0.0069300365 0.089433774
0000d0 99 4f 91 3d dc 53 8b 3d 8a d6 d7 3b 92 2a 9e bd
       0.0709526 0.06803104 0.0065868543 -0.077229634
0000e0 90 7a b4 3d 84 76 d1 bc 31 73 a7 bc 69 e1 c6 3d
       0.088124394 -0.025569208 -0.02044067 0.09710962
0000f0 e5 39 d6 3c a2 a8 86 bd ad e7 29 bd 8d 6e d7 3d
       0.026150653 -0.06575133 -0.04148071 0.10519133
000100 89 53 bd 3b ea 2e 30 bd f7 10 d5 bc c8 ea ae bd
       0.0057777804 -0.04301349 -0.026009066 -0.08540875
000110 42 9e ce bd 52 79 f2 ba 7d f1 ad bc 7b 7b 6e 3c
       -0.10088779 -0.0018499291 -0.021233315 0.014555807
000120 b2 83 3f 3b df bd b9 3d 15 b0 ba bc f6 d8 cd bd
       0.0029222784 0.09069418 -0.02278904 -0.10051148
000130 73 91 2c bd b6 83 1a 3d a2 21 0c bb d5 9e 77 3c
       -0.0421309 0.037723266 -0.0021382351 0.015113552
000140 42 9c b8 3d 4c 8f 84 bd 30 da c9 bd fe 1e 07 bb
       0.09014179 -0.06472644 -0.09856069 -0.0020617838
000150 e7 b4 1e 3e 1c ee e3 3d 03 0c 08 3d e2 5f 44 3d
       0.15498696 0.111294 0.03321458 0.047943003
000160 c0 91 20 3d a8 55 85 3b c4 58 18 bc ee 51 4d 3d
       0.039201498 0.004069049 -0.009298507 0.050126962
000170 d1 d3 7a bc df 22 a9 bd bf 6c a7 3c 9f f9 0c bc
       -0.01530929 -0.08258604 0.020437596 -0.008604436
000180 41 61 c6 3c 10 78 6d bd c9 94 88 bd 78 9a 72 bd
       0.024216296 -0.05797583 -0.066690035 -0.059229344
000190 81 62 84 3c 3f a4 ab 3c 40 cf 81 3d fd 6e 21 bc
       0.016160252 0.020952342 0.06338358 -0.009853122
0001a0 ca a2 9e 3d d6 16 46 3d 1d 63 50 3c 5a 53 53 bd
       0.07745893 0.04836162 0.012718943 -0.051593162
0001b0 64 45 5e 3d d0 6a dc 3c c9 1e 93 3d 40 b1 1c 3d
       0.054265395 0.0269064 0.07183606 0.038254976
0001c0 46 f6 22 3d c0 0e 8f 3d f6 57 be 3c 18 c5 8a bc
       0.039785646 0.06985235 0.023235302 -0.016939685
0001d0 88 ba cf bc 33 5d f2 3c 9b 18 6d 3c 7a 02 85 3b
       -0.0253575 0.029585456 0.014471198 0.004059133
0001e0 fb c8 ad 3d 64 f0 63 bb 2d a5 91 bd 40 28 08 bd
       0.084855996 -0.0034780735 -0.07111583 -0.03324151
0001f0 41 64 31 bd e9 fe b3 bc 0c fe a7 3c c3 65 f4 bc
       -0.0433085 -0.021972137 0.020506881 -0.02983368
000200 f7 3f 6f 3d 4e 91 4b bd 5b 97 0e bd c8 b6 1c bd
       0.05841061 -0.04969912 -0.034812313 -0.03826025
000210 fa 7f c7 3d 08 50 03 bd 91 cc b8 3d b6 7c 1a 3c
       0.097412065 -0.032058746 0.09023393 0.0094291475
000220 76 c1 2e be 56 88 ec bd fd 52 25 3e a5 1f 1c 3e
       -0.17065987 -0.115494415 0.16144939 0.15246446
000230 40 d5 ba 3d d6 5c c2 bc 7a ee 15 3d e9 f8 4a bd
       0.091227055 -0.023725908 0.036604382 -0.049553785
000240 f0 27 0e be 6e c0 cd bc d2 86 78 3d 43 f9 49 bd
       -0.13882422 -0.025116172 0.06067545 -0.04930998
000250 1d 75 f0 bb e7 3e 2d bd ed 79 9a 3d 5b 07 3a bc
       -0.0073381797 -0.042296316 0.07542787 -0.011354293
000260 28 30 25 bd 08 96 45 3d e7 aa ac bd 6d 08 85 3d
       -0.04032913 0.048238784 -0.084310345 0.06495748
000270 4d 07 56 bd 44 7a 85 3d 21 a8 4f bd 6d 75 85 3c
       -0.052253056 0.06517461 -0.05069745 0.016291345
000280 60 04 8a 3d 5b 26 37 3e 0a e4 75 3d b2 30 2b 3e
       0.06739116 0.17885725 0.060031928 0.16717795
000290 84 4e 1a 3c 35 80 49 bd 9b 84 2b be 80 53 05 3d
       0.009418134 -0.049194533 -0.16749804 0.032550335
0002a0 95 65 b2 bc 31 5d 22 3d 3f 5b 99 ba aa f2 a7 3d
       -0.021776954 0.039639656 -0.0011700167 0.08200581
0002b0 7d 6f d9 bb fc fc 49 bb d9 fd 08 3d ae 93 81 bd
       -0.006635605 -0.0030820956 0.033445213 -0.06326996
0002c0 41 d7 0e 3d 00 a0 7f 3c 86 fb 3d bd 77 f2 56 bd
       0.03487325 0.015602112 -0.04638245 -0.052477326
0002d0 24 b1 40 ba e7 f7 c8 bd ae b0 ac bd ec 9d c6 3b
       -0.0007350615 -0.098129086 -0.084321365 0.006061306
0002e0 11 68 ba bd 84 3b eb 3d 69 fd ca bc 8d 48 7b bd
       -0.0910188 0.11485961 -0.024779039 -0.061348487
0002f0 de f5 ab bc 89 54 90 3c 43 b9 e6 3c b1 b3 0e bd
       -0.020991262 0.017618435 0.028164512 -0.034839336
000300 5d a1 88 bd a6 de e0 3a 25 78 67 be 0d 80 c4 bd
       -0.066714026 0.0017156198 -0.22604425 -0.09594736
000310 de c6 6a 3e 11 d1 e7 bd 60 82 ff 3c 13 06 af bd
       0.22927424 -0.11319173 0.031190097 -0.085460804
000320 e5 88 1d 3d 94 1a e5 3d 11 e3 97 bc 86 a8 eb bc
       0.03846063 0.1118671 -0.01854089 -0.028766882
000330 1b 08 f0 3c 8f 09 5d bc cc b6 96 bc 4a 00 2d bc
       0.02930074 -0.0134910485 -0.018397711 -0.010559151
000340 8d 60 d0 3b 85 1b 6b bd 51 03 8e bd 16 91 c0 bd
       0.006359166 -0.05739929 -0.06934226 -0.09402673
000350 3d c8 c9 bd ac c1 88 bd bd 2b 13 3e 6f c2 98 bc
       -0.098526455 -0.06677565 0.14372154 -0.0186474
000360 a2 3d 6b be d6 86 25 bb b2 a5 90 3c 05 21 3c bd
       -0.2297273 -0.002525737 0.017657135 -0.045929927
000370 e2 52 59 bc 12 e2 a6 bd 02 d8 50 bd 78 4e ab bd
       -0.01326439 -0.08148588 -0.05098725 -0.08364576
000380 fb 80 c6 3c 15 4b cb 3d f2 cf 86 bc 8d 17 df bc
       0.024231425 0.0992643 -0.016456578 -0.02723291
000390 64 b5 ba bd eb ab ca bb a4 60 25 3d e5 0c 81 3d
       -0.09116629 -0.006185045 0.040375367 0.063012876
0003a0 78 c0 67 bd 41 5a c7 bd d8 ed b2 bd 38 07 96 3d
       -0.056580037 -0.097340114 -0.08736771 0.073255956
0003b0 e3 87 0d 3e a6 b1 45 bd 93 59 00 be 5a de 59 bd
       0.13821368 -0.048265122 -0.1253417 -0.053190567
0003c0 c3 38 41 bd ef ba 09 be 62 77 18 bc 19 12 ca bb
       -0.047173273 -0.13450216 -0.009305807 -0.006166708
0003d0 fe 54 67 bd c7 e3 8d bc 85 19 49 3d ef 14 91 bd
       -0.05647754 -0.017320527 0.049096603 -0.07084071
0003e0 55 89 3f 3d 97 bd 31 3d 20 39 91 bd 81 d4 e9 3c
       0.04676183 0.043393698 -0.07090974 0.028543713
0003f0 7d dd 0e be 97 4a 03 3e ba 98 00 be 07 7e 89 bd
       -0.13951679 0.12821423 -0.1255826 -0.06713491

attention.attention_layer.0.bias f4 [64]
000000 29 9c 11 be d7 e0 33 bd dd b7 88 bc e4 6c bd 3e
       -0.14219727 -0.043915596 -0.016689235 0.3699714
000010 c2 73 c3 bd 28 23 59 be e2 10 01 bd d2 86 06 be
       -0.095435634 -0.21204817 -0.03151024 -0.13137367
000020 95 e7 ba bc 7e aa 91 bd d2 55 1f be 1e d1 82 bd
       -0.022815505 -0.07112597 -0.15560082 -0.06387542
000030 67 e4 8f bd 90 07 57 bd 54 1c 5b bd 53 da 36 bd
       -0.07025986 -0.052497447 -0.053493813 -0.044641804
000040 ad 55 2e be bb 6a 87 bd e2 97 3c bd 32 c5 2a bd
       -0.1702487 -0.06612154 -0.046043284 -0.041691966
000050 22 37 cb bd 5a cb b1 bc 91 f7 2d be bf d5 66 bc
       -0.09922625 -0.02170341 -0.1698897 -0.014089047
000060 c5 d8 25 3c 7e fe 6b bc a4 bd 71 bd 41 f4 d9 bd
       0.010122483 -0.014403937 -0.059018746 -0.10642291
000070 ff 39 b0 bd ad 6d a7 bd 15 db 25 bc c2 50 f2 3e
       -0.08604812 -0.08175216 -0.010123034 0.47327238
000080 ba 68 b8 3b a8 88 5e bd f1 50 3b 3e c8 99 fb bc
       0.0056277188 -0.054329544 0.18292595 -0.030712977
000090 49 fb 3e bd 07 46 59 bd 40 1d 95 3c 93 ae c2 bd
       -0.046626363 -0.0530453 0.018202424 -0.09505954
0000a0 05 71 d0 bd 86 e0 ff bd 17 cd 29 3c 4d 44 79 bd
       -0.10177807 -0.12493996 0.010363839 -0.060856152
0000b0 76 ac 9c 3c a8 df e8 bc c0 94 04 bd 3d 07 df bd
       0.019125205 -0.02842696 -0.03236842 -0.108900525
0000c0 91 b3 36 bd a7 e9 84 bd dd 1f 15 be d4 22 d0 bd
       -0.04460484 -0.06489878 -0.14562936 -0.10162893
0000d0 bc 32 99 3a 32 c9 02 be 5a d2 14 be 13 47 42 bd
       0.0011688094 -0.12772062 -0.14533368 -0.047431063
0000e0 60 2b df bd e2 92 96 bd b3 35 39 bc a8 22 b0 bd
       -0.10896945 -0.073522344 -0.011304307 -0.0860036
0000f0 d5 c1 c4 bd 21 9b da bc 7e 17 af bd f7 ab 87 bd
       -0.09607283 -0.0266853 -0.08549403 -0.066245966

attention.attention_layer.2.weight f4 [1, 64]
000000 4d 3d c2 39 f2 f0 90 39 5f 32 69 bd 7f 9e 63 3e
       0.00037048236 0.0002764534 -0.056932803 0.2222843
000010 22 ae b7 bc af c6 b3 bc ec 2c ea bc 5c 1c 38 39
       -0.0224219 -0.021945326 -0.028585874 0.00017558172
000020 60 74 71 bb 16 75 d1 3c 00 08 85 bc 16 84 4d bd
       -0.0036843047 0.025568526 -0.016239166 -0.050174795
000030 f1 34 9e bc bc 4c 05 3b f3 b5 ad 37 1d 89 41 bd
       -0.019312354 0.0020339927 2.0707934e-05 -0.047249902
000040 17 76 41 bc 35 ec d5 3b 94 5a 9c bd d2 a5 ca 39
       -0.01180794 0.006528402 -0.07634464 0.00038651988
000050 ac 67 88 3c d7 fb 1f 3d e8 22 15 b9 8c 2d 30 3c
       0.016650997 0.039058533 -0.00014222751 0.010753047
000060 8f ff f1 3a a9 2c 08 be 8d 0f 1a 38 6c 43 d1 b8
       0.0018463003 -0.13298286 3.6730944e-05 -9.978455e-05
000070 b4 cd 08 3a 4c b0 8b b9 f8 d1 7d b9 7a 49 9b 3e
       0.00052186404 -0.00026643497 -0.0002420618 0.30329496
000080 1e 68 a9 bc ca d7 47 bd ad 19 87 3e 5a 7e 92 bc
       -0.02067953 -0.048789777 0.26386777 -0.017882515
000090 2b 71 9e bd 2c 19 58 bb aa 38 81 bd 3a 8b d7 ba
       -0.07736429 -0.0032973988 -0.06309636 -0.0016444691
0000a0 7e 0f af 3b fb 61 ae 3c 3c 01 75 3a da 81 f3 3a
       0.005342423 0.021286955 0.0009346192 0.0018578127
0000b0 cf 52 88 bb ae 97 6c 3c 0d 68 f2 3c 28 8c aa bb
       -0.004160262 0.01444046 0.02959063 -0.005204696
0000c0 e8 df 5f 3a 4c 7a 05 bd 71 6d 9d bb f0 54 c4 3b
       0.00085401395 -0.032587335 -0.004804306 0.0059915707
0000d0 4c 21 e5 b8 5f 11 e8 3d 3e 0d 90 ba 31 89 bc 3b
       -0.00010925773 0.11331438 -0.0010990275 0.005753659
0000e0 2a fb 03 3d 47 3c c2 b9 57 9d a0 bb 6a 3e ba 3a
       0.03222195 -0.00037047474 -0.004901569 0.0014209275
0000f0 d8 ac 8c bb 40 88 13 bb e6 af 02 3b 77 4d 06 3d
       -0.0042930655 -0.0022511631 0.001994127 0.03278872

deep_network.0.weight f4 [32, 64]
000000 23 f9 de 3d 09 9a cd bd a5 6f 8a bd 5a ac cf bc
       0.10887363 -0.100391455 -0.06759576 -0.025350738
000010 38 48 74 3c 32 3a ec 3a ef 42 d6 3d 3f 8c d8 3d
       0.014909796 0.0018022715 0.10461985 0.10573625
000020 51 26 b8 bd a8 3f c3 bd a3 24 13 be a6 2c a9 3d
       -0.08991683 -0.09533626 -0.14369445 0.08260469
000030 ab 46 c1 3a 60 b1 29 bd df fc a2 bd 8c d9 1b 3d
       0.0014745792 -0.041428924 -0.079583876 0.038049266
000040 2e 7f 68 3d ac 2f 54 3d f1 f0 c2 3d 67 8d d9 3d
       0.056761913 0.051803276 0.09518612 0.106226735
000050 d5 8f 75 bd 7d fe 79 3c 7d 32 7a bd 9f 10 72 bd
       -0.059951622 0.015258429 -0.061083306 -0.059097882
000060 c6 4b 8a 3c 65 8e b7 3d d9 cb 97 bd 50 8f 50 bd
       0.016881835 0.089627065 -0.07411928 -0.050917923
000070 0c 70 49 bc 05 53 f3 3c 0e 8f 12 3b 46 47 ba 3d
       -0.01229478 0.029702673 0.00223631 0.090956256
000080 91 31 db bd ad 2e ca 3c 85 28 b1 3d 67 fc 6a 3d
       -0.107028134 0.02468046 0.086503066 0.057369616
000090 e2 21 d2 bd ab 6e 81 bd 3a 4f bf 3c ba b6 a1 bc
       -0.10260369 -0.06319936 0.023353208 -0.019740451
0000a0 e7 22 96 3d d2 56 c0 3d 98 02 f8 ba 18 ae 6c bd
       0.07330876 0.0939156 -0.0018921671 -0.057783216
0000b0 c6 d5 5c 3d b6 3f 97 bd 13 0c 0b bd ec e6 16 3d
       0.053914808 -0.07385199 -0.03394706 0.036841318
0000c0 c0 4d 96 bc dd 48 ae 3d e7 53 1b bd 1f c6 9c 3c
       -0.018347621 0.08509991 -0.037921812 0.01913744
0000d0 6e 13 5d 3d f3 fc 40 3c 02 43 a2 bc 29 22 94 3d
       0.053973608 0.011779058 -0.019807342 0.07233078
0000e0 f2 e5 79 3d 97 a3 22 bd e2 5a ab bd 7f 35 a9 bc
       0.06101031 -0.039706793 -0.08366944 -0.020655392
0000f0 35 0b a1 3d 79 f3 bb 3d 2e cc 51 bd 66 5e ac 3d
       0.07863466 0.09177298 -0.05122011 0.084164426
000100 3b 4e 94 be ad 81 0b be 00 6e 13 3e a5 da 2e 3e
       -0.28965935 -0.13623686 0.1439743 0.17075594
000110 5f 64 77 be 7d 64 34 be 61 7a ad be e7 05 7f be
       -0.24159382 -0.17616458 -0.3388243 -0.24904595
000120 16 42 ad be a6 a6 a3 be ff 6f f1 3d 57 d1 3e 3e
       -0.33839482 -0.3196308 0.1178894 0.18634544
000130 4a dd 55 be be 86 67 be 47 d2 5d 3e 8d 74 9b be
       -0.20885196 -0.22609994 0.21662246 -0.3036236
000140 7a c1 90 be 33 b7 c4 3c 3e 76 9f be 99 f4 07 be
       -0.2827261 0.024013137 -0.311449 -0.132769
000150 ef 58 37 be 37 d0 4c be 79 27 a3 be 3d 47 ae bd
       -0.17905019 -0.20001303 -0.31866053 -0.085096814
000160 1a 61 d7 bd 63 08 7a be 22 dc 67 bd 30 62 5a 3a
       -0.105165675 -0.24417262 -0.05660642 0.0008330671
000170 e8 31 45 be 17 d7 21 3c 8c ae e5 3d 49 42 29 3d
       -0.19257319 0.009877942 0.11214933 0.04132298
000180 11 fc bf 3d 16 bf 06 3e d7 4f 42 be 6e fa 35 3e
       0.0937425 0.13158831 -0.18975769 0.17771313
000190 51 3f 89 3e 0e 74 e1 3b b4 87 73 be de ee 96 3e
       0.2680612 0.00688029 -0.23782235 0.29479116
0001a0 11 cf 54 bd 66 d7 94 be 7c d2 2f be 71 89 57 3e
       -0.051955286 -0.29070586 -0.17170137 0.21048523
0001b0 34 ee 15 3e 1f f2 78 3e 39 57 a3 be 10 db 9b be
       0.14641649 0.24311112 -0.31902483 -0.3044057
0001c0 49 58 ed bd a9 f1 94 ba 01 63 71 3e 48 d8 54 bd
       -0.11589105 -0.0011363524 0.23572923 -0.051964074
0001d0 37 52 eb bd 3d 38 60 be c4 86 a4 be c2 12 1b be
       -0.114902906 -0.21896453 -0.32134068 -0.15143874
0001e0 95 a1 29 3e 52 db 64 3e ff c9 02 3e 13 45 7b be
       0.16565545 0.22349289 0.12772368 -0.24538068
0001f0 43 90 02 3e 3f c8 c0 bd 9c 6b 70 3e 73 2d 5a 3e
       0.12750344 -0.09413194 0.2347855 0.213064
000200 7a a7 dd 3b e6 97 8e bd a7 3f 49 bd 21 2c 23 3d
       0.0067643495 -0.06962566 -0.04913297 0.039837006
000210 a3 1b ca bd 31 3b 19 3d 1f af 0f 3e 4d 35 9a 3d
       -0.098685525 0.037409965 0.14031647 0.075296976
000220 16 db aa 3d fd f8 65 bc 98 99 02 bd 58 05 03 be
       0.083425686 -0.014036414 -0.03188476 -0.12795007
000230 3f 04 20 bd a7 8b 58 3d 81 b7 ad 3c 57 e6 c2 3d
       -0.03906655 0.052867558 0.021205666 0.0951659
000240 f6 ea 4c bd 4d 6a 6d 3c f1 89 43 bd b8 f7 90 bd
       -0.050028764 0.014490676 -0.047738973 -0.070784986
000250 b2 3b dc bc 21 d1 82 bd 6c 00 38 3d a1 ac 28 3d
       -0.026883934 -0.063875444 0.044922277 0.041180257
000260 58 42 d0 3d d6 8a b1 3d 69 7b 4d 3b 05 60 8e 3d
       0.10168904 0.08669059 0.0031354076 0.06951908
000270 69 93 74 3d 75 4e c7 bd 01 cb a1 bd a4 eb fc bd
       0.059710894 -0.09731761 -0.07900048 -0.123496324
000280 d6 65 c0 bd 7f 97 7b 3b e8 ac 0e 3e 3b ca 86 3d
       -0.09394424 0.003838986 0.13933146 0.06581541
000290 51 9d 93 bd d7 13 40 3d cc c9 db 3d f1 e4 99 3b
       -0.0720774 0.04689392 0.10731849 0.0046964814
0002a0 f8 6b a5 bd 9b 9f 16 3d 4a 43 94 3d ef 2f 40 b9
       -0.08077234 0.036773305 0.07239397 -0.00018328404
0002b0 6f 6b be 3d b2 f0 a9 3d 17 00 48 bd 2d 74 ee 3d
       0.09297835 0.08297862 -0.04882821 0.116432525
0002c0 d7 1d b9 bd 35 32 bd bd 41 8a ef 3c b9 bc 8f bc
       -0.090388946 -0.09238092 0.02924073 -0.017546045
0002d0 5a 73 04 3e a9 64 c3 3d 78 aa b3 bb 68 34 10 3e
       0.12934628 0.09540684 -0.005482968 0.14082491
0002e0 8a 12 e3 bd 69 48 00 3b 41 d9 96 3c fb d9 f3 3d
       -0.110875204 0.001957441 0.018414142 0.11906811
0002f0 0d 82 ce 3d 9b b7 a4 3d 56 e5 9d bd 2a e4 a1 3d
       0.10083399 0.080428325 -0.07709758 0.07904847
000300 46 3e b0 3d c0 76 21 bb 9e c7 b7 3d 98 21 a3 3c
       0.08605628 -0.002463743 0.08973621 0.01991348
000310 20 17 32 bc b4 2e 1e 3d 00 2c b7 39 d4 49 10 bd
       -0.010869771 0.03861876 0.00034937263 -0.035226658
000320 e0 a6 94 3c 00 55 5a ba 22 e2 af bd e4 96 bb bd
       0.018145978 -0.0008328706 -0.08588053 -0.091596395
000330 70 3d 28 3d 50 60 47 bd 80 5a 48 3b fa 12 e2 3d
       0.041074216 -0.048675835 0.003057152 0.11038776
000340 60 dc bc 3d 28 3a 8e 3d 1c 52 88 3d 1a 58 ad 3d
       0.09221721 0.06944686 0.06656286 0.0846407
000350 ae ad ab bd d6 37 ee 3d 62 c4 bc bd e4 e3 a5 bd
       -0.08382736 0.116317436 -0.092171445 -0.08100107
000360 5c bc 51 bd 7c 34 fa 3d 86 4d 8f 3d 68 80 0f 3d
       -0.051205024 0.12217042 0.06997208 0.035034567
000370 ac 6b 94 3d 48 7f f4 bd 30 2b f4 bd d0 84 1f 3d
       0.07247099 -0.119383395 -0.119223 0.03894502
000380 34 ff 0b bd f8 04 75 3d 70 b0 b5 bd 68 61 f2 3d
       -0.034178928 0.05981919 -0.088715434 0.11834985
000390 90 53 df bd ee 78 82 3d 66 de 86 3d 2c 49 89 bd
       -0.1090461 0.06370722 0.06585388 -0.067034096
0003a0 54 38 e2 3d 0c 65 85 3d 30 c2 69 bd 5c a1 67 bd
       0.110459 0.06513414 -0.057069957 -0.05655037
0003b0 06 ea c3 3d e0 39 fc bc 40 a8 06 3c 28 af 6a 3d
       0.09566121 -0.030789316 0.008218825 0.05729595
0003c0 f8 e3 6e 3d 30 30 80 bd b6 b5 c0 3d 3c 45 1b 3d
       0.058322877 -0.06259191 0.094096586 0.037907824
0003d0 a0 d8 24 3d 2c e8 6d bd 74 cf 66 3d d0 47 7e bc
       0.040245652 -0.058082744 0.056350186 -0.015520051
0003e0 fc 89 b5 3d 02 44 83 3d da 2f b9 3d f0 09 8b bc
       0.08864209 0.06409456 0.0904233 -0.016972512
0003f0 e2 61 a6 3d 28 f1 c4 3d 28 36 e3 3c 60 2d 01 bc
       0.081241384 0.096163094 0.027735785 -0.007884353

deep_network.0.bias f4 [32]
000000 a4 09 cd bd af f5 d1 3e a3 cb 83 3d 36 96 e2 bd
       -0.100116044 0.41007754 0.06435325 -0.11063807
000010 13 45 0d be 25 7e a9 3e f0 09 7f bd bc 9d 95 3e
       -0.13795881 0.33104053 -0.062265337 0.29221904
000020 07 a2 84 3e 6e 04 67 bd 0a 61 23 3d 2e 5a fb 3c
       0.25904867 -0.05640071 0.039887466 0.03068265
000030 49 0d a5 3e a8 25 c0 bd 1c ba 33 bd b2 29 24 3d
       0.32236698 -0.09382182 -0.04387866 0.040078826
000040 20 02 76 3c 3a 43 9e 3e 45 08 06 be ee 30 b4 bd
       0.015015155 0.30910665 -0.13089092 -0.08798395
000050 ec 56 87 3d 73 58 3c 3d 2f 2d 5c 3d 54 fc 49 3e
       0.06608376 0.04598279 0.053754028 0.19725162
000060 96 1c 8a bd 94 41 ad 3e 24 55 d6 bd 85 a7 03 bd
       -0.067437336 0.33839095 -0.10465458 -0.03214218
000070 9f b8 0a 3a 95 ae 3c bc 6d d1 ac 3c 45 09 33 bd
       0.0005291793 -0.011516233 0.021095956 -0.043710012

output_layer.weight f4 [1, 32]
000000 d9 a6 c6 3d 68 11 b1 be f7 a7 8f bd 96 39 5f bd
       0.096997924 -0.34583592 -0.070144586 -0.054498278
000010 20 b1 c9 3d 29 97 a2 be 5f 7e 05 3e 8d 0c 85 be
       0.09848237 -0.3175595 0.13036488 -0.25986138
000020 e7 d7 66 be d7 a5 ec 3d 3a ca f1 3d 09 52 37 3d
       -0.22543298 0.11555069 0.1180615 0.04475597
000030 8e 24 77 be f7 0f 00 3e 20 36 0c bc ed ef bb 3d
       -0.24135038 0.1250609 -0.008557826 0.091766216
000040 e3 a0 5e 3d e8 b7 5d be 57 c8 22 3e 9d ba ab 3d
       0.054352652 -0.21652186 0.15896736 0.08385203
000050 da d1 10 3e a5 c2 10 3e af e0 c2 3c 85 0a 7c be
       0.14142552 0.14136751 0.023788778 -0.24613388
000060 b2 71 73 bd 89 17 7c be 3a 4d 6c bd f8 0b 78 3b
       -0.0594346 -0.24618353 -0.057690836 0.003784893
000070 23 ee 19 3e f9 3e d5 3d a5 61 88 3c 3c 55 83 3d
       0.15032248 0.10412402 0.016648123 0.064127415
