Results/DFM/20250107_161250_batch1024_epoch10_lr0.001_reg0.001_DFM/treatment_deepfm.pth (torch, 174460 bytes, 9 tensors)

linear.weight f4 [1, 13]
0	0xb20746e5	-7.874154e-09
1	0x323680c2	1.062307e-08
2	0x32885153	1.5869466e-08
3	0xb168d3bc	-3.38808e-09
4	0x31858aee	3.886604e-09
5	0x32a37775	1.903002e-08
6	0xb23c0c99	-1.0945905e-08
7	0x32977c09	1.7635118e-08
8	0x326787fe	1.3476891e-08
9	0x3201bd95	7.551894e-09
10	0x325591e3	1.2431403e-08
11	0x31674f11	3.3659868e-09
12	0xb196d6be	-4.389988e-09

embeddings.weight f4 [13, 32]
0	0xb996cd6a	-0.00028763275
1	0x395d5d75	0.00021111018
2	0xb8a301e7	-7.7728e-05
3	0x3e262e80	0.16228676
4	0x3a21084f	0.00061429007
5	0xba7459d8	-0.0009321249
6	0x3a13d7f0	0.0005639782
7	0x38e8d017	0.00011101382
8	0xb9350661	-0.00017263881
9	0x3932e688	0.00017061282
10	0xbeda33b9	-0.42617586
11	0x3a865934	0.0010249973
12	0xb8c314e6	-9.302217e-05
13	0xbaaf6922	-0.0013382772
14	0x3e00e6e5	0.1258808
15	0x3a1c7229	0.0005967939
16	0xb92fe509	-0.00016774623
17	0x3a032f70	0.0005004322
18	0x39bf32d5	0.00036468232
19	0xb9225004	-0.00015479332
20	0x3a6823f1	0.00088554533
21	0xbe2893d9	-0.1646265
22	0xbac16dfa	-0.0014757507
23	0xb90f3c4e	-0.00013660008
24	0x3a4005b7	0.00073250703
25	0x3aba36b6	0.0014206979
26	0xb94751ec	-0.00019008637
27	0x3948ce07	0.00019150237
28	0xb8c64fe3	-9.456256e-05
29	0xba709d71	-0.0009178734
30	0x3a2730b1	0.00063778
31	0xba25cd04	-0.00063248
32	0xbacd9e0a	-0.0015687358
33	0x3a20f9b0	0.0006140722
34	0x390ebdf1	0.00013612934
35	0xbdc2a238	-0.09503597
36	0x3b7214de	0.0036938707
37	0xbb7ec522	-0.0038874825
38	0x3a3b32a6	0.0007141031
39	0xb80e1c2b	-3.388167e-05
40	0x38fb7058	0.00011989538
41	0x3b7f7e3e	0.0038985158
42	0x3bae645b	0.005322022
43	0x3a973e6c	0.0011538989
44	0xba83509b	-0.0010018529
45	0xbb2dfc32	-0.0026548025
46	0xbe565620	-0.20931292
47	0x3a9f22c5	0.00121411
48	0x3a1736dc	0.00057683676
49	0x3d886838	0.06660503
50	0xb8210a61	-3.8395057e-05
51	0xb9c6e819	-0.0003793843
52	0x3a7f638f	0.00097423134
53	0x3e8b07a2	0.2715426
54	0xbb3b63e7	-0.0028593482
55	0xb8953282	-7.1142815e-05
56	0x3ad4e1fa	0.0016241663
57	0x3b245261	0.0025073516
58	0xbad9c906	-0.0016615696
59	0x3ad94d91	0.0016578903
60	0xb9be224a	-0.0003626517
61	0xba987617	-0.0011631873
62	0x39d229e6	0.00040085538
63	0xbac4ef80	-0.001502499
64	0xba97c74d	-0.0011579782
65	0x39bdbf89	0.00036191594
66	0x361756ff	2.2551392e-06
67	0x3d421b1d	0.04738914
68	0x3b625823	0.0034537397
69	0xbb7141dc	-0.0036812937
70	0x3a4d4cb3	0.00078315585
71	0x39b2f4af	0.0003413311
72	0xb91e79fe	-0.000151135
73	0x3b61c6b7	0.0034450719
74	0x3e8c89b5	0.27448812
75	0x3a61cb0f	0.0008613327
76	0xba74bbe9	-0.0009335862
77	0xbb263ca4	-0.0025365734
78	0x3d556c5f	0.052105304
79	0x3a90f406	0.0011059053
80	0x3a2c5325	0.0006573669
81	0xbde01fa0	-0.10943532
82	0xb983ab15	-0.00025113733
83	0xba2251a7	-0.0006191977
84	0x3a938f82	0.0011257979
85	0xbe1b7050	-0.15179563
86	0xbb2867b5	-0.002569658
87	0x388ce443	6.718237e-05
88	0x3abab951	0.0014245902
89	0x3b0176c5	0.001975463
90	0xbaa13c73	-0.001230134
91	0x3ab204b1	0.001358172
92	0xb9c99206	-0.00038446503
93	0xba932485	-0.0011226094
94	0x39af52eb	0.0003344038
95	0xbaca5a82	-0.001543835
96	0x3b6ddebe	0.0036296095
97	0x39b58b00	0.00034626573
98	0xbb49aee4	-0.003077441
99	0x3ca1e943	0.019764548
100	0xbc3db768	-0.011579372
101	0x3c3e2506	0.011605507
102	0xbaf0e931	-0.0018380043
103	0xbaf90811	-0.0018999596
104	0xbb451e44	-0.0030077854
105	0xbc58d411	-0.013234154
106	0x3c81dc6e	0.01585218
107	0xbc298202	-0.010345938
108	0x3a187dbe	0.0005817077
109	0x3c2e3acf	0.010634138
110	0xbb59f02b	-0.0033254724
111	0x39b2a3d8	0.0003407288
112	0x3b9ef304	0.004850747
113	0x3b83712b	0.0040112934
114	0xbbd17927	-0.0063926163
115	0x39fc67ab	0.00048142424
116	0xbbcef5c5	-0.006315919
117	0xbceff43c	-0.029291265
118	0x3c786f63	0.015163275
119	0x3b95ef4e	0.0045756465
120	0xbbd41442	-0.0064721415
121	0xbc6f0eda	-0.014590943
122	0x3acdf160	0.0015712194
123	0xba9ed364	-0.0012117443
124	0xba5d61ea	-0.0008445071
125	0x3bc91793	0.0061368435
126	0xbb6b077e	-0.003586262
127	0x3a7c3534	0.0009620965
128	0xb800f497	-3.074537e-05
129	0x3966f76c	0.00022026681
130	0x3a401ed8	0.0007328815
131	0x3b70facc	0.003677058
132	0x3b25d04e	0.0025301161
133	0xbb30ae94	-0.0026959525
134	0xb9a67197	-0.00031746618
135	0xb9c68c41	-0.0003787
136	0x3a75cc3d	0.0009376442
137	0x3b2c0a2f	0.0026251187
138	0xbe650eba	-0.22368899
139	0x3a2d5a76	0.0006612906
140	0x39afbc48	0.00033518882
141	0xbb7a809c	-0.003822363
142	0x3c26113b	0.010135944
143	0x39497050	0.00019210693
144	0xba40476c	-0.00073348614
145	0x3bc2d2b3	0.0059455275
146	0x3a90c5ad	0.001104524
147	0x3a0c73f5	0.0005357855
148	0x39972e1f	0.00028835327
149	0x3cccda93	0.025006568
150	0xbae34a71	-0.0017340911
151	0xba9996dc	-0.0011717933
152	0x39a7789b	0.0003194258
153	0x3ac9f0e5	0.0015406875
154	0x3909a412	0.00013126459
155	0xb421104d	-1.5000224e-07
156	0xb889c493	-6.569284e-05
157	0xb938ee7c	-0.0001763645
158	0x378c615c	1.6734637e-05
159	0xba24535f	-0.0006268527
160	0x3a53a676	0.0008073816
161	0xbb292de9	-0.0025814718
162	0xbb833d4c	-0.00400511
163	0xbc596705	-0.013269191
164	0x3b8bde96	0.0042684777
165	0xbb899cbb	-0.004199592
166	0xb9097a73	-0.00013110954
167	0xb9e43d7e	-0.00043533364
168	0xbb3fc0da	-0.0029259236
169	0x3b0232bb	0.0019866663
170	0x3c58c2bd	0.013230023
171	0xbbb41688	-0.00549585
172	0xbb1034f4	-0.0022004219
173	0xbac7de57	-0.0015248758
174	0x3c33577c	0.010946151
175	0x3b2062f6	0.0024473048
176	0x3b7b75e1	0.0038369822
177	0x3c7ee395	0.0155571895
178	0xbb795103	-0.0038042672
179	0xba5a951d	-0.00083382596
180	0xba0d5035	-0.0005390675
181	0x3a65e7f3	0.000877022
182	0x3b87d5f2	0.0041453773
183	0x3b49059b	0.0030673507
184	0xbb050ec1	-0.0020302983
185	0xbb9a269f	-0.004704311
186	0xba794b04	-0.00095097744
187	0x3a8d601f	0.0010786093
188	0x3a84c583	0.0010129664
189	0x3b1ab09e	0.0023603807
190	0x3a969034	0.0011487068
191	0xbb44e188	-0.0030041654
192	0xba97c84f	-0.0011580082
193	0x39ce3f58	0.00039338577
194	0xbbb250da	-0.005441767
195	0xbd80e946	-0.062944934
196	0x39ac1c78	0.00032827607
197	0xba2c320b	-0.0006568736
198	0x3b4a1610	0.0030835904
199	0xbb18d714	-0.0023321556
200	0xbbc7cf8d	-0.00609774
201	0x3a1f96bf	0.00060878316
202	0x3b030f48	0.0019998122
203	0xbb239e98	-0.0024966355
204	0xbb0ebf94	-0.002178167
205	0xba0d4079	-0.00053883303
206	0x3d04807f	0.032349106
207	0x3bb5fa8c	0.005553549
208	0x3b9e262e	0.0048263287
209	0x3b9535cd	0.0045535327
210	0xbbb770d2	-0.005598166
211	0x39b91a16	0.00035305385
212	0x3aa314ca	0.0012442109
213	0x3bb59df0	0.0055425093
214	0x3bcd205d	0.0062599615
215	0x3bb872fa	0.0056289406
216	0xb9827a13	-0.00024886485
217	0xbbcd9de7	-0.006274927
218	0xbae42d7e	-0.0017408577
219	0x3aef59d3	0.0018261023
220	0xba774a5b	-0.0009433382
221	0xba850b04	-0.0010150378
222	0x3b1b2365	0.002367222
223	0xbb9ef697	-0.004851173
224	0x3a878a79	0.0010340951
225	0xba037b72	-0.0005015648
226	0xbaa8210d	-0.0012827233
227	0x3c42d348	0.011891194
228	0xbba153ce	-0.0049233204
229	0x3b94be3b	0.004539279
230	0x3aae5f29	0.0013303506
231	0xba0e99fa	-0.00054398144
232	0xbab77a92	-0.0013998321
233	0xbb8d4a98	-0.004311871
234	0x3ba8bef9	0.005149719
235	0xba81ba60	-0.0009897463
236	0xba31b17b	-0.0006778461
237	0x3ba20ba5	0.004945236
238	0xbc28726d	-0.0102811875
239	0x386f05b8	5.6987366e-05
240	0x3a17cb86	0.000579052
241	0x3b4e5623	0.0031484447
242	0xba8773ff	-0.0010334252
243	0x3a16276c	0.000572792
244	0x3b227ec1	0.002479479
245	0xba8d464d	-0.0010778398
246	0x3abae24d	0.0014258117
247	0x3adb7c9b	0.0016745509
248	0xbac66158	-0.0015135212
249	0xba37ad08	-0.00070066797
250	0x39c3e577	0.00037364263
251	0xba265260	-0.00063446723
252	0x3a0bff4f	0.0005340473
253	0xbb46d1f4	-0.0030337544
254	0x3afc6fd3	0.00192594
255	0x3b0488ac	0.0020223064

deep.0.weight f4 [512, 13]
0	0x00000dca	4.947e-42
1	0x80000e29	-5.08e-42
2	0x00000e4a	5.126e-42
3	0x00000df6	5.008e-42
4	0x00000e7b	5.195e-42
5	0x80000eb2	-5.272e-42
6	0x00000def	4.998e-42
7	0x80000ec4	-5.297e-42
8	0x00000e9c	5.241e-42
9	0x80000ddc	-4.972e-42
10	0x80000e1a	-5.059e-42
11	0x00000eda	5.328e-42
12	0x00000dc2	4.935e-42
13	0x80000dc2	-4.935e-42
14	0x00000de2	4.98e-42
15	0x00000dca	4.947e-42
16	0x80000dcf	-4.954e-42
17	0x80000db2	-4.913e-42
18	0x80000de1	-4.979e-42
19	0x00000dda	4.969e-42
20	0x00000daf	4.909e-42
21	0x80000dd3	-4.959e-42
22	0x80000dbf	-4.931e-42
23	0x80000eb6	-5.277e-42
24	0x000010b1	5.988e-42
25	0x00000db0	4.91e-42
26	0x00000dd7	4.965e-42
27	0x00000dd1	4.956e-42
28	0x80000e30	-5.09e-42
29	0x80000e2e	-5.087e-42
30	0x80000dc4	-4.938e-42
31	0x00000ea6	5.255e-42
32	0x80000db6	-4.919e-42
33	0x00000dfa	5.014e-42
34	0x80000dd1	-4.956e-42
35	0x80000dc0	-4.933e-42
36	0x00001121	6.145e-42
37	0x80000db1	-4.912e-42
38	0x00000dd6	4.963e-42
39	0x00000db5	4.917e-42
40	0x80000e2d	-5.085e-42
41	0x00000db1	4.912e-42
42	0x0000116c	6.25e-42
43	0x80000df5	-5.007e-42
44	0x00000f86	5.569e-42
45	0x80000df7	-5.01e-42
46	0x00000ea7	5.256e-42
47	0x00000ebb	5.284e-42
48	0x00000db3	4.914e-42
49	0x80000e98	-5.235e-42
50	0x800010da	-6.045e-42
51	0x00000ff5	5.724e-42
52	0x80000dd2	-4.958e-42
53	0x80000f19	-5.416e-42
54	0x80000dc6	-4.941e-42
55	0x00000ddf	4.976e-42
56	0x80000ea3	-5.25e-42
57	0x00000df3	5.004e-42
58	0x80000ddb	-4.97e-42
59	0x80000db7	-4.92e-42
60	0x00000dd0	4.955e-42
61	0x80000daf	-4.909e-42
62	0x00000dbd	4.928e-42
63	0x00000dbf	4.931e-42
64	0x80000dbb	-4.926e-42
65	0x80000dca	-4.947e-42
66	0x80000dca	-4.947e-42
67	0x80000df4	-5.005e-42
68	0x000010e7	6.063e-42
69	0x80000dee	-4.997e-42
70	0x80000ddb	-4.97e-42
71	0x00000ddf	4.976e-42
72	0x80000df9	-5.012e-42
73	0x80000dd7	-4.965e-42
74	0x80000dcd	-4.951e-42
75	0x80000e04	-5.028e-42
76	0x80000db3	-4.914e-42
77	0x000002f7	1.064e-42
78	0x2fa83e99	3.06035e-10
79	0xb42c3a91	-1.6040055e-07
80	0xb40a8945	-1.290219e-07
81	0xb1880a05	-3.95926e-09
82	0xb45ed70c	-2.0753595e-07
83	0x38e3bb50	0.00010859093
84	0x381f5702	3.7989586e-05
85	0xb4ceda67	-3.85294e-07
86	0x31cbcfad	5.9316876e-09
87	0x37f3fa7f	2.9084504e-05
88	0xb08ba619	-1.0160789e-09
89	0x325d3652	1.2876244e-08
90	0xb2a58b19	-1.9271782e-08
91	0xb233adb1	-1.0458664e-08
92	0x362c0586	2.5633212e-06
93	0xb589f076	-1.0277279e-06
94	0x352ef205	6.5172236e-07
95	0xb6323622	-2.6555576e-06
96	0x32e93b01	2.7151602e-08
97	0xb6a218f2	-4.8308802e-06
98	0x359fef17	1.1916007e-06
99	0x322dbb11	1.0112459e-08
100	0x362d5390	2.5827649e-06
101	0xb1008464	-1.8701707e-09
102	0x2cf739a1	7.0265603e-12
103	0x2e2885b6	3.8317537e-11
104	0x31ddefce	6.459209e-09
105	0xb1605675	-3.2645435e-09
106	0x32b0c7a0	2.0579876e-08
107	0x35527642	7.8403184e-07
108	0x33d3db38	9.865329e-08
109	0xb0d1367c	-1.5222237e-09
110	0xb2b1941e	-2.0672868e-08
111	0xb50900db	-5.103772e-07
112	0x329e5413	1.8431853e-08
113	0x34d02d01	3.8775764e-07
114	0x313b36eb	2.7243299e-09
115	0xb3cb9e47	-9.4817146e-08
116	0x2c320f00	2.5303648e-12
117	0x00000db8	4.921e-42
118	0x80000dbd	-4.928e-42
119	0x80000dbc	-4.927e-42
120	0x80000f4d	-5.489e-42
121	0x80000de3	-4.982e-42
122	0x80000fc0	-5.65e-42
123	0x80000e1f	-5.066e-42
124	0x80000df8	-5.011e-42
125	0x80000df5	-5.007e-42
126	0x80000dda	-4.969e-42
127	0x80000e33	-5.094e-42
128	0x00000dde	4.975e-42
129	0x000010a7	5.974e-42
130	0x31fdc506	7.385668e-09
131	0xb39bf2e9	-7.261935e-08
132	0x2ff7195b	4.4947054e-10
133	0x3101fbad	1.8915032e-09
134	0xb28a2cd7	-1.6085705e-08
135	0x32b791db	2.1370331e-08
136	0x3800b3eb	3.068514e-05
137	0x31bff684	5.586857e-09
138	0x2fca8451	3.6837602e-10
139	0xb1c246ab	-5.654177e-09
140	0xb380ad1f	-5.991955e-08
141	0x38a93bf0	8.069712e-05
142	0x31d5461d	6.207087e-09
143	0x358224fa	9.696516e-07
144	0x36023eab	1.9407987e-06
145	0xaf2acaee	-1.5533505e-10
146	0x327347fe	1.4160831e-08
147	0xb52c86fd	-6.4271427e-07
148	0xb5f5a156	-1.8300877e-06
149	0x33ffd766	1.19135436e-07
150	0x34a9f48a	3.165663e-07
151	0x32b38f9e	2.0903652e-08
152	0xb088569a	-9.919916e-10
153	0x33be8abc	8.8728e-08
154	0xb357b539	-5.022341e-08
155	0x36aa6120	5.0777016e-06
156	0x00000de4	4.983e-42
157	0x80000eb4	-5.274e-42
158	0x80000dc0	-4.933e-42
159	0x80000dc1	-4.934e-42
160	0x80000e5a	-5.148e-42
161	0x80000de5	-4.984e-42
162	0x00000ddb	4.97e-42
163	0x00000e6a	5.171e-42
164	0x00000dad	4.906e-42
165	0x80000dd4	-4.96e-42
166	0x80000dd9	-4.968e-42
167	0x00000dad	4.906e-42
168	0x00000fcd	5.668e-42
169	0x00000db1	4.912e-42
170	0x00000db2	4.913e-42
171	0x80000e2b	-5.083e-42
172	0x80000e00	-5.022e-42
173	0x80000dd2	-4.958e-42
174	0x80000dcd	-4.951e-42
175	0x80000dcf	-4.954e-42
176	0x80000dcb	-4.948e-42
177	0x80000dea	-4.991e-42
178	0x00000dd6	4.963e-42
179	0x80000e1d	-5.063e-42
180	0x00000e41	5.113e-42
181	0x00000df0	5e-42
182	0x35676fbd	8.6216806e-07
183	0x340dec0c	1.3217522e-07
184	0x33dcaa11	1.0275483e-07
185	0x33763ded	5.733266e-08
186	0xb6654834	-3.4165687e-06
187	0xb684b9fb	-3.9555575e-06
188	0x33037eb5	3.0616054e-08
189	0x34dd2b91	4.1196157e-07
190	0x30de2e82	1.6165844e-09
191	0x3123705c	2.378349e-09
192	0x3400740d	1.1963148e-07
193	0x351ea28b	5.909612e-07
194	0xaf84e11c	-2.417061e-10
195	0xb0948615	-1.0806526e-09
196	0xb1b8b231	-5.375363e-09
197	0x32c3466e	2.2733015e-08
198	0xb266406e	-1.3402412e-08
199	0x34400395	1.7882697e-07
200	0xb2807440	-1.4954026e-08
201	0x338337d4	6.110318e-08
202	0x31d1115d	6.0846745e-09
203	0x3275a70c	1.4298859e-08
204	0xb7ed5665	-2.8292832e-05
205	0x328ef84c	1.6643888e-08
206	0xb340b0e3	-4.486436e-08
207	0xae847418	-6.0232874e-11
208	0x00000dde	4.975e-42
209	0x80000dec	-4.994e-42
210	0x80000e21	-5.068e-42
211	0x80000ed5	-5.321e-42
212	0x00000db7	4.92e-42
213	0x80000e28	-5.078e-42
214	0x80000dbd	-4.928e-42
215	0x00000e34	5.095e-42
216	0x80000e3c	-5.106e-42
217	0x80000db6	-4.919e-42
218	0x80000dca	-4.947e-42
219	0x80000e6f	-5.178e-42
220	0x00000ddc	4.972e-42
221	0x00000dad	4.906e-42
222	0x00000daf	4.909e-42
223	0x80000dc0	-4.933e-42
224	0x80000de3	-4.982e-42
225	0x00000dd5	4.962e-42
226	0x00000def	4.998e-42
227	0x00000dc3	4.937e-42
228	0x80000dbf	-4.931e-42
229	0x80000dec	-4.994e-42
230	0x00000daf	4.909e-42
231	0x80000db1	-4.912e-42
232	0x00000dbc	4.927e-42
233	0x80000e91	-5.225e-42
234	0x37a0a7c2	1.9151605e-05
235	0x38b4e290	8.6252694e-05
236	0x30ba426a	1.3552157e-09
237	0xb6ce894f	-6.1552632e-06
238	0x32fa1dd9	2.9117404e-08
239	0x3688cd34	4.0770046e-06
240	0xb777c53b	-1.4768269e-05
241	0xb04d1ddd	-7.4621004e-10
242	0x3040f6a5	7.0199696e-10
243	0xb81ceb69	-3.741254e-05
244	0x34e3b5ba	4.2414268e-07
245	0xb73cff81	-1.1265162e-05
246	0x3878aee3	5.9290684e-05
247	0x00000dc1	4.934e-42
248	0x00000dd3	4.959e-42
249	0x00000db8	4.921e-42
250	0x00000db9	4.923e-42
251	0x00000dbf	4.931e-42
252	0x000010ad	5.982e-42
253	0x80000dd1	-4.956e-42
254	0x80000dd0	-4.955e-42
255	0x80000ddc	-4.972e-42

deep.0.bias f4 [512]
0	0x80000dd1	-4.956e-42
1	0x00000dc4	4.938e-42
2	0x80001056	-5.86e-42
3	0x00000e7a	5.193e-42
4	0x00000dd8	4.966e-42
5	0x80000e52	-5.137e-42
6	0xb4d71009	-4.0058538e-07
7	0x3394fb4f	6.9375e-08
8	0xb61c29de	-2.3270181e-06
9	0x80000de7	-4.987e-42
10	0xb56cdfee	-8.824271e-07
11	0xb052e4df	-7.67228e-10
12	0x80000df4	-5.005e-42
13	0x00000fea	5.709e-42
14	0x35b04656	1.3133492e-06
15	0x35f14705	1.7976569e-06
16	0x000010b3	5.99e-42
17	0x00000e62	5.16e-42
18	0x330414cd	3.0752563e-08
19	0x00000de9	4.99e-42
20	0x80000dcb	-4.948e-42
21	0x00001125	6.15e-42
22	0xb71693e8	-8.975134e-06
23	0x80000db1	-4.912e-42
24	0x80000e4c	-5.129e-42
25	0x00000ed9	5.326e-42
26	0x80000df0	-5e-42
27	0xb5792a80	-9.2821574e-07
28	0x35cad04b	1.5110794e-06
29	0x00000dcb	4.948e-42
30	0xb6f2c856	-7.235484e-06
31	0xb51d098e	-5.850096e-07
32	0x2e412d78	4.3923504e-11
33	0x00000dc5	4.94e-42
34	0x00000db4	4.916e-42
35	0x800010cd	-6.027e-42
36	0x80000def	-4.998e-42
37	0x80000dad	-4.906e-42
38	0x37b5f445	2.1690628e-05
39	0x80000dba	-4.924e-42
40	0xb7a97204	-2.0199463e-05
41	0xb71d9d6a	-9.39458e-06
42	0x80000dc5	-4.94e-42
43	0xb61b0386	-2.309885e-06
44	0xaf1c11bd	-1.4194419e-10
45	0x33449b09	4.577581e-08
46	0x00000e59	5.147e-42
47	0x00000e3e	5.109e-42
48	0x30593c23	7.90296e-10
49	0xb8175ed8	-3.6089536e-05
50	0x3305fce1	3.1196468e-08
51	0x80001075	-5.904e-42
52	0x80000dbf	-4.931e-42
53	0x3776f160	1.4718942e-05
54	0x33436d44	4.5501352e-08
55	0x80000e43	-5.116e-42
56	0x80000e19	-5.057e-42
57	0xb2e17bb4	-2.6249701e-08
58	0x80000e8a	-5.216e-42
59	0x00001133	6.17e-42
60	0xb7a050d7	-1.911113e-05
61	0x80000eda	-5.328e-42
62	0xb6b1a5a3	-5.2942937e-06
63	0x00000df1	5.001e-42
64	0x80000e3e	-5.109e-42
65	0x00000dd8	4.966e-42
66	0x80000de8	-4.989e-42
67	0x80000e99	-5.237e-42
68	0x80001167	-6.243e-42
69	0x80000ea1	-5.248e-42
70	0x80000dfb	-5.015e-42
71	0xb6e374ac	-6.7787096e-06
72	0x389f56a1	7.597847e-05
73	0xb4c7a10d	-3.7183818e-07
74	0x80000f44	-5.476e-42
75	0x0000111d	6.139e-42
76	0x80000db0	-4.91e-42
77	0x80000db3	-4.914e-42
78	0x00000dcc	4.95e-42
79	0x80000de5	-4.984e-42
80	0x80000e0d	-5.04e-42
81	0x3687e7dd	4.050306e-06
82	0x372014cd	9.541586e-06
83	0x360bac4d	2.0812906e-06
84	0x00000dbb	4.926e-42
85	0xb51c6a84	-5.826953e-07
86	0xb702a0df	-7.7860595e-06
87	0x00000dd7	4.965e-42
88	0x00000e27	5.077e-42
89	0xac875b13	-3.847042e-12
90	0x37e3d573	2.7159904e-05
91	0x80000e0c	-5.039e-42
92	0x80001062	-5.877e-42
93	0x00000f4f	5.492e-42
94	0x80000dc8	-4.944e-42
95	0x00000d5d	4.794e-42
96	0x36c7bbd9	5.9525305e-06
97	0x80000e5c	-5.151e-42
98	0x00000df3	5.004e-42
99	0x00000dc7	4.942e-42
100	0x80000fd0	-5.672e-42
101	0xb52a3a31	-6.3414615e-07
102	0x00000f34	5.454e-42
103	0x00000e88	5.213e-42
104	0x00000ea9	5.259e-42
105	0x80000e17	-5.054e-42
106	0x35057b21	4.9725537e-07
107	0x3044f5fa	7.165394e-10
108	0x365ef05f	3.3220492e-06
109	0x00000e24	5.073e-42
110	0x339c502b	7.2788986e-08
111	0x3730eac5	1.0545079e-05
112	0x377bdac9	1.5011706e-05
113	0x36a4f689	4.9162813e-06
114	0x3535e9d7	6.7768036e-07
115	0x2f3882cf	1.6781175e-10
116	0x00001012	5.765e-42
117	0x80000df3	-5.004e-42
118	0xb2d712eb	-2.5037897e-08
119	0xb715065b	-8.882572e-06
120	0x37e94dbf	2.7811968e-05
121	0x351e3c3a	5.894723e-07
122	0x80000dd8	-4.966e-42
123	0x2e381f0c	4.186433e-11
124	0x80000db3	-4.914e-42
125	0x2efe9c6d	1.15783695e-10
126	0x80000e1d	-5.063e-42
127	0xaedaf5b3	-9.957137e-11
128	0x80000dae	-4.907e-42
129	0x80000df1	-5.001e-42
130	0x80000dad	-4.906e-42
131	0x80000e16	-5.053e-42
132	0x00000e95	5.231e-42
133	0x37152be6	8.891313e-06
134	0x80000db1	-4.912e-42
135	0x00000f72	5.541e-42
136	0x371e8dc8	9.450545e-06
137	0x800010df	-6.052e-42
138	0x80000dc1	-4.934e-42
139	0x8000100b	-5.755e-42
140	0x37e25565	2.6981064e-05
141	0x00000db3	4.914e-42
142	0x00000e07	5.032e-42
143	0x00000f2e	5.445e-42
144	0x80000de2	-4.98e-42
145	0x00000e52	5.137e-42
146	0x800010c7	-6.019e-42
147	0xb81a1b4d	-3.6741887e-05
148	0x31915254	4.229415e-09
149	0x310eb389	2.0765774e-09
150	0x00000f18	5.415e-42
151	0x350d0b67	5.2543186e-07
152	0xb381ef99	-6.050613e-08
153	0x80000e77	-5.189e-42
154	0xb7485086	-1.1939677e-05
155	0x80000dce	-4.952e-42
156	0xb795929a	-1.783045e-05
157	0x00000e52	5.137e-42
158	0x000010e4	6.059e-42
159	0x00000e3d	5.108e-42
160	0x80000dac	-4.905e-42
161	0x80000fd6	-5.681e-42
162	0x000008e7	3.194e-42
163	0xb80fe9ed	-3.4311717e-05
164	0x00000dbb	4.926e-42
165	0x00000dda	4.969e-42
166	0x80000f26	-5.434e-42
167	0x00000fad	5.623e-42
168	0x00000e74	5.185e-42
169	0x0000104e	5.849e-42
170	0x80000e9b	-5.24e-42
171	0xb45ca0cc	-2.0547594e-07
172	0x332b6d2a	3.9913324e-08
173	0x80000dba	-4.924e-42
174	0x80000e79	-5.192e-42
175	0x80000f34	-5.454e-42
176	0xb7799526	-1.4876283e-05
177	0xb88f1765	-6.823129e-05
178	0x36860556	3.9941324e-06
179	0xb1cc3b81	-5.9439462e-09
180	0xb23f3e7f	-1.1131873e-08
181	0x00000deb	4.993e-42
182	0x00000dad	4.906e-42
183	0x00000db6	4.919e-42
184	0xb6ed4884	-7.0715923e-06
185	0x36edba87	7.084865e-06
186	0x80000db4	-4.916e-42
187	0x80001113	-6.125e-42
188	0x80000dd5	-4.962e-42
189	0x35172d75	5.631803e-07
190	0x00000eb4	5.274e-42
191	0xb0fd7a68	-1.8442963e-09
192	0x00000dcb	4.948e-42
193	0x3400b516	1.1986808e-07
194	0x80000e4f	-5.133e-42
195	0x80000de4	-4.983e-42
196	0x00000f53	5.497e-42
197	0x00000df7	5.01e-42
198	0x80000e1c	-5.061e-42
199	0xb65f416d	-3.3267672e-06
200	0x80000eb9	-5.281e-42
201	0x00000de5	4.984e-42
202	0xb63abb06	-2.7825022e-06
203	0x80000dc2	-4.935e-42
204	0x36dcfafe	6.5857303e-06
205	0xb622d33e	-2.426284e-06
206	0x80000e0b	-5.038e-42
207	0xb6c9af36	-6.010664e-06
208	0xb3ed73f4	-1.1057264e-07
209	0x00000dd1	4.956e-42
210	0x80000dc6	-4.941e-42
211	0xb383d928	-6.1396634e-08
212	0x32edeafe	2.7697293e-08
213	0x00000ffb	5.733e-42
214	0x80000dde	-4.975e-42
215	0x80000df9	-5.012e-42
216	0x80000dda	-4.969e-42
217	0x80001142	-6.191e-42
218	0xb6905b81	-4.302187e-06
219	0x80000e41	-5.113e-42
220	0x3197970d	4.411851e-09
221	0xb5917b8a	-1.0839296e-06
222	0x36aee6e6	5.212484e-06
223	0xb1d73265	-6.2630527e-09
224	0x80000dc2	-4.935e-42
225	0x80000e40	-5.112e-42
226	0x80001003	-5.744e-42
227	0xb8e55183	-0.00010934754
228	0x376ed5e6	1.4235708e-05
229	0x80000dda	-4.969e-42
230	0x2f6cfc08	2.1553614e-10
231	0x80000dbd	-4.928e-42
232	0x35d7852c	1.6057506e-06
233	0x00000e30	5.09e-42
234	0x359dabaa	1.1747372e-06
235	0xb7aaebbe	-2.0375355e-05
236	0x80000dda	-4.969e-42
237	0x00001143	6.192e-42
238	0x00000db3	4.914e-42
239	0x80000dfb	-5.015e-42
240	0x00001130	6.166e-42
241	0x00000e81	5.203e-42
242	0x00000e04	5.028e-42
243	0x00000ff7	5.727e-42
244	0x00000dfe	5.02e-42
245	0x00000ddf	4.976e-42
246	0x80000db3	-4.914e-42
247	0x80000dbf	-4.931e-42
248	0x00000e9e	5.244e-42
249	0x30b7bf8d	1.3369444e-09
250	0x80000dd7	-4.965e-42
251	0x80000e56	-5.143e-42
252	0xb7a16e6c	-1.9244115e-05
253	0x00000dfa	5.014e-42
254	0xb78f8db8	-1.7112921e-05
255	0x00001009	5.752e-42

deep.2.weight f4 [64, 512]
0	0x00000f18	5.415e-42
1	0x80000dd4	-4.96e-42
2	0x00000dc5	4.94e-42
3	0x00000f89	5.573e-42
4	0x00000ff3	5.722e-42
5	0x80000dad	-4.906e-42
6	0x365e4b85	3.3124536e-06
7	0xb5d54334	-1.5889295e-06
8	0x3685ead1	3.991045e-06
9	0x00000f89	5.573e-42
10	0xb69ef2ae	-4.7370186e-06
11	0x38541c40	5.057105e-05
12	0x322f34f3	1.019838e-08
13	0x80000e66	-5.165e-42
14	0x345fdc94	2.0848739e-07
15	0xb44bdbaa	-1.8985762e-07
16	0x80001042	-5.832e-42
17	0x80001094	-5.947e-42
18	0xaf157733	-1.3593819e-10
19	0x00001099	5.954e-42
20	0x800006b7	-2.409e-42
21	0x80000db6	-4.919e-42
22	0x36274c0e	2.4929209e-06
23	0x80000e4e	-5.132e-42
24	0x800010c3	-6.013e-42
25	0x80000ec9	-5.304e-42
26	0x80000e82	-5.204e-42
27	0xb73809a8	-1.0969503e-05
28	0xb5fc067b	-1.8777349e-06
29	0x80001021	-5.786e-42
30	0x3777ba09	1.4765662e-05
31	0xb7c95bf9	-2.4003895e-05
32	0x37e28447	2.7002896e-05
33	0x00000e0e	5.042e-42
34	0x00000edf	5.335e-42
35	0x80000ea8	-5.258e-42
36	0x000010a9	5.977e-42
37	0x80000df4	-5.005e-42
38	0x3341586d	4.5016737e-08
39	0x80000db8	-4.921e-42
40	0x314be350	2.96696e-09
41	0xb74ea67a	-1.2317318e-05
42	0x80000df0	-5e-42
43	0xb5e69c77	-1.7181873e-06
44	0xb7b33be9	-2.136636e-05
45	0xb3050ecb	-3.097993e-08
46	0x800010e8	-6.065e-42
47	0x800010ce	-6.028e-42
48	0xb082c18f	-9.513758e-10
49	0x34816be5	2.4106626e-07
50	0x349fd0f1	2.9768083e-07
51	0x80000dee	-4.997e-42
52	0x80000e0a	-5.036e-42
53	0xb218d70a	-8.896459e-09
54	0xb64a9874	-3.0189085e-06
55	0x80000f13	-5.408e-42
56	0x80000e37	-5.1e-42
57	0xb0dd72c1	-1.6112481e-09
58	0x80000dad	-4.906e-42
59	0x80000db0	-4.91e-42
60	0x2f94e740	2.7085356e-10
61	0x00000f73	5.542e-42
62	0x36357c32	2.7043393e-06
63	0x00000ed4	5.32e-42
64	0x80000e3b	-5.105e-42
65	0x80000e6c	-5.174e-42
66	0x80001047	-5.839e-42
67	0x80000e2b	-5.083e-42
68	0x80000f8d	-5.579e-42
69	0x80000e1b	-5.06e-42
70	0x00001076	5.905e-42
71	0xb6e04c59	-6.6846083e-06
72	0x359e7af9	1.1807707e-06
73	0x2fa06bb0	2.9180347e-10
74	0x00000ebb	5.284e-42
75	0x00000ddf	4.976e-42
76	0xae1523e6	-3.3910562e-11
77	0xb51ee5d9	-5.919406e-07
78	0x00000f54	5.499e-42
79	0x80000fa5	-5.612e-42
80	0x373746f8	1.0924174e-05
81	0x3635bbaa	2.7080337e-06
82	0xb8472d4d	-4.7487487e-05
83	0x37e4c145	2.7269716e-05
84	0x00000f5f	5.514e-42
85	0xb13981c2	-2.6994802e-09
86	0xb3bf2bc2	-8.90209e-08
87	0x00000e72	5.182e-42
88	0x00000ebe	5.289e-42
89	0xae2d091e	-3.9343744e-11
90	0x34303028	1.6408796e-07
91	0x00000e15	5.052e-42
92	0x00000dac	4.905e-42
93	0x00001059	5.864e-42
94	0x80000db7	-4.92e-42
95	0x80000ef4	-5.364e-42
96	0xb7109292	-8.617195e-06
97	0x80000ebb	-5.284e-42
98	0x00000dac	4.905e-42
99	0x80000f06	-5.39e-42
100	0x00000f61	5.517e-42
101	0xb2379e01	-1.0687928e-08
102	0x00000f07	5.391e-42
103	0x80000f24	-5.431e-42
104	0x80000ec3	-5.296e-42
105	0x8000114b	-6.204e-42
106	0x30d2e659	1.534498e-09
107	0x354a92b4	7.5464345e-07
108	0x302f71fd	6.3826616e-10
109	0x80000ee2	-5.339e-42
110	0x33143be4	3.4513405e-08
111	0x2d823cf2	1.4806354e-11
112	0xb8fb6f7f	-0.000119893804
113	0xb0f7efc6	-1.8039763e-09
114	0x36dcc32e	6.579233e-06
115	0x3610bb3a	2.1566652e-06
116	0x80000db5	-4.917e-42
117	0x80000dac	-4.905e-42
118	0xb40df4b2	-1.3220668e-07
119	0x35a1d1de	1.2056514e-06
120	0xb1b64f46	-5.3059095e-09
121	0x3288df9d	1.5934171e-08
122	0xa9b39e8d	-7.976701e-14
123	0x37c5c8ea	2.3577788e-05
124	0x00001027	5.794e-42
125	0xb4534062	-1.9674329e-07
126	0x80000f60	-5.516e-42
127	0x2d91281b	1.6502402e-11
128	0x800010c4	-6.014e-42
129	0x00001161	6.234e-42
130	0x80000f87	-5.57e-42
131	0x00000f6f	5.537e-42
132	0x80000efb	-5.374e-42
133	0x38118990	3.469881e-05
134	0x80000e01	-5.024e-42
135	0x80000df6	-5.008e-42
136	0xb732cb12	-1.0656908e-05
137	0x00001156	6.219e-42
138	0x00001036	5.815e-42
139	0x8000102a	-5.799e-42
140	0xb014e4a2	-5.4166993e-10
141	0x80000f92	-5.586e-42
142	0x80000f84	-5.566e-42
143	0x80000dbd	-4.928e-42
144	0x00000dd2	4.958e-42
145	0x80000e72	-5.182e-42
146	0x80000e9b	-5.24e-42
147	0x36cf1b31	6.1722462e-06
148	0xb5bef62d	-1.422775e-06
149	0x358d7dbe	1.0541914e-06
150	0x80000ece	-5.311e-42
151	0xae34918d	-4.1056537e-11
152	0xadc97648	-2.2903582e-11
153	0x800010be	-6.006e-42
154	0x30124e7b	5.322602e-10
155	0x00000f5e	5.513e-42
156	0x3700cf58	7.6776705e-06
157	0x2a560687	1.9009283e-13
158	0x80000e8a	-5.216e-42
159	0x000010a0	5.964e-42
160	0x8000105c	-5.869e-42
161	0x00000e5f	5.155e-42
162	0x00000db3	4.914e-42
163	0x2fd15415	3.8076622e-10
164	0x00000f51	5.494e-42
165	0x800010bd	-6.005e-42
166	0x0000112a	6.157e-42
167	0x00000ea3	5.25e-42
168	0x80001139	-6.178e-42
169	0x00001027	5.794e-42
170	0x2908b753	3.0357075e-14
171	0x3801e3eb	3.0968262e-05
172	0x3740a108	1.1481585e-05
173	0x00000db8	4.921e-42
174	0x8000115d	-6.229e-42
175	0x00000eb0	5.269e-42
176	0xb0d6cb35	-1.5628304e-09
177	0x3539cf71	6.921974e-07
178	0xaf5267e9	-1.9136305e-10
179	0xb894dc3b	-7.098211e-05
180	0xb448e87e	-1.8711032e-07
181	0x80000eaf	-5.267e-42
182	0x0000106c	5.891e-42
183	0x80000db7	-4.92e-42
184	0xb6ae696f	-5.197878e-06
185	0x361c1021	2.32552e-06
186	0x80000f17	-5.413e-42
187	0x00000f84	5.566e-42
188	0x80000ec3	-5.296e-42
189	0xb04b148e	-7.388018e-10
190	0x80000db8	-4.921e-42
191	0x2f931fc9	2.676173e-10
192	0x00000db0	4.91e-42
193	0x337441c4	5.687049e-08
194	0x80000ef4	-5.364e-42
195	0x80000e71	-5.18e-42
196	0x00000fd0	5.672e-42
197	0x80000db8	-4.921e-42
198	0x80000f5d	-5.511e-42
199	0xb7922119	-1.7419969e-05
200	0x00001068	5.885e-42
201	0x80001174	-6.261e-42
202	0x386f2a87	5.7021647e-05
203	0x80000db9	-4.923e-42
204	0x3503a67a	4.904356e-07
205	0x3500ef48	4.8031916e-07
206	0x00000db0	4.91e-42
207	0x3284f760	1.5479316e-08
208	0x351c47ae	5.8218836e-07
209	0x80001051	-5.853e-42
210	0x0000111f	6.142e-42
211	0xb41c1705	-1.4537007e-07
212	0xb8152039	-3.5554378e-05
213	0x000010b2	5.989e-42
214	0x80000f96	-5.591e-42
215	0x80000db2	-4.913e-42
216	0x80000db7	-4.92e-42
217	0x80000f71	-5.54e-42
218	0x2e6ef3a6	5.4331338e-11
219	0x00000e4c	5.129e-42
220	0xb12051d5	-2.332958e-09
221	0x2d3ca674	1.0723523e-11
222	0xb744db3f	-1.1733558e-05
223	0x35e032fc	1.6704139e-06
224	0x80000c7d	-4.48e-42
225	0x00000ebf	5.29e-42
226	0x80000e82	-5.204e-42
227	0x38e07603	0.00010703134
228	0x3661f2ca	3.3668935e-06
229	0x00000fc9	5.663e-42
230	0x2f781318	2.2562252e-10
231	0x80000e32	-5.092e-42
232	0x36cac7d8	6.043334e-06
233	0x80000fc9	-5.663e-42
234	0x33824f3b	6.068009e-08
235	0x38215884	3.8467828e-05
236	0x80000f3d	-5.466e-42
237	0x00000fab	5.62e-42
238	0x80000fa8	-5.616e-42
239	0x80000db4	-4.916e-42
240	0x80000e9f	-5.245e-42
241	0x800010c2	-6.012e-42
242	0x00000f5e	5.513e-42
243	0x80000f19	-5.416e-42
244	0x8000105f	-5.873e-42
245	0x00000ebe	5.289e-42
246	0x0000103d	5.825e-42
247	0x0000108f	5.94e-42
248	0x80000e3d	-5.108e-42
249	0xb69a0cd2	-4.59105e-06
250	0xa74edf18	-2.8709182e-15
251	0x00000fb0	5.628e-42
252	0xb2d0440c	-2.4245331e-08
253	0x0000102c	5.801e-42
254	0xb7932779	-1.7542146e-05
255	0x80000f69	-5.528e-42

deep.2.bias f4 [64]
0	0x35d9ef5b	1.6237422e-06
1	0xb71a5cde	-9.200738e-06
2	0x36c817fb	5.963256e-06
3	0x345aed72	2.0389214e-07
4	0xb43109ac	-1.6487928e-07
5	0x3402563d	1.2138567e-07
6	0xb5bb9041	-1.3974569e-06
7	0x35f237f9	1.8046695e-06
8	0xb8a99ef7	-8.0881575e-05
9	0x381c43d8	3.7256483e-05
10	0x38c914d9	9.58831e-05
11	0x35cde332	1.5339813e-06
12	0x356847cc	8.6531213e-07
13	0x37a77f9e	1.9967378e-05
14	0xb35237e4	-4.8945267e-08
15	0x3822da3d	3.882706e-05
16	0x3275ce4e	1.4307785e-08
17	0xb3cf7a31	-9.661415e-08
18	0x37b8f876	2.2050208e-05
19	0xb6c2834e	-5.7969364e-06
20	0xb1e434b7	-6.6416663e-09
21	0xb645576d	-2.9406176e-06
22	0x37da0a8b	2.5992535e-05
23	0x3520d1b3	5.99098e-07
24	0xb54c3f11	-7.6087696e-07
25	0xb43546ce	-1.6882697e-07
26	0xb393f813	-6.8903454e-08
27	0xb6bf974b	-5.7098564e-06
28	0xb615d190	-2.2324712e-06
29	0x369f7d65	4.753167e-06
30	0x350e6790	5.3049826e-07
31	0x32cf940d	2.4165297e-08
32	0x3476aedd	2.297415e-07
33	0xb43526bb	-1.6871029e-07
34	0x379b8c89	1.8542882e-05
35	0x35181d9a	5.666749e-07
36	0xb3f13ad4	-1.1233138e-07
37	0x3228f3c8	9.8343165e-09
38	0xb6043a31	-1.9703405e-06
39	0xb4dc371b	-4.1018288e-07
40	0x35fa3de8	1.8644469e-06
41	0x3637b26e	2.7372985e-06
42	0xb64ea6c4	-3.0793462e-06
43	0x33614347	5.2448083e-08
44	0xb387aed2	-6.318227e-08
45	0xb33b586b	-4.3619746e-08
46	0x351b35f5	5.782052e-07
47	0xb70aebb7	-8.280323e-06
48	0xb75ef10b	-1.3288353e-05
49	0xb4318094	-1.6531186e-07
50	0x323338e4	1.0432107e-08
51	0xb5643d4f	-8.5025835e-07
52	0x34f37bd0	4.5352363e-07
53	0x34732e2f	2.264794e-07
54	0xb658a8ef	-3.228484e-06
55	0x355338b7	7.8686156e-07
56	0x3362ec7d	5.283481e-08
57	0x37b526d6	2.1594966e-05
58	0x373d4711	1.1281824e-05
59	0x353af84d	6.9651725e-07
60	0x356ded98	8.8635124e-07
61	0xb676e3e4	-3.6789506e-06
62	0xb5b2e33a	-1.3328165e-06
63	0x3832ff3f	4.2676224e-05

deep.4.weight f4 [32, 64]
0	0x3725501e	9.85342e-06
1	0x355f15ae	8.310552e-07
2	0x3312de4e	3.419546e-08
3	0x317b6273	3.658127e-09
4	0xb386bd64	-6.274311e-08
5	0xb17f7d3f	-3.7178578e-09
6	0x321f6402	9.277757e-09
7	0x33bd4d42	8.8150514e-08
8	0x34c4379e	3.6548312e-07
9	0x33cb41ce	9.464894e-08
10	0x3486243c	2.498581e-07
11	0xb45b36a1	-2.0415838e-07
12	0x35a4ef15	1.2288534e-06
13	0x32b70a01	2.1308553e-08
14	0x2eced125	9.404947e-11
15	0xb2115647	-8.459728e-09
16	0x3528916c	6.2796494e-07
17	0x37b6f300	2.1809246e-05
18	0x318c8e16	4.0906896e-09
19	0xb4a6efe2	-3.1094447e-07
20	0xb30f10f9	-3.331022e-08
21	0x33b713b2	8.525184e-08
22	0xaeb487ab	-8.209552e-11
23	0xb50babed	-5.203172e-07
24	0x358147b9	9.632123e-07
25	0xb25316be	-1.2286987e-08
26	0x38936680	7.028598e-05
27	0x3252a478	1.2261005e-08
28	0x33629b9c	5.276125e-08
29	0x35846e1f	9.866816e-07
30	0xb1d7ec84	-6.2842123e-09
31	0x3533ae44	6.6936286e-07
32	0x35db2e26	1.6330202e-06
33	0x320120e7	7.516269e-09
34	0xb33682a1	-4.2493983e-08
35	0xb5ab4035	-1.275918e-06
36	0x3836ddbc	4.3598688e-05
37	0x2fb977cb	3.3736422e-10
38	0xb88cb8d5	-6.710148e-05
39	0xb14ea5cd	-3.0071192e-09
40	0xb3e75f56	-1.0774117e-07
41	0xb2813d6a	-1.5045504e-08
42	0x36801f38	3.8183316e-06
43	0xb1d55e98	-6.20987e-09
44	0xb588fbe4	-1.02061e-06
45	0x33b67ed6	8.498107e-08
46	0x31920009	4.2491632e-09
47	0xb87b8805	-5.996974e-05
48	0x340ac94d	1.2925484e-07
49	0xb19a7841	-4.495661e-09
50	0x381214e5	3.4828572e-05
51	0xb4f47e23	-4.5540318e-07
52	0x3013865e	5.3669236e-10
53	0xb134cafc	-2.630883e-09
54	0xb75a0622	-1.29952405e-05
55	0xb39c52df	-7.27939e-08
56	0xb48b8ccf	-2.599322e-07
57	0xb4ea616b	-4.3656777e-07
58	0x30992b50	1.1144525e-09
59	0x3059782c	7.9114915e-10
60	0xb5b0f611	-1.3184637e-06
61	0xb145c708	-2.878041e-09
62	0x368068d9	3.826903e-06
63	0xb4160367	-1.3971076e-07
64	0xb58a7e19	-1.03185e-06
65	0x31044744	1.9249038e-09
66	0x3718ea3c	9.114443e-06
67	0x3284192e	1.5378273e-08
68	0x320aa5cc	8.070355e-09
69	0x33f05401	1.1191151e-07
70	0xb0aa254d	-1.237973e-09
71	0xb5b50f5f	-1.3490024e-06
72	0x366e66ad	3.5524529e-06
73	0x35df2c3b	1.6627667e-06
74	0xb3c4c0e2	-9.1620464e-08
75	0x36caab6d	6.0400257e-06
76	0xb8895598	-6.548612e-05
77	0xb7fbd47d	-3.002048e-05
78	0xb1a5fe2d	-4.8310285e-09
79	0x2e509fbb	4.7435594e-11
80	0xb4f2a850	-4.5198476e-07
81	0xb2f7b80c	-2.883828e-08
82	0x33bd851b	8.82521e-08
83	0xb215e4ac	-8.724935e-09
84	0xb003e9ab	-4.7989585e-10
85	0x317eed63	3.7096803e-09
86	0x34025e5d	1.2141523e-07
87	0x321bab39	9.061119e-09
88	0xb74a9167	-1.2073992e-05
89	0xafa14c9f	-2.9340172e-10
90	0xb88d9c98	-6.752572e-05
91	0x38d3e973	0.00010104747
92	0xb581221e	-9.621178e-07
93	0x373a4fa3	1.1105006e-05
94	0x3830eac2	4.2180305e-05
95	0xb7cdf7db	-2.4553321e-05
96	0x349d0cf3	2.925295e-07
97	0xaea258c1	-7.382673e-11
98	0xb888c21d	-6.521142e-05
99	0x2ed0a266	9.487593e-11
100	0x35d2eb89	1.5714769e-06
101	0xb49210de	-2.7206892e-07
102	0x304ff732	7.5657447e-10
103	0xb39437e9	-6.901957e-08
104	0x30577e09	7.839565e-10
105	0xb09c6ca9	-1.1381377e-09
106	0x34bb1bcd	3.4851692e-07
107	0xb4fe4ec4	-4.7368496e-07
108	0x36382540	2.743982e-06
109	0xb471f686	-2.2534559e-07
110	0x3009443e	4.993729e-10
111	0x32aca860	2.0100003e-08
112	0xb391767b	-6.77364e-08
113	0x35e582ed	1.7099934e-06
114	0xb4aadff8	-3.1827926e-07
115	0x3735f1ca	1.0844737e-05
116	0xb88a57dd	-6.5967186e-05
117	0xb43e3fda	-1.7718358e-07
118	0x348957c1	2.5582088e-07
119	0x3257f08e	1.2569343e-08
120	0x33b8c537	8.604041e-08
121	0x3253d15b	1.2329418e-08
122	0xb0a0f7c7	-1.1711955e-09
123	0x31076144	1.9700375e-09
124	0xaff42608	-4.4410364e-10
125	0xb6d943df	-6.475005e-06
126	0xaf0421aa	-1.201729e-10
127	0x32fad8ec	2.9202475e-08
128	0x3430448b	1.6416213e-07
129	0xb471d5bf	-2.2522634e-07
130	0xb025257c	-6.007992e-10
131	0xb58192a0	-9.653922e-07
132	0x31980a7c	4.424974e-09
133	0x366c4c2c	3.5211078e-06
134	0xb6f38fd5	-7.2587086e-06
135	0x338ea3cf	6.642187e-08
136	0x344a73f6	1.8854902e-07
137	0xb84d4e85	-4.8948936e-05
138	0x36be5dfb	5.673382e-06
139	0x3220c95c	9.35901e-09
140	0x3637cd3d	2.738859e-06
141	0xaf99f10d	-2.8001815e-10
142	0xb5481b44	-7.454548e-07
143	0xb235e874	-1.058844e-08
144	0x34b4103c	3.3539425e-07
145	0x31de7c2a	6.475166e-09
146	0x34a3c082	3.0501184e-07
147	0x3440db8e	1.7961267e-07
148	0xb3ce8542	-9.616862e-08
149	0xb0a3e2a6	-1.1924228e-09
150	0x2e96c7f5	6.85673e-11
151	0x3412a82e	1.3658493e-07
152	0x33848611	6.1711155e-08
153	0x3246f9d7	1.1581924e-08
154	0xb67198a3	-3.6000645e-06
155	0x3211cbc9	8.486446e-09
156	0x33981ea7	7.083627e-08
157	0xb5bdfaa7	-1.4154547e-06
158	0x383c29f0	4.486175e-05
159	0xb8802ee4	-6.11225e-05
160	0x32de2863	2.5862567e-08
161	0xb14d69e8	-2.9891627e-09
162	0xb61b9edd	-2.318927e-06
163	0xb2d21302	-2.4455861e-08
164	0xb83e4e94	-4.537271e-05
165	0xb35d2b33	-5.149486e-08
166	0x377c61ed	1.5043171e-05
167	0x30adc98f	1.2644693e-09
168	0xb3b5c928	-8.4650594e-08
169	0x348a4f4d	2.5762202e-07
170	0x379095b7	1.7235854e-05
171	0xb2948653	-1.7290551e-08
172	0xb1a6823c	-4.846042e-09
173	0xb76200d5	-1.3470843e-05
174	0x35dcc6cd	1.6449136e-06
175	0x30affbe1	1.2804514e-09
176	0x30326cb2	6.491049e-10
177	0x332e46f7	4.0577074e-08
178	0x32317238	1.0328726e-08
179	0x364a879d	3.0179283e-06
180	0x35a271d9	1.2103075e-06
181	0x3796c330	1.7972285e-05
182	0xb1dd7496	-6.445201e-09
183	0x30e1bed9	1.6425147e-09
184	0x34a9bc4e	3.1615713e-07
185	0xb02fa05e	-6.3892525e-10
186	0x30c1bcdb	1.4096274e-09
187	0xb32245ea	-3.778215e-08
188	0xb1f66148	-7.170602e-09
189	0xb2e05c74	-2.6119075e-08
190	0x3166ba14	3.3575178e-09
191	0x31207078	2.3346995e-09
192	0x328f9896	1.6716779e-08
193	0xb363a593	-5.3003145e-08
194	0x3110e200	2.1083224e-09
195	0xb48dd0c0	-2.6415182e-07
196	0x3678d18d	3.7076854e-06
197	0x328c81a3	1.6357097e-08
198	0x33af02a0	8.14955e-08
199	0x3729e906	1.012744e-05
200	0x364ec15d	3.0808944e-06
201	0xb34da3f4	-4.7879396e-08
202	0xb58faa5a	-1.0703909e-06
203	0xb39e5ab6	-7.3739486e-08
204	0x331294a8	3.4128476e-08
205	0xb2f0ab7f	-2.8017665e-08
206	0xb1397313	-2.6986455e-09
207	0xb3ae9c86	-8.130978e-08
208	0xb4512630	-1.9478534e-07
209	0x376ffa06	1.4303723e-05
210	0xb1f76a1e	-7.2007103e-09
211	0xb232ff1f	-1.04189715e-08
212	0x370ec2e1	8.509233e-06
213	0xb4a3357d	-3.0400034e-07
214	0xb5c11241	-1.4384933e-06
215	0xb79967b6	-1.8287315e-05
216	0xb5de573f	-1.6565681e-06
217	0xb533656a	-6.6830273e-07
218	0x29f9a0a7	1.108569e-13
219	0x32521307	1.2227935e-08
220	0xb47019a9	-2.2361077e-07
221	0xb79ed708	-1.89352e-05
222	0xb887e0fe	-6.47921e-05
223	0xb6e5db3f	-6.8502554e-06
224	0xb1d088eb	-6.0691625e-09
225	0x34261b31	1.5469847e-07
226	0xb5379987	-6.8396224e-07
227	0xb705990a	-7.96305e-06
228	0x3606832d	2.004391e-06
229	0x37dbc621	2.6199095e-05
230	0xb736cbd7	-1.08955055e-05
231	0xb4dadc29	-4.0765852e-07
232	0xb26c3c69	-1.3750744e-08
233	0xb3914ea6	-6.766395e-08
234	0x300e11c4	5.1684546e-10
235	0x335aa6ab	5.0908664e-08
236	0xb5ac9783	-1.2859094e-06
237	0x308cee5b	1.0254085e-09
238	0xb5e3cdf7	-1.6972762e-06
239	0x2f8b1e92	2.5305674e-10
240	0xb7d20bad	-2.5039388e-05
241	0x34a7b9cf	3.1241368e-07
242	0xb64286ea	-2.8986783e-06
243	0xb51acfa1	-5.767161e-07
244	0x321ff1e9	9.310022e-09
245	0x36f70bdf	7.3625556e-06
246	0x3558318c	8.053837e-07
247	0x33cb5675	9.4686506e-08
248	0xb86de36f	-5.6717017e-05
249	0xb0149ac2	-5.406201e-10
250	0xb4532657	-1.9664854e-07
251	0xb4d0f14a	-3.891858e-07
252	0x34eb9d62	4.3886672e-07
253	0xb64b95a8	-3.0336469e-06
254	0x31d05a04	6.0638303e-09
255	0x32961b52	1.7474722e-08

deep.4.bias f4 [32]
0	0x2f3467c7	1.6407774e-10
1	0xaf953ee0	-2.7147617e-10
2	0x2f687878	2.1143076e-10
3	0xb26448e9	-1.32879245e-08
4	0x80000e22	-5.07e-42
5	0xb6ca659e	-6.031899e-06
6	0x3009b973	5.010385e-10
7	0xafac3170	-3.1321745e-10
8	0x3956c016	0.00020480188
9	0xb0e25f36	-1.6470725e-09
10	0x80000ec8	-5.303e-42
11	0xaf79ffb4	-2.2737262e-10
12	0x300e3734	5.173775e-10
13	0xb2bb731f	-2.1822016e-08
14	0xae17b8f8	-3.449771e-11
15	0xafb7182e	-3.3304687e-10
16	0xb6c32be0	-5.8165606e-06
17	0x3081363b	9.401399e-10
18	0xb1a54300	-4.809749e-09
19	0x80000e67	-5.167e-42
20	0x2f784d90	2.2583024e-10
21	0x37871878	1.6104648e-05
22	0x35fbbbb0	1.8755582e-06
23	0xb100e48d	-1.8756368e-09
24	0xb1ddb251	-6.4522188e-09
25	0x2fdb1b69	3.9855344e-10
26	0xb0bc3540	-1.3693935e-09
27	0x2fc9def8	3.6720116e-10
28	0x3108d7cf	1.9913278e-09
29	0x318a7d13	4.030548e-09
30	0x302ebb4d	6.3567e-10
31	0xb10f8d11	-2.0889426e-09

output.weight f4 [1, 34]
0	0x3291f667	1.6992272e-08
1	0x3edc70a7	0.43054697
2	0x30030bf1	4.767449e-10
3	0xb145a055	-2.8758411e-09
4	0x2f7f74ca	2.3233607e-10
5	0xb25c4a48	-1.2822575e-08
6	0x00000dae	4.907e-42
7	0x36ca7803	6.0340403e-06
8	0x302034fb	5.828295e-10
9	0x30661068	8.369683e-10
10	0xb956c0d4	-0.00020480464
11	0x31018b27	1.885107e-09
12	0x00000de1	4.979e-42
13	0x2f4260d0	1.7678592e-10
14	0xb04c3ccf	-7.430118e-10
15	0x32c1671b	2.2515044e-08
16	0x2fa8f345	3.0731875e-10
17	0x30ca8712	1.4735824e-09
18	0x36c3734e	5.824876e-06
19	0xae813a1a	-5.876562e-11
20	0xb14ddf78	-2.9958453e-09
21	0x80000dff	-5.021e-42
22	0xb113deec	-2.1518032e-09
23	0x37868f91	1.6040898e-05
24	0x35faf5b1	1.8697957e-06
25	0x310bbbdb	2.0333946e-09
26	0x31cd56c9	5.9761516e-09
27	0xb04ba2c5	-7.408228e-10
28	0x2fab9d5d	3.1216532e-10
29	0x2f8db8a5	2.5778948e-10
30	0xaf570530	-1.9555979e-10
31	0x31a3fa45	4.7723767e-09
32	0xaf7647a6	-2.2399024e-10
33	0xb032460f	-6.485558e-10
