Results/FFM/20250107_041127_batch1024_epoch10_lr0.1_k10_reg0.0001_FFM/control_ffm.pth (torch, 8560 bytes, 2 tensors)

v f4 [13, 13, 10]
0	0xbe196f32	-0.14983824
1	0xbf47dc98	-0.78070974
2	0xbf49c43b	-0.7881505
3	0x3c276245	0.0102163
4	0x3da85c93	0.08220782
5	0xbe86231c	-0.2619866
6	0x3f1a8c38	0.60370207
7	0xbeb4e8e6	-0.35333937
8	0xbf190492	-0.597726
9	0x3ee8fb51	0.4550424
10	0x3b20e0c8	0.0024548043
11	0x3b43c660	0.002987288
12	0x3c91ecfa	0.017813195
13	0xbb9300f9	-0.0044862
14	0xbb81910b	-0.003954058
15	0x3b88bbaf	0.0041727643
16	0x3b4c5500	0.0031178594
17	0x3b8399f7	0.004016157
18	0x3ba37180	0.0049878955
19	0x3accab97	0.0015615103
20	0xbbea5704	-0.0071514864
21	0xbc6c0227	-0.01440481
22	0x3ae5f42f	0.0017544086
23	0xbb880a06	-0.0041515855
24	0x3c218b3c	0.009859856
25	0xbac46e2d	-0.0014986448
26	0x3b910595	0.0044257143
27	0xbca3e3dc	-0.020006113
28	0xbbe842b8	-0.0070880316
29	0xbc9d4741	-0.019199016
30	0xbc0c7d7c	-0.00857484
31	0x3b925aef	0.0044664065
32	0x3ba8aa4f	0.0051472555
33	0xbb801fff	-0.003910064
34	0xbbf4c477	-0.0074697095
35	0xbc4d5665	-0.012532805
36	0x3c08af4f	0.008342578
37	0x3997b876	0.00028938398
38	0xbb806666	-0.003918457
39	0x3b41d48a	0.0029576146
40	0xbc6eb99c	-0.01457062
41	0x39cd7c0f	0.00039193078
42	0x3a50eb88	0.0007969667
43	0xbc3c9c7c	-0.011511918
44	0xbc137266	-0.008999443
45	0x3c142776	0.009042611
46	0x3bf1663d	0.007366924
47	0xbb9b4153	-0.004738012
48	0x39514710	0.00019958266
49	0x3b1eda92	0.0024239165
50	0x39350c56	0.000172661
51	0x3c012bfe	0.007884024
52	0xbc00798c	-0.007841479
53	0x3c1f8d46	0.009738272
54	0x3c02ef04	0.007991556
55	0x3b75884a	0.0037465268
56	0xbc72d605	-0.014821534
57	0x3bc58e80	0.00602895
58	0xba6268dd	-0.00086368417
59	0xbc0660b3	-0.008201766
60	0xbc45e684	-0.012078885
61	0xbbda3954	-0.006659666
62	0x3c6fae90	0.014629021
63	0x3aa934a3	0.0012909364
64	0xbac25b0d	-0.0014828161
65	0xbc743472	-0.014905082
66	0x3c4648a9	0.0121022845
67	0x3b8e9800	0.004351616
68	0xbb5ffb9d	-0.0034177073
69	0x3c8976bc	0.01678025
70	0xb9892047	-0.00026154725
71	0xbc7198b4	-0.01474588
72	0xba4b4684	-0.0007754343
73	0xbb92efc7	-0.00448415
74	0xbb81231e	-0.003940954
75	0xbaae50b5	-0.0013299199
76	0xbc5dfe7c	-0.013549443
77	0xbc5511a2	-0.013004692
78	0xba7dd4b3	-0.0009682879
79	0xbc07bdbd	-0.008284983
80	0x3b0620ce	0.002046633
81	0xb9f36203	-0.00046421596
82	0x39d450a2	0.00040495867
83	0xbbf0396f	-0.0073310654
84	0xbc1eca71	-0.0096918205
85	0xbbe6a005	-0.007038119
86	0x3b357c5f	0.002769254
87	0xba9ce4f7	-0.0011970092
88	0xbb0f9bbf	-0.00219129
89	0xbc3a6695	-0.0113769965
90	0xbb9aaf07	-0.004720572
91	0x3c23212a	0.009956637
92	0x3bbec950	0.005822338
93	0x3befe870	0.00732141
94	0xbb87a0da	-0.004139048
95	0x3bb3f3ff	0.005491733
96	0x3c6c24a7	0.0144130355
97	0x3bced4bf	0.0063119824
98	0xb991cedd	-0.0002781068
99	0x3c136782	0.008996846
100	0x380b2c10	3.318122e-05
101	0xbbc15629	-0.0059001637
102	0x3c2e588f	0.010641231
103	0x3a48a637	0.00076541625
104	0xbbc2be7f	-0.005943119
105	0x3c77ada4	0.015117083
106	0xbb235b04	-0.0024926076
107	0x3b91d09d	0.0044499175
108	0x3c0da64c	0.008645605
109	0xbaa84f6f	-0.0012841056
110	0xbc072771	-0.00824915
111	0xbc150c04	-0.009097103
112	0x3b6e3c88	0.0036351997
113	0xbc14d85f	-0.00908479
114	0xbbab4df1	-0.005227797
115	0xbc0dc3ad	-0.00865261
116	0x3b560c0c	0.003266099
117	0x3b23ba06	0.0024982705
118	0x3bb0a41c	0.005390657
119	0x3ae275af	0.0017277504
120	0x3a0c7263	0.0005357621
121	0xbbbfbf1b	-0.005851639
122	0xbb1d676c	-0.0024017943
123	0x3bb78ea3	0.0056017204
124	0xbab4256e	-0.0013744065
125	0x3bf66eff	0.007520556
126	0x3c7c912b	0.01541547
127	0x3ae61400	0.0017553568
128	0x3c069099	0.008213186
129	0xbbb99a44	-0.005664142
130	0x3c610a05	0.013735299
131	0xbb131205	-0.002244116
132	0x3c3c4dab	0.011493127
133	0xba1dcf21	-0.00060199393
134	0x3c970fc0	0.018440127
135	0x3c9b4972	0.01895592
136	0x3b3736d6	0.0027956269
137	0x3bc1f368	0.005918909
138	0x3be80342	0.0070804665
139	0xbc18c832	-0.009325074
140	0xbee0449a	-0.4380234
141	0xbf17142c	-0.59015155
142	0xbf178166	-0.5918182
143	0x3e8b8a4e	0.27253956
144	0x3ebae20c	0.36500585
145	0x3ea2763f	0.3173084
146	0x3f5110ba	0.8166615
147	0xbf08fac2	-0.53507626
148	0xbd9110b7	-0.07083266
149	0x3e951b7c	0.2912253
150	0xbbb937c4	-0.0056523997
151	0xbc72888e	-0.014803065
152	0x3b2d924b	0.0026484902
153	0x3bc783a3	0.0060886904
154	0xbb001692	-0.0019544703
155	0x3bc6c9ed	0.006066552
156	0x3c48c094	0.012252945
157	0x3ada34d4	0.0016647824
158	0x3c12085a	0.008913124
159	0x3bde58c1	0.0067854826
160	0xbb4a488f	-0.0030866002
161	0xbc2d8895	-0.010591646
162	0xba4e0f80	-0.0007860586
163	0x3bb5b61e	0.0055453917
164	0x3ab61c14	0.0013893866
165	0x3c3b1e5d	0.011420813
166	0xbc1b7f91	-0.009490863
167	0xbba472ca	-0.0050185667
168	0x3b84eb29	0.0040563536
169	0x3becaa04	0.007222416
170	0x3b4d2999	0.0031305312
171	0x3c13b622	0.009015592
172	0x3c7549ef	0.01497124
173	0xb9d7484f	-0.0004106187
174	0x3bb4742b	0.0055070124
175	0xbc21bf08	-0.009872206
176	0xbbc55ab5	-0.006022776
177	0x3c016f4f	0.007900073
178	0xbb6c056d	-0.0036013976
179	0xbb8619ff	-0.0040924544
180	0x3b84c493	0.004051754
181	0xbac720a2	-0.001519222
182	0xbadb67b9	-0.0016739286
183	0xbba80854	-0.005127946
184	0xbc7a1ed3	-0.015266138
185	0xbba90d71	-0.005159073
186	0xbba36e34	-0.0049875025
187	0xbb3fffa7	-0.0029296668
188	0xbbcaaf79	-0.0061854688
189	0xbc4fff14	-0.012695093
190	0xbb451133	-0.0030070066
191	0x3bf75551	0.0075480123
192	0x3b7ac84f	0.0038266366
193	0x39b61332	0.00034728047
194	0xba1a42ba	-0.0005884577
195	0x3b0fd3f4	0.0021946402
196	0x3b84d084	0.0040531773
197	0xbc4f0ba4	-0.012637053
198	0xbc4ea59a	-0.012612725
199	0x3b1a0750	0.0023502894
200	0x3a229000	0.0006201267
201	0x3c0a9aa6	0.008459723
202	0x3c0e5da4	0.008689318
203	0xbc28b624	-0.010297332
204	0x3c07819e	0.008270649
205	0x3b7c19e6	0.0038467585
206	0x3c22514a	0.009907076
207	0x3bdc8fac	0.006730994
208	0xbc054bc3	-0.008135739
209	0xbb9e9a92	-0.0048402036
210	0x3ad6806a	0.0016365175
211	0x3b5601f8	0.0032654982
212	0xbbef1071	-0.007295661
213	0x3c323326	0.010876453
214	0x3c08d169	0.0083507085
215	0xba06d526	-0.0005143456
216	0xbc33f9ee	-0.010984881
217	0x3ba7f042	0.0051250765
218	0x3c1b5ca3	0.0094825355
219	0x3b679cff	0.003534138
220	0x3bbba5ad	0.005726537
221	0x3afa4ae7	0.0019095809
222	0xbba1ce06	-0.00493789
223	0x3bf07ba0	0.007338956
224	0x3bc0dfd7	0.005886059
225	0xbb72713f	-0.003699377
226	0xbc089e36	-0.008338502
227	0xbbfc0dfe	-0.0076920977
228	0x3c2f26ee	0.010690434
229	0x3b409ae8	0.0029389206
230	0x3aee915d	0.0018201281
231	0xbb1494a0	-0.0022671595
232	0x3b8006ae	0.0039070463
233	0x3c23f6ee	0.010007603
234	0xbc0c86e2	-0.00857708
235	0xbbac810a	-0.005264406
236	0xbc4a4fc2	-0.012348117
237	0xbba40510	-0.0050054863
238	0x3c4f8e8b	0.012668262
239	0x3c1f2f5b	0.00971588
240	0x3bc94a4f	0.0061428915
241	0xbad1a9c8	-0.0015996033
242	0xbba1e442	-0.0049405405
243	0xbb720cab	-0.003693382
244	0xbc331498	-0.010930203
245	0x3c861f9e	0.016372498
246	0xba9a7577	-0.0011784275
247	0xbb704ab7	-0.0036665627
248	0x3bc040ed	0.0058671148
249	0x3b909780	0.0044125915
250	0xbbd1de19	-0.00640465
251	0xb994ac8f	-0.00028357326
252	0xbbe62ecb	-0.007024621
253	0xbb440650	-0.002991099
254	0xbc2c1dec	-0.010505181
255	0xbb4089d5	-0.002937903

linear.weight f4 [1, 13]
0	0xbf06f86a	-0.527228
1	0xbed9c8dc	-0.42536056
2	0xbf09863e	-0.5372046
3	0xbe1c7cd9	-0.15282
4	0xbec1799f	-0.37788102
5	0xbe3d6c50	-0.18498349
6	0x3e24e2e4	0.16102177
7	0xbd8526dc	-0.065015525
8	0xbebf0c82	-0.3731423
9	0xbf30d34e	-0.69072425
10	0xbe5cd265	-0.21564634
11	0xbe58df67	-0.21178971
12	0xbe5af5ec	-0.21382874
