Results/DFM/20250107_154700_batch1024_epoch10_lr0.001_reg0.0005_DFM/control_deepfm.pth (torch, 174430 bytes, 9 tensors)

linear.weight f4 [1, 13]
000000 2b 02 0e 3e cc dc 59 3e a1 cd 62 3e cf bd ce 3d
       0.13868015 0.21275634 0.22148754 0.10094797
000010 a1 62 94 38 42 2e f9 3d a0 a1 8a 3d 56 1f 7b 3d
       7.075561e-05 0.12167026 0.06769109 0.06130918
000020 66 1d ed 3d de d3 8d 3d ad 00 76 3d 9c 54 5f 3c
       0.11577873 0.06925176 0.06005924 0.013631012
000030 a7 e5 52 b3
       -4.9103303e-08

embeddings.weight f4 [13, 32]
000000 0b 99 9a 3d b3 52 e5 bd 9f db 22 be 1c a7 dc 3d
       0.07548722 -0.11197414 -0.15904091 0.10774061
000010 2c 57 3d be e1 d7 0b be 77 78 58 3c bd 7c 42 bc
       -0.18490285 -0.1365657 0.013212315 -0.01187056
000020 b6 24 e1 ba cf 53 46 bc 9f d5 1f be a1 1c 24 be
       -0.0017177078 -0.012104942 -0.15608834 -0.16026546
000030 28 0d dc 3d 9a 10 45 3c 0e e9 c4 3c 5e db 01 be
       0.10744697 0.012027884 0.02403691 -0.12681338
000040 66 57 db 3d c4 cf 21 bc 95 e5 29 be d6 2b 23 3e
       0.10710029 -0.009876195 -0.16591485 0.15934691
000050 7d f2 26 3d a7 77 e1 3d 00 57 5e 3d df 10 9a bd
       0.0407586 0.1100915 0.05428219 -0.07522749
000060 49 06 ff bb 56 a6 2a 3e 45 49 05 3e c5 4a c2 3d
       -0.0077827317 0.16665015 0.13016231 0.094869174
000070 50 c4 76 be fa 37 34 3e 12 e7 18 3b ca 5c 4f 3d
       -0.24098325 0.17599478 0.0023331088 0.0506256
000080 ba 37 93 bc 8f f6 1d 3a 5b 61 4e 3e ac 74 be bd
       -0.017970908 0.0006025815 0.20154326 -0.09299597
000090 52 84 90 3c 39 f4 10 3e b4 2c 55 3c 3f f3 6e 3e
       0.01764122 0.14155664 0.013011146 0.23334979
0000a0 16 84 ec bb 4b 6c 46 bc 2b 20 27 3e 31 27 eb 3d
       -0.0072178943 -0.01211078 0.16320865 0.114820845
0000b0 cb bf 0c bd f7 de f5 3b d8 2e 2c bc 82 22 45 3e
       -0.034362596 0.007503386 -0.010509215 0.19251445
0000c0 c1 07 8c be 9c 80 81 3c 69 26 a9 3e 17 80 2c be
       -0.27349666 0.015808396 0.33037117 -0.16845737
0000d0 a7 a7 71 bb 5e 0c cc bd 2e 8b 9b 3d 8f 71 05 be
       -0.003687361 -0.09963296 0.07594906 -0.130316
0000e0 db a8 50 3b 92 ee de bd 16 a1 3c be 93 af b0 bd
       0.0031838927 -0.108853474 -0.18420824 -0.08627238
0000f0 88 8c 2d be fe a9 a5 3d e4 dd ac 3c 2a 57 1e bd
       -0.1694814 0.08089064 0.0211019 -0.038657345
000100 f5 0b c5 bd a1 fd c1 bd 5a 9d af 3d 1d da 58 bd
       -0.09621421 -0.09472204 0.08574934 -0.052942384
000110 a8 b4 bb 3c 00 54 36 3d 22 44 6c 3c 2c e2 26 bd
       0.022913292 0.044513702 0.014420541 -0.040743038
000120 f4 bc ed bc 29 bd 23 bd d5 11 b4 bc 81 e7 86 3d
       -0.029020764 -0.03997532 -0.02198116 0.065871246
000130 4b f9 6a bd 32 ee 4f 3c aa 25 0f bd 72 9c 58 3d
       -0.05736665 0.0126910675 -0.03494803 0.052883573
000140 e6 db 78 3d 27 64 50 3c 41 0d ad bd 9e eb 29 be
       0.060756586 0.012719191 -0.084497936 -0.16593787
000150 21 a0 be bd 29 c9 04 bd 8e 15 42 be 81 73 22 3e
       -0.09307886 -0.032418404 -0.18953535 0.15864374
000160 4e 72 32 bc 32 19 a8 bc a3 e9 9c 3b 82 5e 00 bd
       -0.01089151 -0.020519827 0.004788594 -0.03134013
000170 3f 46 72 3e 42 69 14 be a1 e7 3e bb 92 f2 bb 3c
       0.2365961 -0.14493278 -0.002912976 0.022942815
000180 71 5d e2 ba d4 ae ca 3a fa d1 0a bd ef 09 80 3b
       -0.0017270279 0.001546348 -0.033891656 0.003907434
000190 1b 8b a3 bb e6 d4 50 bd 4f 88 7d 3c 61 f0 04 bc
       -0.004990948 -0.050984286 0.015474393 -0.008113951
0001a0 8a a5 18 bc de cb 8c bd fa c0 32 bc 18 d6 2c 3d
       -0.009316811 -0.06874822 -0.010910267 0.042196363
0001b0 d9 b8 06 3c 64 78 42 3c 17 a3 a5 bb 25 16 d3 bd
       0.008222782 0.011869524 -0.005054842 -0.10306958
0001c0 38 06 16 3d e7 2e 06 3c 93 fd d5 3a 3f c1 16 bd
       0.036627024 0.008189893 0.0016326181 -0.036805388
0001d0 2d be a7 3b d9 35 2b b8 69 25 eb 3c ba cc a3 3b
       0.0051191063 -4.0819727e-05 0.028704362 0.0049987705
0001e0 e7 bf 14 bc 85 01 13 3d b4 3e 87 3c f3 60 a9 bb
       -0.009078956 0.03589012 0.016509391 -0.005169028
0001f0 9f ca 1e 3d 90 08 58 bc 95 dd 42 3b b7 f2 90 3c
       0.038767453 -0.013185635 0.0029734124 0.01769386
000200 42 fb 11 ba 43 b8 25 3c 7e 4a f4 bd 07 39 95 3b
       -0.00055687514 0.010114732 -0.11928271 0.0045539173
000210 44 28 14 be ba 3f 43 bd f9 56 2a 3c 6a d9 b8 bd
       -0.14468485 -0.047668196 0.010396712 -0.090258434
000220 3f 47 18 bc 53 1c f8 bc fe ce c9 bb 08 9d 00 3e
       -0.00929433 -0.030286944 -0.0061587086 0.12559903
000230 14 84 ea 3b 01 55 14 3c d5 30 39 bb 03 ba d4 bd
       0.007156858 0.00905347 -0.0028257866 -0.103870414
000240 05 d8 d2 3c 3e d5 c3 3b 2f cd d6 bd 75 8e 74 3e
       0.025737772 0.005976348 -0.104883544 0.23882468
000250 a9 c4 90 3b 4f 0f 85 3a 56 33 63 bc e0 13 59 be
       0.004417975 0.0010151657 -0.01386722 -0.21198988
000260 85 6c 02 bc a3 52 be 3b 16 dd 50 3c 83 7a 40 bb
       -0.007960443 0.005808191 0.0127480235 -0.0029369898
000270 0a e9 4c be 0a e8 47 bc e9 5f 70 3b 4c f8 5d 3c
       -0.20010772 -0.0122013185 0.003667826 0.013547968
000280 3b 9f 7d bc 00 2d a4 3d 65 fc 73 3b 20 97 90 bc
       -0.015479858 0.080163956 0.0037229296 -0.017650187
000290 e9 be b8 3d 3c 22 1d 3c d5 2f 77 3c 93 6b 5a bd
       0.09020788 0.009590682 0.015087088 -0.053325247
0002a0 53 de 4c bc 67 73 ce 3a b5 13 0c 3d 90 6e 65 bd
       -0.012504178 0.0015750945 0.03419848 -0.056013644
0002b0 97 6d fe bc c2 0a 93 3c c4 38 16 bc dc 06 17 bd
       -0.031058116 0.017949466 -0.009168807 -0.036871776
0002c0 b0 18 54 3c e4 b3 4b 3c 5b 00 87 3d af 7b 66 3c
       0.012945339 0.012433026 0.06591865 0.014067574
0002d0 b8 74 81 ba 7c 50 bd bc b1 ac 46 3c fd 9e 0e bc
       -0.0009876704 -0.023109667 0.012126134 -0.008704898
0002e0 72 0d 05 bc 9c 88 f9 bc 48 11 5b bc 22 cb b1 bc
       -0.008120881 -0.030460648 -0.013370819 -0.021703307
0002f0 55 28 93 3c 08 c0 8c bd 28 67 b4 3b f0 39 a9 bc
       0.017963568 -0.068725646 0.0055054612 -0.02065751
000300 d9 c0 75 3c bf e1 3c 3d 69 c9 53 bd 3a 71 85 3c
       0.014999592 0.046113726 -0.05170575 0.016289342
000310 1a 1c a2 bc 6e c2 c4 3c 38 44 10 bc bd 8d 28 bd
       -0.01978879 0.024018493 -0.008805327 -0.041150797
000320 56 fd c4 3b c7 df 19 3e 06 16 a8 bb ad 7d 8c bd
       0.0060116453 0.1502677 -0.0051295785 -0.06859908
000330 76 ee 94 ba 8f 3a 8b bb fd 96 d8 3b ea 63 b2 3d
       -0.0011362571 -0.004248924 0.006609796 0.08710463
000340 45 70 56 bb 76 e2 c9 bb a0 3a d7 bd e3 12 29 3e
       -0.0032720726 -0.0061610295 -0.10509229 0.16511111
000350 1b 4d c4 3b 4f fb 88 3c 87 1b 75 bc 53 31 f9 3d
       0.005990637 0.016721396 -0.014960176 0.12167611
000360 ae 89 93 3b 1e 88 2a bd 1c 99 18 3c a9 b5 90 3c
       0.0045024967 -0.041633718 0.009313848 0.017664747
000370 1a d7 35 3e a5 b7 d3 39 78 49 48 ba 2d 7f 17 bd
       0.17757836 0.00040381882 -0.0007640342 -0.03698652
000380 a4 f6 df 39 3c ac a3 3b 64 54 88 3c 9a d9 6d 3b
       0.00042717636 0.004994897 0.016641803 0.003629303
000390 a0 ec 31 3e 03 b0 f3 bc 7e 58 66 3c 98 8c 3b bd
       0.17375422 -0.029747015 0.014059184 -0.045788378
0003a0 99 e5 ea bb 7d e6 b5 bd 3e 81 49 bc 43 c2 aa 3b
       -0.0071684835 -0.08881853 -0.01229888 0.005211146
0003b0 4f 92 24 3c 2d ad 75 3b 3a eb f2 ba 8f 76 09 3d
       0.010044648 0.0037487254 -0.0018533238 0.033560332
0003c0 9a 9c ba 3c 19 5d 92 3b 5a 97 8c bc 76 c0 b9 3d
       0.022779752 0.0044666645 -0.017162014 0.09069912
0003d0 46 37 b0 3b 93 48 d8 3a 26 9c 8a bc ff 22 55 3c
       0.005377683 0.0016501121 -0.01692016 0.013008832
0003e0 22 25 06 bc f1 a2 f3 3c d4 20 48 3c ed 15 a9 ba
       -0.008187564 0.029740782 0.012214858 -0.0012900211
0003f0 a7 26 02 be 27 db 7b 3c 2b 47 ad 3a f9 8a 18 3b
       -0.12710057 0.015372074 0.0013220062 0.0023276194

deep.0.weight f4 [512, 13]
000000 79 6a e0 a0 1a 53 98 a0 29 2b 95 a0 96 c6 83 1f
       -3.8017534e-19 -2.5804794e-19 -2.5270143e-19 5.580919e-20
000010 28 47 2a 9f c3 4e 02 9f 2a bd c9 9f 12 aa b4 9f
       -3.605776e-20 -2.759372e-20 -8.543976e-20 -7.651432e-20
000020 87 86 0b a0 29 62 f5 9f b7 9e 8f a0 40 0f 89 9e
       -1.1818269e-19 -1.0392393e-19 -2.433017e-19 -1.4511746e-20
000030 d6 1b 00 00 cc 1c 00 80 64 1d 00 80 7e 1c 00 80
       9.986e-42 -1.033e-41 -1.0543e-41 -1.0221e-41
000040 0c 1c 00 80 63 1d 00 80 37 1c 00 80 8e 1b 00 00
       -1.0061e-41 -1.0542e-41 -1.0122e-41 9.885e-42
000050 d9 1c 00 80 06 1c 00 80 8b 1b 00 80 d6 1b 00 80
       -1.0349e-41 -1.0053e-41 -9.88e-42 -9.986e-42
000060 a4 21 00 80 bd 1c 00 00 da 97 c7 23 db 1b b9 24
       -1.2068e-41 1.031e-41 2.1639935e-17 8.027815e-17
000070 7d 1c 7b 23 8c 7c db a3 95 35 76 23 54 4f 92 a3
       1.361277e-17 -2.3796775e-17 1.3347033e-17 -1.5862948e-17
000080 0d 9c 6b a3 77 d5 3b a4 e5 4b 45 a4 fd ff a1 a4
       -1.27724206e-17 -4.0729973e-17 -4.278185e-17 -7.025628e-17
000090 da 96 23 a3 ac d7 08 a3 d3 1b 00 00 79 8e 72 a9
       -8.868192e-18 -7.418245e-18 9.981e-42 -5.385837e-14
0000a0 2a 4d 4d a9 3e d6 63 a7 de b6 a8 27 9e cc 02 a9
       -4.5586073e-14 -3.161872e-15 4.682763e-15 -2.9043276e-14
0000b0 51 74 54 28 40 ba 7d 29 e6 e1 21 29 f2 0c 9a 28
       1.1793586e-14 5.633883e-14 3.5945117e-14 1.7103049e-14
0000c0 38 61 c9 26 d6 f5 da 28 b3 55 c1 a6 7b 1b 00 80
       1.3973528e-15 2.4309476e-14 -1.3415294e-15 -9.858e-42
0000d0 87 f2 39 a5 45 46 76 25 5c 47 ab 25 c4 82 88 a5
       -1.6128364e-16 2.1360907e-16 2.9712126e-16 -2.368085e-16
0000e0 18 d5 50 24 fd 3c 16 25 2c 32 34 a5 2d 7f 84 25
       4.5283308e-17 1.303109e-16 -1.562951e-16 2.2984528e-16
0000f0 bf 02 a3 24 77 26 b3 a5 38 24 9f 25 a9 5c 23 a4
       7.0694634e-17 -3.1077615e-16 2.7606646e-16 -3.5423477e-17
000100 72 1b 00 80 a3 8d c2 a4 d2 19 04 24 73 7b 88 25
       -9.846e-42 -8.437403e-17 2.8644808e-17 2.3675892e-16
000110 69 95 b0 a3 01 3b 15 a4 9a b7 3e 24 f0 63 92 22
       -1.9145236e-17 -3.2359203e-17 4.13552e-17 3.9679192e-18
000120 72 fb 25 25 5b 3f 04 a5 df 8c 20 a5 73 02 2f 22
       1.4396662e-16 -1.147064e-16 -1.3925517e-16 2.371822e-18
000130 a3 ac 90 24 fd 1b 00 80 5f 70 a3 a6 3a ce da a6
       6.27425e-17 -1.004e-41 -1.1340855e-15 -1.5182687e-15
000140 73 1b b1 a6 a6 e7 80 a7 bd 8d d1 a6 e0 2d cd a6
       -1.2289282e-15 -3.577829e-15 -1.4540706e-15 -1.4237167e-15
000150 c9 37 05 a7 9f 37 ca a6 04 3d b8 a6 3e 75 8c a6
       -1.84877e-15 -1.4031642e-15 -1.2784103e-15 -9.74623e-16
000160 aa c7 d3 a6 c6 f3 60 26 5a 1b 00 80 80 1c 00 80
       -1.4695185e-15 7.8045986e-16 -9.812e-42 -1.0224e-41
000170 9e 1f 00 00 6e 21 00 00 fc 1f 00 80 42 1e 00 00
       1.1342e-41 1.1992e-41 -1.1474e-41 1.0854e-41
000180 3b 22 00 00 f9 20 00 80 8f 20 00 00 01 20 00 00
       1.228e-41 -1.1828e-41 1.168e-41 1.1481e-41
000190 e6 1e 00 00 01 22 00 00 a0 58 00 80 16 1c 00 80
       1.1084e-41 1.2198e-41 -3.1793e-41 -1.0075e-41
0001a0 7e bb 5a 96 dc f1 82 96 8c e4 b5 15 a6 a9 fc 94
       -1.7669062e-25 -2.1155267e-25 7.34659e-26 -2.5512412e-26
0001b0 25 ac cd 16 04 1f ff 94 c2 e5 47 16 d8 a0 88 96
       3.3228175e-25 -2.5760653e-26 1.6147591e-25 -2.2073492e-25
0001c0 8d b3 98 14 67 fd cb 96 50 66 e9 15 13 c8 75 14
       1.5418898e-26 -3.2956338e-25 9.426937e-26 1.2408797e-26
0001d0 6f 1b 00 80 8f 38 ea 29 de 32 3d 29 f2 9b fb a8
       -9.841e-42 1.0401499e-13 4.201055e-14 -2.7934228e-14
0001e0 ae 6e 62 29 d6 5b 04 2a 33 5d 22 29 d8 33 82 a8
       5.027808e-14 1.1755817e-13 3.6052063e-14 -1.4455383e-14
0001f0 13 1c a2 a9 8b 2c 0f 29 96 2e 12 a9 33 71 bb a9
       -7.199115e-14 3.1791013e-14 -3.245892e-14 -8.324105e-14
000200 21 23 e0 27 5c 1c 00 80 82 1b 00 80 cb 1b 00 80
       6.2210576e-15 -1.0173e-41 -9.868e-42 -9.97e-42
000210 ba 1b 00 80 86 1c 00 80 aa 1b 00 80 83 1b 00 80
       -9.946e-42 -1.0232e-41 -9.924e-42 -9.87e-42
000220 bb 1b 00 00 ef 1b 00 80 c9 1c 00 80 9e 1b 00 80
       9.948e-42 -1.002e-41 -1.0326e-41 -9.907e-42
000230 bd 1b 00 80 ae 1e 00 00 8b 1c 00 80 4c dc df a5
       -9.95e-42 1.1006e-41 -1.0239e-41 -3.8833612e-16
000240 68 22 0c a6 7f 13 24 a6 01 64 60 a5 97 e5 8c a4
       -4.8618886e-16 -5.692535e-16 -1.9462786e-16 -6.110426e-17
000250 b3 0f 6f a6 bf ec 87 25 e4 c0 2f 25 12 5c 6a a6
       -8.294106e-16 2.3579192e-16 1.5244184e-16 -8.1309837e-16
000260 7d f8 d7 a5 cc 60 98 25 ca 76 54 a5 65 1b 00 80
       -3.7464937e-16 2.643339e-16 -1.8428316e-16 -9.827e-42
000270 3e 4d 1e 23 79 95 77 22 da c9 be 22 01 0f 1d a0
       8.581554e-18 3.3553872e-18 5.171332e-18 -1.3303382e-19
000280 b6 0c 6f 23 76 2b 16 23 29 40 be a3 42 1e a1 21
       1.2958908e-17 8.1407195e-18 -2.0627014e-17 1.0917794e-18
000290 7e aa 56 22 4c 04 b2 23 9b 7a 50 23 f8 99 1f 22
       2.9092666e-18 1.9300618e-17 1.1301665e-17 2.1630029e-18
0002a0 5a 1b 00 80 7d 79 6f a9 0c dd e8 a7 da 77 2f 28
       -9.812e-42 -5.3174035e-14 -6.4632595e-15 9.74044e-15
0002b0 22 51 45 28 52 90 7b a8 d1 64 14 29 c2 57 28 a9
       1.095329e-14 -1.39645934e-14 3.2950046e-14 -3.737961e-14
0002c0 ae 03 34 29 51 6c 20 29 56 a3 04 aa 51 63 2f 29
       3.997122e-14 3.5621086e-14 -1.1780624e-13 3.894395e-14
0002d0 e5 5f 82 a7 ae 1b 00 80 e4 1b 00 00 f0 1b 00 00
       -3.6186217e-15 -9.93e-42 1.0005e-41 1.0022e-41
0002e0 29 08 00 00 21 1e 00 80 19 1c 00 00 2c 21 00 80
       2.927e-42 -1.0808e-41 1.008e-41 -1.19e-41
0002f0 a2 20 00 80 19 22 00 00 22 23 00 00 a3 1c 00 00
       -1.1706e-41 1.2232e-41 1.2603e-41 1.0273e-41
000300 31 1f 00 00 30 18 00 00 62 1b 00 00 69 1b 00 80
       1.119e-41 8.677e-42 9.823e-42 -9.833e-42
000310 7a 1b 00 80 79 1b 00 00 e1 1b 00 00 83 1b 00 00
       -9.857e-42 9.855e-42 1.0001e-41 9.87e-42
000320 7d 1b 00 00 8d 1b 00 80 a7 1b 00 00 c5 1b 00 00
       9.861e-42 -9.883e-42 9.92e-42 9.962e-42
000330 34 7e b6 9d ab 1b 00 80 b3 1f 00 80 24 1c 00 00
       -4.830549e-21 -9.925e-42 -1.1372e-41 1.0095e-41
000340 a9 1b 00 80 ec 1b 00 00 8a 1b 00 00 ef 1e 00 80
       -9.923e-42 1.0016e-41 9.879e-42 -1.1097e-41
000350 3c 1c 00 80 36 20 00 80 b1 1b 00 00 d3 1b 00 00
       -1.0129e-41 -1.1555e-41 9.934e-42 9.981e-42
000360 bf 1b 00 80 7c 1b 00 00 56 1d 00 00 8c 22 00 00
       -9.953e-42 9.86e-42 1.0524e-41 1.2393e-41
000370 2d 1c 00 00 5b b9 19 9e 7b e6 9a 9d 8d 92 64 9d
       1.0108e-41 -8.138083e-21 -4.100177e-21 -3.0251314e-21
000380 ec 1e 4e 9c aa 24 b8 9d e1 fd 83 9c f3 73 a9 1d
       -6.819965e-22 -4.8742304e-21 -8.734479e-22 4.4853816e-21
000390 ec 8b 0f 9d dc 1d 8d 9c 0c 6e 21 28 96 21 f9 9c
       -1.899823e-21 -9.338316e-22 8.961158e-15 -1.648612e-21
0003a0 ce b9 b0 99 a7 1b 00 80 c0 1b 00 80 a7 1f 00 80
       -1.827302e-23 -9.92e-42 -9.955e-42 -1.1355e-41
0003b0 d4 1b 00 80 0b 1d 00 80 e5 1b 00 00 c5 1b 00 80
       -9.983e-42 -1.0419e-41 1.0007e-41 -9.962e-42
0003c0 a7 1b 00 00 7b 1b 00 80 fb 1b 00 80 78 1b 00 80
       9.92e-42 -9.858e-42 -1.0038e-41 -9.854e-42
0003d0 95 1b 00 80 5d 1b 00 00 2a 92 39 35 5c 1b 00 80
       -9.895e-42 9.816e-42 6.913057e-07 -9.815e-42
0003e0 5f 1b 00 80 d9 1b 00 80 b5 1b 00 80 8c 1b 00 80
       -9.819e-42 -9.99e-42 -9.94e-42 -9.882e-42
0003f0 45 1c 00 00 29 1e 00 80 cd 1b 00 80 3d 1c 00 00
       1.0141e-41 -1.082e-41 -9.973e-42 1.013e-41

deep.0.bias f4 [512]
000000 01 7c 85 9f f8 1d 00 80 72 1c e7 22 cf 4b 81 a8
       -5.653284e-20 -1.0751e-41 6.2642793e-18 -1.4354754e-14
000010 61 d5 08 25 2c 9d 08 a5 c3 7d 92 a6 69 1b 00 80
       1.1868415e-16 -1.1849372e-16 -1.0164873e-15 -9.833e-42
000020 8d 56 b9 94 32 28 f5 28 5c 1e 00 00 d5 2f 63 a5
       -1.8714364e-26 2.7217896e-14 1.0891e-41 -1.9705318e-16
000030 be 13 e5 21 4f 21 94 a7 71 22 00 80 67 1c 00 00
       1.5522869e-18 -4.1114365e-15 -1.2355e-41 1.0189e-41
000040 5d 1b 00 00 68 b7 8d 9b 2b 21 00 80 7b 1f 00 80
       9.816e-42 -2.3445017e-22 -1.1898e-41 -1.1293e-41
000050 6d 1c 00 80 e6 1c 00 80 1a 23 00 00 fa 66 ad a2
       -1.0197e-41 -1.0367e-41 1.2592e-41 -4.7000775e-18
000060 62 1b 00 00 49 ef 1e a7 e5 12 00 80 5a 1b 00 00
       9.823e-42 -2.2056621e-15 -6.778e-42 9.812e-42
000070 eb 1c 00 80 14 23 00 80 c9 1b 49 a4 2c 9a 06 ad
       -1.0374e-41 -1.2584e-41 -4.3608462e-17 -7.651251e-12
000080 19 3c a7 24 2e fe 2c 25 36 55 00 00 38 ae 07 21
       7.2526515e-17 1.5004741e-16 3.0568e-41 4.5970356e-19
000090 24 1f 00 80 17 11 fc 25 00 1c 00 80 14 28 cd 21
       -1.1171e-41 4.3726612e-16 -1.0045e-41 1.3901949e-18
0000a0 da cf eb 27 6c 1f 00 80 4f 20 00 80 72 9f 2e 26
       6.5450956e-15 -1.1272e-41 -1.159e-41 6.0584466e-16
0000b0 8c 3b fe ad c7 20 00 80 2e 99 60 aa 91 1f 00 80
       -2.8902901e-11 -1.1758e-41 -1.9948341e-13 -1.1324e-41
0000c0 f9 1a 1a 22 af 1e 00 80 63 1b 00 80 ab 3e 39 b1
       2.088517e-18 -1.1007e-41 -9.825e-42 -2.6956666e-09
0000d0 87 65 7d a8 30 1d 00 00 e6 22 ba a6 73 12 35 a9
       -1.40663365e-14 1.047e-41 -1.2915802e-15 -4.0206076e-14
0000e0 ee e9 12 aa 99 1b 00 80 70 65 54 a6 13 2c 74 a8
       -1.3048566e-13 -9.9e-42 -7.368975e-16 -1.3554278e-14
0000f0 ad b5 e1 23 79 a6 bd 22 97 6f 4d 9e b7 2c f1 8a
       2.4471492e-17 5.1404812e-18 -1.0875686e-20 -2.3224276e-32
000100 80 df ae 23 3f d9 27 26 5d bd af 1d 6a 47 a6 23
       1.8959774e-17 5.823419e-16 4.651791e-21 1.8028001e-17
000110 7a 1c a9 27 7f 1e 00 80 d8 bd 65 ab 6f b1 4f a0
       4.6937797e-15 -1.094e-41 -8.1620604e-13 -1.759229e-19
000120 ed f8 54 a3 56 21 00 80 a9 c7 bb ae 99 1b 00 00
       -1.1545255e-17 -1.1959e-41 -8.539242e-11 9.9e-42
000130 0f 0a 01 80 c6 0b 00 00 2e a7 00 a9 52 1f 00 80
       -9.5444e-41 4.224e-42 -2.8566715e-14 -1.1236e-41
000140 b5 1e 00 80 de fe fd a7 ee 1d 00 80 13 1f 00 00
       -1.1016e-41 -7.0497934e-15 -1.0737e-41 1.1147e-41
000150 a8 1d 00 00 f8 a7 1d 10 c7 cb 30 a2 9d 41 0a 9a
       1.0639e-41 3.109219e-29 -2.3960327e-18 -2.8590733e-23
000160 98 1b 00 80 d4 53 00 80 d9 14 ab a2 05 1c 00 80
       -9.899e-42 -3.0072e-41 -4.6371716e-18 -1.0052e-41
000170 ee 00 73 9d 7f 04 94 a5 9e d0 fb 95 de 1d 00 80
       -3.2161263e-21 -2.5676954e-16 -1.0170723e-25 -1.0714e-41
000180 ab 22 00 80 99 db 5b 22 11 16 00 80 ff 22 00 80
       -1.2437e-41 2.9796289e-18 -7.916e-42 -1.2554e-41
000190 61 8b 2e 28 af ee 29 26 fc 0b f9 24 36 20 00 00
       9.689163e-15 5.895713e-16 1.0800684e-16 1.1555e-41
0001a0 fc db 91 9c ce a0 4c 20 f9 55 60 a7 e5 6f 56 25
       -9.65216e-22 1.7332678e-19 -3.113285e-15 1.8599453e-16
0001b0 0b 18 2a 25 4d 2f 1a a8 be 1f 00 80 f3 ee 66 a9
       1.4753296e-16 -8.558974e-15 -1.1387e-41 -5.1277515e-14
0001c0 d1 1d 00 80 71 21 00 80 47 33 f1 9b 6e d8 11 93
       -1.0696e-41 -1.1997e-41 -3.9903243e-22 -1.8408281e-27
0001d0 b1 1d 00 80 59 3c fc ab 44 1d 00 00 b4 20 00 00
       -1.0651e-41 -1.7922427e-12 1.0499e-41 1.1732e-41
0001e0 23 89 e9 a5 4c d4 41 26 cc 01 00 80 30 22 03 25
       -4.0511984e-16 6.724804e-16 -6.45e-43 1.1374022e-16
0001f0 1b bb c3 a7 7e 79 8d ab cf 22 00 80 c8 ae af a5
       -5.4326233e-15 -1.0052373e-12 -1.2487e-41 -3.0476097e-16
000200 c6 0f a0 25 60 1b 00 00 7c 6a 09 a8 5f 95 9d a9
       2.7766264e-16 9.82e-42 -7.628118e-15 -6.9981123e-14
000210 05 7a 05 a8 e6 91 21 ad e1 1d 00 80 e2 99 ab a3
       -7.409442e-15 -9.184186e-12 -1.0719e-41 -1.8605029e-17
000220 7a 08 95 a8 62 3b df 23 c3 d1 e9 27 e5 20 00 80
       -1.6546e-14 2.4202858e-17 6.4897915e-15 -1.18e-41
000230 75 02 d9 a3 94 08 00 80 50 30 d3 22 d8 f1 56 28
       -2.3528228e-17 -3.077e-42 5.7242817e-18 1.1931828e-14
000240 47 49 48 24 17 1c 00 80 2c 84 07 a7 43 bd fa a4
       4.3430155e-17 -1.0077e-41 -1.8806664e-15 -1.0874084e-16
000250 5e 05 00 80 4b 21 e8 1c 8f 5f 58 23 1c f3 e7 a3
       -1.925e-42 1.5361078e-21 1.1729619e-17 -2.5148031e-17
000260 ee 8e 21 a5 b6 21 00 80 ce 17 30 a4 37 0a 00 80
       -1.401295e-16 -1.2093e-41 -3.818408e-17 -3.664e-42
000270 ba 9b 72 a0 2a 7c 08 25 42 c4 62 27 7b 18 62 9e
       -2.0549723e-19 1.1838188e-16 3.1470192e-15 -1.1969403e-20
000280 97 d0 38 ab 56 1f 00 80 c6 55 bc b1 98 2a 2c a5
       -6.565941e-13 -1.1241e-41 -5.4812714e-09 -1.4933053e-16
000290 8c 64 21 28 52 15 00 00 0c f8 b4 a6 9d a9 1c a6
       8.959098e-15 7.648e-42 -1.2557242e-15 -5.435324e-16
0002a0 39 ec 2f a7 84 f0 f5 a6 82 1d 00 80 10 20 00 80
       -2.4414185e-15 -1.7065482e-15 -1.0585e-41 -1.1502e-41
0002b0 06 1c 00 00 b9 12 c3 26 78 f4 08 a6 12 98 7d a7
       1.0053e-41 1.3535918e-15 -4.7515795e-16 -3.519324e-15
0002c0 17 05 00 00 56 f3 0d a8 4a 67 c1 24 a7 60 69 a6
       1.826e-42 -7.879837e-15 8.3875386e-17 -8.09691e-16
0002d0 04 1f 00 80 11 91 c4 28 71 1b 00 80 b0 e1 17 ab
       -1.1126e-41 2.1823284e-14 -9.844e-42 -5.395918e-13
0002e0 4d 2b 19 a5 a4 1b 00 00 cd 17 c1 a6 b6 1f 00 80
       -1.3285305e-16 9.916e-42 -1.3398516e-15 -1.1376e-41
0002f0 a7 08 61 2a 4d 0e 9f 28 54 1c 00 80 19 22 00 00
       1.9987016e-13 1.7658748e-14 -1.0162e-41 1.2232e-41
000300 f0 68 53 a5 e3 71 73 28 b5 1f 00 80 5d 46 4c 25
       -1.8336887e-16 1.3513905e-14 -1.1374e-41 1.771802e-16
000310 11 7a c4 90 42 5e 98 90 18 8f 1a 1a 87 de e1 a4
       -7.749644e-29 -6.0098656e-29 3.1962044e-23 -9.795517e-17
000320 b7 22 00 00 ef 6a a4 a3 1c 21 00 00 08 b5 90 b0
       1.2453e-41 -1.7826204e-17 1.1877e-41 -1.0528831e-09
000330 4a c3 36 aa 8e 20 5a a0 62 1b 00 80 cc 84 ea 27
       -1.6232602e-13 -1.847609e-19 -9.823e-42 6.5092026e-15
000340 bf 7c 12 24 0e 07 be 1e 47 86 2b a5 d8 5b 05 a7
       3.1764367e-17 2.011995e-20 -1.487738e-16 -1.8507246e-15
000350 33 0f a3 ac f2 1d 00 80 ff 99 cf 28 0a 21 00 80
       -4.634426e-12 -1.0742e-41 2.3048402e-14 -1.1852e-41
000360 89 23 9f a6 d1 22 00 80 5f fe c1 a9 70 1d 00 80
       -1.1042473e-15 -1.249e-41 -8.615048e-14 -1.056e-41
000370 54 0a f7 a8 d7 5b 81 29 cc 67 f0 25 06 18 0c a7
       -2.7426988e-14 5.7446825e-14 4.17037e-16 -1.9441926e-15
000380 35 20 00 00 c8 1f 00 80 b5 f2 bc 24 e6 30 10 27
       1.1554e-41 -1.1401e-41 8.1943165e-17 2.0010522e-15
000390 92 1b 00 80 8a ce 33 24 58 1b 00 80 81 1b 00 80
       -9.89e-42 3.8989383e-17 -9.809e-42 -9.867e-42
0003a0 69 a7 d5 9a 31 1e 39 a4 07 ba e3 a4 d2 22 00 00
       -8.83652e-23 -4.0141053e-17 -9.87607e-17 1.2491e-41
0003b0 1f 6b 00 00 cf 18 d6 a1 75 f0 54 9f 79 cd 51 a4
       3.8428e-41 -1.4507771e-18 -4.5091648e-20 -4.5493693e-17
0003c0 49 59 07 24 49 61 b8 a4 51 1c 00 80 b3 e5 88 a3
       2.9349086e-17 -7.996209e-17 -1.0158e-41 -1.4842431e-17
0003d0 85 1c 00 80 05 15 00 00 d7 82 01 a4 31 aa 79 24
       -1.0231e-41 7.54e-42 -2.8083242e-17 5.4137426e-17
0003e0 9e 66 ab a1 1c 1d 00 80 6e 45 00 00 bf 04 00 00
       -1.1614573e-18 -1.0442e-41 2.4907e-41 1.703e-42
0003f0 9e 03 56 a3 ad e8 b0 a5 7d 2d 0f a9 47 1f 00 80
       -1.1601729e-17 -3.06888e-16 -3.1791833e-14 -1.122e-41

deep.2.weight f4 [64, 512]
000000 d9 73 60 99 41 1e 00 80 d8 84 ae 20 15 a2 7f 30
       -1.1603924e-23 -1.0853e-41 2.9564655e-19 9.299879e-10
000010 c6 06 60 a4 ff 9e b5 27 fe 4a 61 16 d9 20 00 80
       -4.8577995e-17 5.0409976e-15 1.8199019e-25 -1.1784e-41
000020 e0 ec 4c 8d e6 c8 f9 9f 58 1b 00 80 c1 35 5e 19
       -6.314748e-31 -1.0578796e-19 -9.809e-42 1.14879865e-23
000030 c5 6d 8a a6 32 18 00 a6 52 0d 00 80 5a 1b 00 80
       -9.605427e-16 -4.444171e-16 -4.778e-42 -9.812e-42
000040 eb 1c 00 80 c6 a7 32 19 25 06 00 80 f2 21 00 00
       -1.0374e-41 9.236266e-24 -2.204e-42 1.2177e-41
000050 c7 1b 00 80 59 1b 00 00 5e b3 00 00 d3 a1 8f a8
       -9.965e-42 9.81e-42 6.4345e-41 -1.594637e-14
000060 42 4c 00 00 b2 64 29 35 a2 21 00 00 59 1b 00 00
       2.7356e-41 6.3103937e-07 1.2065e-41 9.81e-42
000070 17 23 00 00 f6 1d 00 00 ee 99 8b 99 bb f6 4d a7
       1.2588e-41 1.0748e-41 -1.4434435e-23 -2.8583218e-15
000080 71 c0 53 ad 69 f1 00 af 58 1b 00 80 c9 97 9b 97
       -1.2036692e-11 -1.1727298e-10 -9.809e-42 -1.0054956e-24
000090 61 1b 00 80 82 54 0c 2c 1d 1c 00 00 d2 1b 15 34
       -9.822e-42 1.9942108e-12 1.0085e-41 1.3886827e-07
0000a0 40 de 8e b7 b5 db 01 80 d1 c8 9f 33 43 a7 03 34
       -1.7031212e-05 -1.70652e-40 7.440543e-08 1.2261175e-07
0000b0 a5 f3 2f a7 2c 1e 00 00 43 df 6a 2d 58 20 00 00
       -2.4418209e-15 1.0824e-41 1.3350934e-11 1.1603e-41
0000c0 2e f5 2e 17 dc 9c 00 80 97 1c 00 80 3b de 07 2b
       5.6531893e-25 -5.627e-41 -1.0256e-41 4.827004e-13
0000d0 1f 01 30 a2 67 1b 00 00 0a 0f 9c a6 25 c3 8d a1
       -2.3853041e-18 9.83e-42 -1.0828751e-15 -9.606186e-19
0000e0 38 52 61 b2 95 36 00 80 3e 13 22 29 a0 99 15 b8
       -1.3115418e-08 -1.958e-41 3.5987916e-14 -3.5667443e-05
0000f0 11 b2 7e 98 20 a7 e0 95 be f2 75 1a fd af c0 87
       -3.2918631e-24 -9.0736556e-26 5.0860898e-23 -2.8992386e-34
000100 40 88 d9 15 02 73 29 2d 56 e1 2d 2f 17 ab a5 17
       8.7860567e-26 9.632075e-12 1.5814314e-10 1.0706064e-24
000110 bd 97 4e 99 59 1b 00 00 75 d4 25 a6 f8 72 cd 1b
       -1.0680594e-23 9.81e-42 -5.753381e-16 3.3988702e-22
000120 dd c9 b6 2d d2 78 00 80 27 56 31 28 61 1f 00 80
       2.078065e-11 -4.3342e-41 9.844155e-15 -1.1257e-41
000130 99 1d 00 80 27 23 00 00 0d d1 06 b2 db 1b 00 00
       -1.0618e-41 1.261e-41 -7.847359e-09 9.993e-42
000140 5a 1b 00 00 e1 53 18 1b 47 20 00 00 fc 1e 00 00
       9.812e-42 1.2600248e-22 1.1579e-41 1.1115e-41
000150 cc 7e c5 2a f9 6a 01 00 2b ab be 96 77 87 cb 17
       3.5082213e-13 1.3021e-40 -3.0804178e-25 1.3152764e-24
000160 5f 1b 00 00 0b 29 00 00 60 46 cd 9d 69 1b 00 80
       9.819e-42 1.4723e-41 -5.4335814e-21 -9.833e-42
000170 e7 4d 10 95 16 b0 06 ac 14 06 d6 13 83 1b 00 00
       -2.9142023e-26 -1.9140293e-12 5.402719e-27 9.87e-42
000180 42 21 00 00 57 09 e3 a5 60 1b 00 00 6c 1b 00 00
       1.193e-41 -3.9384552e-16 9.82e-42 9.837e-42
000190 37 17 b3 23 56 39 4d 96 b3 c1 36 a8 51 11 00 00
       1.941705e-17 -1.657786e-25 -1.0145031e-14 6.212e-42
0001a0 59 20 4b 12 e7 7d 12 ad 21 ac de 9b 48 be 38 a5
       6.4095377e-28 -8.327095e-12 -3.6838055e-22 -1.6023926e-16
0001b0 0c a9 c8 2b 3f 8d d7 25 c1 bd 00 80 99 1d 20 36
       1.4257775e-12 3.7392267e-16 -6.8071e-41 2.3859086e-06
0001c0 d2 1f 00 00 da 9f 4d 2b c3 07 ff 0e 69 2c b0 01
       1.1415e-41 7.305247e-13 6.2869828e-30 6.4715915e-38
0001d0 78 20 00 00 f7 57 28 2f d0 4e 00 80 e5 0c 00 00
       1.1648e-41 1.5310762e-10 -2.8273e-41 4.626e-42
0001e0 1b 12 29 27 d6 6c b3 b5 9a 21 00 80 9e f3 45 9a
       2.3463276e-15 -1.3368215e-06 -1.2054e-41 -4.0935438e-23
0001f0 a6 e4 6b 9c e0 0f 09 a6 59 1b 00 00 3c 31 fb ad
       -7.80505e-22 -4.755294e-16 9.81e-42 -2.855726e-11
000200 c3 b2 93 33 a2 0f 00 80 c3 46 0d 19 ad 43 dc 1f
       6.8777375e-08 -5.608e-42 7.303819e-24 9.3285584e-20
000210 26 86 fb a2 27 86 59 a7 6b 20 00 00 07 20 c9 13
       -6.817572e-18 -3.0187524e-15 1.163e-41 5.0771115e-27
000220 a3 2b 4d b7 7f 06 4c 19 82 99 a3 26 5c 1b 00 80
       -1.2229112e-05 1.0547865e-23 1.1352005e-15 -9.815e-42
000230 9e 7d 46 94 4b 21 00 80 4e aa 76 93 26 cd 07 b4
       -1.0021219e-26 -1.1943e-41 -3.1133532e-27 -1.2647487e-07
000240 fe ea 9e 2b cd 1d 00 80 50 c4 eb 2b a3 32 86 17
       1.1291799e-12 -1.069e-41 1.6752242e-12 8.67233e-25
000250 63 53 00 80 f7 af 33 27 e7 f3 8f 2a 47 8c 0e 94
       -2.9914e-41 2.493663e-15 2.5571144e-13 -7.196833e-27
000260 7b 6c da 30 33 1b c4 32 71 b1 14 b6 1d a3 00 80
       1.589242e-09 2.2829772e-08 -2.2157003e-06 -5.8514e-41
000270 7f 76 bc b0 59 15 68 31 4d 31 a3 97 55 4c 1e 99
       -1.3712479e-09 3.3772578e-09 -1.0546073e-24 -8.183824e-24
000280 9b 50 08 a9 c9 5e 00 80 94 f3 db a9 13 d7 bf a6
       -3.026798e-14 -3.4003e-41 -9.767808e-14 -1.3311583e-15
000290 ab 0c 4b a1 c5 1e 00 00 c6 8f 83 2e f4 0b 92 24
       -6.879584e-19 1.1038e-41 5.9827296e-11 6.3337656e-17
0002a0 28 ad 75 1a 9d 8d c2 36 7a 21 00 00 0d 1f 00 80
       5.0804687e-23 5.7981365e-06 1.2009e-41 -1.1139e-41
0002b0 25 1d 00 00 57 a3 41 26 45 1b a8 a7 76 31 5b ab
       1.0455e-41 6.7181693e-16 -4.6658933e-15 -7.787307e-13
0002c0 59 1f 00 80 76 6e fc 29 57 de 03 14 3f 5e d0 37
       -1.1245e-41 1.121021e-13 6.657659e-27 2.4839419e-05
0002d0 fb 22 00 80 0a a6 ba 31 61 1b 00 80 10 9e 1c 2e
       -1.2549e-41 5.432189e-09 -9.822e-42 3.561068e-11
0002e0 57 d1 00 1a 65 1b 00 80 ab 28 3e 33 65 05 00 00
       2.6638883e-23 -9.827e-42 4.427481e-08 1.935e-42
0002f0 0f 0e 81 af 42 fd 0f 31 d7 2d 02 80 40 1d 00 80
       -2.3474953e-10 2.09532e-09 -2.00115e-40 -1.0493e-41
000300 7c 22 19 b6 75 dc 86 35 af 1b 00 80 43 7a 0e b2
       -2.281885e-06 1.004794e-06 -9.931e-42 -8.293287e-09
000310 32 2e 1b 82 f9 30 e4 0d f4 48 4a 92 60 76 dc a6
       -1.1400859e-37 1.4063375e-30 -6.3829883e-28 -1.5297652e-15
000320 97 32 00 00 48 2b 64 23 41 22 00 80 94 32 05 29
       1.8148e-41 1.236907e-17 -1.2288e-41 2.9575802e-14
000330 90 28 e0 1e 74 fd ca 15 66 1b 00 00 c6 19 4e a8
       2.3733699e-20 8.198703e-26 9.829e-42 -1.1440886e-14
000340 3e 25 18 29 64 48 6f 95 e9 d4 e2 93 43 c7 eb b4
       3.3783082e-14 -4.8322772e-26 -5.7260366e-27 -4.3917143e-07
000350 dd 7a 86 a6 32 1e 00 80 29 9f cf 25 74 1e 00 00
       -9.33142e-16 -1.0832e-41 3.6016627e-16 1.0925e-41
000360 31 24 32 19 26 21 00 80 17 f5 92 23 5b 1b 00 80
       9.209693e-24 -1.1891e-41 1.5933151e-17 -9.813e-42
000370 38 b6 58 35 09 a4 53 2e 2f 10 b3 b6 65 07 5c a4
       8.0731434e-07 4.8121538e-11 -5.3364997e-06 -4.771116e-17
000380 84 1c 00 80 1a 17 00 80 3a d0 61 34 ab 63 a1 19
       -1.023e-41 -8.287e-42 2.103051e-07 1.6687265e-23
000390 3d f4 89 ac 35 02 a3 b7 04 23 00 80 de 12 00 00
       -3.92089e-12 -1.9432142e-05 -1.2561e-41 6.768e-42
0003a0 7f 1b b7 16 4d a5 24 98 48 10 3d 1b 59 1b 00 80
       2.9582597e-25 -2.1279959e-24 1.5638974e-22 -9.81e-42
0003b0 b1 51 00 80 7b 89 cb 9f 60 e3 bf 14 c1 3c 2e 15
       -2.9305e-41 -8.6201287e-20 1.9375755e-26 3.5186947e-26
0003c0 4d c6 b4 9e 14 92 67 36 ea 1f 00 80 be f7 ba 17
       -1.9140257e-20 3.450671e-06 -1.1449e-41 1.2082507e-24
0003d0 6b 1b 00 00 5a 1b 00 80 15 b0 80 b4 c4 db 23 38
       9.836e-42 -9.812e-42 -2.3969974e-07 3.90669e-05
0003e0 29 4d 58 14 d7 1e 00 00 df 1d 00 80 36 22 00 80
       1.092043e-26 1.1063e-41 -1.0716e-41 -1.2273e-41
0003f0 03 3c 63 20 71 06 d1 b0 f4 83 23 b3 43 21 00 00
       1.9247504e-19 -1.5208582e-09 -3.8071406e-08 1.1932e-41

deep.2.bias f4 [64]
000000 fb 28 4f 2c 21 b6 ab 22 d2 02 d0 a5 46 99 0a a4
       2.9439218e-12 4.654248e-18 -3.608416e-16 -3.0053808e-17
000010 b8 4e 13 a8 8b ec 86 a7 ff 8e 27 a7 39 67 e3 aa
       -8.177209e-15 -3.744893e-15 -2.3253424e-15 -4.0394925e-13
000020 97 29 7c 2e c5 d0 6d af 9b 29 c9 30 c5 7f 27 2d
       5.7335105e-11 -2.1629194e-10 1.46365e-09 9.5212215e-12
000030 78 1c 00 80 1e 25 9c 30 79 27 3d ab d6 2f 1f 0e
       -1.0213e-41 1.1361043e-09 -6.720107e-13 1.9621295e-30
000040 76 d1 08 2e d0 8f c5 b0 97 08 ae aa 0a 54 9e 9e
       3.110886e-11 -1.437451e-09 -3.091457e-13 -1.6763658e-20
000050 02 bb 83 29 03 8e 99 29 d7 35 c1 25 6c 7f 0d a9
       5.850009e-14 6.8192e-14 3.3516646e-16 -3.141881e-14
000060 1b 1c 00 00 0e 7a c5 a4 7b b3 4e aa 2a 00 e2 2d
       1.0082e-41 -8.56419e-17 -1.8358745e-13 2.5693298e-11
000070 db e1 dd 06 fc 43 06 29 49 32 41 34 8a 9f 30 1c
       8.3462825e-35 2.9812944e-14 1.799282e-07 5.8439715e-22
000080 5f 75 9c a6 fe 1e 00 80 7c 21 00 80 4d 00 b9 25
       -1.0856488e-15 -1.1118e-41 -1.2012e-41 3.2092588e-16
000090 6e 01 07 a7 6e f9 9e 1f f8 f8 43 37 b4 cd bd a6
       -1.8735789e-15 6.732825e-20 1.1680873e-05 -1.3170265e-15
0000a0 6b ad 2a a4 bf 98 2d 21 4f 86 0f 2a 78 39 0a 1b
       -3.7009765e-17 5.881684e-19 1.2747549e-13 1.1433662e-22
0000b0 81 1b 00 00 00 79 70 a8 b0 04 ca b0 5a a6 5f a2
       9.867e-42 -1.3348914e-14 -1.4698767e-09 -3.0310201e-18
0000c0 eb 62 b6 ac f8 f8 1c 27 32 5f ff 05 7f ae 96 a3
       -5.1837332e-12 2.1784315e-15 2.4015054e-35 -1.6336935e-17
0000d0 6e b9 90 36 b4 55 18 25 21 ac 1c 2f 78 14 b0 a9
       4.3131213e-06 1.3212936e-16 1.424927e-10 -7.819521e-14
0000e0 53 02 23 a1 f0 93 d8 a7 cf 7b ab aa b0 d8 ae a5
       -5.5229624e-19 -6.0112437e-15 -3.0461611e-13 -3.0331022e-16
0000f0 0b 65 b6 2a 8e 73 a1 2d 2d ac 56 aa 92 77 28 ac
       3.2399807e-13 1.8354897e-11 -1.9066754e-13 -2.394061e-12

deep.4.weight f4 [32, 64]
000000 ae c4 31 28 75 c8 50 9e 89 0c c9 21 98 3a 4a a0
       9.868122e-15 -1.1052882e-20 1.3623608e-18 -1.7129453e-19
000010 dc 33 aa a2 8d 0b 0d a5 ad ce 38 23 43 4b 17 aa
       -4.61335e-18 -1.2233714e-16 1.0018425e-17 -1.3437606e-13
000020 e6 0e fb aa 85 fc 3c ab a1 9a 32 ae 86 c9 2d a9
       -4.4596895e-13 -6.714146e-13 -4.0609852e-11 -3.858851e-14
000030 de 1b 00 00 c8 3b 81 af 46 ad 9a aa 4e 88 2e 8a
       9.997e-42 -2.350744e-10 -2.7476128e-13 -8.403431e-33
000040 ff e5 50 ae e2 82 dc ac 05 68 f3 a9 c1 85 88 1e
       -4.7498002e-11 -6.267307e-12 -1.0809412e-13 1.445488e-20
000050 9c 6d fb a2 82 82 67 a4 00 de 0f a2 9f 21 80 a7
       -6.814974e-18 -5.0200685e-17 -1.949764e-18 -3.556359e-15
000060 64 08 00 00 83 28 3b a3 e2 9d 88 a9 9d b8 49 ae
       3.01e-42 -1.0145869e-17 -6.0670016e-14 -4.586608e-11
000070 c1 3b 0d 80 78 e8 ac a3 df 36 e8 31 21 01 c8 1e
       -1.215297e-39 -1.8746732e-17 6.758327e-09 2.117629e-20
000080 d4 a0 29 a4 cd 1b 00 80 c8 1b 00 80 53 70 38 a3
       -3.678226e-17 -9.973e-42 -9.966e-42 -9.9984456e-18
000090 85 b8 39 a4 88 aa 43 1b cd cb 6f 36 89 25 a5 9f
       -4.0271775e-17 1.6185124e-22 3.5732403e-06 -6.9942315e-20
0000a0 3c 5a 33 a3 f2 23 fb 1e a8 8b 10 29 b1 15 2a 1a
       -9.722717e-18 2.6590525e-20 3.2095556e-14 3.5172698e-23
0000b0 65 1b 00 00 75 12 ce 25 57 7c 83 2d 54 e2 b8 22
       9.827e-42 3.574781e-16 1.4948194e-11 5.0112934e-18
0000c0 5a ee 96 a5 83 58 48 a1 e7 cb 64 81 8a 30 c3 a1
       -2.6182365e-16 -6.787978e-19 -4.202328e-38 -1.3226562e-18
0000d0 30 a7 80 35 39 07 86 a2 e5 10 00 a9 21 1e 22 a6
       9.585401e-07 -3.632842e-18 -2.8436363e-14 -5.6245873e-16
0000e0 fe c7 f5 a0 ef 81 ef a1 85 8c bd 25 45 34 81 a0
       -4.1636958e-19 -1.6229663e-18 3.2881493e-16 -2.188804e-19
0000f0 f2 6b 69 27 0e da c2 a8 0a 43 3f a9 38 4e 2a a6
       3.2393763e-15 -2.1632893e-14 -4.2468667e-14 -5.9086604e-16
000100 98 c2 56 12 37 2a 4a 08 03 2d 91 0c ee e7 bf 0c
       6.776635e-28 6.0836787e-34 2.2367878e-31 2.9567797e-31
000110 d3 06 2a 0f c2 2f 96 11 17 b7 4e 8d 92 54 f1 16
       8.3829614e-30 2.369526e-28 -6.3699037e-31 3.8989021e-25
000120 62 eb cb 96 4a 2d 32 97 09 db 08 18 7c b3 28 36
       -3.2944966e-25 -5.7572065e-25 1.7688173e-24 2.5138424e-06
000130 95 1c 00 80 14 89 be 1c 36 77 7d 17 ae 1c 00 80
       -1.0253e-41 1.2608579e-21 8.1899174e-25 -1.0288e-41
000140 e5 2d 78 1b 8b 73 86 97 4e 4f e0 16 30 90 11 2e
       2.0528909e-22 -8.688714e-25 3.62392e-25 3.3097247e-11
000150 8f 29 3d b0 19 f7 6f 90 bc 73 a1 0e 6f b1 48 14
       -6.881686e-10 -4.7324796e-29 3.9801012e-30 1.0132412e-26
000160 a2 20 00 80 51 14 10 0d 1f f4 73 16 be 29 a1 1b
       -1.1706e-41 4.439788e-31 1.9706415e-25 2.666219e-22
000170 f9 1c 00 80 34 6a 1f 91 3c b5 86 1f f5 36 bc 07
       -1.0393e-41 -1.2575615e-28 5.7051035e-20 2.8319397e-34
000180 6c 96 a5 10 c6 1c 00 80 e0 1b 00 80 be 08 3e a0
       6.5312786e-29 -1.0322e-41 -1e-41 -1.6096519e-19
000190 c7 c1 72 10 f1 d6 ac 05 93 61 13 21 02 32 bb a6
       4.7875365e-29 1.6253759e-35 4.9934676e-19 -1.2989286e-15
0001a0 95 e1 87 0c 3d 7e 2e 09 6f 53 1a 30 ab 3b 04 86
       2.093581e-31 2.1003845e-33 5.614344e-10 -2.4870278e-35
0001b0 25 1e 00 80 bb 00 12 11 89 0d 5c 37 e1 69 78 2e
       -1.0814e-41 1.1517594e-28 1.3116173e-05 5.648271e-11
0001c0 77 d9 60 95 fd f8 8a 10 73 20 00 80 6b 75 4b 0b
       -4.540799e-26 5.481503e-29 -1.164e-41 3.9184713e-32
0001d0 58 14 8e 9f a2 e0 b6 8c b2 dc eb 92 9a 15 15 92
       -6.0172995e-20 -2.8176736e-31 -1.4884991e-27 -4.7042736e-28
0001e0 f7 30 72 8d fe 1b 83 ac 66 ca 07 93 75 d9 32 0d
       -7.4630947e-31 -3.7263517e-12 -1.7139186e-27 5.511224e-31
0001f0 e5 ee d7 34 fb f3 79 9b e9 fd 2a 16 99 95 f8 31
       4.022069e-07 -2.0675632e-22 1.381261e-25 7.2347572e-09
000200 83 04 4e a8 72 c9 c0 9e be d7 11 22 ff a7 ba a0
       -1.14362755e-14 -2.0412107e-20 1.9765377e-18 -3.1620796e-19
000210 70 33 b3 22 22 f0 2f a5 9e 7e e9 22 9a a0 12 aa
       4.857251e-18 -1.526019e-16 6.3288838e-18 -1.3023125e-13
000220 f2 ae fc aa f6 d6 52 ac 43 f4 ce ae 85 21 40 a9
       -4.4885585e-13 -2.9962122e-12 -9.411185e-11 -4.2661638e-14
000230 96 1b 00 00 53 59 1b 30 10 58 5d aa 16 ff a4 8b
       9.896e-42 5.651561e-10 -1.9659296e-13 -6.355431e-32
000240 8b c8 9a 2c 41 ab 21 ad 4f 39 fa a9 7d e3 0e 20
       4.399208e-12 -9.1898164e-12 -1.1112172e-13 1.2103137e-19
000250 27 cf 40 a3 6c 90 a0 a5 6e 59 06 a2 70 94 9a a7
       -1.0452207e-17 -2.785344e-16 -1.820773e-18 -4.2904523e-15
000260 9c 1b 00 00 50 f2 e1 a3 f1 c2 98 a9 ed 58 86 ac
       9.904e-42 -2.4497172e-17 -6.783973e-14 -3.818382e-12
000270 c2 57 43 80 41 d1 1f a4 95 70 52 34 43 22 02 1f
       -6.18446e-39 -3.4654874e-17 1.9598731e-07 2.755691e-20
000280 46 30 56 a4 9c 1b 00 00 6a 1b 00 00 aa 8b 03 a4
       -4.6444742e-17 9.904e-42 9.834e-42 -2.8524397e-17
000290 a7 00 61 a4 2e c7 49 9b 9d f9 1c 38 3a 26 6e 9f
       -4.878965e-17 -1.6690689e-22 3.742577e-05 -5.043008e-20
0002a0 1a c8 9c 23 90 0e 93 20 49 9e 64 29 75 ca 84 1b
       1.69983e-17 2.4912405e-19 5.076346e-14 2.1968403e-22
0002b0 ab 1b 00 00 eb 7e 2e a5 c2 06 6e ad e6 cf 6e a3
       9.925e-42 -1.5135096e-16 -1.3530234e-11 -1.294603e-17
0002c0 6a b1 df a3 8f 7c ce a2 6a 82 34 82 e2 d7 68 22
       -2.4252846e-17 -5.5968293e-18 -1.3261738e-37 3.155615e-18
0002d0 58 21 6f 37 f1 d6 94 a3 c5 ce 23 a9 fc 52 5b 26
       1.4253274e-05 -1.6137223e-17 -3.6372615e-14 7.6093353e-16
0002e0 a0 7b e1 a1 17 8c 9d 24 c3 6f 2e 26 1a 09 6d a1
       -1.5279316e-18 6.832522e-17 6.051984e-16 -8.031077e-19
0002f0 e8 90 e6 a7 d5 48 52 a9 2a cf 3b a9 00 3c 61 a6
       -6.399493e-15 -4.669254e-14 -4.1702027e-14 -7.814387e-16
000300 66 57 dc a9 f5 74 dc 9f da 35 9e 22 de 66 83 a1
       -9.785124e-14 -9.3367113e-20 4.2883003e-18 -8.904134e-19
000310 61 d0 8a 24 09 50 52 25 6a 26 5a a4 b3 de 5c 2b
       6.020097e-17 1.8241713e-16 -4.7303753e-17 7.846876e-13
000320 fd 0b cd ab e6 7f 0a ad a3 1f da af ed ff e3 aa
       -1.4569453e-12 -7.872791e-12 -3.9676448e-10 -4.0500884e-13
000330 95 1b 00 00 e0 a9 b4 32 de 9a 3a 2c 61 c5 c7 8c
       9.895e-42 2.1032008e-08 2.6518158e-12 -3.0779598e-31
000340 9d 44 b2 30 d1 3d 1e ae 5b de 0b 2b 6c cd 15 21
       1.2970706e-09 -3.5979945e-11 4.96913e-13 5.0755037e-19
000350 7d 9e 7c a4 78 46 9b 26 e5 50 bb a2 81 b6 04 28
       -5.4778034e-17 1.0774386e-15 -5.07721e-18 7.367046e-15
000360 a6 17 00 80 7a 2e f4 a4 00 cc 4b 2a 75 f6 9f 30
       -8.483e-42 -1.05896866e-16 1.8100799e-13 1.163882e-09
000370 c1 73 1e 81 f5 3b 2e a5 c7 98 7c 36 97 b7 16 20
       -2.9103066e-38 -1.5112408e-16 3.7639854e-06 1.2766239e-19
000380 7d b2 cb 23 6f 1b 00 00 70 1b 00 00 29 bc f5 a4
       2.2084897e-17 9.841e-42 9.843e-42 -1.0657057e-16
000390 ec fc 8b 24 19 57 b0 1b bc 6b aa 39 a7 b7 a6 20
       6.071011e-17 2.9173043e-22 0.00032505195 2.8243025e-19
0003a0 6c 27 f5 24 7d ca a6 21 08 4a 91 28 f1 c6 94 1c
       1.06318596e-16 1.1302196e-18 1.613034e-14 9.845244e-22
0003b0 75 1b 00 00 97 8d 89 a7 f8 42 6f ae 56 ed 2f a4
       9.85e-42 -3.817865e-15 -5.440179e-11 -3.8148107e-17
0003c0 2d 09 28 a6 dd 0b 51 23 a6 59 33 83 a2 6b 77 a2
       -5.8299144e-16 1.1332425e-17 -5.2706284e-37 -3.3531722e-18
0003d0 04 e5 0c 39 87 9a 97 a4 5f b2 89 ab 10 31 97 27
       0.00013436755 -6.574759e-17 -9.783943e-13 4.1964113e-15
0003e0 c0 4a 0c a3 a9 58 da 25 06 a7 27 27 4f b2 a0 a2
       -7.605244e-18 3.787705e-16 2.326645e-15 -4.355688e-18
0003f0 ee a5 87 a8 51 0c 11 aa 89 e3 73 2a f5 e9 8f a7
       -1.5059971e-14 -1.288286e-13 2.1661678e-13 -3.994413e-15

deep.4.bias f4 [32]
000000 b2 01 aa 38 d1 cb 8f a7 46 54 74 39 5c ff a0 3a
       8.1065475e-05 -3.991145e-15 0.00023301048 0.0012283134
000010 96 18 df b1 6b d7 e3 2a 74 c8 41 3a c9 ba 94 38
       -6.4929493e-09 4.0472776e-13 0.00073922356 7.0919814e-05
000020 9a f7 96 3a f5 9d 16 a5 2b be 6b a8 40 20 06 a3
       0.0011517883 -1.3063944e-16 -1.3086357e-14 -7.270984e-18
000030 c0 c2 95 aa 79 2d b0 25 b4 8e 0a 3a 52 f6 e3 ab
       -2.6602852e-13 3.0561947e-16 0.00052855466 -1.6197688e-12
000040 01 4a ec 27 d1 7a 73 39 8e a6 14 29 1d 46 ef 3a
       6.5583394e-15 0.00023220039 3.3007065e-14 0.0018255148
000050 e7 7d 52 27 c9 d2 61 3b ae c8 05 24 17 01 03 80
       2.9211606e-15 0.0034457913 2.900976e-17 -2.75897e-40
000060 59 a5 2c 9e 71 0d e8 a4 35 2b 87 28 a6 52 31 b3
       -9.139797e-21 -1.0063673e-16 1.5006749e-14 -4.1286192e-08
000070 89 c1 e8 a4 e9 ca 91 3a 39 bf 97 39 24 70 bd b8
       -1.0094182e-16 0.0011123094 0.00028943436 -9.03311e-05

output.weight f4 [1, 34]
000000 f5 87 8d be c2 5a bf 3d 9f 74 52 ba bd 7d 5d 25
       -0.2764279 0.093434826 -0.0008028242 1.9211296e-16
000010 5c 4e 01 bb cf ed 14 bc 7a e9 d6 b8 b0 47 f2 29
       -0.0019730544 -0.009089901 -0.000102478036 1.0759395e-13
000020 b4 70 c4 bb bf 26 36 ba 0e a4 10 bc c7 1f 81 a5
       -0.0059948806 -0.00069485226 -0.008828176 -2.2399466e-16
000030 00 5b a5 2a 4f 54 00 22 35 88 06 29 4f 35 c4 25
       2.9373032e-13 1.7391867e-18 2.9872118e-14 3.4036703e-16
000040 84 0b 8c bb d5 be 98 2c 90 f2 5f 27 79 1f 07 bb
       -0.0042738337 4.3412864e-12 3.107896e-15 -0.0020618124
000050 29 c4 cb 27 47 49 5e bc fd 34 a9 a6 0e d1 b4 bc
       5.6556496e-15 -0.013567275 -1.1741093e-15 -0.022072341
000060 93 a8 21 a3 a1 69 01 00 7d 0c 13 9f 36 ba cc 23
       -8.7635245e-18 1.29728e-40 -3.113879e-20 2.2196588e-17
000070 23 2e 74 28 5c 06 09 32 48 37 0f a3 ba 3d 0b bc
       1.3554725e-14 7.9758955e-09 -7.763752e-18 -0.0084986035
000080 88 b0 1f bb 4b e1 1d 3b
       -0.0024366695 0.0024090584
