Results/DFM/20250107_154700_batch1024_epoch10_lr0.001_reg0.0005_DFM/treatment_deepfm.pth (torch, 174460 bytes, 9 tensors)

linear.weight f4 [1, 13]
000000 48 9f 84 3e 2d 63 3c 3e 05 c1 45 3e 88 04 0c 3e
       0.25902772 0.18397208 0.19311912 0.13673604
000010 a4 50 26 bd 7c a4 ea 3d 66 ab 3a 3e 8e 69 5d 3d
       -0.04060425 0.11457154 0.18229446 0.054055743
000020 4a 06 d7 3d 0f c6 98 bc 99 86 4b 3d 35 e4 9c 3c
       0.104992464 -0.01864913 0.04968891 0.019151786
000030 ba 01 ed bd
       -0.11572595

embeddings.weight f4 [13, 32]
000000 ae bc 06 ba c2 27 d0 ba 3b a9 95 ba b4 ca 91 3e
       -0.000513981 -0.0015880989 -0.0011418232 0.28474963
000010 43 77 96 b7 4b 6f 31 3a 9a 8b 81 3a db 9e e4 3a
       -1.7936929e-05 0.0006768598 0.0009883523 0.0017442362
000020 1b 78 96 b9 ca e9 77 ba 16 69 c8 be a4 0f ad ba
       -0.00028699715 -0.00094571395 -0.39142674 -0.0013203514
000030 47 82 be 3a 20 d3 9d ba ae f1 a3 3d e6 31 8d 3a
       0.0014534675 -0.001204107 0.08005081 0.0010772317
000040 55 57 9f ba 1e 95 63 b9 7e 9f c2 ba e3 a4 ae 3a
       -0.0012156764 -0.00021703957 -0.0014848558 0.0013324287
000050 e4 ea 30 ba cb 24 5a be 92 c0 67 3a c9 5a f8 ba
       -0.00067488686 -0.21303098 0.0008840646 -0.0018947955
000060 d7 b1 ad 3a 08 ab 86 ba d4 a8 a2 ba b8 76 c6 3a
       0.0013251853 -0.001027436 -0.0012409934 0.0015141582
000070 92 47 6b 39 54 15 23 b9 af 6f fb 3a 73 fd d5 3a
       0.00022438008 -0.00015552837 0.0019183065 0.0016326144
000080 be 25 f6 ba 9d e0 07 bb 01 70 50 ba 5f 68 ad bd
       -0.0018779559 -0.0020733245 -0.000795126 -0.08467173
000090 1d 2f 88 ba e5 7c fa 3a a0 3b e2 3a 50 92 00 3b
       -0.0010390017 0.0019110708 0.0017260201 0.001961846
0000a0 84 44 f3 ba 86 91 01 bb d7 47 34 3c 1f 4d d9 ba
       -0.0018559848 -0.0019770577 0.011003456 -0.001657877
0000b0 e0 d8 f1 3a e4 6c dd ba 8c 07 00 be 0a 7e 45 bb
       0.0018451475 -0.0016893414 -0.12502879 -0.003013494
0000c0 53 bc 81 bb 7c 56 b7 3b 03 e5 25 bb 09 57 f0 3a
       -0.0039592176 0.0055950265 -0.0025313504 0.0018336485
0000d0 5b bf 0c bb 82 38 72 3e b1 3d 11 3b f3 3b b8 bb
       -0.0021476361 0.23654369 0.0022162015 -0.005622381
0000e0 32 a1 ea 3a e6 80 d3 ba 74 15 1c bb a6 06 c3 3a
       0.0017900823 -0.0016136437 -0.0023816498 0.0014879301
0000f0 47 b7 55 bb f2 b1 18 b8 1e 77 61 3b 48 7b dc 3a
       -0.0032610463 -3.640535e-05 0.0034403275 0.0016821409
000100 1e 32 fd ba c2 a0 0f bb 95 9a 97 ba 59 11 37 bc
       -0.0019317304 -0.0021915887 -0.0011566455 -0.01117357
000110 2f d2 58 ba 02 5d 05 3b 3b ff d3 3a b3 5a 12 3b
       -0.0008271066 0.0020349626 0.0016174087 0.0022331893
000120 03 de e2 ba 9b c8 e7 ba ac 06 96 3e bc 7f e8 ba
       -0.0017308596 -0.0017683686 0.29301965 -0.0017738263
000130 4c 0f 00 3b 1c e8 b4 ba 8b 9f 0c 3d 36 8f 1f bb
       0.0019540368 -0.0013802084 0.03433184 -0.0024346835
000140 31 d5 81 bb 65 55 c0 bc f2 78 28 bb 16 65 d8 3a
       -0.003962182 -0.02347822 -0.0025706855 0.0016509618
000150 ad 49 0a bb 79 92 eb bd de c8 f1 3a 58 d6 88 bb
       -0.0021101043 -0.11502547 0.0018446704 -0.0041759424
000160 59 75 c0 3a 7a 59 bf ba d8 94 07 bb 69 71 e7 3a
       0.001468341 -0.001459881 -0.0020688083 0.00176577
000170 f8 68 2a bb e0 79 c7 b9 8c d6 33 3b e5 f2 f9 3a
       -0.0026002508 -0.00038047042 0.0027441112 0.0019069581
000180 22 8b 4b 3c 3a c1 b5 3b f0 00 03 3c 34 34 96 bc
       0.012423309 0.005546716 0.007995829 -0.01833544
000190 61 c0 00 3a 79 20 36 bc c0 3a 1e bc 8c b8 c0 bb
       0.0004911479 -0.0111161405 -0.009657562 -0.0058813747
0001a0 9f 77 3e 3c 17 40 e2 3b 55 2c 7d bc 8f ae 0e 3c
       0.0116252 0.0069046128 -0.015452464 0.00870861
0001b0 a7 63 13 bc 5b 8d 01 3c 64 e4 99 bc f8 5a a0 3c
       -0.008995927 0.007907237 -0.018785663 0.019574627
0001c0 07 0a 50 3c 5c e4 00 3c ea 2d 25 3c 64 97 0a bc
       0.012697703 0.007866945 0.010081748 -0.008458946
0001d0 4f d0 ea 3b 3c 45 5c bd b8 6a 02 bc 7a 62 78 3c
       0.0071659456 -0.053776965 -0.007960014 0.015160197
0001e0 a8 76 04 bc ed 04 1a 3c 51 4a 00 3c 47 f4 34 bc
       -0.0080849305 0.009400588 0.007830218 -0.011044568
0001f0 7c 9e 79 3c fd a3 8d 3a 6c b2 32 bc 59 98 ba bb
       0.0152355395 0.0010806319 -0.010906797 -0.005694431
000200 19 49 40 3a 5c d2 a3 ba fa d4 36 bb fd 10 03 3e
       0.0007335111 -0.0012498605 -0.002789794 0.1279945
000210 d9 63 53 3a ee a6 f1 b9 1b 6f 79 38 e9 f1 94 3a
       0.00080638897 -0.00046091474 5.94697e-05 0.0011363599
000220 ab 8f 81 3a 95 81 6b b9 fc c9 7b be 95 e3 53 ba
       0.0009884735 -0.0002245962 -0.2458877 -0.00080829236
000230 01 19 82 3a 7b 7b a5 b9 22 4b d4 39 01 98 9b 3a
       0.0009925665 -0.00031563253 0.0004049177 0.0011870862
000240 4b 40 bc b8 9c fa 26 3a 4e 50 2e ba cf 9c 10 3a
       -8.976514e-05 0.0006369741 -0.00066495396 0.00055165304
000250 af 93 29 ba 84 d5 fa 3c f6 d5 ab 3a 91 00 d4 ba
       -0.0006468845 0.03061939 0.001311003 -0.0016174485
000260 22 51 26 3a 98 86 8b b9 1a e1 28 ba 65 3a 6f 3b
       0.0006344487 -0.00026612426 -0.0006442234 0.0036503312
000270 a9 76 66 39 c4 dd b8 b9 d7 f5 a3 3a 57 77 78 3a
       0.00021978714 -0.00035260443 0.0012509179 0.0009478232
000280 14 11 25 3a ca 93 cd b9 8a 18 21 bb b5 e5 52 bd
       0.00062967953 -0.00039210758 -0.0024581277 -0.051488597
000290 93 41 c6 3a 23 ab cd ba e0 f7 9f ba 66 1c 02 3b
       0.0015125744 -0.0015691262 -0.001220461 0.0019853353
0002a0 ba 68 14 3b f6 a2 ce 3a 04 6e a4 bc 0c 05 e0 39
       0.002264543 0.0015765119 -0.02007199 0.0004272837
0002b0 b3 6a f8 b9 74 15 d3 39 f7 42 b3 3c ab b8 5d bb
       -0.00047381743 0.0004026104 0.021882517 -0.0033831995
0002c0 d3 fd bf 3a 67 0d 48 3b 72 1d 9d 3a 06 0e 14 ba
       0.0014647789 0.0030525567 0.0011986925 -0.00056478416
0002d0 8b 48 3d b9 ac de 73 bc cb 5b 37 bb 8e c5 94 3b
       -0.00018051469 -0.014884632 -0.0027978297 0.004540152
0002e0 c3 23 07 b9 8f 30 3c 3a b7 49 e3 3a 00 b5 23 3b
       -0.00012887926 0.00071788667 0.0017340694 0.002497971
0002f0 14 d5 59 bb ae 09 16 3a 9c ae 98 ba ea 52 10 3b
       -0.0033238577 0.0005723488 -0.0011648717 0.0022022077
000300 09 ee 4d ba a5 29 a7 bb 4d 48 10 39 b2 6c 1e bc
       -0.00078555994 -0.0051014 0.00013759844 -0.00966947
000310 b9 cd 6b b8 7c c2 45 3a 35 05 05 3b c8 b1 4f 3b
       -5.621996e-05 0.0007543934 0.0020297293 0.003169166
000320 1c 95 aa ba af eb 34 bb 93 9b d6 bc af f0 5b bb
       -0.0013014409 -0.0027606299 -0.02619723 -0.0033560207
000330 7a 2c 51 3b 1f cf c6 ba 84 d2 4b 3c 7f 28 ce 39
       0.003191738 -0.0015167928 0.012440328 0.00039321554
000340 ed 4a da b9 24 9f 9a 3a b5 83 e7 ba 9c 6a f9 3a
       -0.00041636024 0.0011796695 -0.0017663153 0.0019028964
000350 da c5 7c b9 13 47 81 3d 9d 06 dd 3a cd 99 8e ba
       -0.00024106298 0.063123845 0.0016862933 -0.0010879576
000360 d0 fb 2b 3b 74 3a 11 bb d4 26 37 bb 4a 02 7e b8
       0.0026242621 -0.0022160085 -0.0027946727 -6.056045e-05
000370 d5 4d 0a b9 5b c6 99 b9 18 80 10 3b 5c 81 5e 3b
       -0.000131897 -0.0002933022 0.0022049006 0.0033951616
000380 e2 ce d5 bb fd fc 11 3a 10 ee c5 3b 3d 2c f2 bc
       -0.0065249065 0.0005569009 0.006040342 -0.02956211
000390 7d fb 94 b9 eb 98 b3 3b 94 fb 83 3b d3 b6 53 3b
       -0.00028416133 0.0054808757 0.004027793 0.0032305017
0003a0 7c cf ec bb aa 7b c3 ba 44 bc 77 bc aa 6f 17 bb
       -0.0072268825 -0.0014914174 -0.01512057 -0.0023107328
0003b0 ce 82 ff 3a 6f eb 5c bb 28 4c 38 bc f8 8d 4b 3a
       0.0019493939 -0.0033709665 -0.011248626 0.00077649904
0003c0 3e 35 5d ba cd e3 01 3c 60 8d f9 ba 3d d0 42 3b
       -0.00084384147 0.007927847 -0.0019039325 0.002972617
0003d0 b1 51 24 3a 4d 2a e5 bc 1d c7 0f 3a ec f1 3f 39
       0.00062682765 -0.027974272 0.0005484687 0.00018305302
0003e0 36 9c 0d 3b 5e b4 77 bb 07 58 fb b9 c4 c2 c5 bb
       0.0021608002 -0.0037796716 -0.00047940036 -0.0060351808
0003f0 ee d4 22 3b ba c3 5a b8 01 aa 9d 3a 8b 6d 68 3b
       0.0024846154 -5.2157535e-05 0.0012028815 0.0035465683

deep.0.weight f4 [512, 13]
000000 b4 1b 00 00 a8 1c 00 00 c0 1c 00 00 0d 1c 00 80
       9.938e-42 1.028e-41 1.0314e-41 -1.0063e-41
000010 e9 1b 00 80 6c 1f 00 00 9c 1b 00 00 d3 1c 00 00
       -1.0012e-41 1.1272e-41 9.904e-42 1.034e-41
000020 9b 1c 00 80 99 1b 00 00 61 1c 00 80 9a 1e 00 00
       -1.0262e-41 9.9e-42 -1.018e-41 1.0978e-41
000030 61 1c 00 00 6a 1b 00 00 6e 1b 00 00 97 1b 00 00
       1.018e-41 9.834e-42 9.84e-42 9.897e-42
000040 88 1c 00 80 99 1b 00 00 5b 1c 00 00 e8 1b 00 80
       -1.0235e-41 9.9e-42 1.0172e-41 -1.0011e-41
000050 71 1b 00 00 5d 1b 00 00 7f 1b 00 00 73 1b 00 00
       9.844e-42 9.816e-42 9.864e-42 9.847e-42
000060 b0 1f 00 00 6a 1b 00 80 d9 1b 00 00 b3 1b 00 00
       1.1367e-41 -9.834e-42 9.99e-42 9.937e-42
000070 c6 1b 00 80 8d 1c 00 80 e3 1b 00 80 72 1b 00 00
       -9.963e-42 -1.0242e-41 -1.0004e-41 9.846e-42
000080 d0 1b 00 80 9d 1c 00 80 43 1c 00 80 63 1b 00 80
       -9.977e-42 -1.0265e-41 -1.0138e-41 -9.825e-42
000090 96 1c 00 00 e4 1d 00 80 96 1d 00 80 65 1b 00 80
       1.0255e-41 -1.0723e-41 -1.0613e-41 -9.827e-42
0000a0 66 1a 00 00 d2 1b 00 80 49 1d 00 00 18 1c 00 80
       9.47e-42 -9.98e-42 1.0506e-41 -1.0078e-41
0000b0 b8 1b 00 00 1c 1c 00 00 59 1b 00 80 1c 23 00 80
       9.944e-42 1.0084e-41 -9.81e-42 -1.2595e-41
0000c0 7b 1b 00 80 50 18 00 00 6b 20 00 00 1a 21 00 80
       -9.858e-42 8.722e-42 1.163e-41 -1.1875e-41
0000d0 92 1b 00 00 6b 1b 00 00 81 1b 00 80 8d 1b 00 80
       9.89e-42 9.836e-42 -9.867e-42 -9.883e-42
0000e0 58 1b 00 80 62 1b 00 00 83 1b 00 00 87 1b 00 80
       -9.809e-42 9.823e-42 9.87e-42 -9.875e-42
0000f0 67 1b 00 00 94 1b 00 00 be 1e 00 80 b1 1e 00 00
       9.83e-42 9.893e-42 -1.1028e-41 1.101e-41
000100 a9 1b 00 80 9e 1b 00 00 8a 1b 00 80 79 1b 00 80
       -9.923e-42 9.907e-42 -9.879e-42 -9.855e-42
000110 73 1b 00 00 96 1b 00 80 9d 1b 00 00 8d 1b 00 80
       9.847e-42 -9.896e-42 9.906e-42 -9.883e-42
000120 64 1b 00 00 5c 1b 00 00 94 1b 00 80 78 1b 00 00
       9.826e-42 9.815e-42 -9.893e-42 9.854e-42
000130 c7 1c 00 80 e6 1b 00 80 5f 1b 00 80 84 1b 00 00
       -1.0323e-41 -1.0008e-41 -9.819e-42 9.871e-42
000140 cb 1b 00 80 71 1b 00 80 a2 1b 00 00 d0 1b 00 00
       -9.97e-42 -9.844e-42 9.913e-42 9.977e-42
000150 9c 1b 00 00 2b 1c 00 80 5c 1b 00 80 b2 1b 00 80
       9.904e-42 -1.0105e-41 -9.815e-42 -9.935e-42
000160 59 1b 00 00 f6 1c 00 80 ad 1b 00 00 82 15 92 b3
       9.81e-42 -1.0389e-41 9.928e-42 -6.802567e-08
000170 b6 3d 75 2f 10 d9 a8 2d 2a 8b 16 2e 11 ba 0f af
       2.2304544e-10 1.9195784e-11 3.4229654e-11 -1.3071878e-10
000180 8f a1 59 2d 70 2b 55 b2 9c 05 a3 2d c2 40 8b 2c
       1.2370895e-11 -1.2408108e-08 1.8533446e-11 3.957807e-12
000190 ae 26 88 b5 a5 cc ea 2c 15 fa 06 ae ad 5c 89 ad
       -1.0144047e-06 6.6734e-12 -3.069019e-11 -1.5616253e-11
0001a0 d1 e2 cd 2e c0 bb a0 b4 9c e6 28 2f 92 e2 be 2d
       9.3626114e-11 -2.9938928e-07 1.536144e-10 2.1701117e-11
0001b0 37 15 72 33 98 68 3b b6 f2 d2 75 32 fd df 22 b1
       5.636431e-08 -2.7926053e-06 1.430884e-08 -2.3701425e-09
0001c0 66 3f 8c 36 40 b3 b1 36 2c 13 17 2c 9f 67 cc b0
       4.1797057e-06 5.2958785e-06 2.1469033e-12 -1.4872404e-09
0001d0 de 1a e4 33 e7 20 00 00 09 1c 00 00 d2 1b 00 80
       1.06219645e-07 1.1803e-41 1.0057e-41 -9.98e-42
0001e0 31 1c 00 80 6f 22 00 80 6a 1d 00 00 ae 1b 00 00
       -1.0113e-41 -1.2352e-41 1.0552e-41 9.93e-42
0001f0 4b 1c 00 00 7f 1c 00 00 6d 1b 00 80 63 1c 00 00
       1.015e-41 1.0222e-41 -9.839e-42 1.0183e-41
000200 81 1b 00 80 df 1c 00 00 59 1b 00 80 7b 1b 00 00
       -9.867e-42 1.0357e-41 -9.81e-42 9.858e-42
000210 80 1b 00 00 aa 1b 00 80 7c 1b 00 80 95 1b 00 80
       9.865e-42 -9.924e-42 -9.86e-42 -9.895e-42
000220 2b 21 00 00 a2 1b 00 80 5c 1b 00 00 7a 1b 00 80
       1.1898e-41 -9.913e-42 9.815e-42 -9.857e-42
000230 a9 1b 00 00 eb 1c 00 80 a4 1b 00 80 eb 0f 04 b0
       9.923e-42 -1.0374e-41 -9.916e-42 -4.804394e-10
000240 00 a1 84 37 dc 9d fd 2d 50 e5 83 ab 87 b2 2d b4
       1.5810598e-05 2.8832874e-11 -9.371757e-13 -1.6176828e-07
000250 7f 97 cd af b1 1f 21 ae 39 69 85 2e 81 62 71 ae
       -3.7396927e-10 -3.663531e-11 6.066831e-11 -5.4884545e-11
000260 5d 47 4b af f1 94 b1 b1 e0 21 8f b0 43 32 07 33
       -1.8488096e-10 -5.1683107e-09 -1.0414247e-09 3.147785e-08
000270 ca 21 b8 b3 66 60 18 b2 a2 0d 31 b5 bc 31 56 2f
       -8.574314e-08 -8.869483e-09 -6.5957477e-07 1.9480856e-10
000280 e3 14 90 b0 b7 92 db b0 d0 af 38 30 c5 ed bd ae
       -1.0483315e-09 -1.5976046e-09 6.7188655e-10 -8.636961e-11
000290 5a 6f a8 b6 c2 96 52 b5 c6 52 df ae ee 03 52 36
       -5.019753e-06 -7.845048e-07 -1.01555694e-10 3.1294726e-06
0002a0 b1 9b db 35 9c 1b 00 80 1a 1c 00 80 93 1c 00 00
       1.6362084e-06 -9.904e-42 -1.0081e-41 1.025e-41
0002b0 9d 1c 00 00 6a 1b 00 00 af 1b 00 80 86 1b 00 00
       1.0265e-41 9.834e-42 -9.931e-42 9.874e-42
0002c0 67 1b 00 00 cb 1c 00 80 b7 1b 00 00 6a 1b 00 00
       9.83e-42 -1.0329e-41 9.942e-42 9.834e-42
0002d0 03 1c 00 00 d1 1c 00 80 e5 1d 00 80 d0 1b 00 00
       1.0049e-41 -1.0337e-41 -1.0724e-41 9.977e-42
0002e0 9c 1b 00 00 01 1c 00 00 15 1e 00 80 9e 1b 00 80
       9.904e-42 1.0046e-41 -1.0791e-41 -9.907e-42
0002f0 b5 1e 00 80 97 1b 00 80 b5 1b 00 80 fb 1b 00 80
       -1.1016e-41 -9.897e-42 -9.94e-42 -1.0038e-41
000300 be 1d 00 80 a9 1b 00 00 06 07 00 00 90 1b 00 00
       -1.067e-41 9.923e-42 2.52e-42 9.888e-42
000310 01 1d 00 80 6f 1b 00 00 be 20 00 80 8a 1b 00 80
       -1.0405e-41 9.841e-42 -1.1746e-41 -9.879e-42
000320 52 1e 00 80 f1 1b 00 00 1a 1c 00 00 72 1e 00 00
       -1.0877e-41 1.0023e-41 1.0081e-41 1.0922e-41
000330 ad 1b 00 80 e6 1d 00 80 2c 1f 00 80 d2 22 00 00
       -9.928e-42 -1.0726e-41 -1.1182e-41 1.2491e-41
000340 6e 1b 00 00 d3 1b 00 00 d0 1b 00 00 51 1c 00 00
       9.84e-42 9.981e-42 9.977e-42 1.0158e-41
000350 fe 1b 00 00 c1 1c 00 00 bf 1b 00 00 f0 1b 00 00
       1.0042e-41 1.0315e-41 9.953e-42 1.0022e-41
000360 e1 1b 00 00 95 1b 00 00 61 1c 00 00 0e 20 00 00
       1.0001e-41 9.895e-42 1.018e-41 1.1499e-41
000370 9a 22 00 00 96 1b 00 00 77 1b 00 80 7f 1b 00 80
       1.2413e-41 9.896e-42 -9.853e-42 -9.864e-42
000380 8e 1b 00 80 67 1b 00 80 90 1b 00 80 5a 1b 00 00
       -9.885e-42 -9.83e-42 -9.888e-42 9.812e-42
000390 67 1b 00 00 81 1b 00 80 9f 1b 00 80 68 1b 00 00
       9.83e-42 -9.867e-42 -9.909e-42 9.832e-42
0003a0 be 1b 00 00 89 1b 00 00 fe 1b 00 80 7b 1d 00 80
       9.952e-42 9.878e-42 -1.0042e-41 -1.0576e-41
0003b0 67 1b 00 00 62 1b 00 00 6a 1c 00 80 e7 1b 00 80
       9.83e-42 9.823e-42 -1.0193e-41 -1.001e-41
0003c0 c0 1b 00 00 53 1c 00 80 69 1b 00 00 ba 1b 00 80
       9.955e-42 -1.0161e-41 9.833e-42 -9.946e-42
0003d0 06 1c 00 00 c6 22 00 00 c6 1b 00 00 62 1b 00 00
       1.0053e-41 1.2474e-41 9.963e-42 9.823e-42
0003e0 7f 1b 00 80 8b 1b 00 80 62 1b 00 80 2d 22 00 00
       -9.864e-42 -9.88e-42 -9.823e-42 1.226e-41
0003f0 8d 1b 00 80 7f 1b 00 80 74 1b 00 80 5b 1b 00 80
       -9.883e-42 -9.864e-42 -9.848e-42 -9.813e-42

deep.0.bias f4 [512]
000000 69 1e 00 00 b4 1c 00 00 4a 20 00 00 17 21 00 00
       1.0909e-41 1.0297e-41 1.1583e-41 1.187e-41
000010 f6 1b 00 80 ee 1b 00 80 99 21 00 00 2a 2a 41 b0
       -1.003e-41 -1.0019e-41 1.2053e-41 -7.027291e-10
000020 f1 7b 8d 2a 95 1b 00 00 71 1b 00 80 b4 0c a1 31
       2.5132633e-13 9.895e-42 -9.844e-42 4.687161e-09
000030 35 99 a0 af b0 20 00 80 79 1b 00 80 41 1c 00 80
       -2.921269e-10 -1.1726e-41 -9.855e-42 -1.0136e-41
000040 81 20 00 00 32 1c 00 00 95 1d 00 00 6c 1b 00 00
       1.166e-41 1.0115e-41 1.0612e-41 9.837e-42
000050 a6 1b 00 00 9c 1e 00 00 a2 bb 96 2e 2a e4 c4 32
       9.918e-42 1.098e-41 6.8545405e-11 2.292116e-08
000060 35 1c 00 00 59 1d 00 00 b0 df 0f b7 a8 c6 a3 36
       1.0119e-41 1.0528e-41 -8.5755455e-06 4.880905e-06
000070 7b 1c 00 00 fe 1b 00 00 d2 22 00 00 0c 6f 35 31
       1.0217e-41 1.0042e-41 1.2491e-41 2.640209e-09
000080 38 20 0a b4 91 1b 00 80 97 1b 00 00 1e 1c 00 80
       -1.2863973e-07 -9.889e-42 9.897e-42 -1.0087e-41
000090 b9 07 44 b2 50 1d 00 00 16 1c 00 00 9e 61 fe b6
       -1.14104575e-08 1.0515e-41 1.0075e-41 -7.581154e-06
0000a0 ec 1b 00 80 16 23 00 80 54 d1 96 2f 61 92 91 b2
       -1.0016e-41 -1.2586e-41 2.7433578e-10 -1.6946787e-08
0000b0 30 9e 48 b0 de 4d 5c 32 7c 20 00 80 17 1e 00 80
       -7.2984374e-10 1.282339e-08 -1.1653e-41 -1.0794e-41
0000c0 86 b5 47 ab d3 1b 00 00 f1 ac cb b7 49 21 00 00
       -7.0950917e-13 9.981e-42 -2.4280018e-05 1.194e-41
0000d0 c0 1c 00 00 98 1b 00 80 cb cd cf 2c f0 1b 00 80
       1.0314e-41 -9.899e-42 5.9061415e-12 -1.0022e-41
0000e0 fa b8 96 2f e8 18 00 00 83 1c 00 00 b5 1d 00 00
       2.7416275e-10 8.935e-42 1.0228e-41 1.0657e-41
0000f0 94 65 a0 2c 50 69 04 2e 91 53 ea 31 a0 1b 00 80
       4.558751e-12 3.010686e-11 6.8197967e-09 -9.91e-42
000100 20 21 00 80 d2 fe 09 32 0e 1c 00 80 08 23 00 80
       -1.1883e-41 8.032389e-09 -1.0064e-41 -1.2567e-41
000110 ba 1b 00 00 4f 1c 00 80 d5 1b 00 00 3b a5 e9 2f
       9.946e-42 -1.0155e-41 9.984e-42 4.2499856e-10
000120 21 69 65 37 d4 22 00 80 e5 89 82 2e 22 1e 00 00
       1.3673941e-05 -1.2494e-41 5.9362106e-11 1.081e-41
000130 e9 b4 ce 2f 0f 1c 00 80 52 1f 00 00 c0 1b 00 00
       3.7599726e-10 -1.0066e-41 1.1236e-41 9.955e-42
000140 bd 1b 00 00 ce 9c 0b 2e 6e eb 9a 37 6f 1b 00 00
       9.95e-42 3.174421e-11 1.8467861e-05 9.841e-42
000150 45 e7 12 2e f2 1b 00 00 72 e9 da ac 8f 1b 00 00
       3.3401965e-11 1.0025e-41 -6.2218503e-12 9.886e-42
000160 49 1f 00 00 a3 51 bd 33 84 f8 8b 34 bf 1b 00 00
       1.1223e-41 8.815848e-08 2.6071586e-07 9.953e-42
000170 07 20 00 00 5f 1c 00 00 94 fd 94 2e c8 1d 00 00
       1.1489e-41 1.0178e-41 6.775305e-11 1.0683e-41
000180 c9 f5 cc ac e1 20 00 80 ed 1b 00 80 9b 1c 00 80
       -5.8253164e-12 -1.1795e-41 -1.0018e-41 -1.0262e-41
000190 34 1d 00 80 08 1c 00 80 24 8e b2 ae ae 95 60 b5
       -1.0476e-41 -1.0056e-41 -8.119752e-11 -8.3664315e-07
0001a0 0e 20 00 00 a5 95 eb b5 c4 e1 a7 2e 57 1f 20 33
       1.1499e-41 -1.7552417e-06 7.634385e-11 3.7281406e-08
0001b0 15 bd e5 b6 12 1c 00 00 c7 1e 00 00 2d 97 0f 2f
       -6.846744e-06 1.007e-41 1.1041e-41 1.3059483e-10
0001c0 2a 68 35 31 22 5e c9 2c 6f 1c 00 80 87 36 dc af
       2.6398177e-09 5.7232144e-12 -1.02e-41 -4.005651e-10
0001d0 c1 5a 91 2f c1 38 74 2e 78 44 ce 2f 7e ff f9 2d
       2.643983e-10 5.5529584e-11 3.7519832e-10 2.8421484e-11
0001e0 f6 f1 21 b3 93 ca 12 30 a2 1b 00 00 66 d6 f3 2d
       -3.7705796e-08 5.3402366e-10 9.913e-42 2.7721114e-11
0001f0 68 1c 00 80 9c d0 29 af 8b dd 9d 2d 60 80 11 b0
       -1.019e-41 -1.5444573e-10 1.7947218e-11 -5.2933125e-10
000200 84 1b 00 00 86 1c 00 00 ed 1b 00 00 bb 22 00 00
       9.871e-42 1.0232e-41 1.0018e-41 1.2459e-41
000210 85 1e 00 80 22 45 b0 af 57 1c 00 80 a0 20 00 80
       -1.0948e-41 -3.2063335e-10 -1.0166e-41 -1.1704e-41
000220 71 1b 00 80 c4 1e 00 80 57 4e 47 30 8a 47 65 2f
       -9.844e-42 -1.1037e-41 7.2507106e-10 2.0852844e-10
000230 cc 1b 00 00 3d 69 8f 2e d0 1b 00 80 8d 1b 00 80
       9.972e-42 6.521581e-11 -9.977e-42 -9.883e-42
000240 ab 1b 00 00 81 1c 00 00 78 1e 00 80 b9 cf ac af
       9.925e-42 1.0225e-41 -1.093e-41 -3.1434214e-10
000250 a5 21 00 00 81 11 0b b8 91 1b 00 80 79 1c 00 00
       1.207e-41 -3.3156484e-05 -9.889e-42 1.0214e-41
000260 42 14 0f 2e 07 20 00 00 27 5c d3 ad 78 1d 00 00
       3.2532428e-11 1.1489e-41 -2.4028847e-11 1.0571e-41
000270 06 1c 00 00 76 51 95 b0 ea 21 00 80 ab 1e 00 80
       1.0053e-41 -1.0864329e-09 -1.2166e-41 -1.1002e-41
000280 b7 1b 00 00 dc 1f 00 80 84 1b 00 80 6a a6 5b 2d
       9.942e-42 -1.1429e-41 -9.871e-42 1.248566e-11
000290 ec 1b 00 80 0d 1c 00 00 71 1c 00 00 c0 22 00 00
       -1.0016e-41 1.0063e-41 1.0203e-41 1.2466e-41
0002a0 ce 1c 00 80 55 21 00 00 c0 bd 42 2e 73 1c 00 80
       -1.0333e-41 1.1957e-41 4.4279025e-11 -1.0206e-41
0002b0 e3 9e a1 b7 af 20 00 00 24 55 44 2e bc 20 00 00
       -1.9266683e-05 1.1725e-41 4.464086e-11 1.1743e-41
0002c0 8c 36 f8 2e 62 00 9a 35 a9 c5 e2 b0 95 51 9c af
       1.1287424e-10 1.1474006e-06 -1.6499843e-09 -2.8434202e-10
0002d0 19 8d 86 32 b1 1b 00 80 5d 22 00 80 28 b5 c8 b1
       1.5663817e-08 -9.934e-42 -1.2327e-41 -5.841361e-09
0002e0 21 86 2d 37 bf 1c 00 00 7f 19 3d af 07 20 00 80
       1.0342833e-05 1.0312e-41 -1.7198508e-10 -1.1489e-41
0002f0 6d 67 0c b4 35 d7 45 b5 0e 1e 00 80 f8 1b 00 80
       -1.3076142e-07 -7.3701386e-07 -1.0782e-41 -1.0033e-41
000300 70 20 98 ad 2e 1f 00 80 e5 1d 00 80 02 3c 37 37
       -1.7294804e-11 -1.1185e-41 -1.0724e-41 1.0921622e-05
000310 85 1b 00 80 f0 38 1a 37 b0 eb 6b 32 ac 1b 00 00
       -9.872e-42 9.192372e-06 1.37323894e-08 9.927e-42
000320 3e 1d 00 80 7a 1b 00 00 6d 1b 00 00 db 21 00 00
       -1.049e-41 9.857e-42 9.839e-42 1.2145e-41
000330 59 56 9e b2 ca 33 cc 2b 66 1f 00 00 5f e6 8e ae
       -1.8432887e-08 1.4509446e-12 1.1264e-41 -6.4983345e-11
000340 6b 8a cd ad d7 1d 00 00 d0 1c 00 80 82 85 2b af
       -2.3367272e-11 1.0705e-41 -1.0336e-41 -1.5599791e-10
000350 64 1b 00 80 ca 1e 00 00 f7 1c 00 80 51 1f 00 00
       -9.826e-42 1.1045e-41 -1.039e-41 1.1234e-41
000360 a1 0b 14 34 af e7 78 2e 26 80 1e 2f a3 1c 00 80
       1.3787805e-07 5.6594448e-11 1.4415544e-10 -1.0273e-41
000370 d9 1b 00 80 e4 1b 00 80 5a 30 1b 35 2b ad 12 30
       -9.99e-42 -1.0005e-41 5.781236e-07 5.3360577e-10
000380 10 1e 00 00 a5 1c 00 00 b6 1b 00 00 c6 06 18 2c
       1.0784e-41 1.0276e-41 9.941e-42 2.160426e-12
000390 fd 44 cf 2e ba 1c 00 80 74 09 06 af 52 1c 00 00
       9.425525e-11 -1.0305e-41 -1.2190587e-10 1.016e-41
0003a0 82 1b 00 00 8f 20 00 00 1e 4f d9 30 dc 1b 00 00
       9.868e-42 1.168e-41 1.5811314e-09 9.994e-42
0003b0 f7 1b 00 80 bd 20 00 00 4a 1c 00 80 89 1c 00 00
       -1.0032e-41 1.1744e-41 -1.0148e-41 1.0236e-41
0003c0 6b 21 00 00 94 1b 00 00 9c 1d 00 80 c3 1e 00 00
       1.1988e-41 9.893e-42 -1.0622e-41 1.1035e-41
0003d0 45 1c 00 80 3a 1c 00 80 72 1d 00 00 9f 1c 00 00
       -1.0141e-41 -1.0126e-41 1.0563e-41 1.0267e-41
0003e0 36 1f 00 00 5f 35 63 ae 93 1b 00 80 ae 1e 00 00
       1.1196e-41 -5.1661227e-11 -9.892e-42 1.1006e-41
0003f0 f1 c8 13 b6 26 9b 07 2f 7d 22 00 80 02 22 00 00
       -2.202167e-06 1.2333298e-10 -1.2372e-41 1.22e-41

deep.2.weight f4 [64, 512]
000000 c1 1b 00 00 6b 1b 00 00 87 1b 00 00 df 1b 00 00
       9.956e-42 9.836e-42 9.875e-42 9.998e-42
000010 63 1b 00 00 80 1b 00 00 66 1b 00 80 43 9d 85 ae
       9.825e-42 9.865e-42 -9.829e-42 -6.076075e-11
000020 02 8a b0 b1 5d 1b 00 00 06 1c 00 80 dc 37 18 b2
       -5.137964e-09 9.816e-42 -1.0053e-41 -8.860265e-09
000030 de da 4e b0 43 1c 00 80 31 21 00 00 c3 1b 00 00
       -7.525339e-10 -1.0138e-41 1.1907e-41 9.959e-42
000040 a0 1b 00 80 82 1b 00 00 cb 21 00 00 61 1b 00 00
       -9.91e-42 9.868e-42 1.2123e-41 9.822e-42
000050 bb 1c 00 00 5b 1c 00 00 08 bc a1 30 54 95 9b b1
       1.0307e-41 1.0172e-41 1.1767733e-09 -4.5280704e-09
000060 8b 1b 00 80 d6 1b 00 00 6c 7d 02 2c 48 74 85 b0
       -9.88e-42 9.986e-42 1.8543734e-12 -9.710073e-10
000070 32 1c 00 00 e7 1b 00 00 de 20 00 80 78 80 2c 2f
       1.0115e-41 1.001e-41 -1.179e-41 1.568895e-10
000080 b6 1e 0b ae df 1b 00 00 74 1b 00 00 cd 1b 00 00
       -3.1632218e-11 9.998e-42 9.848e-42 9.973e-42
000090 e5 a5 49 b0 2d 1c 00 00 5b 1b 00 80 fa 82 92 b0
       -7.3359124e-10 1.0108e-41 -9.813e-42 -1.0660124e-09
0000a0 70 1b 00 80 10 1e 00 00 27 6b 33 31 32 9c 2d 2e
       -9.843e-42 1.0784e-41 2.6108837e-09 3.9474375e-11
0000b0 12 9a 86 ad be 06 41 31 64 1c 00 80 de 1b 00 00
       -1.5302457e-11 2.8089029e-09 -1.0185e-41 9.997e-42
0000c0 68 7e 17 ac 7a 22 00 00 5b b4 3d ae 59 1b 00 00
       -2.152856e-12 1.2368e-41 -4.3133812e-11 9.81e-42
0000d0 9d 1b 00 00 9d 22 00 80 01 fe 5a 2f 83 1b 00 80
       9.906e-42 -1.2417e-41 1.9917225e-10 -9.87e-42
0000e0 a0 c1 2c 2f ba 1b 00 80 0f 1c 00 80 be 1b 00 80
       1.5712098e-10 -9.946e-42 -1.0066e-41 -9.952e-42
0000f0 d2 c6 b1 b6 1f 8c 9b ac d9 65 0c af b2 1b 00 80
       -5.298157e-06 -4.4209215e-12 -1.276911e-10 -9.935e-42
000100 b2 1b 00 00 3a 83 56 ae 97 1b 00 00 00 1c 00 80
       9.935e-42 -4.877452e-11 9.897e-42 -1.0045e-41
000110 7a 1b 00 00 a5 1b 00 80 e0 1b 00 00 6b d4 1b b0
       9.857e-42 -9.917e-42 1e-41 -5.6690536e-10
000120 df 48 43 30 cd 21 00 80 36 6d 2a 2e a0 1c 00 80
       7.1044143e-10 -1.2125e-41 3.8750524e-11 -1.0269e-41
000130 ac 51 e9 2f c6 92 c4 b1 9c 1b 00 80 04 1f 00 00
       4.2440484e-10 -5.721037e-09 -9.904e-42 1.1126e-41
000140 b9 1b 00 80 96 f4 8c 36 63 f1 36 aa 77 1e 00 80
       -9.945e-42 4.2007987e-06 -1.6248595e-13 -1.0929e-41
000150 73 47 93 30 72 1e 00 00 02 52 9b ac 1a 1c 00 00
       1.0715965e-09 1.0922e-41 -4.4144697e-12 1.0081e-41
000160 18 1c 00 00 8f 61 71 31 5e 69 00 34 e8 1b 00 80
       1.0078e-41 3.5125571e-09 1.1959261e-07 -1.0011e-41
000170 84 1b 00 00 db 1b 00 00 0c 1b 06 30 be 1b 00 00
       9.871e-42 9.993e-42 4.878735e-10 9.952e-42
000180 7e 4a 67 30 7c 1b 00 80 5a 1b 00 80 0f 1c 00 00
       8.414317e-10 -9.86e-42 -9.812e-42 1.0066e-41
000190 25 1c 00 00 b3 1c 00 80 7e af ed b2 32 99 8d 32
       1.0096e-41 -1.0295e-41 -2.7670236e-08 1.6484226e-08
0001a0 68 1b 00 80 9f 04 e9 af 78 a5 8c 2f 81 1c 07 37
       -9.832e-42 -4.2385737e-10 2.5583424e-10 8.053264e-06
0001b0 7f 10 e2 32 96 1b 00 80 aa 1f 00 00 97 03 5d 32
       2.6317364e-08 -9.896e-42 1.1359e-41 1.2864709e-08
0001c0 cc 57 3a 2e ab 7e f0 ad a6 20 00 80 fc 57 62 2e
       4.2369483e-11 -2.7341093e-11 -1.1712e-41 5.1464596e-11
0001d0 03 7a a4 b2 30 fa b8 2d 77 72 dc b2 c2 6c e4 ac
       -1.9147597e-08 2.1029484e-11 -2.5663423e-08 -6.4922243e-12
0001e0 9a 07 47 2f 9b 36 dc b0 fe 1b 00 00 62 09 e1 33
       1.8101645e-10 -1.6022627e-09 1.0042e-41 1.0479086e-07
0001f0 d5 1b 00 80 41 f9 d1 ae 5b 98 38 30 99 85 c2 af
       -9.984e-42 -9.548496e-11 6.715532e-10 -3.538332e-10
000200 6b 0b 00 80 cb 1b 00 80 b4 1b 00 80 64 1b 00 80
       -4.096e-42 -9.97e-42 -9.938e-42 -9.826e-42
000210 82 1b 00 00 2b 3a b7 af f1 1b 00 80 b1 1b 00 80
       9.868e-42 -3.3328837e-10 -1.0023e-41 -9.934e-42
000220 90 76 0b b5 db 1b 00 80 6f 31 8d b1 a4 80 51 b4
       -5.1954066e-07 -9.993e-42 -4.10926e-09 -1.9511441e-07
000230 7a 1c 00 80 da 1c 85 b0 6d 1b 00 00 5e 1c 00 80
       -1.0215e-41 -9.685224e-10 9.839e-42 -1.0176e-41
000240 a5 1b 00 80 93 1c 00 80 e5 1b 00 00 e9 6e be 2e
       -9.917e-42 -1.025e-41 1.0007e-41 8.659901e-11
000250 6b 1f 00 00 6f c6 16 2f a8 1b 00 80 f5 1d 00 00
       1.127e-41 1.3712918e-10 -9.921e-42 1.0747e-41
000260 f5 d2 06 af c7 1d 00 00 5b 59 c6 2c 78 1b 00 00
       -1.2262176e-10 1.0682e-41 5.637419e-12 9.854e-42
000270 7c 1b 00 00 1f ac 74 af a4 1c 00 80 be 1b 00 80
       9.86e-42 -2.225282e-10 -1.0274e-41 -9.952e-42
000280 17 1d 00 00 d9 1b 00 80 18 23 00 00 5f 0f e0 2e
       1.0435e-41 -9.99e-42 1.2589e-41 1.0189071e-10
000290 c2 1e 00 00 c2 1b 00 80 07 21 00 80 cb 17 00 80
       1.1034e-41 -9.958e-42 -1.1848e-41 -8.535e-42
0002a0 19 20 00 00 79 1b 00 00 76 c8 30 30 db 1b 00 80
       1.1514e-41 9.855e-42 6.43133e-10 -9.993e-42
0002b0 13 e8 cf 2f c8 1d 00 80 e3 3d 95 ae 48 1f 00 80
       3.781798e-10 -1.0683e-41 -6.786729e-11 -1.1222e-41
0002c0 3c 78 e2 af ba fe c4 32 6b 97 c5 33 5a e4 3c 33
       -4.1194592e-10 2.293324e-08 9.20107e-08 4.3979846e-08
0002d0 f1 a6 af 31 36 1c 00 00 75 1b 00 00 fb 88 f9 30
       5.1121494e-09 1.012e-41 9.85e-42 1.8156067e-09
0002e0 e9 d1 0d ae bb 1b 00 00 fc eb fc 2c 45 1c 00 80
       -3.2246126e-11 9.948e-42 7.1884703e-12 -1.0141e-41
0002f0 2b 8c b5 ac 08 6d e6 af 6d 1b 00 00 ac db 84 34
       -5.159891e-12 -4.1914228e-10 9.839e-42 2.4746748e-07
000300 29 52 66 af fd 1b 00 80 9e 1b 00 80 5c a6 b8 b0
       -2.0947567e-10 -1.004e-41 -9.907e-42 -1.3435044e-09
000310 c9 1b 00 00 de 2f e4 2e 66 e4 ab ae 3a 21 00 00
       9.967e-42 1.03767425e-10 -7.8167514e-11 1.192e-41
000320 aa 1b 00 00 9d 1b 00 00 78 1b 00 00 99 1b 00 80
       9.924e-42 9.906e-42 9.854e-42 -9.9e-42
000330 63 96 da ad ae a1 6d b0 63 1b 00 00 91 5c a0 31
       -2.4850516e-11 -8.644986e-10 9.825e-42 4.6671365e-09
000340 25 28 ef 35 ee 1b 00 00 58 1b 00 80 24 a9 2f 32
       1.7818571e-06 1.0019e-41 -9.809e-42 1.0224799e-08
000350 ee 1e 00 80 93 1b 00 80 c9 1b 00 00 22 22 00 00
       -1.1095e-41 -9.892e-42 9.967e-42 1.2245e-41
000360 e3 f8 af ae 26 70 ce ac e4 a5 7d 32 62 1c 00 80
       -8.00229e-11 -5.867323e-12 1.4764257e-08 -1.0182e-41
000370 3d 1d 00 00 ba 1b 00 00 ac 9c 32 af ea c8 ab 2d
       1.0489e-41 9.946e-42 -1.6244667e-10 1.9529673e-11
000380 fd 1b 00 80 69 1b 00 80 a1 1d 00 00 31 6a 0a b0
       -1.004e-41 -9.833e-42 1.0629e-41 -5.0355015e-10
000390 8b a8 d1 b2 69 1b 00 80 2f 73 3f 2d 97 1b 00 00
       -2.4407447e-08 -9.833e-42 1.0882669e-11 9.897e-42
0003a0 8d 1b 00 80 32 1c 00 80 5d 2a 90 31 cf 1b 00 80
       -9.883e-42 -1.0115e-41 4.1957677e-09 -9.976e-42
0003b0 ad 1b 00 80 0b 1c 00 00 94 1b 00 80 72 1b 00 80
       -9.928e-42 1.006e-41 -9.893e-42 -9.846e-42
0003c0 a9 1b 00 00 6b 1b 00 00 84 1b 00 80 ad 1c 00 80
       9.923e-42 9.836e-42 -9.871e-42 -1.0287e-41
0003d0 7b 1b 00 80 02 1c 00 80 77 1b 00 00 68 1c 00 80
       -9.858e-42 -1.0047e-41 9.853e-42 -1.019e-41
0003e0 20 1c 00 80 68 83 30 af 5e 1e 00 80 0b 23 00 00
       -1.009e-41 -1.6053792e-10 -1.0894e-41 1.2571e-41
0003f0 d5 8f 53 31 2f ab d1 33 94 1f 00 00 f5 1b 00 00
       3.07863e-09 9.763459e-08 1.1328e-41 1.0029e-41

deep.2.bias f4 [64]
000000 d3 88 5c 37 5a 29 f2 b3 2b 2a 95 35 3c 3b d3 32
       1.3144879e-05 -1.1276525e-07 1.1113638e-06 2.459057e-08
000010 3d e5 04 37 6f 2b a4 b3 5d 7d f8 b4 eb 53 ae b2
       7.921187e-06 -7.6447456e-08 -4.6284813e-07 -2.0294427e-08
000020 7a 00 d1 b4 e7 3a 4f 33 6b fd f1 b5 26 58 28 33
       -3.892963e-07 4.8249515e-08 -1.8029654e-06 3.919572e-08
000030 87 c3 73 b6 48 a9 5e 37 5a be 72 35 b1 8f 5e b6
       -3.6323634e-06 1.3271645e-05 9.0429023e-07 -3.3164217e-06
000040 15 2f e8 b3 a6 be 03 b4 eb 90 39 36 3a ff 1a b5
       -1.0811906e-07 -1.2269683e-07 2.7651502e-06 -5.7740874e-07
000050 0c 00 63 b7 05 b5 57 b2 ec 42 b5 34 c1 b5 77 33
       -1.3530265e-05 -1.2555806e-08 3.376257e-07 5.7674473e-08
000060 2e 38 82 b3 21 bb b2 35 f4 e3 95 33 8a 1c be 32
       -6.063816e-08 1.3316495e-06 6.9798176e-08 2.213189e-08
000070 22 69 5a b6 78 21 c0 b4 48 4f 9d b3 63 51 80 34
       -3.2545727e-06 -3.578714e-07 -7.3253034e-08 2.3901075e-07
000080 73 e9 47 35 8b c3 97 32 eb f0 e5 b6 ab 7f bc b5
       7.447299e-07 1.7667636e-08 -6.8527784e-06 -1.4044248e-06
000090 cc e8 d5 34 9e 57 14 b2 f6 53 38 b5 12 ce fc 34
       3.9843724e-07 -8.634656e-09 -6.866752e-07 4.7088594e-07
0000a0 a9 48 b9 b5 5a d7 d1 34 ec dd 7e b5 fe 26 bd 34
       -1.3804721e-06 3.9085973e-07 -9.494531e-07 3.5232364e-07
0000b0 5a a7 f9 b3 b5 c4 45 b3 e2 d5 9a 32 98 60 a3 b6
       -1.1625407e-07 -4.604654e-08 1.8025222e-08 -4.8690235e-06
0000c0 1a eb 3f b4 9e bc 64 b0 86 5b 6f b4 6e 54 d4 32
       -1.787379e-07 -8.321396e-10 -2.2291906e-07 2.4718442e-08
0000d0 60 09 d6 36 41 a0 8f b3 9d 4f 08 35 80 cf b0 32
       6.3787884e-06 -6.6881064e-08 5.07798e-07 2.0583457e-08
0000e0 dc ab 9f b3 1d 69 bc b1 20 43 27 b5 c7 f7 04 b4
       -7.4352755e-08 -5.48347e-09 -6.231003e-07 -1.2383599e-07
0000f0 81 52 01 36 ad 9a b8 37 0c cb 7f b5 99 13 13 36
       1.9270522e-06 2.2006536e-05 -9.5290375e-07 2.1916114e-06

deep.4.weight f4 [32, 64]
000000 cc 18 f5 b3 67 7a 70 b0 60 f0 29 2e cc 53 94 35
       -1.1413212e-07 -8.7485436e-10 3.8639647e-11 1.1051247e-06
000010 f0 6b 35 b5 18 58 95 aa c9 eb d3 2d 15 5b 78 36
       -6.7584824e-07 -2.6528844e-13 2.4092632e-11 3.7007896e-06
000020 42 13 6b 33 cb d4 a4 2c e0 3d 78 b4 f6 b7 bc 2b
       5.4732716e-08 4.684785e-12 -2.311931e-07 1.3409263e-12
000030 a3 2b 72 35 0b d8 f4 af 13 8a 5d 30 9a 81 d0 2e
       9.0215525e-07 -4.453685e-10 8.0595547e-10 9.481767e-11
000040 4c a5 f7 ab 36 a5 0d b6 76 b4 91 ad dc 4e 5b af
       -1.7596285e-12 -2.1106803e-06 -1.6564732e-11 -1.994595e-10
000050 11 b7 00 2f 23 c0 47 b1 c9 17 23 34 cf 1d 82 35
       1.170657e-10 -2.9067528e-09 1.5189211e-07 9.69443e-07
000060 46 92 60 31 f5 67 f4 b6 c3 77 3b 37 05 63 f2 ac
       3.2679437e-09 -7.283869e-06 1.1173953e-05 -6.889047e-12
000070 df 26 35 2f 41 d6 a3 32 bc e5 a1 b4 f5 6c e0 ac
       1.6475664e-10 1.9073129e-08 -3.015574e-07 -6.3785596e-12
000080 a8 2a 1a 33 69 18 ee 2e 51 25 09 b4 77 68 9f b5
       3.5894715e-08 1.0827323e-10 -1.2772695e-07 -1.1876826e-06
000090 4d 05 52 b1 6c 72 f2 b2 47 5d 21 32 d2 7a ff b0
       -3.0562035e-09 -2.8224541e-08 9.392642e-09 -1.85886e-09
0000a0 f0 84 d2 31 37 c2 a0 af a9 b4 7b b2 7c e4 b8 36
       6.1269176e-09 -2.9241828e-10 -1.46512e-08 5.5102264e-06
0000b0 b9 76 40 b4 79 ad 61 34 53 68 0a b3 69 ae 2b 2d
       -1.7924584e-07 2.1017867e-07 -3.222551e-08 9.7589515e-12
0000c0 09 c4 3e 2f c5 51 89 36 f5 f6 d6 2d 1c 92 bf 2c
       1.7350045e-10 4.0924374e-06 2.4438654e-11 5.444768e-12
0000d0 da c9 93 2e c7 ce e8 2b 2b e4 2a 38 8c c3 53 36
       6.720642e-11 1.6541984e-12 4.0743656e-05 3.1555273e-06
0000e0 68 d5 23 b2 ef 8a 04 2c 01 56 79 b7 61 ac 8e 2f
       -9.536372e-09 1.8835452e-12 -1.4861581e-05 2.5952132e-10
0000f0 6a 4e 41 ac 3a d8 19 b3 c7 6e bb 34 1e 00 4b 2e
       -2.7470478e-12 -3.5819745e-08 3.4912065e-07 4.615696e-11
000100 6f ef 69 35 76 14 2e 34 11 0d 07 34 5a 54 58 35
       8.7147686e-07 1.6212456e-07 1.2577608e-07 8.058902e-07
000110 61 f7 07 34 b8 2e 30 36 38 43 f9 b5 7a 7f bf b4
       1.266285e-07 2.6253238e-06 -1.8571509e-06 -3.5669274e-07
000120 d6 ca b0 33 16 d6 a7 32 87 4e 30 34 4b b6 e5 b4
       8.232534e-08 1.9538714e-08 1.6419845e-07 -4.278721e-07
000130 27 8c d2 31 d2 c0 00 36 1f 12 c1 35 c7 ef 40 b7
       6.127738e-09 1.9185723e-06 1.4384894e-06 -1.1499919e-05
000140 5a c6 5c b3 6f 2b 78 b7 82 ba 83 36 47 6d 79 35
       -5.140314e-08 -1.4792065e-05 3.9258166e-06 9.291875e-07
000150 ee 45 70 34 33 4a 86 b2 57 b2 8b 31 01 0d 50 b2
       2.2377182e-07 -1.5633395e-08 4.0657073e-09 -1.211015e-08
000160 6e a4 a5 34 58 97 a9 b6 f8 56 67 b2 51 12 64 32
       3.0853283e-07 -5.054211e-06 -1.3465744e-08 1.3275511e-08
000170 6e 76 c1 36 fe 6a 52 35 7f 74 5c 34 b3 6f 81 37
       5.7656353e-06 7.838679e-07 2.0531478e-07 1.5430012e-05
000180 dd 49 9a 34 59 41 b2 b1 00 68 a6 33 b5 04 22 35
       2.8738478e-07 -5.187911e-09 7.748895e-08 6.035655e-07
000190 b7 4e 79 36 26 4c 3c 33 92 87 a5 b3 dd 6a ed 33
       3.714971e-06 4.3841418e-08 -7.708071e-08 1.1055611e-07
0001a0 f9 68 46 35 94 e0 92 b4 55 f6 75 b7 2f 15 ef 32
       7.3913503e-07 -2.735802e-07 -1.4660492e-05 2.7832895e-08
0001b0 ca 5a d4 35 0b 5f ad b1 00 51 ae 32 76 23 48 33
       1.5821654e-06 -5.045768e-09 2.02931e-08 4.659838e-08
0001c0 ef a7 59 33 89 1f 9c b5 3b 2a 05 34 36 f9 8b 33
       5.0676984e-08 -1.1632084e-06 1.2401954e-07 6.518023e-08
0001d0 f4 aa 8e b7 03 9a 8d b7 51 5f 21 b5 f0 eb d6 36
       -1.7007325e-05 -1.6880227e-05 -6.011588e-07 6.4051637e-06
0001e0 4f 0f 2f 36 fa ae 52 32 97 13 82 36 2e f0 b7 34
       2.6085943e-06 1.2263394e-08 3.8765825e-06 3.426116e-07
0001f0 5f 78 bb 37 e7 b3 31 b6 63 92 25 b6 8c c8 99 b4
       2.234819e-05 -2.6479772e-06 -2.4672124e-06 -2.8644388e-07
000200 f0 10 7d 30 96 b2 73 af 3e 47 ac 33 5f ad 03 34
       9.2064933e-10 -2.2164168e-10 8.022333e-08 1.2263398e-07
000210 ec 43 e2 2f ae fa 3b ae c8 64 af 2f 49 03 fa b1
       4.1157422e-10 -4.2741526e-11 3.1903924e-10 -7.276331e-09
000220 68 b4 1e b8 07 60 55 2b e8 44 98 31 39 e9 83 33
       -3.7838152e-05 7.5806066e-13 4.431616e-09 6.142586e-08
000230 17 1b 0f 32 61 3e ec ad 95 ae 40 b4 0f 64 54 37
       8.329855e-09 -2.6857796e-11 -1.7944906e-07 1.2659481e-05
000240 9c 5c 72 36 aa 89 b8 34 6f 2c be b4 88 02 cc ad
       3.6114716e-06 3.4372835e-07 -3.5422588e-07 -2.3193239e-11
000250 21 d2 44 b3 d5 72 d3 36 92 e0 ef 2e 60 4a 3c b5
       -4.5825917e-08 6.3016582e-06 1.09083534e-10 -7.014369e-07
000260 47 c2 ae b3 16 0d ab b5 d4 e4 08 2f f2 2e 27 b1
       -8.137845e-08 -1.2744301e-06 1.2450424e-10 -2.4328384e-09
000270 70 06 39 2e a7 83 9d 36 c7 bd ca 32 27 18 da ad
       4.2069848e-11 4.694291e-06 2.3602196e-08 -2.4794456e-11
000280 11 05 9f b3 90 4f e6 ac 6f c0 4d b5 e0 40 ae 34
       -7.404936e-08 -6.5458264e-12 -7.664848e-07 3.2457228e-07
000290 37 c7 14 b6 6f cc 24 ad 40 a7 a8 2c 14 76 6a ae
       -2.2169677e-06 -9.367714e-12 4.7934157e-12 -5.3310314e-11
0002a0 4e 92 60 b3 aa e1 0b 36 ec 3f 54 2e bf 22 2a 36
       -5.2287128e-08 2.0843968e-06 4.8259993e-11 2.53522e-06
0002b0 5c ae f1 2e 31 68 50 31 68 7f b9 b5 1f f0 7f b4
       1.09903836e-10 3.032721e-09 -1.3820654e-06 -2.3836081e-07
0002c0 39 78 b7 2e 8e c7 54 b3 44 90 99 ad 0d 8b 5b b0
       8.3432324e-11 -4.954159e-08 -1.7458153e-11 -7.986934e-10
0002d0 99 77 69 ae 18 78 67 2f d8 a7 c9 30 2b 06 0d 36
       -5.308429e-11 2.1051993e-10 1.4672379e-09 2.1014228e-06
0002e0 4a 93 f5 aa 8f 55 0a b3 6a c4 da 33 6b 64 98 32
       -4.3622945e-13 -3.2208444e-08 1.01871436e-07 1.7740794e-08
0002f0 bb 84 a9 ac fb e9 e4 b3 87 8b 70 2e a2 fa 74 af
       -4.818005e-12 -1.0659638e-07 5.4693607e-11 -2.2280713e-10
000300 76 35 c1 35 0d cd 62 b0 73 40 12 b5 5a d0 50 b4
       1.439518e-06 -8.2509716e-10 -5.4483024e-07 -1.9447307e-07
000310 a5 68 39 b5 54 97 04 35 a3 9b f8 b4 7d 13 34 b2
       -6.907015e-07 4.9394043e-07 -4.630684e-07 -1.048181e-08
000320 a1 cb f8 b7 bb ad ba b3 da 58 9d 36 7d cb b6 b4
       -2.9658726e-05 -8.692901e-08 4.6893083e-06 -3.40482e-07
000330 5e 7d 89 b4 68 48 01 34 33 4b f6 34 c2 96 16 35
       -2.5609455e-07 1.2040402e-07 4.5875785e-07 5.6098736e-07
000340 07 db 97 32 7f f8 9a 31 11 47 21 34 ef d9 05 b4
       1.7678316e-08 4.5102406e-09 1.5020147e-07 -1.2465874e-07
000350 64 66 10 b7 01 77 5a b3 5a 89 31 32 1e d7 07 35
       -8.6069085e-06 -5.0865314e-08 1.0333986e-08 5.0604456e-07
000360 9d 71 c5 33 dd 13 6a 33 a1 8f 6a 35 fa 37 a9 b1
       9.1941935e-08 5.4500436e-08 8.73808e-07 -4.924911e-09
000370 15 01 2c b5 a0 39 94 b4 63 01 23 b2 4a c1 1a b5
       -6.407657e-07 -2.7609076e-07 -9.488164e-09 -5.7650743e-07
000380 a2 19 fb b7 9a 4e 20 b3 3d b2 ab 32 8a 69 21 b4
       -2.9933468e-05 -3.732439e-08 1.9988073e-08 -1.5032688e-07
000390 ff 6f b1 2f 8b 27 4e 36 4e 42 21 b3 3e f6 a4 36
       3.227569e-10 3.071941e-06 -3.7546037e-08 4.9162472e-06
0003a0 f8 5e 06 b7 1f 56 d9 b7 8f db 85 36 1f 21 1e 33
       -8.009134e-06 -2.590852e-05 3.989269e-06 3.6817365e-08
0003b0 30 36 20 35 a1 f1 d3 32 15 90 44 b2 cb 9e b5 b2
       5.96835e-07 2.4673513e-08 -1.1441462e-08 -2.1143384e-08
0003c0 36 2c 9b 35 e7 80 df 32 e2 15 10 38 e1 68 0f b3
       1.1561267e-06 2.6019235e-08 3.4352655e-05 -3.339017e-08
0003d0 f2 42 a5 b6 ac de 82 b7 eb b4 48 2f 23 2d 68 b7
       -4.9251767e-06 -1.5600897e-05 1.8254169e-10 -1.3838787e-05
0003e0 5f 58 bd b4 28 44 ff 31 8f 07 3e b3 2c fd eb 32
       -3.5268292e-07 7.4292252e-09 -4.4244697e-08 2.747273e-08
0003f0 ae 61 1f 36 3c 77 07 b8 d7 a3 81 30 82 01 bb b4
       2.3749703e-06 -3.2297554e-05 9.432551e-10 -3.483256e-07

deep.4.bias f4 [32]
000000 98 71 43 32 5d 6d c2 b9 6e c7 57 29 0b a9 e0 35
       1.1376322e-08 -0.00037084045 4.7912568e-14 1.6738499e-06
000010 4b 3a a6 b2 05 12 b6 30 64 bc 94 2e 92 4d b8 af
       -1.9351452e-08 1.3247364e-09 6.763726e-11 -3.3524522e-10
000020 f7 35 99 2f 64 48 6e b0 a5 54 23 2d 39 b1 a0 b9
       2.7868882e-10 -8.668677e-10 9.284272e-12 -0.0003064962
000030 54 e6 46 ad 72 22 f5 32 a4 be 25 af 73 90 96 b0
       -1.130614e-11 2.8537418e-08 -1.5074392e-10 -1.0954991e-09
000040 80 f6 35 2e 3d fa 1e b3 9b 11 43 b2 06 cc 03 b2
       4.137357e-11 -3.7014832e-08 -1.1354497e-08 -7.671593e-09
000050 4f 93 7e 2e de 7b 11 38 29 d7 1a 39 03 9a 27 b9
       5.788375e-11 3.4686054e-05 0.00014766738 -0.00015983735
000060 be 88 28 2f bf 69 8d 30 78 41 b3 30 15 aa f2 2f
       1.5328092e-10 1.0289155e-09 1.3042571e-09 4.4140394e-10
000070 7c 2c 94 32 2d af 52 b7 31 9f c7 ae 97 7a 36 2e
       1.7249697e-08 -1.2557762e-05 -9.0777504e-11 4.149089e-11

output.weight f4 [1, 34]
000000 f3 e6 da be 22 99 a0 3e 69 88 3a 32 32 6e c2 b9
       -0.42754325 0.3136683 1.0857641e-08 -0.00037084665
000010 40 9c 98 2e 64 76 fe 35 70 2a a8 b2 bd 54 9c b0
       6.939915e-11 1.8958931e-06 -1.9577072e-08 -1.1374578e-09
000020 2b 4b 13 af 0e 3f 05 b0 09 a1 01 b0 31 08 12 2f
       -1.3396277e-10 -4.8474724e-10 -4.715877e-10 1.3281533e-10
000030 c5 e5 9c 2d 6d b1 a0 b9 9e b2 e9 2e e8 fa 09 33
       1.7837185e-11 -0.0003064977 1.0627342e-10 3.2125996e-08
000040 84 80 38 af 70 43 d1 b1 fd 00 b2 2e 5c cf 18 b3
       -1.678036e-10 -6.0903673e-09 8.0946784e-11 -3.557885e-08
000050 e1 23 44 b2 3f 04 02 b2 ea 20 f0 2e 1b 7e 11 38
       -1.14168595e-08 -7.567961e-09 1.0919783e-10 3.468814e-05
000060 e9 d5 1a b9 c3 78 28 b9 5d c4 37 2f 19 c8 00 b1
       -0.00014766272 -0.00016066716 1.6713515e-10 -1.8740194e-09
000070 b7 27 8a b0 0d 3f 88 30 06 54 92 32 9c 8e 52 b7
       -1.0052109e-09 9.913222e-10 1.7034846e-08 -1.2550179e-05
000080 77 b3 ef 2e 92 e5 c1 2e
       1.0900341e-10 8.817404e-11
