Results/base/FFM_batch_1024_epoch_10_lr_0.001_k_10/treatment_ffm.pth (torch, 8574 bytes, 2 tensors)

v f4 [13, 13, 10]
000000 59 f8 84 3d 29 7f 36 be 18 1d 47 3e 47 5a c7 3c
       0.06492681 -0.17821945 0.19444692 0.02433504
000010 0f 3a ba bd 9e 6c 73 3c d4 f8 6f 3d 6d ee e4 3d
       -0.09093105 0.014857439 0.05858691 0.111782886
000020 53 43 a9 3d 0d 22 18 bd 5d 92 51 3c ea 67 54 3c
       0.08264794 -0.03714185 0.012791243 0.012964228
000030 a4 09 c8 3b f5 ae 5a 3c 1d cc 17 bb a4 f0 da 39
       0.006104665 0.013347377 -0.0023162432 0.0004175949
000040 64 cd bd bc cc 15 0e bb 6c dd 62 bc 4b be 0e bc
       -0.023169227 -0.0021680472 -0.013846736 -0.008712362
000050 95 62 12 bb ae af 8c 3c 3d fb 50 3b 3b 1b 8b bb
       -0.0022336592 0.017173614 0.003188803 -0.0042451895
000060 16 c0 07 bc 8b db 58 3b 53 31 7f bc 01 20 23 3c
       -0.008285543 0.0033089842 -0.015575725 0.009956361
000070 e4 24 10 bc 73 fb c4 bb c6 c1 50 bc 07 e6 ad 3c
       -0.008797858 -0.0060114204 -0.012741512 0.02122785
000080 53 73 32 bc 34 d7 68 bb 84 b8 15 bc 8e a8 d7 bb
       -0.010891753 -0.0035528662 -0.00913823 -0.0065813726
000090 ef 88 4c 3a 09 4c ac 3b b6 e7 9f bb a4 31 43 3c
       0.0007802387 0.0052580875 -0.004879917 0.011913691
0000a0 62 24 63 bc ca bb 52 bc 7b e8 65 bc 4e c3 bc 39
       -0.013863655 -0.012862155 -0.014032478 0.00036003668
0000b0 e0 66 26 ba af 62 dd 3b 8c 32 80 ba f0 1b 97 3c
       -0.0006347727 0.0067561488 -0.0009780689 0.018445939
0000c0 d8 f1 62 3c c7 18 92 bb 4e c5 6c 3c 8b 50 0c 3c
       0.013851605 -0.00445852 0.014451338 0.008564125
0000d0 6b b4 b5 3c 4e 6e ab 3b a9 2d 63 3b b9 52 01 bb
       0.022180757 0.005231655 0.0034664667 -0.0019733144
0000e0 42 5b 94 bb 6b e5 fc bb 6b b1 e1 ba 8f a2 ab 3b
       -0.0045274803 -0.0077177784 -0.0017219012 0.0052378844
0000f0 42 6e 14 3a 50 b0 8b 3b eb 6a bc 3b b8 47 d2 bb
       0.00056621816 0.0042629614 0.0057500503 -0.006417241
000100 2c b9 5d 3b 2f 32 8b 3c e7 eb e3 38 89 ff 5d bb
       0.0033832295 0.016991703 0.00010868144 -0.0033874235
000110 2c a8 5b bc 70 d0 bf bb b8 b2 af 3b 89 e8 ab 3b
       -0.0134067945 -0.005853705 0.005361881 0.005246226
000120 9e b4 70 bc e3 ce 6a 3c 37 c7 f3 3b 3a ce 9d bb
       -0.0146915 0.014331552 0.0074395197 -0.004815844
000130 cb f1 2b bc b4 e2 c5 3b 25 17 8d bc 24 9f 07 bc
       -0.01049466 0.006038988 -0.01722295 -0.008277688
000140 97 11 a3 bb 7b 89 9b 3b f5 94 cd bc 7e e8 9f 3b
       -0.004976462 0.0047466136 -0.025095442 0.00488001
000150 f5 8b 00 3c 9a 31 96 39 73 f6 d1 3b 57 1e bf 3b
       0.007845868 0.00028647186 0.006407553 0.005832474
000160 40 90 0f 3b 60 16 b5 3b 73 d5 f2 ba fd a9 f6 3b
       0.0021906048 0.005526349 -0.0018526748 0.0075275884
000170 8b a1 84 3b 40 eb e9 3a 70 9c 2d 3b 8c 98 50 3c
       0.0040475777 0.0017846599 0.002649095 0.0127316825
000180 78 e4 11 bc 90 49 86 3b 3b b8 6e bc 02 22 86 ba
       -0.008904569 0.004098125 -0.014570291 -0.0010233524
000190 99 54 c4 bb 64 52 9c 3b 29 f4 ed 3b fb f2 6e 3a
       -0.00599153 0.004770564 0.007261772 0.00091151864
0001a0 b0 4c 25 3d 62 a0 51 3c 52 04 05 b9 a1 d5 1d 3b
       0.040356338 0.012794586 -0.00012685478 0.0024083632
0001b0 7d b7 ad 3a 26 6d fa 3b 09 68 33 3c 3d c0 5e 3b
       0.0013253536 0.007642406 0.010950097 0.0033989095
0001c0 db f2 bd bb a7 a9 dd ba 5f 33 9e 3c a5 c8 25 3c
       -0.005796773 -0.0016911522 0.019311605 0.010118638
0001d0 41 57 6b bc c1 1d 39 bc 9d 4d b2 ba 06 f9 85 3c
       -0.014364065 -0.011298598 -0.0013603453 0.016354095
0001e0 33 9b de 3b 58 5a 90 3b 50 06 3b 3c e7 a9 42 39
       0.0067934035 0.004405301 0.011415079 0.00018564575
0001f0 7a ee 93 bc 8d 9f 17 3c 55 fc 75 bb d3 42 29 3c
       -0.01805805 0.009254348 -0.0037534435 0.010330874
000200 32 54 69 bc 8b 78 98 ba e6 5c 1f bc a2 08 1d 3c
       -0.014241265 -0.0011632604 -0.009726739 0.009584578
000210 18 a5 84 3c fc aa 6d 3c 80 9b 30 3b 3b df 09 bb
       0.016192004 0.014506098 0.0026948154 -0.0021037597
000220 3e c9 6b bc aa d8 aa 3b d3 8e 64 3b d7 87 1e 3c
       -0.014391242 0.0052138167 0.003487517 0.009675941
000230 34 1d 00 3c 06 10 23 3b a4 20 4a be 57 91 37 bc
       0.007819463 0.0024881377 -0.19739014 -0.011204085
000240 52 ca 1d 3b aa 8f 05 3d b1 3d 89 bd d9 ec fc bc
       0.002407689 0.03260771 -0.0670122 -0.030874657
000250 c6 eb 44 bd b9 da e3 3c 8f fa 3b 3b 81 7b ef bb
       -0.048076414 0.027814256 0.002868328 -0.007308424
000260 ca 63 6f 3c ea ff 4a bb bd 3f 83 bc 9c a8 5d 3c
       0.014611194 -0.003097529 -0.016021604 0.013528969
000270 59 29 53 3c e6 16 09 3a 9c 6f 7d bc 1b f5 f7 3b
       0.012888276 0.00052295474 -0.015468504 0.0075670606
000280 b9 d9 bf bb 8f 96 7f bb 95 c9 bb 39 dd 0e 9e 3a
       -0.005854812 -0.0038999652 0.0003581761 0.0012058873
000290 fc ff 03 bc 9d 09 08 bb b9 b0 18 bc fb 54 82 bc
       -0.008056637 -0.0020757683 -0.009319478 -0.015909662
0002a0 06 c2 75 bb dd 9a 03 3c dc fd a9 bb 18 f8 75 bc
       -0.003749968 0.008032528 -0.005187733 -0.015012763
0002b0 de d4 9d bc c1 93 a7 3a 18 98 27 3c 79 1f b6 bb
       -0.019266542 0.0012785123 0.010229133 -0.005557951
0002c0 ac bd f5 bb 86 0c c2 bb 9f 5b 91 3c a6 fc 16 bc
       -0.0074994173 -0.005921903 0.017743884 -0.0092155095
0002d0 13 b0 1d 3c c2 dd 5c bb 10 91 40 bc 02 a8 6a 3b
       0.009624499 -0.0033701514 -0.011753336 0.0035805707
0002e0 46 5d e7 bb 6e ea ea bb 49 61 ac 3b a5 04 ad 3c
       -0.0070606796 -0.0071690595 0.0052606207 0.021120379
0002f0 46 a4 aa bb 2b b3 18 bc d5 b1 f2 3a 2f 18 2f 3c
       -0.005207571 -0.009320061 0.0018516133 0.010686918
000300 69 59 bd bb 5e 4b 55 3b ed 77 05 bc e1 51 27 bc
       -0.005778481 0.0032546143 -0.008146268 -0.010212393
000310 32 2d a2 bb ab 11 c2 bb d7 43 ca 3a 39 6e 90 3b
       -0.0049492354 -0.0059225163 0.0015431595 0.004407671
000320 40 d2 4c 3b fb a4 af b9 44 6a 82 bb e1 06 31 3c
       0.0031253248 -0.0003350152 -0.003979953 0.010804863
000330 6f e3 91 bc 02 14 77 3c 7e c9 4a 3b f7 f0 a3 bb
       -0.017808644 0.015080454 0.0030942853 -0.0050030905
000340 14 41 d9 3b 49 ed e6 3b a0 f4 3c b8 2b 8b 88 3c
       0.0066300724 0.0070473296 -4.5050518e-05 0.016667923
000350 0b bf c9 3a 3c b6 2d bc 00 a6 bb bb 8f 11 5b 3a
       0.0015392018 -0.01060253 -0.005726576 0.00083568034
000360 55 7b 91 3b 5e 40 ed bb 00 b6 3c ba 5b 74 14 bc
       0.004439751 -0.007240339 -0.0007198751 -0.009060944
000370 9c d4 a7 bc c1 1e 31 bc 98 ca 38 39 92 10 4d 3a
       -0.020487122 -0.010810555 0.0001762308 0.00078225986
000380 12 37 ea 3a e4 7c a9 ba 8d 3a 18 bc 24 01 35 3b
       0.0017869195 -0.0012930897 -0.009291303 0.0027619088
000390 22 94 b0 bb 37 94 97 3b ae d9 0e bc a6 2d 8e b9
       -0.0053887526 0.004625823 -0.008718891 -0.0002711836
0003a0 73 dd 5f 3b 6a 11 11 bb bb b0 4d 3c d7 46 ea bb
       0.0034159094 -0.0022135624 0.012554343 -0.007149558
0003b0 f9 e7 0b 3c d2 18 a8 3b eb db b0 3b 00 4e b9 3b
       0.008539193 0.005129912 0.00539731 0.0056550503
0003c0 f8 41 c0 3b 00 9f 45 b9 5d 9e e0 bb c1 aa b8 3b
       0.005867239 -0.00018846616 -0.006854816 0.00563559
0003d0 81 ef 76 bc 1d f2 83 bc b5 53 72 bc cb a5 8d 3b
       -0.015071751 -0.01610666 -0.014790465 0.0043227426
0003e0 e1 98 e9 bb c9 ee 0f 3b 96 f8 82 bc ef 09 8f ba
       -0.0071288203 0.0021962395 -0.015987676 -0.0010912995
0003f0 47 5b ea 3b c6 33 cd 39 be f3 55 3c 66 9b 21 3b
       0.0071519944 0.0003913922 0.013058601 0.0024659275

linear.weight f4 [1, 13]
000000 cc 20 c2 bc e8 2b 2c 3d da 0e 70 be 6c 9c 28 3e
       -0.02369728 0.04203406 -0.23443165 0.1646592
000010 30 0b 56 be af 32 ee bc f0 aa fa bd 50 1e 82 3d
       -0.20902705 -0.029076902 -0.12239635 0.06353438
000020 c2 e7 29 3e e1 f5 80 be 4f a9 1d 3e 60 c7 56 3d
       0.16592315 -0.2518759 0.15396617 0.052436233
000030 2c 8f 74 3e
       0.2388274
