Results/FFM/20250107_063349_batch1024_epoch10_lr0.01_k10_reg0.0005_FFM/control_ffm.pth (torch, 8560 bytes, 2 tensors)

v f4 [13, 13, 10]
0	0xbad59263	-0.0016294237
1	0xbce91684	-0.02845312
2	0x3d060129	0.03271595
3	0xbcb5ebe3	-0.022207206
4	0xbd98ba5f	-0.074574225
5	0xbc65dc0d	-0.014029515
6	0xbd3c5779	-0.045981858
7	0x3d9ae620	0.07563424
8	0xbd9924ee	-0.07477747
9	0x3d5c0192	0.053712435
10	0x3b2ea069	0.0026645905
11	0x3b548190	0.0032425858
12	0x3c9e663e	0.019335862
13	0xbb9f90b2	-0.004869544
14	0xbb8ca39c	-0.0042919647
15	0x3b946a56	0.004529278
16	0x3b5dcaa7	0.0033842714
17	0x3b8ed8ed	0.0043593557
18	0x3bb1691f	0.0054141427
19	0x3ade28fc	0.001694947
20	0xbbfe5d92	-0.0077626193
21	0xbc801861	-0.015636625
22	0x3af99d42	0.0019044059
23	0xbb93aaa3	-0.0045064255
24	0x3c2f58b0	0.010702297
25	0xbad53788	-0.001626716
26	0x3b9d68f5	0.0048037716
27	0xbcb1e53a	-0.021715749
28	0xbbfc1b7b	-0.0076937056
29	0xbcaab841	-0.020839812
30	0xbc187f0f	-0.009307637
31	0x3b9ede5f	0.004848286
32	0x3bb714a7	0.0055871787
33	0xbb8b1311	-0.0042442163
34	0xbc04d5d4	-0.008107621
35	0xbc5ee2fc	-0.013603922
36	0x3c145ce0	0.009055346
37	0x39a4b12c	0.0003141252
38	0xbb8b5fe4	-0.0042533744
39	0x3b5264fe	0.0032103653
40	0xbc818e7b	-0.01581501
41	0x39df0bff	0.00042542812
42	0x3a62c609	0.00086507254
43	0xbc4cbb01	-0.012495757
44	0xbc200b01	-0.009768249
45	0x3c20d002	0.009815218
46	0x3c0304f3	0.007996785
47	0xbba885b1	-0.0051428904
48	0x39632886	0.00021663503
49	0x3b2c6ca1	0.0026309865
50	0x39448471	0.00018741355
51	0x3c0c363c	0.008557852
52	0xbc0b74a7	-0.008511699
53	0x3c2d30b0	0.01057069
54	0x3c0e1f7f	0.008674501
55	0x3b85421e	0.0040667197
56	0xbc83cb1c	-0.016088061
57	0x3bd67090	0.00654418
58	0xba75c210	-0.0009374926
59	0xbc11dc38	-0.008902602
60	0xbc56d00f	-0.0131111285
61	0xbbecdeb5	-0.007228697
62	0x3c8213fd	0.015878672
63	0x3ab7aa9e	0.001401264
64	0xbad2f726	-0.0016095384
65	0xbc8487ef	-0.0161781
66	0x3c573a3b	0.013136442
67	0x3b9ac76d	0.0047234804
68	0xbb731f4b	-0.003709751
69	0x3c953603	0.018214231
70	0xb994d7e1	-0.00028389602
71	0xbc83201f	-0.016006527
72	0xba5ca642	-0.00084171083
73	0xbb9f7e33	-0.004867339
74	0xbb8c2ca2	-0.0042777816
75	0xbabd369b	-0.0014435829
76	0xbc70f77d	-0.014707443
77	0xbc6746f7	-0.01411604
78	0xba89c2e0	-0.0010510348
79	0xbc1357dc	-0.008993115
80	0x3b119685	0.002221496
81	0xba0416d3	-0.00050388015
82	0x39e67448	0.00043955655
83	0xbc0260e4	-0.007957671
84	0xbc2c5b1f	-0.010519772
85	0xbbfa5960	-0.007640049
86	0x3b44fd8d	0.0030058355
87	0xbaaa4e41	-0.0012993292
88	0xbb1be2c6	-0.002378629
89	0xbc4a5408	-0.012349136
90	0xbba7e794	-0.005124042
91	0x3c311203	0.010807517
92	0x3bcf1787	0.0063199433
93	0x3c02340a	0.007946977
94	0xbb933869	-0.0044928086
95	0x3bc3560e	0.0059611863
96	0x3c802ade	0.01564544
97	0x3be080ef	0.0068513076
98	0xb99e4554	-0.00030187762
99	0x3c1fff56	0.009765467
100	0x38170f12	3.601524e-05
101	0xbbd1dc2d	-0.006404421
102	0x3c3d3f38	0.011550717
103	0x3a59cc86	0.00083083694
104	0xbbd362c6	-0.0064509837
105	0x3c866c34	0.016409017
106	0xbb3150bb	-0.0027056176
107	0x3b9e473f	0.0048302705
108	0x3c19c09a	0.009384299
109	0xbab6b1a9	-0.0013938445
110	0xbc12b4ad	-0.008954209
111	0xbc21ca4d	-0.009874892
112	0x3b814b23	0.0039457246
113	0xbc219281	-0.009861589
114	0xbbb9f1b9	-0.0056745675
115	0xbc19dfe8	-0.009391762
116	0x3b685749	0.0035452417
117	0x3b31b7bc	0.002711757
118	0x3bbfbc74	0.005851323
119	0x3af5cff4	0.0018753991
120	0x3a1872fe	0.0005815475
121	0xbbd021f2	-0.006351703
122	0xbb2adb0f	-0.002607051
123	0x3bc73e05	0.0060803914
124	0xbac38b88	-0.0014918903
125	0x3c05c078	0.008163564
126	0x3c891377	0.016732914
127	0x3af9c032	0.0019054471
128	0x3c12107a	0.008915061
129	0xbbc97771	-0.0061482717
130	0x3c7448d0	0.014909938
131	0xbb1fa32a	-0.0024358728
132	0x3c4c65c1	0.012475432
133	0xba2b4bd5	-0.0006534432
134	0x3ca3f87b	0.020015946
135	0x3ca88e76	0.020575743
136	0x3b46defd	0.0030345314
137	0x3bd28687	0.0064247283
138	0x3bfbd62f	0.007685445
139	0xbc25d5e0	-0.010121793
140	0x3b134c73	0.0022475987
141	0x3d0994cd	0.033589173
142	0x3c980ca9	0.018560724
143	0x3cf93434	0.0304204
144	0x3d9092ce	0.07059251
145	0x3d8c305d	0.06845162
146	0x3d5db146	0.05412414
147	0xbc8c2fd5	-0.017112652
148	0x3d9b1028	0.07571441
149	0xbd049979	-0.032372925
150	0xbbc90d33	-0.0061356067
151	0xbc83a137	-0.016068084
152	0x3b3c673e	0.002874806
153	0x3bd89089	0.006609027
154	0xbb0b08a3	-0.0021214865
155	0x3bd7c687	0.0065849456
156	0x3c59e902	0.013300182
157	0x3aecd9c9	0.0018070276
158	0x3c1e842a	0.009675065
159	0x3bf15935	0.0073653706
160	0xbb5b923b	-0.0033503908
161	0xbc3c5caa	-0.011496702
162	0xba5fabf0	-0.00085323956
163	0x3bc53ca4	0.006019192
164	0x3ac5ac55	0.0015081266
165	0x3c4b1b0e	0.012396587
166	0xbc28c8d3	-0.0103017865
167	0xbbb28053	-0.0054474263
168	0x3b9046f8	0.0044029914
169	0x3c00725e	0.007839767
170	0x3b5eb249	0.0033980778
171	0x3c20542a	0.009785691
172	0x3c851fad	0.016250456
173	0xb9e9ad22	-0.00044570217
174	0x3bc3e058	0.0059776716
175	0xbc2f913c	-0.010715779
176	0xbbd6383e	-0.0065374663
177	0x3c0c7f1b	0.008575226
178	0xbb801a23	-0.0039093657
179	0xbb918f18	-0.004442107
180	0x3b901cdb	0.004397971
181	0xbad8253a	-0.0016490587
182	0xbaee297e	-0.0018170325
183	0xbbb66419	-0.005566132
184	0xbc87bdaa	-0.016569931
185	0xbbb77fed	-0.0055999667
186	0xbbb16589	-0.0054137153
187	0xbb50679c	-0.0031800037
188	0xbbdc01aa	-0.0067140656
189	0xbc61c5d8	-0.01378008
190	0xbb55e878	-0.0032639783
191	0x3c063c47	0.008193082
192	0x3b881b4a	0.0041536437
193	0x39c5a290	0.00037695887
194	0xba27729c	-0.00063876226
195	0x3b1c1ff3	0.0023822754
196	0x3b9029e4	0.004399525
197	0xbc60bcaa	-0.013716856
198	0xbc604d68	-0.01369033
199	0x3b27320c	0.0025512008
200	0x3a3074a6	0.0006731249
201	0x3c1673ec	0.009182911
202	0x3c1a876c	0.009431701
203	0xbc372173	-0.0111774085
204	0x3c131662	0.008977504
205	0x3b88d311	0.0041755517
206	0x3c3030a2	0.0107537825
207	0x3bef6b2e	0.007306478
208	0xbc10b05c	-0.00883111
209	0xbbac273e	-0.0052537015
210	0x3ae8d4f1	0.0017763657
211	0x3b684c70	0.003544595
212	0xbc01bd3f	-0.007918655
213	0x3c416cdd	0.01180574
214	0x3c148202	0.009064199
215	0xba125b41	-0.0005583056
216	0xbc435c8b	-0.011923919
217	0x3bb649d6	0.005563001
218	0x3c28a328	0.010292806
219	0x3b7b6844	0.0038361708
220	0x3bcbaf75	0.0062159845
221	0x3b07d5c1	0.0020726772
222	0xbbafa1c5	-0.0053598606
223	0x3c028566	0.007966375
224	0x3bd15bcd	0.0063891173
225	0xbb83949c	-0.0040155184
226	0xbc144a49	-0.009050914
227	0xbc08cca5	-0.008349572
228	0x3c3e1eff	0.01160407
229	0x3b510fcc	0.0031900285
230	0x3b0178d0	0.0019755848
231	0xbb214805	-0.0024609577
232	0x3b8af70d	0.0042408765
233	0x3c31fa10	0.010862842
234	0xbc18894b	-0.009310077
235	0xbbbb3ef9	-0.005714294
236	0xbc5b9a08	-0.013403423
237	0xbbb20985	-0.0054332637
238	0x3c614b22	0.013750823
239	0x3c2cca53	0.010546285
240	0x3bda7d40	0.006667763
241	0xbae393e8	-0.0017362805
242	0xbbafba47	-0.005362782
243	0xbb835e67	-0.0040090564
244	0xbc42620a	-0.011864195
245	0x3c919538	0.017771348
246	0xbaa7a967	-0.0012791575
247	0xbb826a75	-0.003979976
248	0x3bd0ae13	0.0063684075
249	0x3b9cf18f	0.004789538
250	0xbbe3cd15	-0.006951938
251	0xb9a16268	-0.0003078163
252	0xbbf9dda2	-0.0076252976
253	0xbb54c70a	-0.003246727
254	0xbc3ad43b	-0.011403139
255	0xbb50fd2a	-0.0031889179

linear.weight f4 [1, 13]
0	0xbbe1ad3d	-0.0068871067
1	0xbe1f1bbd	-0.15537925
2	0xbea9678d	-0.33086815
3	0xbd7bae77	-0.06144568
4	0xbbd7f3e9	-0.0065903557
5	0xbdb6f73d	-0.08933876
6	0xbcd5d91c	-0.026104502
7	0x3dc8d83f	0.09806871
8	0xbe9513b1	-0.29116586
9	0xbdc1cea9	-0.094632454
10	0xbd42fcef	-0.047604498
11	0xbe758f70	-0.23980498
12	0xbe6dacbc	-0.23210424
