Results/DCN/20250115_202305_batch1024_epoch10_lr0.01_reg0.0001_cross16_DCN/control_dcn.pth (torch, 182798 bytes, 39 tensors)

cross_network.cross_weights.0.weight f4 [1, 13]
00000000: fee2 f03a 7cc7 c73b 0121 3bbc 0bd3 01bc
00000010: d414 803c 461b 88bb 8c63 c83a ffc3 a73b
00000020: f0b7 09bc 6f09 3a3c 4ee8 c23c 736b 50bc
00000030: 3c89 0080
0.0018378196 0.0060967784 -0.011421443 -0.007923852 0.015634932 -0.004153642 0.0015288456 0.0051198
-0.0084056705 0.011354788 0.023792412 -0.01272093 -4.923e-41

cross_network.cross_weights.1.weight f4 [1, 13]
00000000: 5263 c93a 82f8 923b 64f6 2fbc 1f24 dabb
00000010: 8206 5d3c 0a81 43bb 8620 323b ff04 a73b
00000020: 0113 14bc 38cb 333c e674 c23c a7b6 43bc
00000030: 4c40 7438
0.0015364683 0.004485191 -0.010739896 -0.006657138 0.013490321 -0.0029831552 0.002718003 0.005097031
-0.009037734 0.010973744 0.023737382 -0.011945403 5.8234014e-05

cross_network.cross_weights.2.weight f4 [1, 13]
00000000: 5169 813a c822 1d3b 1960 2abc 47e3 cfbb
00000010: d619 503c e129 56bb 3d73 433b 533f 8d3b
00000020: 2e4e 1ebc 4cb1 453c 00cc a53c 6430 48bc
00000030: b1b4 6f39
0.0009873306 0.002397703 -0.010398888 -0.0063442322 0.012701472 -0.003267877 0.0029823326 0.0043105274
-0.009662194 0.012066197 0.020238876 -0.0122185685 0.00022860129

cross_network.cross_weights.3.weight f4 [1, 13]
00000000: 3b34 7d39 09f6 393a 0248 31bc 8003 e1bb
00000010: 6a34 0c3c 76d5 98bb 2765 1f3b c3e0 523b
00000020: 5736 2bbc 3a9c 4f3c 9c60 823c 0252 5bbc
00000030: 90fa 9939
0.00024147418 0.0007093852 -0.010820391 -0.0068668723 0.008557418 -0.0046641184 0.0024321766 0.0032177425
-0.010449967 0.012671525 0.015915208 -0.013386251 0.00029369118

cross_network.cross_weights.4.weight f4 [1, 13]
00000000: 7ecb 3aba 8664 c9b9 9930 46bc 01a4 05bc
00000010: 4afb 523b 91a1 e4bb cea4 993a 8eb1 033b
00000020: aebc 3cbc 799d 423c 1318 4c3c a35b 7cbc
00000030: 2c20 d839
-0.00071256596 -0.00038412603 -0.0120965475 -0.008156777 0.0032193237 -0.006977268 0.0011722089 0.0020094845
-0.011519594 0.011878365 0.012456912 -0.015402707 0.000412227

cross_network.cross_weights.5.weight f4 [1, 13]
00000000: 4cd2 f7ba 6846 77ba d865 67bc e966 27bc
00000010: 1c57 39bb 4e94 26bc b179 44ba 0175 523a
00000020: 1dc0 54bc 05ea 213c cd67 1b3c 1e22 96bc
00000030: 3eb9 143a
-0.0018907278 -0.00094327936 -0.014123403 -0.010217407 -0.002828068 -0.0101671945 -0.000749494 0.0008028299
-0.0129852565 0.009882455 0.009485197 -0.018326815 0.0005673355

cross_network.cross_weights.6.weight f4 [1, 13]
00000000: c8da 58bb 8e08 90ba 2d7d 89bc 5bcf 56bc
00000010: 2abb 1cbc a379 6abc 0459 5abb 3a52 84b9
00000020: 250c 75bc 812e e03b bd9d d93b 8cbb b6bc
00000030: febd 3b3a
-0.0033089388 -0.0010988878 -0.016783321 -0.013110961 -0.009566108 -0.014311227 -0.0033317218 -0.00025238266
-0.014956509 0.006841481 0.0066411183 -0.022306226 0.0007161795

cross_network.cross_weights.7.weight f4 [1, 13]
00000000: 1159 a3bb c969 82ba 2050 a4bc 8ee3 8abc
00000010: 9bb2 8cbc c777 a0bc 97a0 d8bb 890c 7aba
00000020: 518a 8fbc 2ce3 323b 4749 6e3b 24f0 e1bc
00000030: 2e53 5c3a
-0.004984983 -0.0009949739 -0.020057738 -0.01695421 -0.01717501 -0.019588364 -0.0066109407 -0.0009538611
-0.01752201 0.002729605 0.0036359595 -0.027580328 0.0008404729

cross_network.cross_weights.8.weight f4 [1, 13]
00000000: 30ba e2bb 6062 3dba cb3b c5bc 99b9 b3bc
00000010: 0498 d5bc cf68 d7bc 1ce8 2ebc c286 97ba
00000020: 86f0 a9bc 4e39 2ebb 9026 ec38 405c 0dbd
00000030: 0c3c 753a
-0.006919168 -0.0007224437 -0.024076363 -0.021939086 -0.026073463 -0.026295094 -0.010675456 -0.0011560547
-0.020744573 -0.002658445 0.0001126054 -0.034511805 0.0009354956

cross_network.cross_weights.9.weight f4 [1, 13]
00000000: 8a6c 14bc b56b 23b9 a6a8 eebc 3d50 e8bc
00000010: 81b0 17bd 31e9 0ebd 2053 80bc b505 97ba
00000020: 4cb5 c9bc c52a 20bc 2b67 94bb 0dbe 32bd
00000030: 317d 833a
-0.009059081 -0.00015585015 -0.029133152 -0.028358573 -0.03703356 -0.034890357 -0.015664637 -0.0011522087
-0.024622582 -0.009775822 -0.0045289 -0.043638278 0.0010031817

cross_network.cross_weights.10.weight f4 [1, 13]
00000000: 99b2 36bc 2050 ac3a e93f 12bd 119c 16bd
00000010: a25b 52bd cb0f 3dbd ffe4 b2bc 49ef 2fbb
00000020: b736 edbc 8fc8 9fbc a4c0 3bbc bf80 64bd
00000030: c1ca 893a
-0.011150979 0.0013146438 -0.03570548 -0.03676993 -0.05135692 -0.04615764 -0.02183771 -0.0026845506
-0.028956754 -0.019504813 -0.011459503 -0.055786844 0.0010512696

cross_network.cross_weights.11.weight f4 [1, 13]
00000000: bbe2 40bc a70b a53b 8755 33bd eb72 47bd
00000010: e08b 6ebd d768 79bd 6071 fbbc a88d 34bc
00000020: 5432 1abd c08d f0bc 7078 b8bc be28 93bd
00000030: e96e 8e3a
-0.011772807 0.0050367895 -0.043782737 -0.04869358 -0.058238864 -0.060891 -0.03069371 -0.011020102
-0.037645653 -0.029364467 -0.022518367 -0.07185505 0.0010866794

cross_network.cross_weights.12.weight f4 [1, 13]
00000000: 66e5 9bbd bdc3 823c d664 01be 6702 0fbe
00000010: bf14 9dbe 84e7 34be 43db 1bbe a8a7 16bd
00000020: 57c8 a1bd fb8b 2cbe 8483 8ebd 9f6c 54be
00000030: 58f0 143b
-0.07612114 0.015962476 -0.12636122 -0.1396576 -0.3067989 -0.17666441 -0.1522036 -0.036780983
-0.0789954 -0.16850273 -0.06958678 -0.2074456 0.0022726264

cross_network.cross_weights.13.weight f4 [1, 13]
00000000: 130b 9abc 05b1 ec3b 6019 14be bb43 4cbc
00000010: 9c4d e9be bae3 24bd 82af 873c 7536 4bbd
00000020: 658b 2d3e 3f3a 70be edfd 31be b475 96bd
00000030: a12b 0a3b
-0.018804109 0.007223251 -0.14462805 -0.01246732 -0.45567024 -0.04025624 0.01656318 -0.04961248
0.16947706 -0.23459719 -0.17382021 -0.07346669 0.0021083134

cross_network.cross_weights.14.weight f4 [1, 13]
00000000: 8cba 343d 5ff9 a2bb 3ec0 14be 5623 873d
00000010: 700a dabe e69d 2f3d aa73 fa3d 08f0 81bd
00000020: 4d10 a33e 9271 31be 9c00 7cbe f685 2a3d
00000030: 1cb6 fc3a
0.044123217 -0.004973575 -0.1452646 0.06598537 -0.42586088 0.042875193 0.122290924 -0.063446105
0.31848374 -0.1732848 -0.24609607 0.04163166 0.0019280347

cross_network.cross_weights.15.weight f4 [1, 13]
00000000: 48a5 343d 266c 2cbc a792 4abe da60 333c
00000010: e963 eebe 2a54 1cbd 11d4 073e 72d4 02be
00000020: 6870 d43e 258c 06be 728d fabe 8825 4a3c
00000030: 9939 033b
0.044102937 -0.0105238315 -0.19782506 0.010948384 -0.465606 -0.038166203 0.1326449 -0.12776354
0.4149201 -0.13139398 -0.4893604 0.01233805 0.0020023345

cross_network.cross_biases.0 f4 [13]
00000000: 1af1 85bd 6a51 013c 1dab a7bd d0fb 06be
00000010: 51ea 44be 1d81 07be df56 c2bd 4f14 59bd
00000020: 25d9 803c 7336 f6bd 9a6c cfbd e15c 10be
00000030: 2b1c 8dba
-0.06540127 0.007892946 -0.08186934 -0.13181996 -0.1923001 -0.13232847 -0.094892256 -0.052997883
0.015728543 -0.12022104 -0.10128136 -0.1409793 -0.0010765841

cross_network.cross_biases.1 f4 [13]
00000000: 4552 84bd b8ce 083c 788b a8bd 4c9d 06be
00000010: 2bdc 45be fc58 06be 8f77 c0bd f43f 5bbd
00000020: 8103 8f3c 7a80 f6bd 7c40 d1bd dd46 0fbe
00000030: aae6 8cba
-0.06461004 0.008350067 -0.082297266 -0.13145941 -0.19322269 -0.13119882 -0.09397804 -0.053527787
0.017457725 -0.12036224 -0.102173775 -0.13991876 -0.0010749896

cross_network.cross_biases.2 f4 [13]
00000000: e4ff 82bd 01c2 0e3c 838e a9bd 3242 06be
00000010: ea08 47be 895b 05be b5da bebd f72e 5dbd
00000020: a167 9b3c eac6 f7bd 3f75 d3bd 6656 0ebe
00000030: 2506 8cba
-0.063964635 0.008713246 -0.08279135 -0.13111189 -0.19436994 -0.13023199 -0.09319059 -0.053999867
0.018970313 -0.12098487 -0.10325097 -0.13900146 -0.0010682984

cross_network.cross_biases.3 f4 [13]
00000000: e5eb 81bd 1f3c 133c 21a6 aabd f7ed 05be
00000010: 8941 48be fe82 04be 1c74 bdbd 78ec 5ebd
00000020: 0e72 a63c 8386 f9bd 13ac d5bd 3f85 0dbe
00000030: 4089 8bba
-0.063438214 0.008986502 -0.08332468 -0.13079058 -0.1955625 -0.12940595 -0.09250662 -0.054424733
0.020318057 -0.12183859 -0.10433211 -0.1382036 -0.0010645762

cross_network.cross_biases.4 f4 [13]
00000000: 480a 81bd 3a75 163c 77c8 abbd 06a1 05be
00000010: a37b 49be 31c9 03be f236 bcbd 2d84 60bd
00000020: 8681 b03c ee75 fbbd 4ad6 d7bd 68cc 0cbe
00000030: a6a4 8bba
-0.06300789 0.009183222 -0.08387845 -0.13049707 -0.1967607 -0.12869717 -0.091901675 -0.054813553
0.021546137 -0.12278353 -0.10538919 -0.1374985 -0.0010653927

cross_network.cross_biases.5 f4 [13]
00000000: 4e50 80bd c9a0 183c 11f0 acbd 5659 05be
00000010: b2b3 4abe 1027 03be d314 bbbd 1001 62bd
00000020: 43f1 b93c 6678 fdbd 22f6 d9bd ac23 0cbe
00000030: 6727 8cba
-0.06265317 0.009315678 -0.084442265 -0.1302236 -0.19795111 -0.1280787 -0.09134831 -0.055176795
0.02269805 -0.1237648 -0.10642649 -0.13685483 -0.0010692895

cross_network.cross_biases.6 f4 [13]
00000000: ee67 7fbd e3eb 193c ed1a aebd 4e12 05be
00000010: 51e8 4bbe 4293 02be 12fc b9bd 0a6b 63bd
00000020: ac20 c33c 3e83 ffbd 8812 dcbd f980 0bbe
00000030: a7e3 8cba
-0.062354974 0.009394619 -0.085012294 -0.12995264 -0.1991284 -0.12751487 -0.09081282 -0.055522002
0.02381929 -0.12476204 -0.10745722 -0.13623418 -0.0010748998

cross_network.cross_biases.7 f4 [13]
00000000: ba57 7ebd b182 1a3c f648 afbd ddc3 04be
00000010: 8319 4dbe a300 02be f3d5 b8bd b2c4 64bd
00000020: c47b cc3c 46c9 00be 8d34 debd 3dd7 0abe
00000030: abb6 8dba
-0.06209538 0.009430573 -0.08558838 -0.12965341 -0.20029263 -0.12695555 -0.090251826 -0.055851646
0.02496136 -0.1257678 -0.10849867 -0.1355867 -0.0010811886

cross_network.cross_biases.8 f4 [13]
00000000: c95f 7dbd 2991 1a3c a97a b0bd 8561 04be
00000010: 9b47 4ebe 085d 01be df83 b7bd d506 66bd
00000020: 8586 d63c 00d3 01be c167 e0bd bc14 0abe
00000030: bb88 8eba
-0.061858926 0.009434023 -0.086171456 -0.12927826 -0.20144503 -0.12633145 -0.08960699 -0.05615886
0.02618719 -0.12678146 -0.109572895 -0.13484472 -0.0010874489

cross_network.cross_biases.9 f4 [13]
00000000: b778 7cbd 8748 1a3c 8fae b1bd 4bd4 03be
00000010: 1470 4fbe c48f 00be c8db b5bd e215 67bd
00000020: 00f3 e13c 5ede 02be a2bb e2bd 4020 09be
00000030: 3e4d 8fba
-0.06163856 0.009416706 -0.086758725 -0.12873952 -0.20257598 -0.12554842 -0.088798106 -0.056417353
0.027581692 -0.12780139 -0.11070944 -0.13391209 -0.0010933054

cross_network.cross_biases.10 f4 [13]
00000000: dcb1 7bbd 13f8 193c 6fd5 b2bd b0e5 02be
00000010: 6e8b 50be 3ee2 febd c692 b3bd a19c 67bd
00000020: d0fb ef3c ddeb 03be d44f e5bd fbcc 07be
00000030: f614 90ba
-0.061448917 0.009397524 -0.087321155 -0.12782931 -0.20365688 -0.12445496 -0.08768229 -0.056545857
0.029294878 -0.12882943 -0.11196867 -0.13261788 -0.0010992575

cross_network.cross_biases.11 f4 [13]
00000000: d5ee 7dbd a1dc 193c e728 b5bd 02fa 00be
00000010: 8bbe 51be 104b febd ab5a b2bd b7b2 66bd
00000020: 9f53 ff3c f85a 05be 3e2a e9bd 79e8 06be
00000030: 3596 91ba
-0.061995346 0.009390981 -0.08845692 -0.1259537 -0.20482843 -0.12416661 -0.087087 -0.05632278
0.031167803 -0.13022983 -0.1138501 -0.13174619 -0.0011107387

cross_network.cross_biases.12 f4 [13]
00000000: ff1a 37bd 65f7 df3b 4c1d 9ebd 7ead cebd
00000010: 2ded 39be 10f0 c1bd 003d 66bd 6f9a 82bd
00000020: 92b2 453d 365e ecbd 05b4 f1bd e7be d0bd
00000030: dc5b 8dba
-0.04470348 0.0068349116 -0.07720432 -0.10091685 -0.18156882 -0.094696164 -0.056210518 -0.06377112
0.048266 -0.11541407 -0.11801914 -0.10192662 -0.0010784823

cross_network.cross_biases.13 f4 [13]
00000000: 3722 1dbd bd3c f53b 3395 67bd 8d1d afbd
00000010: b858 00be a9fa 90bd 61a3 23bd 8d24 81bd
00000020: e765 033d 4ab4 a7bd 84cc dcbd d43d 9dbd
00000030: 7097 a9ba
-0.038362708 0.007484047 -0.05653877 -0.08550558 -0.12533844 -0.0707906 -0.039950732 -0.063058
0.032079604 -0.08188684 -0.10781196 -0.076778084 -0.0012938809

cross_network.cross_biases.14 f4 [13]
00000000: b672 44bd c96a 4f3c 4a0b 11bd bb2b c6bd
00000010: 48fb b4bd 6921 84bd 36e5 3bbd d6cf 48bd
00000020: 427b 33bb da38 6cbd 7f73 b6bd c849 95bd
00000030: ec56 e6ba
-0.04796096 0.012659737 -0.035411157 -0.0967631 -0.088369906 -0.06451685 -0.04587289 -0.049026333
-0.00273867 -0.057671405 -0.08908748 -0.07289463 -0.0017573512

cross_network.cross_biases.15 f4 [13]
00000000: 0dab 51bd f41d 953c ee99 3bbc 9d13 acbd
00000010: 7099 95bd fc5f 27bd 6430 40bd 14cd 50bb
00000020: 253c 53bd 7eef 09bd cca2 18bc 3639 6bbd
00000030: 63b4 3bbb
-0.051188517 0.01820276 -0.011450274 -0.084021784 -0.073046565 -0.040863022 -0.04692115 -0.0031860517
-0.05157103 -0.033675663 -0.009316158 -0.057427607 -0.0028641454

deep_network.0.weight f4 [512, 13]
00000000: bc8b 0080 bea4 0000 6096 0080 c913 0080
00000010: 53a1 0080 9789 0080 c48b 0080 86ac 0080
00000020: 7206 0080 b53d 0080 e3a4 0080 d218 0080
00000030: df91 0080 62e6 6a37 bd05 beb6 3372 b436
00000040: e987 0438 4713 c136 6237 7db7 f502 16b8
00000050: 6978 9f34 ee16 23b7 3dec 9438 4ef8 4ab8
00000060: fd22 4237 ea8f 0000 28a7 9d37 4491 4db8
00000070: 76a8 fdb8 720b af36 100f afb5 4d30 5a36
00000080: ec63 92b5 4b48 2f38 356a 69b6 89d6 02b7
00000090: 3a9a 68b7 e835 1f36 fe88 0000 28bd c238
000000a0: 9e8f 7437 d07f e138 08df 7e38 53ac 7b38
000000b0: 5703 b238 fffc 8db9 cb1c 03b9 059e 27b9
000000c0: 56de d3b7 61e1 ecb8 6202 3b39 54a9 0080
000000d0: 63a5 7fb6 b50c 0bb6 e842 abb8 5a39 8fb6
000000e0: 1b30 a737 fc2d cb36 9ebb a436 426d cf37
000000f0: 17fe 8536 0121 0639 a92b d837 16eb b236
00000100: 6971 132c 20c5 c536 2d01 7438 aa5a 22b7
00000110: 40b9 68b8 52f2 16b7 f4db 2bb8 8fec b8b8
00000120: 7075 f2b6 7350 3ab8 c934 a3b8 dae5 c138
00000130: 5273 4e38 71ad 0080 429e 0080 d2ac 0000
00000140: fe9b 0080 ca91 0000 7391 0080 ee8b 0080
00000150: 3c5d 0000 b58a 0080 eba8 0080 de8f 0000
00000160: aba8 0080 0291 0080 f79c 0000 9a7e 5eb8
00000170: 9b1d 0f37 186c 77b7 a13b dfb7 7382 0334
00000180: 4c4b e337 89ba 4537 9800 da34 31fb f037
00000190: 2e64 5eb6 a093 4b37 64c9 0338 45c9 d0ad
000001a0: 848a 0080 0099 0000 6c89 0080 7d09 0000
000001b0: 4b93 0080 e489 0080 7789 0080 8d8d 0080
000001c0: 5c8b 0000 da8e 0080 e98b 0000 aa8a 0080
000001d0: eb94 0080 847c 1c38 fddb e1b4 41ce 9a39
000001e0: 1338 09b5 ad17 d338 5169 2737 2ef6 fa37
000001f0: 844c bdb8 8e1a ae37 b0c6 3538 1e88 3c38
00000200: 23b6 42b8 dc90 fcb4 2194 2cb4 453e 9735
00000210: 0d13 60b5 eeef 90b5 e25c a034 8296 24b6
00000220: 34f6 5436 b5a3 2637 328d 43b3 298e 3837
00000230: 4610 0537 5691 8b34 8b8d f12c bc89 0080
00000240: a8a4 0080 0a8b 0000 868e 0080 c298 0080
00000250: 7c94 0080 4c89 0080 2290 0080 0d8a 0080
00000260: 6b93 0080 948e 0000 2796 0080 0493 0000
00000270: 58d4 0a38 d1c6 c235 f461 47b7 caf7 1339
00000280: 7fc4 a939 464d ddb8 bede d938 fac1 bd38
00000290: 2afe d238 85af 1bb8 9b79 9535 f467 e138
000002a0: 37aa 08b9 c681 13b8 e6e4 2939 6f65 cbb8
000002b0: 1bc9 ef38 74c9 2d36 4c12 fbb8 6751 1239
000002c0: 1616 7737 1a3a ad38 6a0b a538 26ce c737
000002d0: 0b45 f038 6e97 0080 ab8b 0080 e998 0080
000002e0: 598e 0080 e588 0080 f691 0000 4089 0080
000002f0: 0793 0080 ac90 0000 a090 0080 7a8c 0080
00000300: 5790 0080 a089 0080 e1a9 0080 d82b 8c37
00000310: 1c21 7eb8 0fb0 88b4 37a6 75b8 c40a 0ab7
00000320: 88e1 a537 356f 40b6 2539 b635 c35f 9038
00000330: 1289 b5b8 738b a0b9 4a37 9b37 bd88 0080
00000340: 1745 9b34 8d12 9f38 2b21 b5b5 b314 9333
00000350: 4f37 1c37 a639 ba36 6dd3 0e37 b0fa c438
00000360: a9f8 6c35 9234 1ab6 73cd d438 73a1 af36
00000370: 7089 0080 6baa 0080 2c9a 0080 f08c 0080
00000380: 328b 0080 00a9 0080 268f 0080 b88e 0080
00000390: 0a8d 0080 4689 0080 8f97 0080 cf8d 0080
000003a0: 4d8f 0080 faab 0000 67a8 ab38 d701 e136
000003b0: 0b4b d6b8 8f33 4f38 0541 dc38 278e 89b9
000003c0: 6025 5339 f329 43b8 f4e0 6b39 79e7 8838
000003d0: 7bd7 56b9 a64d 53b9 a28a 0000 428e 0080
000003e0: e4a4 0000 b698 0080 4b90 0080 d88b 0000
000003f0: fb8a 0080 2f96 0080 0590 0080 9b8a 0080
-5.0127e-41 5.9098e-41 -5.3944e-41 -7.098e-42 -5.7872e-41 -4.9358e-41 -5.0138e-41 -6.189e-41
-2.312e-42 -2.2136e-41 -5.915e-41 -8.904e-42 -5.2329e-41 1.4001127e-05 -5.6631093e-06 5.3777126e-06
3.159783e-05 5.7540924e-06 -1.509287e-05 -3.576554e-05 2.9703668e-07 -9.720896e-06 7.101193e-05 -4.8391805e-05
1.1571447e-05 5.1627e-41 1.8793697e-05 -4.9011098e-05 -0.000120953584 5.216739e-06 -1.30429e-06 3.2512646e-06
-1.0906929e-06 4.179058e-05 -3.4781526e-06 -7.798554e-06 -1.3864186e-05 2.3724224e-06 4.9144e-41 9.285874e-05
1.4576972e-05 0.00010752643 6.0766033e-05 6.0003553e-05 8.4883235e-05 -0.00027082113 -0.0001250386 -0.00015985228
-2.5256693e-05 -0.00011295337 0.00017834597 -6.0743e-41 -3.8094229e-06 -2.072001e-06 -8.166378e-05 -4.2684087e-06
1.9930352e-05 6.0552247e-06 4.9094224e-06 2.47272e-05 3.993289e-06 0.00012791531 2.5769537e-05 5.332181e-06
2.0952912e-12 5.894006e-06 5.817523e-05 -9.677062e-06 -5.5485638e-05 -8.997116e-06 -4.0974424e-05 -8.817866e-05
-7.2258335e-06 -4.442078e-05 -7.782278e-05 9.24577e-05 4.9221628e-05 -6.2219e-41 -5.6772e-41 6.1996e-41
-5.596e-41 5.2299e-41 -5.2177e-41 -5.0197e-41 3.3446e-41 -4.9759e-41 -6.0596e-41 5.161e-41
-6.0507e-41 -5.2019e-41 5.6308e-41 -5.304683e-05 8.530357e-06 -1.4747515e-05 -2.6611438e-05 1.2247783e-07
2.7095572e-05 1.1785546e-05 4.0606096e-07 2.87272e-05 -3.313889e-06 1.21341145e-05 3.1420393e-05 -2.3736244e-11
-4.969e-41 5.4886e-41 -4.9298e-41 3.404e-42 -5.2839e-41 -4.9466e-41 -4.9313e-41 -5.0779e-41
4.9993e-41 -5.1245e-41 5.019e-41 -4.9743e-41 -5.3422e-41 3.7309263e-05 -4.2069578e-07 0.0002952684
-5.1118076e-07 0.00010065674 9.978497e-06 2.9916959e-05 -9.0264744e-05 2.0754782e-05 4.3338805e-05 4.4949462e-05
-4.6422832e-05 -4.7044057e-07 -1.6072637e-07 1.12685e-06 -8.3474225e-07 -1.0798665e-06 2.9869904e-07 -2.4525511e-06
3.173377e-06 9.932487e-06 -4.5530392e-08 1.1000354e-05 7.931207e-06 2.5996513e-07 6.8653464e-12 -4.941e-41
-5.9068e-41 4.9878e-41 -5.1128e-41 -5.4799e-41 -5.3266e-41 -4.9253e-41 -5.1705e-41 -4.9523e-41
-5.2884e-41 5.1147e-41 -5.3865e-41 5.2739e-41 3.3099524e-05 1.451199e-06 -1.1884131e-05 0.00014111321
0.00032380593 -0.000105524945 0.00010388855 9.048353e-05 0.00010060922 -3.7118345e-05 1.1136757e-06 0.00010748199
-0.0001303338 -3.5168392e-05 0.00016202367 -9.698688e-05 0.00011433867 2.589627e-06 -0.00011972021 0.0001395397
1.47274895e-05 8.260105e-05 7.869939e-05 2.3818644e-05 0.00011456952 -5.4323e-41 -5.0103e-41 -5.4854e-41
-5.1065e-41 -4.9109e-41 5.2361e-41 -4.9236e-41 -5.2743e-41 5.1898e-41 -5.1882e-41 -5.0393e-41
-5.178e-41 -4.937e-41 -6.0941e-41 1.6709717e-05 -6.0589155e-05 -2.5460074e-07 -5.856735e-05 -8.227948e-06
1.9774554e-05 -2.867496e-06 1.3576688e-06 6.884292e-05 -8.656284e-05 -0.00030621476 1.8503186e-05 -4.9052e-41
2.892127e-07 7.585166e-05 -1.3495204e-06 6.848986e-08 9.311202e-06 5.549943e-06 8.513086e-06 9.3927025e-05
8.82787e-07 -2.2978388e-06 0.00010147216 5.2342016e-06 -4.9303e-41 -6.1134e-41 -5.5306e-41 -5.0559e-41
-4.9934e-41 -6.0626e-41 -5.1352e-41 -5.1198e-41 -5.0595e-41 -4.9244e-41 -5.4369e-41 -5.0871e-41
-5.1407e-41 6.1694e-41 8.185283e-05 6.7057367e-06 -0.00010218293 4.9400664e-05 0.00010502528 -0.00026236588
0.00020136451 -4.653069e-05 0.00022495148 6.5281005e-05 -0.00020488903 -0.00020151454 4.9732e-41 -5.1032e-41
5.9152e-41 -5.4782e-41 -5.1763e-41 5.0166e-41 -4.9857e-41 -5.3876e-41 -5.1664e-41 -4.9722e-41

deep_network.0.bias f4 [512]
00000000: 638e 0080 aa02 a1b6 4320 48b5 9610 9e38
00000010: f514 f436 5c37 49b7 de89 0080 400b 3bb8
00000020: c689 0080 77d2 3f38 971d 76b6 5790 0080
00000030: f01d 88b8 12c0 8eb8 7994 0080 8ddd 90b8
00000040: 16c4 9336 7089 0080 298d adb8 3591 0080
00000050: 498e 0038 0eae 5036 9790 0080 64ab 8037
00000060: fe24 20b8 386a 2db8 ca56 1939 f99d 6c38
00000070: 0bc7 a434 17a1 0080 db9f 5db8 32fa 66b8
00000080: 36ea b638 54e1 ecb5 d48f 0080 028b 0000
00000090: 96d6 2236 c08f 0080 2547 1e35 0ea1 c1b7
000000a0: 7d7d 02b7 959d 22b8 363b 6e37 5682 8039
000000b0: 6ead e538 2a5d 23b7 4ca1 9f37 6593 0080
000000c0: 168a 0080 ff8a 0080 e98c 0080 7114 4436
000000d0: 5fc8 12b8 ca17 d7b7 b68b 0080 8f38 5738
000000e0: d298 6638 be9c 15b8 307e 7c36 f34e 8938
000000f0: c687 6337 9b99 0080 3cf1 0737 5ab9 4cb8
00000100: 0a89 0080 9c2a a5b8 f746 a535 abf3 8cb6
00000110: 1aa3 0080 f1dd fe36 c689 0080 1b8b 0080
00000120: 0eff 0335 94d2 f636 62fe 0437 933f 00b9
00000130: b052 abb6 aefa 4bb9 dc79 d737 a355 1bb7
00000140: 8e56 aeb7 c9ae 0080 708a 0080 9473 0080
00000150: e32b 23b6 0872 2d36 7474 a835 7989 0080
00000160: 2e72 63b6 ca0d 7a38 c1c1 6b36 3593 2138
00000170: 18b0 85b9 f0a6 0080 9ead 89b8 16e8 dab5
00000180: 2b05 3f37 f68e 0080 2eca 1b39 e957 2db5
00000190: 78a8 a5b5 67e7 a2b8 9073 d3b8 1114 ab38
000001a0: 245c 95b6 d88b 0080 3071 0080 319d 0a38
000001b0: bb06 79b8 03c6 d8b5 ca19 8bb5 1a8c 0080
000001c0: 768a 0080 7824 7cb8 4a8a 0080 ed5f e2b5
000001d0: 7a82 da37 3c79 b536 088a 0080 36bf bf37
000001e0: 9d9c fcb7 f964 67b8 cc69 9bb9 578e 0080
000001f0: ff8a da36 768b 0080 9f53 6638 c388 0080
00000200: 8889 0080 f2b5 84b8 5c5a ac38 8bc4 ab38
00000210: d39e a6b6 eeff b837 c2d8 2fb9 df0c a638
00000220: faff 8336 0427 a937 c891 0639 2be9 37b7
00000230: 598b 0080 864e 99b5 7e92 0000 9c8e 0080
00000240: b88a 0080 fafa 9638 198e 0080 503c dbb6
00000250: 1b58 c736 1518 8eb7 c688 0080 5d1b b2b6
00000260: 488b 0080 0184 7539 bf15 3a37 8179 f1b7
00000270: 9c50 eeb7 77c8 a2b6 0ae0 b436 9c0e 45b9
00000280: 79a0 0080 15ff 1e37 59e0 4437 1694 0080
00000290: c896 dbb7 1be9 c5b6 f688 0080 c0cf 2f37
000002a0: 8435 a7b6 e838 5136 0fca 0936 69c8 11b8
000002b0: 0320 b935 9b95 0080 74cd b7b5 df83 b038
000002c0: 1bce 7537 8627 95b5 618b 0080 3f69 1537
000002d0: 468e 0080 5cc9 3138 d289 0080 cdcb 69b7
000002e0: 96a4 bb36 4a3c 43b8 842d 8138 898a 0000
000002f0: 9341 01b8 c252 fd33 e389 0080 908f b338
00000300: a59f 0080 d80b 23b8 9c8a 0080 57d4 aab4
00000310: 0466 fcb5 e9af d238 2e24 53b8 c543 1bb9
00000320: 248a 0080 6289 0080 408e 24b9 3789 7a37
00000330: 56ee 11b7 ca88 00b9 fe8a 0080 6612 fbb3
00000340: 6401 17b5 0dc0 76b8 7f8c 0080 011f 0eb9
00000350: d12b 4e39 0da5 ff36 d0bf 0838 db4f dab8
00000360: c64b c833 5e18 75b8 2ef7 fc38 aaad 01b9
00000370: db25 abb8 3e91 9c37 828e 2635 a5cf 3b36
00000380: 5c67 0080 4722 e238 ed8a 0080 02d9 dab5
00000390: 9a52 bb37 608c 0080 22ea 57b6 7d41 34b9
000003a0: 3772 b1b8 42cd 0637 d9b4 18b8 952a 74b5
000003b0: 636c 94b9 4f91 0080 e8cc bf38 dc26 6ab7
000003c0: f4e6 dfb7 acfd e637 818b 0080 a3d9 aeb8
000003d0: 0f8a 0080 e00f 09b8 ca51 3db6 f196 1c39
000003e0: cc89 0080 2617 80b9 624c c8b8 99b1 8838
000003f0: a58a 0080 dfb1 b134 b2d6 25ba de17 d2b6
-5.1079e-41 -4.798484e-06 -7.4552753e-07 7.5371165e-05 7.2742064e-06 -1.1993423e-05 -4.9457e-41 -4.459475e-05
-4.9424e-41 4.573396e-05 -3.667408e-06 -5.178e-41 -6.490562e-05 -6.8068635e-05 -5.3262e-41 -6.907722e-05
4.403769e-06 -4.9303e-41 -8.275576e-05 -5.209e-41 3.065009e-05 3.1095728e-06 -5.1869e-41 1.5338599e-05
-3.8181424e-05 -4.1345338e-05 0.00014623548 5.6413908e-05 3.0692203e-07 -5.7788e-41 -5.2839383e-05 -5.5069286e-05
8.7220615e-05 -1.7648949e-06 -5.1596e-41 4.9867e-41 2.4264787e-06 -5.1568e-41 5.8963116e-07 -2.308239e-05
-7.777821e-06 -3.877057e-05 1.4199692e-05 0.0002451117 0.00010951875 -9.737249e-06 1.9029387e-05 -5.2875e-41
-4.9536e-41 -4.9862e-41 -5.0549e-41 2.9218174e-06 -3.4995723e-05 -2.5641075e-05 -5.0119e-41 5.131267e-05
5.49786e-05 -3.5670346e-05 3.7624377e-06 6.5473745e-05 1.3561867e-05 -5.5103e-41 8.102794e-06 -4.8810012e-05
-4.916e-41 -7.87575e-05 1.2314111e-06 -4.200692e-06 -5.851e-41 7.5956273e-06 -4.9424e-41 -4.9902e-41
4.9172456e-07 7.355886e-06 7.927041e-06 -0.00012230714 -5.105823e-06 -0.00019452974 2.5686742e-05 -9.258659e-06
-2.0782722e-05 -6.2701e-41 -4.9662e-41 -4.1462e-41 -2.4314438e-06 2.5845384e-06 1.2550868e-06 -4.9316e-41
-3.3892097e-06 5.9617487e-05 3.5130508e-06 3.852249e-05 -0.00025498937 -5.9886e-41 -6.565008e-05 -1.6309812e-06
1.138569e-05 -5.1285e-41 0.0001485727 -6.457545e-07 -1.2342489e-06 -7.767864e-05 -0.00010082789 8.157653e-05
-4.4512726e-06 -5.0166e-41 -4.0604e-41 3.304816e-05 -5.9372494e-05 -1.6150883e-06 -1.0363813e-06 -5.0259e-41
-4.967e-41 -6.0115446e-05 -4.9609e-41 -1.686623e-06 2.6048383e-05 5.408334e-06 -4.9516e-41 2.2858014e-05
-3.011367e-05 -5.516873e-05 -0.0002964273 -5.1062e-41 6.5130876e-06 -5.0029e-41 5.491415e-05 -4.9061e-41
-4.9337e-41 -6.3281404e-05 8.21843e-05 8.1905244e-05 -4.965675e-06 2.2053686e-05 -0.00016770049 7.917894e-05
3.933904e-06 2.0164538e-05 0.00012833544 -1.0961939e-05 -4.9989e-41 -1.1422242e-06 5.2551e-41 -5.1159e-41
-4.9763e-41 7.1993054e-05 -5.0975e-41 -6.53373e-06 5.940919e-06 -1.6938933e-05 -4.9065e-41 -5.307999e-06
-4.9965e-41 0.00023414196 1.1091527e-05 -2.8786018e-05 -2.8409348e-05 -4.8513134e-06 5.3904996e-06 -0.00018792826
-5.7567e-41 9.476925e-06 1.1734745e-05 -5.3123e-41 -2.6177047e-05 -5.8981946e-06 -4.9132e-41 1.0479183e-05
-4.983218e-06 3.117655e-06 2.0532204e-06 -3.475734e-05 1.3792891e-06 -5.3668e-41 -1.3694357e-06 8.416897e-05
1.4651126e-05 -1.1112868e-06 -5e-41 8.905597e-06 -5.1038e-41 4.238762e-05 -4.944e-41 -1.3935333e-05
5.5921946e-06 -4.654777e-05 6.159677e-05 4.9697e-41 -3.0817067e-05 1.1796284e-07 -4.9464e-41 8.562126e-05
-5.727e-41 -3.887326e-05 -4.9724e-41 -3.1819465e-07 -1.8805154e-06 0.00010046346 -5.0340015e-05 -0.00014807198
-4.9556e-41 -4.9284e-41 -0.00015693251 1.4933109e-05 -8.698165e-06 -0.00012257989 -4.9861e-41 -1.1691445e-07
-5.6253907e-07 -5.882983e-05 -5.04e-41 -0.00013553725 0.00019662014 7.6188066e-06 3.2603566e-05 -0.00010409924
9.327009e-08 -5.8435246e-05 0.00012062337 -0.00012367094 -8.1609665e-05 1.8664283e-05 6.2047195e-07 2.7986036e-06
-3.7078e-41 0.000107829044 -4.9837e-41 -1.6305423e-06 2.2330601e-05 -5.0357e-41 -3.217378e-06 -0.00017190534
-8.461292e-05 8.034813e-06 -3.640805e-05 -9.095905e-07 -0.00028309514 -5.2127e-41 9.1457565e-05 -1.39565345e-05
-2.6691217e-05 2.7536262e-05 -5.0045e-41 -8.3375046e-05 -4.9526e-41 -3.267813e-05 -2.8210802e-06 0.0001493355
-4.9432e-41 -0.0002443131 -9.5509706e-05 6.5180655e-05 -4.9736e-41 3.3098237e-07 -0.00063262426 -6.261266e-06

deep_network.2.weight f4 [64, 512]
00000000: a78e d5ae 366f 4d38 a17b 7cb8 1f1a cab8
00000010: 303c 4135 efb9 2537 5a22 8d2a b14e 6836
00000020: 0da7 0080 2995 1739 ec2d 1136 2a89 0080
00000030: edd5 5136 7207 a237 0189 0080 f8da ac36
00000040: 8dbe d7b9 d58d 0080 715b 13b8 8332 3fb4
00000050: 5848 b2b6 8c28 c1b7 852b 8eb9 aeb6 30b7
00000060: f0e4 72b6 46aa 4034 6746 aab8 9585 a8b8
00000070: 8e46 1db6 5316 e1a8 88bb f534 bcae 3b38
00000080: e220 8038 8d06 97b8 0245 4b31 5489 0000
00000090: db0f 9fb6 cb88 0000 47e0 34b3 25e1 5635
000000a0: e724 4b38 39f1 5739 24d4 6938 d4f0 3c37
000000b0: aefd 9e36 947c 89b4 31d3 68b7 4599 0000
000000c0: 3089 0000 7742 3c2a c262 1332 8b99 8db8
000000d0: d4e7 e2b8 5210 1cb7 0c89 0080 2c2c 3e36
000000e0: f4a2 6337 cfd4 8f37 aab3 a336 cf7b d336
000000f0: 79d9 e134 b69d 0000 c75c e133 c130 3936
00000100: 0c90 0080 dfc5 7636 f01a 143a 361b 9f35
00000110: 4b89 0080 8424 0436 bd92 0080 0b89 0000
00000120: c21c 3fb8 44a5 d7b9 ad3f a438 d58b 31b8
00000130: dbd5 fab6 2e6e ff36 28ac 1938 c29f 7bb5
00000140: fa2b 8e35 2191 0000 f088 0000 2b89 0000
00000150: 4087 9db9 fc3c 5ab8 f73d 7f37 b58d 0080
00000160: 2306 e135 ff5b 5535 d987 3838 40dc 3837
00000170: f606 7a37 51ac 0000 21fb 3635 ca06 a036
00000180: 5882 ca34 54a1 0080 eca4 a538 36f8 eb39
00000190: ab19 dab9 f320 1238 967d 0439 2a6f 6139
000001a0: 9483 3cb9 a396 0080 c388 0000 7d47 1636
000001b0: 20b0 ab35 d1fa 30b7 dc74 3cb9 1c89 0080
000001c0: 48a0 0080 92f2 9eb6 dd8c 0000 5597 a7b4
000001d0: 9c29 23b9 e498 c3b6 1789 0000 465a 88b5
000001e0: 8f50 a8b5 5aa7 3836 66f2 d2b8 0e89 0080
000001f0: ad3c f5b6 0789 0000 8213 b739 51e0 1f36
00000200: 538e 0000 c8e1 c537 f0a2 42b9 5073 b0b8
00000210: 94b4 2fb9 731b 44b7 86dc 3fb9 f5f8 2ab8
00000220: a69c 6fb5 7ec4 e3b5 51e5 8236 6097 e136
00000230: 9f95 0000 6611 6537 2489 0000 fa99 0000
00000240: 0089 0000 82fa 9236 8d9b 0080 4cea 6037
00000250: 607a c5b8 29be 38b6 b02d 0a31 9450 8836
00000260: cc88 0000 b03f dab6 e124 9135 5885 7cb7
00000270: 3550 c1b8 1ebc 9735 79b4 95b5 0b59 00b7
00000280: 0f97 0e35 0454 4f36 b43f e234 1b89 0080
00000290: b9d0 04b8 533e e7b6 aca8 0080 38c5 d2b8
000002a0: 3bac dc35 c367 6b35 77a1 e835 b288 34b9
000002b0: 20ba 7cb9 2995 0080 f797 b937 a358 a937
000002c0: 2261 97b5 5cfe 4db9 aabf 2a2a d2cf 0737
000002d0: e34d c3b2 1a7d aeb6 c588 0080 9dac d038
000002e0: 81a2 eab7 5d9e 1039 12da 8d38 85ac 0000
000002f0: 1f0b 1637 a4cc 4eb5 e388 0000 7480 c038
00000300: 565a 9c38 1b6b ad36 fe88 0080 07b6 14b6
00000310: c6ab 67b7 a3aa ad37 3aa2 3338 37ac 0c39
00000320: 0489 0080 4291 b9b8 0627 c2b4 c67b 28b6
00000330: 51f8 1338 4434 23b8 aac0 d431 a479 bfb6
00000340: cf8b 0c39 f328 deb6 d52d 66b9 5842 23b8
00000350: c6f7 c138 9d34 de36 9ed4 6fb8 43df 7538
00000360: 21aa c633 7100 b038 c395 a337 b102 8b37
00000370: d361 cab4 7003 0bb9 6477 a9b8 5b0d 15ba
00000380: 805d 68b9 21c3 20b8 74ad 0080 f416 0db5
00000390: 7e97 38b8 d488 0000 95e7 aa39 fd9e c2b5
000003a0: 1e7d 1737 6c14 ebb7 bf5e 8238 b31a 4ab7
000003b0: 3385 0739 260a 432e 1e05 bbb7 ba37 a8b7
000003c0: 2c7a 25b7 62b0 35b9 aea4 0080 b4d8 35b8
000003d0: 7c8f 0000 d19e af35 9286 cd38 3ea7 4338
000003e0: 4253 3431 61d0 0f38 7d16 f335 32b3 05b8
000003f0: 70a8 0080 bb57 41b9 45c7 da39 4cb0 37b9
-9.711459e-11 4.8979382e-05 -6.019662e-05 -9.636976e-05 7.1985687e-07 9.878057e-06 2.5070468e-13 3.4616498e-06
-5.9927e-41 0.00014456049 2.1633414e-06 -4.9205e-41 3.1267948e-06 1.9315372e-05 -4.9148e-41 5.1514908e-06
-0.00041149967 -5.088e-41 -3.5132693e-05 -1.7806637e-07 -5.3132353e-06 -2.3026274e-05 -0.00027116775 -1.0532951e-05
-3.619407e-06 1.7943339e-07 -8.119345e-05 -8.035746e-05 -2.3435891e-06 -2.49897e-14 4.5771253e-07 4.474701e-05
6.1096405e-05 -7.201461e-05 2.9579614e-09 4.9264e-41 -4.740415e-06 4.9072e-41 -4.2113495e-08 8.004884e-07
4.843334e-05 0.0002059386 5.57491e-05 1.1261745e-05 4.738299e-06 -2.560888e-07 -1.3877449e-05 5.4983e-41
4.9214e-41 1.6720814e-13 8.578981e-09 -6.7520035e-05 -0.00010819701 -9.302124e-06 -4.9163e-41 2.8337918e-06
1.3568195e-05 1.7146025e-05 4.878694e-06 6.3027032e-06 4.2067748e-07 5.6576e-41 1.0494255e-07 2.7595527e-06
-5.1674e-41 3.6772033e-06 0.0005649766 1.1854343e-06 -4.9251e-41 1.9690788e-06 -5.264e-41 4.9162e-41
-4.556473e-05 -0.00041131128 7.83199e-05 -4.2330317e-05 -7.4754767e-06 7.612419e-06 3.6638376e-05 -9.3737265e-07
1.0592623e-06 5.2062e-41 4.9124e-41 4.9207e-41 -0.00030046143 -5.2032046e-05 1.5213612e-05 -5.0835e-41
1.6765592e-06 7.9482555e-07 4.3995537e-05 1.1018536e-05 1.4902782e-05 6.1815e-41 6.8165724e-07 4.769162e-06
3.772027e-07 -5.7874e-41 7.898532e-05 0.00045007624 -0.00041599324 3.48398e-05 0.00012635285 0.00021499084
-0.00017978094 -5.4038e-41 4.9061e-41 2.2393353e-06 1.2791752e-06 -1.0548815e-05 -0.0001797261 -4.9186e-41
-5.7498e-41 -4.737006e-06 5.0532e-41 -3.1216283e-07 -0.00015560392 -5.8292517e-06 4.9179e-41 -1.0159063e-06
-1.2540421e-06 2.7515548e-06 -0.000100587305 -4.9166e-41 -7.3086326e-06 4.9156e-41 0.00034919014 2.3823416e-06
5.1056e-41 2.3589368e-05 -0.0001856198 -8.4138126e-05 -0.00016756571 -1.1688901e-05 -0.00018297331 -4.0763018e-05
-8.926239e-07 -1.6970005e-06 3.900998e-06 6.723145e-06 5.3674e-41 1.36535145e-05 4.9197e-41 5.5236e-41
4.9146e-41 4.380302e-06 -5.5801e-41 1.3405992e-05 -9.416486e-05 -2.7528824e-06 2.0107613e-09 4.0624964e-06
4.9073e-41 -6.5043205e-06 1.0814075e-06 -1.5051417e-05 -9.217897e-05 1.1305126e-06 -1.115389e-06 -7.6501265e-06
5.311894e-07 3.0894307e-06 4.214213e-07 -4.9184e-41 -3.166564e-05 -6.891592e-06 -6.0508e-41 -0.00010050315
1.6441403e-06 8.7695315e-07 1.733234e-06 -0.0001721706 -0.0002410193 -5.3509e-41 2.2124483e-05 2.0187645e-05
-1.1278646e-06 -0.0001964508 1.516553e-13 8.095014e-06 -2.2736407e-08 -5.200168e-06 -4.9064e-41 9.9503646e-05
-2.7970646e-05 0.00013791905 6.764023e-05 6.1888e-41 8.943286e-06 -7.703877e-07 4.9106e-41 9.1792e-05
7.455486e-05 5.1682705e-06 -4.9144e-41 -2.2159672e-06 -1.3808667e-05 2.0702666e-05 4.282801e-05 0.00013415595
-4.9152e-41 -8.848544e-05 -3.616371e-07 -2.5105996e-06 3.5278794e-05 -3.8910905e-05 6.1919154e-09 -5.7064044e-06
0.00013403523 -6.6208827e-06 -0.00021951583 -3.8924016e-05 9.2491086e-05 6.6222406e-06 -5.7180056e-05 5.862048e-05
9.25104e-08 8.392416e-05 1.9500852e-05 1.6571345e-05 -3.7696609e-07 -0.00013257354 -8.080786e-05 -0.0005685889
-0.00022160076 -3.83287e-05 -6.2223e-41 -5.2559994e-07 -4.4010107e-05 4.9085e-41 0.0003259747 -1.4500398e-06
9.0294325e-06 -2.8023693e-05 6.216531e-05 -1.2046355e-05 0.00012924224 4.434688e-11 -2.229452e-05 -2.005311e-05
-9.863212e-06 -0.00017327213 -5.9076e-41 -4.3355583e-05 5.1472e-41 1.3084738e-06 9.8002274e-05 4.664738e-05
2.6240774e-09 3.4287925e-05 1.8111456e-06 -3.187656e-05 -6.0424e-41 -0.00018438596 0.00041728668 -0.00017517916

deep_network.2.bias f4 [64]
00000000: 3931 4038 12fe 36ba 9030 c83a 07f3 d334
00000010: 9b3b 8838 3ff6 22b7 0b93 8c39 bdb2 00b6
00000020: 1d76 70b6 f776 9eb8 5203 36b5 0920 d8ba
00000030: 37b7 72b8 2f75 a4b8 bddb 5936 28f7 f837
00000040: fa48 a3bb ad7d a6b4 449c 96b4 afc8 8f36
00000050: b0ec a236 117e f036 df13 54b7 6a3e 2539
00000060: a342 3c3a 36d3 a8bb 6087 86b8 2b91 eeb6
00000070: d60d c83b 110a 9838 e69b dbb6 86d1 b435
00000080: 8ba9 46ba 553d b7b9 0a91 0239 ad23 1b39
00000090: 0469 1db9 baf2 40ba 6e57 9f3a ec50 bc34
000000a0: 1981 19b9 231b 0fb8 bfa8 6637 30f9 01b9
000000b0: 17c8 8d38 a3af 22b6 db6a 8cb7 9207 a1b9
000000c0: 60a5 6b37 93d1 69b7 f815 0ebb ec9d 8c38
000000d0: e91d 9339 43f4 0c3b 2b64 b4bb d717 caba
000000e0: b4e3 14b9 661b efb7 9245 e1b8 e65a 0b39
000000f0: 0ebd 8339 5723 acb9 7f23 f839 5bba ca37
4.582221e-05 -0.00069806085 0.0015273262 3.9478638e-07 6.496088e-05 -9.713286e-06 0.00026812436 -1.9177526e-06
-3.5831538e-06 -7.556186e-05 -6.7805115e-07 -0.0016489039 -5.786793e-05 -7.8419565e-05 3.2463424e-06 2.9678995e-05
-0.0049830647 -3.101135e-07 -2.8053375e-07 4.2850947e-06 4.8555303e-06 7.1672334e-06 -1.2640811e-05 0.00015758877
0.00071815605 -0.0051521314 -6.4148335e-05 -7.1098525e-06 0.006105165 7.2498e-05 -6.5448576e-06 1.3472024e-06
-0.00075783645 -0.00034950176 0.00012451797 0.00014795242 -0.00015011808 -0.0007360388 0.0012156793 3.5076607e-07
-0.0001463931 -3.411913e-05 1.3748358e-05 -0.00012395228 6.7606736e-05 -2.4242115e-06 -1.6739059e-05 -0.00030713953
1.4045596e-05 -1.39366775e-05 -0.0021680575 6.7051355e-05 0.0002806031 0.0021507896 -0.005505105 -0.0015418482
-0.00014199206 -2.8503779e-05 -0.000107417945 0.00013289935 0.00025127124 -0.00032832727 0.00047328693 2.4167055e-05

deep_network.4.weight f4 [32, 64]
00000000: 2511 6c38 ee67 24b9 c7d5 663a 1bef 9037
00000010: 5807 efb9 33e0 81b7 edff 1ab9 e954 80b2
00000020: dbfe 0db6 ba34 7537 43ba c934 828f 573b
00000030: 59ed 1b3a 8ecd a838 4c8a 64b9 3b5e 9f39
00000040: 8e51 2fbb f202 9835 ccc0 19b4 85d4 9037
00000050: 6f10 70b9 4b91 19b8 90dd 08b8 6e03 d8b8
00000060: e64d d2b9 cf43 b6b9 6a85 5fbb 2ed1 09b9
00000070: 575d a63a c479 8636 64ee 9434 7529 4ab9
00000080: fbdc a3ba 1253 023a db86 4437 ae72 d339
00000090: 09dc 7dba 486d 0d3a 949a 7f3a e563 75b6
000000a0: 93b1 12b9 1ca8 d536 9516 9d37 ca39 9d36
000000b0: 8511 c3b9 38bb f738 0ab3 0e38 abaf a8ba
000000c0: 08e8 6ab6 538f 42b7 d1ee a7b9 c721 b637
000000d0: 3ab7 083a a165 5cba 5bb1 9735 b3cd 5e38
000000e0: 388a 37b8 2f99 e1b3 1734 1dba 760c 2338
000000f0: 5d7b 92b9 dce3 6739 fb20 863a 74b2 a139
00000100: 66fb 45af 57bc 1b32 cd9c 4932 24ae d92d
00000110: e977 3fb2 de55 e7b2 b710 a931 da96 8dac
00000120: dd38 a8ae e5bd 3eae 26fa 832d 4312 f432
00000130: 6e93 f731 88c6 5831 7289 0dae 917e f1b1
00000140: cf8f e5b4 c19a 6fac 76fd 1b2d 75e6 132f
00000150: 633d f531 d44c a230 8a8b 5f2f a88e 7bb1
00000160: 04bb 99b3 19e3 b6b5 6a3b a0b4 8b30 21b1
00000170: e26b 15b3 c87b 12b0 b0ae ceae 583f 3baf
00000180: 3af5 bcb2 ad2f c6b1 c81c 8d32 2f38 2430
00000190: cce8 2333 8998 a4b3 4e4c c0b4 87d4 172f
000001a0: b46a 0bb2 38a0 06b1 78ce 6f2e 8192 a639
000001b0: 85e9 08b1 c39b 0dae 5951 86b0 9428 f131
000001c0: 4ffc 8b38 cd98 55af 1a6d 04b4 b8b3 f034
000001d0: c55a ef32 49c7 f2b2 0e91 d539 6021 72b2
000001e0: 2e31 63b0 cf7e 04af ad68 0d30 c1c7 a330
000001f0: 9a1c 59b1 e3fd 1930 8380 a7b2 f63e afae
00000200: a73f d12f 564a f931 2ddc 70b0 4240 1a2d
00000210: f41a 31b5 1f6d dc2b 4176 1c30 0432 e2ac
00000220: bf2b cc2c 96e7 782f 86ab b02c 975c 3532
00000230: 5460 4cb1 0c8c 582f 3d98 6335 5160 d1af
00000240: c9c9 9632 a4d9 f82a 25c5 39ab 8d2e cbad
00000250: 8c8c 83b7 aac8 4baf 92c5 f9ac c7a5 19b0
00000260: 1fbc 88b0 b888 e932 1d23 01b2 6a59 b62f
00000270: 8bc2 8b34 31fe 0830 03e3 8aad 6c41 b3ae
00000280: d375 3632 6912 8031 5503 1430 9a7b 74af
00000290: 6bce 2cb1 d063 2db1 de1b 4432 f7a3 faad
000002a0: 71ca ab30 9ad6 00af 5d4d ddad a1bc bc30
000002b0: 6dc6 77b0 bcd1 c42c 8eda f52e 4e01 39b2
000002c0: c327 11b0 9a40 082d 04b1 9ab0 8da2 962f
000002d0: 87b2 b434 89d0 a2b5 376f d4b1 d0be 3d31
000002e0: 8d1d b8af e436 22ad 626f 6a39 b79b 92b0
000002f0: 9e4a 2830 8110 7bb0 55ca 69b1 a139 d738
00000300: 2e79 24b5 4936 75b8 681e ef35 8d6b fa2f
00000310: ed08 5934 a3e5 6235 9e2a 3134 cc0b fa2f
00000320: 64ec cc31 d5a2 8932 1024 3e2f 19fe ceb3
00000330: 8199 8934 8365 c539 a295 de30 fafc d333
00000340: daac c9b7 e627 bf39 5c14 672f 8fae 8cb1
00000350: 0a95 8837 65f6 2430 3d88 f433 cb9c 3934
00000360: 9be0 80b9 7d28 7837 919f 0237 f3b3 7032
00000370: 933d ac36 0253 593a 4323 dbb0 9a54 4a30
00000380: 694a 4534 d021 1f34 2f76 5036 421b e733
00000390: c350 193a f087 6836 2db5 33b7 471e b0b0
000003a0: c8e5 fb35 e9b8 a533 9e8a 1db9 8cb6 c339
000003b0: 4a3a a231 2ee2 a231 d3da a133 a1d3 88b5
000003c0: 484f a338 0ab5 a5b1 c360 0636 3e83 38ba
000003d0: 362d 0539 75d9 0735 e468 a438 0bee 2535
000003e0: ec7d b2b2 31f2 a0b8 ccb6 5f33 a1cc 8833
000003f0: 3df5 ac31 74d4 c135 2f40 6d35 f8b7 59b1
5.628275e-05 -0.00015678976 0.0008805659 1.727748e-05 -0.00045591104 -1.54824e-05 -0.00014781924 -1.4939774e-08
-2.1158983e-06 1.4615414e-05 3.757469e-07 0.0032891934 0.00059481483 8.049152e-05 -0.00021795294 0.0003039705
-0.0026751491 1.132574e-06 -1.4319374e-07 1.72651e-05 -0.00022894306 -3.6613357e-05 -3.2631273e-05 -0.000103003214
-0.0004011236 -0.00034764266 -0.003410662 -0.00013143264 0.0012692612 4.0076866e-06 2.77406e-07 -0.00019279665
-0.001250177 0.0004971485 1.1713909e-05 0.000403305 -0.0009683972 0.00053950073 0.0009750512 -3.6565991e-06
-0.00013989797 6.367465e-06 1.8726374e-05 4.685692e-06 -0.0003720635 0.0001181275 3.402218e-05 -0.0012869736
-3.5003777e-06 -1.1596671e-05 -0.00032030654 2.171182e-05 0.0005215291 -0.0008407478 1.1301994e-06 5.3120497e-05
-4.3759326e-05 -1.0505243e-07 -0.00059968367 3.8873834e-05 -0.00027939203 0.00022114761 0.0010233218 0.0003084127
-1.800636e-10 9.065011e-09 1.1735392e-08 2.4747378e-11 -1.1144928e-08 -2.6930987e-08 4.9204476e-09 -4.024209e-12
-7.6498564e-11 -4.336966e-11 1.5004064e-11 2.8413643e-08 7.205407e-09 3.1544989e-09 -3.2181764e-11 -7.028412e-09
-4.2759208e-07 -3.4049848e-12 8.8670096e-12 1.3451447e-10 7.1374173e-09 1.1808887e-09 2.0331306e-10 -3.6606398e-09
-7.1586356e-08 -1.3626151e-06 -2.9845552e-07 -2.3456177e-09 -3.4789885e-08 -5.3290394e-10 -9.398826e-11 -1.7030055e-10
-2.1997597e-08 -5.7679785e-09 1.6427649e-08 5.9742694e-10 3.8163122e-08 -7.664591e-08 -3.5818306e-07 1.3808875e-10
-8.115126e-09 -1.959064e-09 5.452569e-11 0.0003177114 -1.9923345e-09 -3.2198032e-11 -9.772904e-10 7.0186363e-09
6.675033e-05 -1.9426523e-10 -1.2333149e-07 4.4834246e-07 2.786454e-08 -2.8263132e-08 0.000407346 -1.40938425e-08
-8.265201e-10 -1.2050382e-10 5.1444254e-10 1.1916584e-09 -3.1593914e-09 5.602187e-10 -1.9499799e-08 -7.969263e-11
3.8062106e-10 7.255305e-09 -8.762438e-10 8.768155e-12 -6.597686e-07 1.5662227e-12 5.692052e-10 -6.428859e-12
5.8028855e-12 2.2637744e-10 5.021264e-12 1.0556639e-08 -2.9740663e-09 1.969484e-10 8.4785626e-07 -3.8085315e-10
1.755406e-08 4.4204668e-13 -6.5998796e-13 -2.30991e-11 -1.5681864e-05 -1.8534033e-10 -7.0989404e-12 -5.589666e-10
-9.94877e-10 2.7186942e-08 -7.516772e-09 3.316914e-10 2.6032316e-07 4.983774e-10 -1.5789597e-11 -8.151599e-11
1.0620584e-08 3.7273833e-09 5.384682e-10 -2.2235583e-10 -2.514663e-09 -2.523155e-09 1.1415038e-08 -2.8494524e-11
1.2499425e-09 -1.1717774e-10 -2.5159147e-11 1.3732412e-09 -9.0140057e-10 5.5939402e-12 1.1180133e-10 -1.0768714e-08
-5.28072e-10 7.745049e-12 -1.1255286e-09 2.740034e-10 3.3657508e-07 -1.2130632e-06 -6.1826557e-09 2.7611584e-09
-3.3490402e-10 -9.220822e-12 0.00022357472 -1.0667155e-09 6.122408e-10 -9.133672e-10 -3.4020975e-09 0.00010262733
-6.12711e-07 -5.846311e-05 1.7815737e-06 4.5551155e-10 2.0212947e-07 8.4525726e-07 1.6499914e-07 4.5483117e-10
5.964056e-09 1.6022947e-08 1.7293211e-10 -9.6388426e-08 2.5629927e-07 0.000376504 1.6195154e-09 9.871469e-08
-2.4041557e-05 0.00036460086 2.1016561e-10 -4.0943813e-09 1.6281865e-05 6.0013e-10 1.1386917e-07 1.7286509e-07
-0.00024581407 1.4791379e-05 7.785756e-06 1.4010754e-08 5.1331676e-06 0.0008290262 -1.5944369e-09 7.36074e-10
1.8374125e-07 1.482033e-07 3.1063207e-06 1.0761734e-07 0.0005848521 3.464982e-06 -1.0711415e-05 -1.2814291e-09
1.8767832e-06 7.717046e-08 -0.00015024326 0.00037329306 4.7214472e-09 4.740534e-09 7.5369506e-08 -1.0194382e-06
7.787213e-05 -4.822714e-09 2.0023879e-06 -0.00070385996 0.00012700711 5.060786e-07 7.839667e-05 6.181369e-07
-2.077919e-08 -7.674506e-05 5.2087486e-08 6.370215e-08 5.033739e-09 1.4441453e-06 8.838278e-07 -3.168223e-09

deep_network.4.bias f4 [32]
00000000: 050b 59bd e48e 67b6 1c84 93b4 2228 9a38
00000010: 4d7b 6338 5207 11ba 1251 a8bc 0214 f234
00000020: 92ec 3cb4 6b6a 1638 7156 03b8 e3e6 8436
00000030: 2a75 1fba af13 b434 0ba9 4fb4 c5a2 f9bb
00000040: bc1c a3b4 c319 b0b6 6763 a8bc 25bd be39
00000050: 8c97 feb5 3f3c dfbc 2952 f0b6 27d2 60bd
00000060: 384f d0b4 e06f bcb3 9bc8 96b5 af27 9837
00000070: 5bbf 11b9 711e 5434 906b 1bb4 8eb7 c6bb
-0.052989025 -3.4504856e-06 -2.7477006e-07 7.3507676e-05 5.423585e-05 -0.0005532402 -0.02054647 4.509057e-07
-1.7594928e-07 3.5861896e-05 -3.131334e-05 3.9607853e-06 -0.00060828275 3.3541934e-07 -1.9339875e-07 -0.0076182806
-3.0382023e-07 -5.248208e-06 -0.020555211 0.00036380548 -1.8968581e-06 -0.027250407 -7.162122e-06 -0.054887917
-3.8800658e-07 -8.774782e-08 -1.1234255e-06 1.8138291e-05 -0.00013899563 1.9755113e-07 -1.4474631e-07 -0.006064362

output_layer.weight f4 [1, 45]
00000000: eee7 b9bd a6c8 703d 93d5 9bbd b6f1 40bd
00000010: 2e15 9b3f 27e3 bf3d d6c1 e4bd 174e 533d
00000020: 3bb3 5ebd cbb9 c13e 1714 0f3e c956 d6bd
00000030: e28f b9ba 1b96 5abd 24bb 5bb5 795c a6b4
00000040: 16f1 a238 60b0 833a 9a7b 263a 8219 b8bc
00000050: 36ba d3b4 9c19 f5b2 140e fc37 639b 12b7
00000060: fb82 aa36 cbaa dab9 a72c 1a35 6d21 3ab6
00000070: 1c3e b13c 1819 15b4 1693 9c35 3dee a73c
00000080: eb45 ab39 7626 b2b4 cc46 bb3c 040e c0b6
00000090: 570d 503d 696a 95b2 6186 50b4 1257 6f34
000000a0: a31d 23b7 2b6e 57b8 3a4e 9134 7cc5 b833
000000b0: aee1 5dbb
-0.0907744 0.058785103 -0.076090954 -0.047105514 1.2115839 0.09369498 -0.11169784 0.051588144
-0.054370146 0.3783706 0.13972507 -0.10465772 -0.001415726 -0.053365808 -8.1856183e-07 -3.0987192e-07
7.769668e-05 0.0010047071 0.00063508155 -0.0224731 -3.94373e-07 -2.85334e-08 3.0047297e-05 -8.738457e-06
5.081643e-06 -0.0004170745 5.743445e-07 -2.7735616e-06 0.021636061 -1.3885835e-07 1.1665713e-06 0.020499343
0.00032667755 -3.3183068e-07 0.022860907 -5.7236775e-06 0.050793972 -1.7394273e-08 -1.9420396e-07 2.2290286e-07
-9.722457e-06 -5.1362596e-05 2.7065272e-07 8.60409e-08 -0.003385644
