Results/FFM/20250107_025924_batch1024_epoch10_lr0.01_k10_reg0.0001_FFM/treatment_ffm.pth (torch, 8574 bytes, 2 tensors)

v f4 [13, 13, 10]
00000000: d6c0 863d 7d64 04be adb9 443d 0e9c deba
00000010: 3139 0ebd b8ea 8ebc bfdb 5a3d 5846 013d
00000020: 5f81 00bd b8f4 e13c e9e6 3e3c a388 413c
00000030: 0a53 b63b e45c 473c 7c5d 0abb e299 c739
00000040: f906 adbc 9060 01bb fea8 4ebc bdfe 01bc
00000050: 817e 05bb 3c22 803c 1462 3e3b c94c 7dbb
00000060: 613e f7bb ddaa 453b d796 68bc 29b2 143c
00000070: 5665 03bc 0481 b3bb d330 3ebc 747d 9e3c
00000080: 149f 22bc ca3c 54bb 0c7f 08bc cd8d c4bb
00000090: c579 3a3a bc08 9d3b 8abd 91bb 6cda 313c
000000a0: 39eb 4ebc 17fb 3fbc 1d80 51bc 1013 ac39
000000b0: c5ac 17ba 19dd c93b f9ab 69ba edbe 893c
000000c0: 0ebc 4e3c 153c 85bb f1e3 573c 0b95 ff3b
000000d0: c09a a53c 293f 9c3b e2f3 4e3b 4fc8 ebba
000000e0: b744 87bb 1990 e6bb cd98 cdba aa6e 9c3b
000000f0: d055 073a 6366 7e3b 0ac2 ab3b 508f bfbb
00000100: 0e28 4a3b 2378 7d3c 71a5 cf38 0965 4abb
00000110: 4e44 48bc 9dcb aebb f51b a03b 47ae 9c3b
00000120: 5755 5bbc e512 563c af13 de3b c9c5 8fbb
00000130: b2b6 1cbc 7b56 b43b 347e 80bc cf03 f7bb
00000140: 0ea5 94bb 1dbb 8d3b 2d71 bbbc 52be 913b
00000150: 9e53 ea3b 06ec 8839 d943 bf3b ea34 ae3b
00000160: b2d0 023b e009 a53b 1132 ddba 49c8 e03b
00000170: bfb2 713b 6f3e d53a 8e3a 1e3b 7d0d 3e3c
00000180: 010d 05bc 8fa4 743b 8098 59bc 3c5e 74ba
00000190: 00e7 b2bb ef6f 8e3b f0ec d83b e8cb 593a
000001a0: 3cac 163d eef3 3e3c 5a62 f2b8 72cc 0f3b
000001b0: 2553 9e3a 3f4f e43b 667f 233c 0c0c 4b3b
000001c0: 5129 adbb 9b1a caba d120 903c ec1c 173c
000001d0: 2b92 56bc 4ebb 28bc 837c a2ba 6115 743c
000001e0: f2eb ca3b ca9a 833b 277b 2a3c 205d 3139
000001f0: cfe2 86bc 6035 0a3c 7b25 60bb 2e46 1a3c
00000200: 73b1 54bc abf8 8aba ba32 11bc f313 0f3c
00000210: 0fb9 713c e9ac 583c 93ee 203b f803 fbba
00000220: 8ffc 56bc 20b7 9b3b 803d 503b d66c 103c
00000230: 93e1 6fbc 0846 d93c 2ccc 6dbe 25e7 d9bc
00000240: 17ee 5bbb 4c58 b83c a8eb bfbd f325 c2bc
00000250: 5ce0 6fbd 45b8 4c3c 0b5b 2b3b 5e43 dabb
00000260: 9d2e 5a3c fc0e 39bb c23d 6fbc b319 4a3c
00000270: d360 403c d29f f939 080a 67bc b5fe e13b
00000280: 78d3 aebb 2bf0 68bb 262e ab39 f5ff 8f3a
00000290: 8893 f0bb 18c1 f7ba 3b2b 0bbc 6a9c 6dbc
000002a0: d1ee 5fbb c2df ef3b 36f0 9abb 8221 60bc
000002b0: c3cb 8fbc 4cbe 983a 3ec2 183c e2fc a5bb
000002c0: bdea dfbb dbcb b0bb d791 843c c4a2 09bc
000002d0: a6aa 0f3c c763 49bb 9b6e 2fbc 9bee 553b
000002e0: 0edc d2bb 9a2c d6bb 0d1c 9d3b 8fb0 9d3c
000002f0: 7f87 9bbb 6f2d 0bbc e712 dd3a c793 1f3c
00000300: a89c acbb d85b 423b df2f f3bb 6982 18bc
00000310: 6dd5 93bb 9ad0 b0bb 6061 b83a abae 833b
00000320: 73bd 3a3b 8210 a0b9 41c2 6dbb 0151 213c
00000330: 120c 85bc ad2b 613c c0dc 383b 2070 95bb
00000340: 2509 c63b 8873 d23b 4640 2cb8 6aa7 783c
00000350: cce6 b73a 0152 1ebc 880d abbb 73b8 473a
00000360: 61ae 843b 9f4f d8bb de06 2cba 4d5b 07bc
00000370: 41f9 98bc e466 21bc 146f 2839 f9f6 3a3a
00000380: 3385 d53a f77a 9aba e0c0 0abc 69f6 243b
00000390: d2e7 a0bb 2d2b 8a3b 201a 02bc c375 81b9
000003a0: 3a03 4c3b 0e4f 04bb d08a 3b3c eb93 d5bb
000003b0: 86cf fe3b 4437 993b a029 a13b 88e7 a83b
000003c0: ae2b af3b fc17 34b9 6caa ccbb e451 a83b
000003d0: 7509 61bc df7a 70bc 8bc0 5cbc 00fd 803b
000003e0: 8ef1 d4bb 3b2f 033b 44bf 6ebc 614a 82ba
000003f0: fea6 d53b 7817 bb39 31f8 423c e250 133b
0.06579749 -0.12928958 0.048028637 -0.0016983764 -0.03472251 -0.017445907 0.053432222 0.031561226
-0.031373378 0.027582511 0.011651733 0.011812362 0.0055640982 0.012168143 -0.002111285 0.0003807089
-0.021121489 -0.0019741394 -0.012613533 -0.0079342695 -0.0020369592 0.015641324 0.0029050158 -0.0038650504
-0.007545278 0.0030161657 -0.014196119 0.00907568 -0.008019766 -0.0054780263 -0.01160832 0.01934693
-0.0099256225 -0.0032384866 -0.008331072 -0.0059983493 0.0007113482 0.004792301 -0.0044476436 0.0108552985
-0.012629324 -0.011717579 -0.012786892 0.000328206 -0.00057859375 0.00616039 -0.00089138706 0.016814673
0.012618078 -0.004066 0.013176904 0.0077997497 0.020215392 0.0047682715 0.003157847 -0.0017988774
-0.0041280645 -0.0070362207 -0.0015685797 0.0047739344 0.00051626284 0.0038818351 0.005241637 -0.0058459416
0.0030846628 0.015470537 9.901345e-05 -0.0030882976 -0.012223316 -0.005334331 0.0048861452 0.0047815177
-0.013387046 0.013066028 0.006777249 -0.0043875915 -0.009565042 0.0055034733 -0.015685178 -0.007538296
-0.0045362776 0.004325284 -0.022881115 0.004447737 0.007151081 0.00026115793 0.0058369455 0.0053163664
0.0019960818 0.0050365776 -0.0016875883 0.0068598134 0.0036880223 0.0016269217 0.0024143788 0.011599896
-0.008120776 0.003732953 -0.013280988 -0.00093219033 -0.0054596663 0.0043468396 0.006620042 0.00083082775
0.03678535 0.011654837 -0.000115577786 0.0021941927 0.0012079222 0.0069674547 0.009979105 0.0030982522
-0.0052844663 -0.0015419306 0.017593773 0.009223204 -0.013096373 -0.010298563 -0.0012396727 0.014897675
0.0061926777 0.004016255 0.010405338 0.00016914727 -0.016465573 0.008435577 -0.0034202028 0.009416146
-0.01298176 -0.0010602673 -0.008862192 0.008732784 0.014753594 0.013224819 0.0024556264 -0.0019150963
-0.013121738 0.004752055 0.0031774938 0.008815011 -0.014641183 0.026522651 -0.23222417 -0.026599476
-0.003355866 0.02250304 -0.0937112 -0.023699736 -0.058563575 0.012495105 0.0026146795 -0.006660863
0.013316778 -0.002823769 -0.014602127 0.012335229 0.011741835 0.00047612056 -0.014101513 0.0068968185
-0.0053352676 -0.0035543542 0.00032650045 0.0010986315 -0.007341806 -0.0018902151 -0.008494194 -0.014502624
-0.0034169445 0.007320375 -0.0047283424 -0.013679864 -0.017553216 0.0011653393 0.009323655 -0.0050655464
-0.006833403 -0.005395395 0.016182823 -0.008400623 0.008768713 -0.0030729638 -0.010707523 0.003264344
-0.006434924 -0.0065360786 0.0047946037 0.019249229 -0.004746377 -0.008494719 0.0016866595 0.009739823
-0.0052676983 0.0029656794 -0.007421478 -0.009308436 -0.0045115263 -0.005395961 0.0014067106 0.004018625
0.0028494268 -0.00030529877 -0.0036279114 0.009845973 -0.016241107 0.013743323 0.002820775 -0.0045604855
0.0060435706 0.006422464 -4.1067855e-05 0.015176633 0.0014030575 -0.009663106 -0.005220119 0.00076187326
0.004049108 -0.0066012884 -0.00065623026 -0.008261514 -0.018673541 -0.009851191 0.00016063108 0.00071321387
0.0016290307 -0.0011785914 -0.008468837 0.0025171286 -0.0049104476 0.0042165727 -0.007940799 -0.00024692537
0.0031129853 -0.0020188722 0.01144667 -0.0065178773 0.0077762036 0.0046757776 0.004918292 0.005154554
0.005345783 -0.00017175073 -0.006245902 0.0051367152 -0.013735165 -0.014677732 -0.01347364 0.00393641
-0.006498522 0.0020017165 -0.0145719685 -0.000994038 0.006520151 0.00035684905 0.011899994 0.002247863

linear.weight f4 [1, 13]
00000000: 1be5 2ebe e64e 73bd 4575 99be 05b5 3d3d
00000010: ab5f 673e 76bd cbbd c727 84be bd67 533d
00000020: a9ed a13d 8c95 abbc e040 253e 5880 433c
00000030: 1d3f a73e
-0.17079584 -0.059401415 -0.29972282 0.04631521 0.22595088 -0.09948246 -0.25811598 0.051612604
0.07906658 -0.020945333 0.16138029 0.011932455 0.3266534
