Results/base/DCN_batch1024_epoch10_lr0.001_cross3/treatment_dcn.pth (torch, 16914 bytes, 11 tensors)

cross_network.cross_weights.0.weight f4 [1, 13]
000000 3c a0 97 bc 01 06 bb 3d 77 df 64 be 0c 0b 86 bc
       -0.018509023 0.091320045 -0.2235087 -0.01636269
000010 62 35 83 bd bf 2f 81 3c 4e d4 2f 3b fb de 8c 3b
       -0.06406666 0.015769837 0.0026829424 0.0042990423
000020 5e 6a be 3d 54 2b 8c 3b 9f 55 ac 3d 5c 3e be be
       0.09297632 0.004277626 0.084147684 -0.3715695
000030 d1 c6 86 bd
       -0.0658089

cross_network.cross_weights.1.weight f4 [1, 13]
000000 bf 96 76 bc dd 0e 23 3d c0 5f 07 be f4 fe 08 3d
       -0.015050589 0.039809097 -0.1322012 0.033446267
000010 da 82 26 bc 98 9c d1 bc 68 85 36 bc 65 f9 09 3b
       -0.010163033 -0.025587365 -0.011140205 0.0021053192
000020 76 0d c7 bd 39 f7 61 bb e8 f4 c8 3d d6 5d 84 be
       -0.09719364 -0.0034479632 0.09812337 -0.2585284
000030 28 07 d8 bc
       -0.0263706

cross_network.cross_weights.2.weight f4 [1, 13]
000000 c9 46 31 3c af 95 20 be 86 d2 db 3b ed 23 fe 3b
       0.010820099 -0.156821 0.006708446 0.0077557475
000010 f9 87 11 3d f6 45 2e bd 37 33 f2 ba 15 ef 4c bc
       0.035530064 -0.04254719 -0.0018478398 -0.0125081735
000020 3d c3 7f bd 78 e5 28 3a 36 43 1e 3d 8b e4 d4 3d
       -0.062442053 0.0006442885 0.038638316 0.103951536
000030 82 45 43 bd
       -0.04767371

cross_network.cross_biases.0 f4 [13]
000000 20 d0 06 3e bd 6c 7a bd 59 0b 76 be 5e 9d d5 bb
       0.13165331 -0.061138857 -0.24027766 -0.006519004
000010 d2 de 64 3d cb 71 fd 3c 61 14 18 be b2 8d 3d 3e
       0.05587656 0.03093805 -0.14851524 0.18511084
000020 67 fc 75 3e c9 8c ba 3e b9 f0 05 3d 99 31 4f 3d
       0.24022065 0.36435536 0.032700274 0.05058441
000030 b4 d4 00 3e
       0.1258114

cross_network.cross_biases.1 f4 [13]
000000 ef a2 41 3e ec a4 14 3c 78 cd 79 be 9d ee c4 3c
       0.1890981 0.009072524 -0.24394786 0.02403956
000010 54 22 a7 3d a0 0b 36 3d 23 fa cd bd 5c 97 70 bb
       0.081608444 0.04444468 -0.100574754 -0.003671131
000020 25 e4 7c 3e 43 6b 8c 3e 3b f4 10 3e 4c 96 38 bd
       0.24696405 0.27425584 0.14155667 -0.04506521
000030 05 85 81 3e
       0.25296798

cross_network.cross_biases.2 f4 [13]
000000 1b cd 4f 3e 3a bf bc 3e be 65 85 be b0 d9 53 3d
       0.20293085 0.36864644 -0.26054186 0.051721275
000010 91 e1 7a 3e 6e dc fe 3c 19 6d ab bd a6 50 dc 3c
       0.2450011 0.031110968 -0.08370418 0.026893925
000020 5d a4 89 3e 9b 0e 95 3e 1f d7 11 3e 05 f4 55 bc
       0.26883212 0.29112706 0.14242218 -0.013058667
000030 31 bd 6d 3e
       0.23216702

deep_network.0.weight f4 [64, 13]
000000 5b 02 17 be 92 52 3b bd 0f 41 4c be 44 6d 11 3e
       -0.14746992 -0.045733042 -0.19946693 0.14201838
000010 63 aa 27 3e 59 b0 96 3d 8f fd dc 3c c6 8d ad 3d
       0.16373591 0.073578544 0.026976375 0.08474307
000020 88 dc a9 bd 3e 16 38 3b 0a f3 5d be 80 92 bc be
       -0.08294016 0.002808943 -0.21674743 -0.3683052
000030 bb 2e 6a be e8 d6 59 be d2 09 69 3e 04 9b a3 3d
       -0.22869389 -0.21273386 0.22757652 0.07988551
000040 58 47 eb 3d f4 a3 b3 3d 40 19 9e bb 0e 44 5e 3e
       0.11488217 0.08771506 -0.0048247874 0.21705648
000050 5d ca 49 be 90 0e 8f 3c 8a d8 41 be e0 25 af 3d
       -0.19706102 0.017462999 -0.1893026 0.08552146
000060 16 9d c3 bd 64 0c ae 3d 6c ae 6c bd 7a 8d 6b 3e
       -0.09551446 0.08498457 -0.05778353 0.23003188
000070 c9 54 28 be 83 61 29 be 21 64 29 be 96 72 7f 3e
       -0.16438593 -0.16541104 -0.16542102 0.24946055
000080 7c 4a bd 3d 89 a4 88 3e 42 62 6a be 82 d9 8c be
       0.092427224 0.2668803 -0.22889045 -0.27509695
000090 47 32 5e be 4e 0c 3f be 6c 11 e6 3d 54 90 8b 3d
       -0.21698867 -0.18657038 0.11233792 0.06814638
0000a0 61 25 49 3e e5 ed 34 be b7 dc 62 be cb f8 e1 3d
       0.19643165 -0.17668875 -0.22154509 0.110337816
0000b0 7d fa 0b be 3c 94 44 3e d4 bb cd bd 66 07 02 3e
       -0.13669772 0.19197172 -0.10045591 0.12698135
0000c0 ef 4a 7e be ee 3b 32 be 74 21 dd 3d 18 2a 70 3d
       -0.24833272 -0.17405674 0.10797396 0.058633894
0000d0 be a4 a1 bd 38 ed 09 3e 91 fa 1b 3e 7f e8 32 be
       -0.0789275 0.13469398 0.15232302 -0.17471503
0000e0 a0 0c 3c be 61 fc 81 3e 20 3e c8 bd 6c c6 36 be
       -0.18364191 0.25387862 -0.097774744 -0.1784913
0000f0 b3 9b 9a be cc 48 38 be 08 c4 01 3d 76 f3 83 3d
       -0.30196914 -0.1799652 0.03168109 0.06442921
000100 ad a6 15 be 00 2e d5 3b e5 ff 41 be 3e f3 70 be
       -0.14614363 0.006505728 -0.18945272 -0.2353029
000110 4b 64 1c be e0 90 78 be 76 d6 34 be 9d f2 8d 3e
       -0.15272634 -0.24274015 -0.17659935 0.27724162
000120 20 91 56 3d e8 09 af 3d b7 71 84 be 2d 87 3a be
       0.052384496 0.08546811 -0.25868008 -0.18215628
000130 02 11 bd bd 40 a4 31 3d 44 e7 79 be d2 bd f4 bd
       -0.092317596 0.04336953 -0.24404627 -0.11950268
000140 98 06 2a be 00 7c 49 3a 06 5c d3 bd 90 71 9d bc
       -0.16604078 0.0007686019 -0.103202865 -0.01921919
000150 84 73 40 be d1 f0 42 be 9e b0 25 be ec 6d c2 bd
       -0.18794066 -0.19037177 -0.16180655 -0.09493622
000160 31 29 60 be 82 21 6e 3e d8 75 61 bd bf 63 ed 3d
       -0.21890713 0.2325497 -0.055044025 0.11591291
000170 d1 21 f2 bb 25 eb 9a be 9a 08 30 3e 87 39 4a be
       -0.007389285 -0.30257526 0.17190781 -0.19748507
000180 4a a2 73 be 38 b5 6b be 6f 3c b0 be fd d5 52 3c
       -0.23792377 -0.23018348 -0.34421107 0.012868402
000190 d2 4a 59 be 6e 5f 3a bd f7 6c 69 3e 11 19 3d bf
       -0.21219948 -0.045501165 0.22795473 -0.73866373
0001a0 d3 51 aa bc b2 21 ab be ef 4d 06 be 1f 19 ff 3e
       -0.02079097 -0.33424145 -0.13115667 0.49823853
0001b0 62 6a 2b 3f 4a e8 3b 3e 20 ce e1 bd 40 fe 3a 3e
       0.669592 0.1835033 -0.11025643 0.18261051
0001c0 e9 b1 2b bf db 31 60 bd 61 d7 61 bd 66 a6 e7 bf
       -0.67068344 -0.054735046 -0.055137042 -1.8097656
0001d0 12 c4 3a 3f 5b 05 57 3d a4 29 6b bd ed 6c 27 bd
       0.7295543 0.05249534 -0.05741276 -0.040875364
0001e0 b8 de 75 bd e1 b4 4e 3e 8e 94 a3 bd 3c 04 99 3e
       -0.060026854 0.20186187 -0.07987319 0.29886043
0001f0 aa 3f b0 be 61 d9 7f bd a7 9b 1d be 3e 0e 0e be
       -0.34423572 -0.062463168 -0.15391408 -0.1387262
000200 20 de c2 3a ca 28 cf 3e 30 56 bf bd b8 8c 81 be
       0.0014867224 0.40460807 -0.09342611 -0.25302672
000210 9f 63 3f be e8 40 fc 3e 1c b1 b3 3d d7 41 5d be
       -0.18690346 0.4926827 0.08774015 -0.21607147
000220 60 cf e0 3d f0 a4 07 be 16 84 9b bd 91 fa 2c 3d
       0.10977054 -0.13246512 -0.07593553 0.042231146
000230 42 26 67 be 68 a7 5d bf e3 f9 3e 3f 9e e7 58 bc
       -0.22573188 -0.86583567 0.74600047 -0.013238816
000240 cd 37 a1 be 7d 62 91 3e 8e 37 28 be 1a ef df 3e
       -0.31487885 0.28395453 -0.16427442 0.43737108
000250 e2 5e 67 be 1b 54 92 bd 06 0b 23 be db 5f e1 be
       -0.22594789 -0.07144948 -0.15922174 -0.44018444
000260 88 71 dc bd ff 25 3d 3f b8 9f 7b be ba 77 31 c0
       -0.10763842 0.738861 -0.24572647 -2.7729325
000270 f6 14 65 bd 97 a4 29 3e ca 20 18 3d e6 1a 1d 3e
       -0.055928193 0.16566692 0.037140645 0.15342292
000280 6e 7a 53 3b 86 b3 eb be 79 5f 10 be 34 35 ef 3d
       0.0032269019 -0.46035403 -0.1409892 0.116800696
000290 05 84 aa 3e 96 5f 4e be 95 e1 92 be 30 1a 53 3e
       0.33303848 -0.2015365 -0.2868773 0.20615458
0002a0 16 c6 be bf 29 67 57 bd 84 b0 c4 3e e1 fb 03 3f
       -1.4904201 -0.052588616 0.3841592 0.5155621
0002b0 e3 22 40 3d 66 b5 10 bf 31 07 93 bd de a4 05 bd
       0.04690827 -0.5652679 -0.07179106 -0.032627933
0002c0 2a 16 4f 3e 7f ed 23 3f 23 bb 93 bc 48 ac a7 3d
       0.20223299 0.64034265 -0.01803357 0.08187157
0002d0 ff 0d cb 3f 7c 8b e3 bf f1 38 93 3e 9c 3a a0 be
       1.5863646 -1.7776942 0.2875438 -0.31294715
0002e0 d6 17 37 3e d7 a8 94 bc 90 26 6e 3e b5 25 d3 bb
       0.17880186 -0.018146915 0.23256898 -0.006443704
0002f0 af 71 d8 3e fb d0 9a be c6 5c 22 bf 1c a4 89 be
       0.42274234 -0.30237564 -0.6342281 -0.26883018
000300 7a f4 cc 3e cb b7 b5 3e 7e e0 db 3f 4e c8 14 3e
       0.4003027 0.35491785 1.7177885 0.14529535
000310 78 c2 8f 3d 00 ff 31 bb 18 fd 57 be 31 54 73 be
       0.07019514 -0.0027160048 -0.21092641 -0.23762585
000320 92 d2 84 be dc 85 e8 3d 27 70 0b be d0 a0 64 bd
       -0.25941902 0.11353657 -0.13617001 -0.055817425
000330 7e 72 23 be bc 02 4f bd c8 e4 47 be 06 93 39 be
       -0.15961644 -0.050539717 -0.19520867 -0.18122491
000340 10 4c ad 3d e5 71 ba bd ef 4f 58 3e 58 26 ba 3d
       0.084617734 -0.09103755 0.21124242 0.09089345
000350 b9 29 d3 be 62 53 91 bc e2 67 5f bc 60 ec 26 be
       -0.4124277 -0.017739955 -0.013635607 -0.16301107
000360 e6 74 65 be e1 49 34 3d 68 90 a3 be 6d 44 6a 3f
       -0.22407874 0.04401577 -0.3194611 0.9151066
000370 da 2c 1c bf 4b c8 37 3e 11 d3 6e be 8c 2b 11 3e
       -0.6100594 0.179475 -0.23322703 0.14176768
000380 0f e1 36 be 0d 8e f4 3c 36 f2 78 3e 2d 74 94 3d
       -0.1785929 0.029852891 0.24311146 0.07248721
000390 27 4d 8d bd 65 94 86 bd fd 82 9f be 1c 5a 68 3d
       -0.06899481 -0.06571273 -0.31154624 0.05672656
0003a0 0d d8 66 be ac 0e 67 bf 5e 7c 81 3d d8 22 61 3e
       -0.22543354 -0.9025676 0.06322549 0.21985948
0003b0 74 d8 01 be 87 a8 01 be 27 91 87 bd 24 85 24 3e
       -0.12680227 -0.12661944 -0.066194825 0.16066414
0003c0 9a 4c c3 bd 22 64 76 be 08 f3 29 be ec 2e 3f be
       -0.09536095 -0.24061635 -0.16596615 -0.18670243
0003d0 3a b6 9f be 69 2b 96 3e bc 85 85 bf 1f 05 9f be
       -0.31193715 0.29329994 -1.0431437 -0.31058595
0003e0 6a 9f 3d 3e 93 10 3e 3e 18 59 c1 3d bd 73 cc bd
       0.18517843 0.1856101 0.094408214 -0.09983013
0003f0 9f f7 5b be 11 53 37 be 7e 52 96 be 9b c8 9b 3d
       -0.21481179 -0.17902781 -0.29359812 0.07606622

deep_network.0.bias f4 [64]
000000 47 8a 0e 3e 48 a6 90 3d 50 87 c2 3c 0e 93 b4 bd
       0.13919936 0.07062966 0.023746163 -0.08817111
000010 5b b6 1d be 3a 46 29 3e 30 1d 8c 3c eb 04 e4 3d
       -0.15401594 0.16530696 0.017103761 0.111337505
000020 d5 d6 d0 be e6 6e 0b bd 04 a1 13 bd 6f 67 25 be
       -0.40788904 -0.034041308 -0.03604223 -0.16152738
000030 0b 99 98 3e 5d 70 19 3f 55 c8 8c 3d 5e 56 5a 3e
       0.29804263 0.5993708 0.06874148 0.21322009
000040 47 ba 46 bd e0 ef 82 be 13 39 85 3c 61 38 ef bc
       -0.04851749 -0.25573635 0.016262567 -0.029201688
000050 f8 26 94 bd c4 00 9a bc e0 b8 55 3c 2a 13 c1 3e
       -0.07233995 -0.018799193 0.013044566 0.37709934
000060 e5 52 ba 3e c4 0a e6 bd 74 68 fc bd 72 fe 1e be
       0.36391369 -0.11232522 -0.1232461 -0.1552675
000070 8c 4c 90 be 63 43 8c 3d 62 28 88 3d b9 39 80 3e
       -0.281834 0.068487905 0.066483274 0.2504404
000080 f1 8d 91 3d a8 2f 63 be 5c 4e f3 3c 21 98 aa be
       0.07107151 -0.22186148 0.02970045 -0.3331919
000090 ed 83 31 3d fa 0a 21 be b5 50 bb 3d 91 ba 1a be
       0.043338705 -0.15726843 0.09146253 -0.15110232
0000a0 e8 20 d5 3e c0 a3 2e 3f cc a0 03 3e 10 34 21 3f
       0.41626668 0.6821861 0.12854308 0.62970066
0000b0 de a1 2a be 28 99 b2 3e 70 0f d7 3d 95 2d bd bd
       -0.1666331 0.34882474 0.10500991 -0.0923721
0000c0 03 0d 29 be 05 8f c5 be 1d d8 cb 3e 44 d6 0c bf
       -0.1650887 -0.38585678 0.3981332 -0.55014443
0000d0 92 11 9c 3e 1f 73 8a 3e 77 84 0f 3c 07 7b 9f bc
       0.30482155 0.27040955 0.008759609 -0.019467844
0000e0 42 58 2b 3e cf 90 43 be 30 1e c3 bc 76 ed 16 3f
       0.16732886 -0.19098209 -0.023818105 0.58956087
0000f0 77 ef 8d be 60 2e 4b be 4a a3 69 be ea 2e 22 be
       -0.2772176 -0.1984191 -0.22816196 -0.15838209

deep_network.2.weight f4 [32, 64]
000000 76 4f 47 bd b6 d8 84 bd d0 d1 4e 3d 91 c8 15 3d
       -0.048659764 -0.06486647 0.05049306 0.03656823
000010 d7 19 61 3b aa e3 c6 bd 50 35 21 bd cb f8 e5 bd
       0.0034347677 -0.09711392 -0.039357483 -0.11229094
000020 69 8b 9a be 19 19 fa bd 16 69 1b 3d 40 d7 e5 be
       -0.30184487 -0.12211818 0.037942015 -0.44890785
000030 dd cd 08 bb 8f 48 8a 3e ae 9f 36 be 6c 1e 9a bd
       -0.0020874657 0.27008483 -0.1783435 -0.07525334
000040 7c 9b 37 bd ef ce 0d 3e 63 2e 50 3d 25 de 22 3d
       -0.044826016 0.1384847 0.050825488 0.039762635
000050 dc 12 f3 bd e4 c1 99 be 20 49 41 bd 8c df 8a 38
       -0.118688315 -0.3003074 -0.047188878 6.6219916e-05
000060 d8 0a c2 3d ef 7c bd bd 16 2e 17 3c 55 75 b8 3f
       0.094747245 -0.09252345 0.009227296 1.4410807
000070 2f 23 9f 3b 72 03 06 bd b8 41 43 3e d0 95 1e 3d
       0.004856489 -0.03271813 0.19068038 0.03871709
000080 1a 81 76 3e ac 9c 77 3d 27 a6 77 3c 04 b3 1b 3d
       0.24072686 0.06045215 0.015115297 0.03801252
000090 4c 9a 0e 3e d4 bb 2e 3e c8 2b a9 3d 3c d8 d2 3b
       0.13926047 0.17063838 0.08260304 0.0064344686
0000a0 74 fe 02 3d 69 e8 8b 3e 1e 56 a0 3d ed f7 83 bc
       0.031980947 0.27325752 0.078289255 -0.016109431
0000b0 d5 b4 1a 3e fc 42 1a 3e a4 89 2e bd ff f2 94 3d
       0.15108044 0.15064615 -0.042611733 0.0727291
0000c0 6d 9c 27 3d aa a1 ad 3d 6a 41 a4 3e 69 c8 43 bf
       0.040920664 0.084781006 0.32081157 -0.76477677
0000d0 40 7c 4a 3f 64 c1 53 3d a8 8a 63 bd 3a 7a 1e 3e
       0.7909584 0.051698104 -0.055552155 0.15476313
0000e0 ec 74 66 3d 0e 17 9b 3d ca fb d6 bd cb 02 af 3e
       0.05626385 0.07572757 -0.10497244 0.34181818
0000f0 3c 1c 8e bc 80 fd 60 bc 16 87 a6 3e a4 3a 91 be
       -0.017347448 -0.013732314 0.32524937 -0.28365052
000100 b5 81 d9 bd d4 e7 6a 3d 08 91 68 bd 8d 43 10 bd
       -0.10620443 0.057349995 -0.056778938 -0.03522067
000110 3c 07 19 bb c0 98 85 bd 30 a0 6c bd b8 8f 25 3d
       -0.002335026 -0.065232754 -0.057769954 0.040420264
000120 ee d7 41 3c a5 ca d8 3c 68 2c 35 bd 58 15 c6 3e
       0.011831267 0.026463816 -0.044231802 0.3868816
000130 e9 c0 94 3e c6 15 2f 3f 17 d8 83 be e0 67 8e 3c
       0.2905343 0.683926 -0.257508 0.017383516
000140 1e 3b 51 3d 1c 4d 29 3d e8 bf ac 3d b4 2c 5e 3d
       0.05108177 0.041333303 0.08435041 0.05424185
000150 88 25 8e 3d 9a 26 b9 3d a0 61 43 bd 82 9a 8b be
       0.06940752 0.09040566 -0.047700524 -0.27266318
000160 b9 db 9b 3d 10 78 90 3d 18 e7 98 bc e9 54 b2 3d
       0.07610268 0.0705415 -0.018664882 0.087076016
000170 2c 16 ea bb c0 f1 78 3d 35 2b 84 3d d8 f1 7f 3d
       -0.0071437564 0.060777426 0.064535536 0.0624865
000180 41 30 be 3d 83 95 1c 3e 26 8c 8c bd 84 06 8f 3a
       0.092865475 0.15291409 -0.06862669 0.0010911976
000190 34 ff 18 bd 35 22 d7 3e be c3 49 3e 60 3a aa 3d
       -0.037352756 0.42018285 0.19703576 0.083119154
0001a0 48 58 e5 3e 79 85 a4 3c 32 ba c8 3d 34 f0 02 3e
       0.44793916 0.020083176 0.09801139 0.12786943
0001b0 a6 a4 d2 3d 59 ea 40 3e 18 93 6f bd 91 b8 58 3d
       0.102853104 0.18839397 -0.05848989 0.05291039
0001c0 f2 6a df 3c e5 f4 19 be 2d 9a c4 3e f7 f2 57 3d
       0.027272675 -0.15034826 0.38398877 0.052721944
0001d0 ae f5 92 3f 3c c7 9c bd 7c 1d 07 bd 25 f6 fa 3e
       1.1481225 -0.076551884 -0.032987103 0.49015918
0001e0 00 00 ca 36 0f a8 0c 3c 28 13 55 bd 5a a3 4f 3f
       6.020069e-06 0.00858499 -0.052020222 0.8110863
0001f0 9c fa 36 bd 60 70 cb bd 63 eb 94 3e db ae 95 3e
       -0.044672593 -0.09933543 0.29085836 0.29234967
000200 09 86 e6 3d 36 d1 b8 bd 04 76 8a 3d 98 74 9e bd
       0.11256034 -0.09024279 0.06760791 -0.07737082
000210 2c b8 98 3d c8 b7 b8 3d 68 1c c6 3d 56 43 9d 3d
       0.07457003 0.090194285 0.09673387 0.07678859
000220 e2 ce fd 3c 4e 2d e0 bb 1c 15 13 3d ae 5b 0d be
       0.030982438 -0.0068413382 0.035908803 -0.13804504
000230 f0 cc 10 3d ca e4 f3 bd cf 47 df bb 26 d1 de bd
       0.035351694 -0.119088724 -0.00681398 -0.10879736
000240 0a 65 22 bd 2b 1c a7 bd d4 fc 4a bd 68 7a a3 bd
       -0.03964714 -0.081596695 -0.049557522 -0.079823315
000250 fa 41 e6 bd c2 13 b9 3a 80 23 a6 3d 7c 54 a9 3d
       -0.11243053 0.0014120268 0.0811224 0.08268067
000260 77 11 6d 3d c2 b1 84 bd be 2f fd bd 6c 35 42 3d
       0.057877984 -0.06479217 -0.12362622 0.04741423
000270 02 08 51 3d be 8c e9 bd cf 76 4a 3c 32 71 d8 3d
       0.051033027 -0.114037976 0.012357428 0.10568465
000280 d2 3f 40 bd c4 b3 be bd c8 20 c4 3d 62 1c 3f 3d
       -0.046935864 -0.09311631 0.09576565 0.046657927
000290 64 d8 63 3d 19 b2 00 be 7d 80 47 3d d9 1c d8 bd
       0.055626288 -0.12567939 0.04870652 -0.10552377
0002a0 8f 44 bf 3d 1e aa 5c bd d6 41 9a 3d ae e6 8a bd
       0.093392484 -0.053873174 0.075320885 -0.0678228
0002b0 fa 05 ab 3c ae 8f 7f bd e8 4b 52 3d 8f a8 71 bd
       0.020876873 -0.062392883 0.05134192 -0.05899864
0002c0 50 b0 1d be a5 56 89 bd 8a c5 ac 3d 23 fe 97 bd
       -0.15399289 -0.06705979 0.08436115 -0.074215196
0002d0 d0 76 64 3c c8 4c 3d bd 70 31 bc 3b b1 96 48 3d
       0.013944343 -0.046215802 0.005743198 0.048971836
0002e0 34 be 34 3d e8 11 d1 bd 6c 2f d1 bd b1 8a 93 bd
       0.044126704 -0.102084935 -0.10214123 -0.07204188
0002f0 b7 07 a4 bd 4a 7b d2 3d 2e 70 03 be 1c 11 1e 3c
       -0.08009284 0.10277422 -0.12835762 0.009647634
000300 b8 43 d0 3d 4a 36 80 3d c4 94 2e 3d d9 94 03 be
       0.10169166 0.06260355 0.042622343 -0.1284975
000310 bc f7 e1 3d 18 27 af bc 64 35 ef bd f8 b2 d1 3d
       0.1103358 -0.021380946 -0.11680105 0.10239214
000320 47 d5 84 be 6c 08 e7 bc cd e6 77 bb d8 ff 39 be
       -0.25943968 -0.028202258 -0.0037826777 -0.18164003
000330 12 a0 cc bd 50 0e 07 be 9c 3d a7 bd b8 de eb 3c
       -0.099914685 -0.13189054 -0.08166048 0.028792724
000340 5b ec 0e be 61 f1 76 bc 5a fc 97 bd 5a a8 95 bd
       -0.1395735 -0.015072198 -0.07421179 -0.07307501
000350 2e 67 ea bd 7a 07 30 3d 80 42 c5 3c 04 90 66 be
       -0.11445461 0.04297588 0.024079561 -0.22515875
000360 c1 57 54 3c 00 6e 1a 3d af c0 73 3c 04 ea b7 bd
       0.012960375 0.03770256 0.014877482 -0.08980182
000370 53 51 af bb 78 65 07 3d b7 8f c2 3c 0a 64 c7 bd
       -0.005350271 0.033055753 0.02375017 -0.09735878
000380 90 8a fa 3d 37 31 1a bc 36 b2 82 bb 68 68 9d 3d
       0.1223346 -0.009411148 -0.0039885296 0.076859295
000390 98 70 c6 3c 43 1e 05 be 38 81 8f 3d 7a c5 d6 bd
       0.02422361 -0.12999825 0.070070684 -0.104868844
0003a0 14 2a 76 bc e1 c6 06 be b0 7e e0 bc 75 fa b5 bd
       -0.015024681 -0.13161804 -0.02740416 -0.088856615
0003b0 c5 e8 f8 bd 65 51 c1 bd e0 86 21 3c c8 15 a6 3d
       -0.12153772 -0.09439353 0.009858817 0.08109623
0003c0 39 78 e9 3c d4 a7 06 bd 7a cb 4a 3c cd 51 5d bd
       0.02849971 -0.032874897 0.012377614 -0.05403309
0003d0 13 e7 ca bc 50 d7 22 3c 8a 47 dc bc fd 25 06 be
       -0.024768388 0.00993903 -0.026889581 -0.13100429
0003e0 fa 38 ce bd 0e 47 1b bc f4 51 48 bd fc c6 a3 bd
       -0.10069461 -0.00947739 -0.04890628 -0.07996938
0003f0 4a a6 48 bd 10 66 9f 3c 6d 6e 1f 3d fb 7f 99 bd
       -0.04898671 0.019457847 0.03892367 -0.074951135

deep_network.2.bias f4 [32]
000000 a6 29 fc 3d 07 e7 a4 3e 52 c3 6e 3c a1 d1 3f bd
       0.12312631 0.3220751 0.014572935 -0.046830777
000010 7b 71 c9 bd e8 18 84 3e 69 0d 39 be fe 65 1c 3d
       -0.09836098 0.25800252 -0.18071522 0.038183205
000020 31 75 7f be 14 17 80 bd 56 4d 84 bd 85 30 7c 3e
       -0.24947049 -0.06254402 -0.06460063 0.24627884
000030 20 93 aa be f0 14 5c 3e e6 47 69 bd f2 c7 04 be
       -0.33315372 0.21492362 -0.056953333 -0.12966898
000040 29 b7 a9 3e c0 ab 3f 3d 6f 1d cb 3c 4a 9d d0 bd
       0.33147553 0.046794653 0.024794308 -0.101862505
000050 22 67 d9 3d 19 7a 2b be 66 28 e5 bd 82 91 0b be
       0.10615374 -0.16745795 -0.11189346 -0.13629726
000060 81 14 8c 3d cb b4 d1 bd 5f ef e2 bd 0d a9 2d be
       0.06839848 -0.10239562 -0.11080813 -0.16959019
000070 75 11 9c be f7 6c a6 3c a1 2a c8 3e f2 42 a9 bc
       -0.3048207 0.02031563 0.39095023 -0.020661805

output_layer.weight f4 [1, 45]
000000 62 a3 90 3b 4b 43 a6 ba fe 51 4a 3e 7d ef 0c bd
       0.004414008 -0.001268485 0.1975784 -0.03440808
000010 18 e6 69 bc 07 0c 87 3b 86 fb bf 3a 59 6e e0 bc
       -0.01427605 0.004121307 0.0014647103 -0.027396368
000020 24 cc 5f be e3 90 19 bc d3 9e a5 bc 5a 92 17 3b
       -0.21855217 -0.009372923 -0.020217335 0.0023128004
000030 f5 a1 52 be de e5 60 be 38 9c 36 be 41 c6 c0 3d
       -0.20569594 -0.21962687 -0.1783303 0.09412814
000040 a8 3f c1 3c f4 96 19 3d 8d 1a 92 bd 71 a7 98 3c
       0.023589924 0.037497476 -0.071339704 0.01863453
000050 1b 19 ce bd 3e 23 8b 3b cd 4b bb 3c b1 c7 20 be
       -0.10063382 0.0042461446 0.022863293 -0.15701176
000060 b3 ad e4 bd 00 e1 c2 3c a6 52 6f be de b6 0d bd
       -0.11165943 0.023788929 -0.23371372 -0.034598224
000070 c9 dc 33 3d a9 c7 f1 bd 24 c9 93 3d 7d 1d 90 3d
       0.04391173 -0.1180566 0.07216099 0.070368744
000080 2d fe 43 bd a1 3a 2b be 9e d9 02 3d 64 62 24 3d
       -0.047849823 -0.16721584 0.031945817 0.040132895
000090 b2 b5 3f 3d 43 d5 df 3d 98 3b 7f bc b5 87 2e 3d
       0.046804138 0.10929348 -0.015578173 0.04260989
0000a0 e7 fb e1 3d 1f ef e0 3c 7e 37 c2 bd 15 51 9d bd
       0.11034375 0.027457772 -0.094832405 -0.07681481
0000b0 39 7e 2e 3e
       0.17040338
