Results/DFM/20250107_170312_batch1024_epoch10_lr0.01_reg0.0005_DFM/control_deepfm.pth (torch, 174430 bytes, 9 tensors)

linear.weight f4 [1, 13]
0.11585763 0.7222618 0.64649606 -0.023333065 -0.68967885 0.2111298 0.092529505 0.044659525
0.3271263 -0.12884618 0.10115952 0.11142463 2.690264e-10
00000000: c446 ed3d 26e6 383f c480 253f fc24 bfbc
00000010: cb8e 30bf 6932 583e 1c80 bd3d e8ec 363d
00000020: 197d a73e 41f0 03be b92c cf3d 9932 e43d
00000030: 1ae6 932f

embeddings.weight f4 [13, 32]
-9.914e-42 -9.953e-42 9.851e-42 9.872e-42 -2.469e-42 -9.826e-42 9.858e-42 9.87e-42
-9.883e-42 9.853e-42 -9.815e-42 4.0796685e-36 9.815e-42 -9.972e-42 -2.3048196e-34 -9.874e-42
-9.809e-42 -9.931e-42 9.854e-42 -9.88e-42 -9.868e-42 -9.872e-42 9.962e-42 9.832e-42
-9.897e-42 7.013e-42 -9.888e-42 9.865e-42 -9.858e-42 9.89e-42 9.945e-42 9.904e-42
9.944e-42 9.995e-42 1.036e-41 9.902e-42 -8.937e-42 1.0291e-41 9.946e-42 9.899e-42
-9.882e-42 9.903e-42 1.0047e-41 -2.28569e-40 1.0029e-41 9.85e-42 -6.838015e-38 -9.871e-42
-9.846e-42 -9.84e-42 9.89e-42 1.0721e-41 -9.885e-42 -9.868e-42 -9.981e-42 9.984e-42
-9.909e-42 1.002e-41 9.893e-42 -9.836e-42 -9.865e-42 -1.011e-41 9.92e-42 9.895e-42
9.927e-42 9.867e-42 1.0007e-41 1.0157e-41 -9.948e-42 9.886e-42 -9.829e-42 9.911e-42
1.0043e-41 9.896e-42 -1.2473e-41 -2.0426e-40 9.878e-42 9.988e-42 1.2093945e-37 -1.2285e-41
-1.0018e-41 -9.958e-42 -9.952e-42 -1.0189e-41 9.984e-42 -1.1102e-41 -9.865e-42 -9.945e-42
-9.876e-42 -1.0063e-41 9.967e-42 1.1548e-41 -9.928e-42 9.958e-42 9.938e-42 9.952e-42
-1.0019e-41 -9.962e-42 1.0625e-41 1.0726e-41 -9.921e-42 1.101e-41 1.0608e-41 -1.0542e-41
9.934e-42 9.844e-42 1.0016e-41 7.4634e-40 1.037e-41 1.0246e-41 -5.08844e-38 9.846e-42
-1.002e-41 1.0064e-41 -9.846e-42 9.826e-42 -1.021e-41 9.892e-42 1.0004e-41 -9.879e-42
-1.0131e-41 1.031e-41 9.85e-42 9.855e-42 -9.84e-42 -9.875e-42 -1.0242e-41 9.83e-42
9.819e-42 9.823e-42 9.89e-42 -1.003e-41 -5.255e-42 -9.899e-42 9.826e-42 9.84e-42
-9.993e-42 -9.82e-42 -9.819e-42 -8.00922e-40 -1.0063e-41 -9.876e-42 3.0535588e-38 -1.1294e-41
-9.931e-42 9.876e-42 9.916e-42 -9.827e-42 9.87e-42 -1.005e-41 -9.812e-42 9.934e-42
-9.952e-42 1.0221e-41 9.953e-42 9.815e-42 -9.906e-42 -9.97e-42 9.892e-42 9.888e-42
9.96e-42 1.0231e-41 -1.0576e-41 1.035e-41 -6.223e-42 1.162e-41 -1.008e-41 -1.0032e-41
9.868e-42 -9.823e-42 1.1664e-41 -1.07342e-39 9.93e-42 -1.0115e-41 -6.725319e-39 1.0016e-41
-1.0144e-41 1.0105e-41 -9.84e-42 -1.0311e-41 -1.0262e-41 1.0091e-41 9.942e-42 1.0022e-41
9.955e-42 -9.981e-42 1.1961e-41 1.1586e-41 -1.0022e-41 -1.02e-41 9.967e-42 8.62e-43
-9.983e-42 1.0061e-41 -1.0316e-41 1.0053e-41 8.402e-42 1.0154e-41 -1.0016e-41 9.995e-42
1.0227e-41 -1.0025e-41 -9.979e-42 -2.252547e-39 9.83e-42 1.0137e-41 -2.841965e-37 9.895e-42
-9.82e-42 1.0056e-41 9.832e-42 -1.0129e-41 -9.822e-42 9.987e-42 -9.87e-42 -1.0165e-41
-9.99e-42 -1.0162e-41 -9.967e-42 -9.974e-42 9.825e-42 -9.913e-42 -9.839e-42 -9.923e-42
1.0015e-41 1.0008e-41 -3.851e-42 1.0354e-41 -9.816e-42 -1.2305e-41 -9.987e-42 1.0189e-41
1.0274e-41 -1.0019e-41 -9.848e-42 -4.3325e-41 -1.014e-41 -1.0056e-41 -2.8296638e-38 -9.871e-42
1.0091e-41 -9.853e-42 1.0028e-41 -9.991e-42 -1.0012e-41 -9.995e-42 9.83e-42 -9.871e-42
1.0049e-41 -1.0389e-41 9.977e-42 1.0144e-41 -1.0038e-41 -9.836e-42 9.822e-42 9.91e-42
00000000: a31b 0080 bf1b 0080 761b 0000 851b 0000
00000010: e206 0080 641b 0080 7b1b 0000 831b 0000
00000020: 8d1b 0080 771b 0000 5c1b 0080 a887 ad04
00000030: 5c1b 0000 cc1b 0080 792e 9987 861b 0080
00000040: 581b 0080 af1b 0080 781b 0000 8b1b 0080
00000050: 821b 0080 851b 0080 c51b 0000 681b 0000
00000060: 971b 0080 8d13 0000 901b 0080 801b 0000
00000070: 7b1b 0080 921b 0000 b91b 0000 9c1b 0000
00000080: b81b 0000 dd1b 0000 e11c 0000 9a1b 0000
00000090: ea18 0080 b01c 0000 ba1b 0000 981b 0000
000000a0: 8c1b 0080 9b1b 0000 021c 0000 287d 0280
000000b0: f51b 0000 751b 0000 0226 ba81 841b 0080
000000c0: 721b 0080 6e1b 0080 921b 0000 e31d 0000
000000d0: 8e1b 0080 821b 0080 d31b 0080 d51b 0000
000000e0: 9f1b 0080 ef1b 0000 941b 0000 6b1b 0080
000000f0: 801b 0080 2f1c 0080 a71b 0000 951b 0000
00000100: ac1b 0000 811b 0000 e51b 0000 501c 0000
00000110: bb1b 0080 8f1b 0000 661b 0080 a11b 0000
00000120: ff1b 0000 961b 0000 c522 0080 6539 0280
00000130: 891b 0000 d81b 0000 3f9d 2402 3f22 0080
00000140: ed1b 0080 c21b 0080 be1b 0080 671c 0080
00000150: d51b 0000 f31e 0080 801b 0080 b91b 0080
00000160: 881b 0080 0d1c 0080 c91b 0000 3120 0000
00000170: ad1b 0080 c21b 0000 b41b 0000 be1b 0000
00000180: ee1b 0080 c51b 0080 9e1d 0000 e61d 0000
00000190: a81b 0080 b11e 0000 921d 0000 631d 0080
000001a0: b11b 0000 711b 0000 ec1b 0000 7e20 0800
000001b0: e81c 0000 901c 0000 4085 8a81 721b 0000
000001c0: ef1b 0080 0e1c 0000 721b 0080 641b 0000
000001d0: 761c 0080 931b 0000 e31b 0000 8a1b 0080
000001e0: 3e1c 0080 bd1c 0000 751b 0000 791b 0000
000001f0: 6e1b 0080 871b 0080 8d1c 0080 671b 0000
00000200: 5f1b 0000 621b 0000 921b 0000 f61b 0080
00000210: a60e 0080 981b 0080 641b 0000 6e1b 0000
00000220: db1b 0080 601b 0080 5f1b 0080 a5b8 0880
00000230: 0d1c 0080 881b 0080 6640 2601 7c1f 0080
00000240: af1b 0080 881b 0000 a41b 0000 651b 0080
00000250: 831b 0000 041c 0080 5a1b 0080 b11b 0000
00000260: be1b 0080 7e1c 0000 bf1b 0000 5c1b 0000
00000270: 9d1b 0080 cb1b 0080 931b 0000 901b 0000
00000280: c41b 0000 851c 0000 7b1d 0080 da1c 0000
00000290: 5911 0080 6420 0000 191c 0080 f71b 0080
000002a0: 821b 0000 621b 0080 8420 0000 42b0 0b80
000002b0: ae1b 0000 321c 0080 743b 4980 ec1b 0000
000002c0: 471c 0080 2b1c 0000 6e1b 0080 be1c 0080
000002d0: 9b1c 0080 211c 0000 b71b 0000 f01b 0000
000002e0: c01b 0000 d31b 0080 5821 0000 4c20 0000
000002f0: f01b 0080 6f1c 0080 c91b 0000 6702 0000
00000300: d41b 0080 0c1c 0000 c21c 0080 061c 0000
00000310: 6c17 0000 4e1c 0000 ec1b 0080 dd1b 0000
00000320: 821c 0000 f21b 0080 d11b 0080 2f87 1880
00000330: 671b 0000 421c 0000 036a c182 951b 0000
00000340: 601b 0080 081c 0000 681b 0000 3c1c 0080
00000350: 611b 0080 d71b 0000 831b 0080 561c 0080
00000360: d91b 0080 541c 0080 c91b 0080 ce1b 0080
00000370: 631b 0000 a21b 0080 6d1b 0080 a91b 0080
00000380: eb1b 0000 e61b 0000 bc0a 0080 dd1c 0000
00000390: 5d1b 0080 4d22 0080 d71b 0080 671c 0000
000003a0: a41c 0000 ee1b 0080 741b 0080 c678 0080
000003b0: 441c 0080 081c 0080 c20f 1a81 841b 0080
000003c0: 211c 0000 771b 0080 f41b 0000 da1b 0080
000003d0: e91b 0080 dd1b 0080 671b 0000 841b 0080
000003e0: 031c 0000 f61c 0080 d01b 0000 471c 0000
000003f0: fb1b 0080 6b1b 0080 611b 0000 a01b 0000

deep.0.weight f4 [512, 13]
2.2515582e-07 6.844486e-08 3.5045264e-08 -7.498757e-08 -3.216068e-07 6.196306e-08 2.1406606e-07 -8.6465995e-08
1.6246027e-07 -5.629999e-07 -2.0508561e-07 3.6043386e-07 -1.1558e-41 0.00028900924 2.7373679e-05 3.0057495e-06
2.516422e-07 0.0002810615 5.7702102e-05 0.0011050986 -0.000297824 0.0007996025 3.387003e-07 -2.9527866e-06
2.713648e-08 -1.7077006e-07 7.690627e-08 0.00013104898 7.676942e-05 8.281833e-06 0.00086425885 -4.1733358e-07
-1.4641344e-05 0.0006425815 -5.6867582e-05 1.3760547e-06 0.00042031656 -4.5746102e-08 1.1628e-41 -4.651769e-07
-0.0010075595 0.0007178921 -0.0002007187 -2.5577087e-06 -0.00013271839 -0.000118159594 -0.00068292546 -4.5966995e-06
-1.2840111e-06 -7.940081e-07 1.4500279e-08 1.0353e-41 3.024239e-08 -2.8154686e-08 1.4831709e-08 1.5977739e-07
-8.176744e-08 -8.175185e-09 -4.0616737e-07 5.1431046e-09 5.436243e-08 -2.7857697e-08 9.8301065e-09 8.175086e-05
-1.2459e-41 -0.0007367566 -0.00021728718 4.34036e-06 4.4683514e-07 -0.00016428038 0.00019919893 0.00010180719
-1.2707832e-05 -0.00013887142 8.8376845e-07 0.0005144162 -1.556409e-07 9.839e-42 -0.0004996512 7.182351e-05
-5.492369e-05 7.879508e-05 -2.0853498e-05 -3.8534736e-07 0.00025547526 -8.150288e-07 -1.3577727e-05 -1.3348097e-06
-0.00017678627 -0.001128565 -1.0375e-41 2.3629867e-07 -8.324259e-07 -0.00059902814 -0.00017567648 -1.4968058e-06
-0.00023366274 -5.4336574e-06 0.00039738187 -6.208085e-05 7.492421e-08 6.2384686e-05 -6.994819e-06 1.231e-41
4.5405696e-07 -7.796567e-06 -1.1769091e-06 -2.0192797e-06 -2.3665475e-06 5.907687e-05 4.6881555e-06 -0.00010845386
-1.2962798e-06 -3.7316615e-06 5.2509014e-05 8.742897e-08 1.2107e-41 -9.318324e-07 -3.769868e-07 -7.151289e-05
-3.8506685e-05 2.8434405e-08 -2.736611e-05 0.00033696656 -6.208038e-05 7.4559444e-05 7.8689976e-07 0.00068569253
-3.4690164e-08 9.809e-42 -5.8377395e-07 3.7129305e-07 1.7207814e-05 9.455808e-06 3.248836e-07 -2.47149e-05
0.0002804262 2.6817968e-06 -0.00029281795 4.416283e-08 -0.000559401 -0.00015270514 1.8589282e-12 -3.398262e-05
-1.0735516e-06 -0.00013659301 9.399413e-07 0.00045806117 5.0624494e-06 -2.545065e-05 7.8978876e-05 1.1152028e-05
1.4212516e-06 -0.00046138256 1.3097608e-07 1.1133e-41 9.752822e-07 -3.3407872e-05 5.1907864e-06 0.00036335798
4.0525952e-05 0.00012392062 7.552614e-05 -2.573331e-05 -2.17325e-05 4.887094e-07 -3.354817e-07 2.7544053e-05
1.0794e-41 -1.1841284e-07 -5.993444e-08 4.111106e-07 -7.1303457e-06 1.6272407e-08 -6.151949e-07 -3.1971925e-07
3.6985316e-06 0.00033793252 -7.1795836e-07 -2.2020389e-07 1.994016e-08 -1.013e-41 4.3532612e-08 -6.632308e-08
-1.8376134e-08 -1.7154125e-05 -1.3520217e-07 2.4450014e-08 -2.4618143e-07 8.9848214e-08 -0.0002260198 1.0048302e-07
8.893956e-08 0.0009579543 1.164e-41 -2.1125962e-07 0.00010691107 -9.3261015e-06 -0.00017158776 -1.2401337e-06
-4.6975216e-05 -4.564007e-06 2.8966413e-05 5.5149383e-05 5.6637714e-07 -0.00024020685 5.4245346e-09 -9.84e-42
7.4895655e-07 -2.0360966e-07 -0.0005747523 1.4819301e-06 -1.1293945e-06 0.00036466596 -2.0948637e-06 -0.00011928198
3.1545802e-05 1.1376754e-06 -0.00010979069 1.9154223e-08 3.7516465e-09 -6.9371026e-08 -1.04817246e-07 6.633098e-09
1.6312458e-06 -2.2699655e-07 1.3081503e-06 -1.60516e-05 0.0003371608 2.489969e-06 4.4974897e-07 -1.0274922e-06
-1.4071271e-07 1.0337e-41 -9.136607e-08 1.4910611e-07 3.1178786e-07 1.1444414e-06 1.7158293e-08 1.3185714e-06
-8.27026e-06 -2.2168524e-05 6.8223386e-07 -5.299339e-07 1.2895565e-06 -6.943326e-06 4.7786945e-11 1.1216273e-07
-8.2991484e-08 -5.7109187e-08 1.7642607e-09 -9.715441e-08 4.990967e-08 3.5166838e-07 -9.400881e-08 -1.18186804e-07
00000000: 5cc2 7134 f6fb 9233 ad84 1633 da08 a1b3
00000010: 4da9 acb4 8d10 8533 08da 6534 2faf b9b3
00000020: bd70 2e34 0f21 17b5 8135 5cb4 a781 c134
00000030: 3820 0080 2a86 9739 87a0 e537 62b6 4936
00000040: 7119 8734 705b 9339 2905 7238 f5d8 903a
00000050: 4325 9cb9 6a9c 513a 9dd6 b534 7d28 46b6
00000060: c019 e932 eb5c 37b4 ab27 a533 316a 0939
00000070: 45ff a038 34f2 0a37 6e8f 623a e40d e0b4
00000080: 18a4 75b7 ea72 283a 1a85 6eb8 e1b0 b835
00000090: ef5d dc39 5f7a 44b3 6a20 0000 6dbd f9b4
000000a0: 1610 84ba ec30 3c3a 0478 52b9 1aa5 2bb6
000000b0: 522a 0bb9 73cc f7b8 5a06 33ba 593d 9ab6
000000c0: 4956 acb5 d223 55b5 e71c 7932 dc1c 0000
000000d0: dce3 0133 cfd8 f1b2 8cce 7e32 468f 2b34
000000e0: 2098 afb3 d872 0cb2 380f dab4 3ab7 b031
000000f0: 207c 6933 b94b efb2 44e1 2832 a971 ab38
00000100: bb22 0080 e622 41ba 95d7 63b9 69a3 9136
00000110: 8ee4 ef34 ae42 2cb9 0ee0 5039 5281 d538
00000120: b933 55b7 039e 11b9 1b3c 6d35 e3d9 063a
00000130: 3f1e 27b4 6d1b 0000 06fb 02ba f49f 9638
00000140: dd5d 66b8 c93e a538 8cee aeb7 bde1 ceb4
00000150: 4ff1 8539 5ac8 5ab5 e5cb 63b7 b627 b3b5
00000160: b45f 39b9 5cec 93ba ec1c 0080 49b9 7d34
00000170: df73 5fb5 1908 1dba cc35 38b9 dbe5 c8b5
00000180: 5d03 75b9 c352 b6b6 b157 d039 6731 82b8
00000190: 05e6 a033 86d4 8238 0ab5 eab6 5122 0000
000001a0: 1dc5 f334 00ce 02b7 4af6 9db5 f682 07b6
000001b0: fad0 1eb6 4ec9 7738 f34e 9d36 b971 e3b8
000001c0: d6fb adb5 756d 7ab6 203d 5c38 96c0 bb33
000001d0: c021 0000 0923 7ab5 ac64 cab4 31f9 95b8
000001e0: 3d82 21b8 eb3f f432 4690 e5b7 e3aa b039
000001f0: 2631 82b8 cc5c 9c38 573b 5335 0cc0 333a
00000200: 3dfe 14b3 581b 0000 a4b4 1cb5 2156 c734
00000210: 8059 9037 63a4 1e37 a96b ae34 d852 cfb7
00000220: 2b06 9339 ebf8 3336 5c85 99b9 8cad 3d33
00000230: c4a4 12ba 791f 20b9 79cf 022c 8f88 0eb8
00000240: f416 90b5 683a 0fb9 4650 7c35 ee27 f039
00000250: 1cde a936 db7e d5b7 76a1 a538 9819 3b37
00000260: d5c1 be35 b8e5 f1b9 6ea2 0c34 091f 0000
00000270: 71e6 8235 6e1f 0cb8 842c ae36 1581 be39
00000280: 69fa 2938 b0f0 0139 ca63 9e38 dddd d7b7
00000290: 304e b6b7 db2f 0335 411c b4b4 670e e737
000002a0: 171e 0000 264a feb3 4fb5 80b3 9cb6 dc34
000002b0: 3441 efb6 67c7 8b32 df23 25b5 e1a5 abb4
000002c0: 4a34 7836 892c b139 b9b9 40b5 2f71 6cb4
000002d0: e048 ab32 3d1c 0080 9df8 3a33 806d 8eb3
000002e0: 8cd9 9db2 34e6 8fb7 172c 11b4 2606 d232
000002f0: eb2a 84b4 94f2 c033 baff 6cb9 20c9 d733
00000300: 0aff be33 3a1f 7b3a 7320 0000 9ad6 62b4
00000310: 7235 e038 4d77 1cb7 3dec 33b9 ab72 a6b5
00000320: 4107 45b8 8624 99b6 e6fc f237 3350 6738
00000330: 2409 1835 09e0 7bb9 b662 ba31 6e1b 0080
00000340: e70b 4935 cc9f 5ab4 f9aa 16ba bbe6 c635
00000350: b395 97b5 a330 bf39 7c95 0cb6 0627 fab8
00000360: 0c50 0438 3bb2 9835 6e3f e6b8 9588 a432
00000370: d5e7 8031 20f9 94b3 e417 e1b3 59e9 e331
00000380: 2ef1 da35 56bc 73b4 b493 af35 8ca6 86b7
00000390: f5c4 b039 5719 2736 0775 f134 5de8 89b5
000003a0: d116 17b4 d11c 0000 0735 c4b3 fa19 2034
000003b0: cc63 a734 b59a 9935 7c63 9332 c5f9 b035
000003c0: 7fc0 0ab7 8bf6 b9b7 c122 3735 c840 0eb5
000003d0: d314 ad35 b7fa e8b6 512b 522e 1dde f033
000003e0: 0d39 b2b3 3748 75b3 687a f230 34a3 d0b3
000003f0: 435c 5633 efcc bc34 e4e1 c9b3 e2cd fdb3

deep.0.bias f4 [512]
-4.783035e-07 4.8093728e-08 -1.3838825e-06 5.8922924e-06 -3.0312444e-07 -0.00032632065 -4.4529597e-06 3.624011e-07
-0.000100787765 -1.7932963e-06 2.5318926e-07 -1.8307797e-05 4.7677062e-09 -2.0506174e-07 1.9710415e-08 -2.8980392e-05
-0.00018411601 3.59166e-07 3.6233263e-07 3.5176524e-06 -1.2389758e-07 2.1933914e-05 -2.4175924e-05 4.9891776e-07
-3.783981e-07 -6.729482e-07 -2.7384132e-07 -8.939038e-05 3.5068575e-07 2.0197008e-06 -1.0945484e-07 -4.580763e-07
2.7918178e-08 5.105977e-05 2.546188e-07 -1.4760966e-05 7.0574424e-07 0.00040757062 2.2306173e-07 6.425896e-07
3.8196652e-07 -3.275477e-06 0.00023312402 -2.8606324e-05 7.197463e-05 9.010574e-08 -3.3809592e-05 -0.00032015232
-5.2887028e-08 -8.0319405e-05 0.0005925324 -8.488013e-08 2.414887e-07 0.0013600348 -6.366369e-08 0.00054390077
0.001052678 6.583677e-05 1.7499238e-05 6.4068314e-07 0.00014592857 -3.1974162e-06 5.7024456e-05 -1.536044e-07
2.0513282e-07 7.9201845e-06 -7.807078e-06 1.5622213e-07 -1.0637914e-08 -1.5942043e-05 -1.06449356e-07 5.223149e-08
2.5852769e-05 5.334993e-06 0.0008909516 -1.2437e-41 2.9562307e-07 0.00040016565 -1.6453362e-07 -1.0882e-41
-4.3585363e-08 -2.8030488e-05 1.4386736e-08 -4.2858205e-06 8.835789e-05 -6.168792e-07 1.0502503e-07 8.40873e-06
-3.18034e-05 -1.9365089e-06 -1.0476109e-07 -2.8063074e-05 6.4489726e-08 -0.00029616032 -3.2738026e-08 -0.00013562031
-5.3198876e-09 -1.0718994e-07 -3.629923e-07 -1.7825506e-08 -6.727697e-07 6.667381e-08 -0.00033890878 -1.9621352e-07
2.1588605e-06 0.0008858991 -1.6568556e-05 2.9540619e-05 1.7399474e-05 -0.000111957066 -2.4130243e-08 1.4300099e-07
-1.8594427e-08 1.2277467e-07 -1.2869133e-06 -2.1567413e-08 -1.2246e-41 -2.2771863e-08 6.3223466e-05 -2.735798e-07
-2.340395e-06 -2.2584103e-08 -5.7389667e-07 2.7639547e-07 5.169292e-06 -2.4167512e-08 0.0009422548 -3.8390948e-07
-1.0297075e-05 1.1865e-41 1.5141782e-07 2.7063336e-07 2.48608e-07 1.0465e-41 3.4192635e-07 -1.4129019e-07
1.882485e-05 -5.6264422e-08 1.8098614e-05 -5.497094e-08 -0.00031776025 1.2910606e-08 0.0005841227 -0.0002718461
-0.00024965187 -1.2284736e-06 -3.911567e-06 -0.000103884864 1.0726e-41 -8.307286e-07 -9.761119e-05 3.0026794e-07
1.6583982e-08 -3.3166285e-05 4.4993335e-06 -2.2400666e-08 -3.0145245e-06 8.797838e-07 -9.710977e-08 -2.1420439e-07
-6.318248e-07 -0.00023144105 6.1486526e-07 0.0006870502 -9.780681e-08 4.177368e-05 -0.0015828052 0.00031965305
-2.053077e-06 4.0060223e-07 1.02449725e-07 2.2020315e-06 -1.3724479e-08 -0.0002922925 0.00021343507 -2.5095794e-06
2.0223383e-06 -1.6897023e-07 -1.7264412e-06 -1.85645e-08 4.8942998e-06 -1.9226306e-07 -6.692129e-08 -9.0584115e-05
-5.61898e-07 -1.0902574e-07 2.379554e-08 -1.7420789e-05 -1.6679613e-07 9.4639034e-08 0.001357198 -5.4054166e-05
0.00010610916 -1.2475324e-06 2.687559e-07 -0.00012130118 -3.1523708e-08 2.5573723e-07 1.131e-41 -1.6211284e-06
5.6991627e-07 5.5426625e-07 6.8622364e-07 -1.1552384e-06 1.4810341e-05 0.0004711118 -2.0674867e-07 9.496825e-08
9.348082e-07 0.00016756127 -1.449438e-06 -2.324961e-07 2.677622e-07 6.619764e-07 5.2914015e-07 -0.0014743477
-2.5864736e-06 -8.395019e-07 0.00021602584 -1.1695337e-08 -3.4113637e-05 -8.020004e-06 -0.000100961784 2.1646895e-07
6.374101e-07 -0.00023387185 1.53559e-06 0.00093299436 2.6940725e-07 1.2609912e-06 3.1675196e-08 -1.5910827e-07
5.2599194e-07 -0.000100403995 2.353586e-07 -1.5682359e-06 2.3127198e-07 -1.8781784e-06 0.00022053614 8.038785e-08
-2.573237e-06 7.8936655e-06 6.85017e-08 -4.223868e-05 0.00065899454 8.773955e-09 0.00024661547 0.00018705282
-1.4015048e-07 3.2202573e-07 4.3272757e-06 2.5388665e-09 3.7654817e-07 2.2469767e-07 1.5749292e-05 0.00015064985
00000000: c464 00b5 9d8f 4e33 d7bd b9b5 68b6 c536
00000010: 1bbd a2b4 0416 abb9 a26a 95b6 0790 c234
00000020: 055e d3b8 31b1 f0b5 11ee 8734 b293 99b7
00000030: 30d1 a331 f12e 5cb4 a94f a932 eb1a f3b7
00000040: 440f 41b9 66d3 c034 9e86 c234 cf10 6c36
00000050: b508 05b4 b9fe b737 67cd cab7 5eed 0535
00000060: a426 cbb4 a6a4 34b5 7704 93b4 1877 bbb8
00000070: e245 bc34 328a 0736 6f0d ebb3 87ed f5b4
00000080: b9d0 ef32 0329 5638 8bb2 8834 dea5 77b7
00000090: 6072 3d35 34af d539 be82 6f34 6c7e 2c35
000000a0: 1411 cd34 44d0 5bb6 c172 7439 9df7 efb7
000000b0: 16f1 9638 2880 c133 c6ce 0db8 1eda a7b9
000000c0: e725 63b3 2771 a8b8 2d54 1b3a 5847 b6b3
000000d0: f4a5 8134 3243 b23a 7cb7 88b3 9094 0e3a
000000e0: 03fa 893a d911 8a38 54cb 9237 69fb 2b35
000000f0: 6704 1939 3193 56b6 8b2d 6f38 75ee 24b4
00000100: 7b42 5c34 efe0 0437 25fb 02b7 03be 2734
00000110: 0ac2 36b2 47bb 85b7 2799 e4b3 2155 6033
00000120: 66de d837 3e03 b336 c08e 693a ab22 0080
00000130: 20b6 9e34 53cd d139 a8aa 30b4 561e 0080
00000140: 9d32 3bb3 0423 ebb7 8929 7732 ebce 8fb6
00000150: c84c b938 9e97 25b5 1f8a e133 3813 0d37
00000160: a464 05b8 f8f4 01b6 05f9 e0b3 fe68 ebb7
00000170: 9a7d 8a33 f745 9bb9 d79b 0cb3 4d35 0eb9
00000180: 3aca b6b1 4b30 e6b3 48e1 c2b4 b41e 99b2
00000190: 6298 34b5 512e 8f33 91af b1b9 c3ae 52b4
000001a0: f1e0 1036 af3b 683a b4fc 8ab7 ffcd f737
000001b0: 16f5 9137 7eca eab8 f746 cfb2 d08b 1934
000001c0: 94b9 9fb2 0bd4 0334 01ba acb5 3e43 b9b2
000001d0: 2322 0080 db9b c3b2 d796 8438 85e0 92b4
000001e0: ae0f 1db6 f8fe c1b2 e10d 1ab5 8163 9434
000001f0: e173 ad36 ec98 cfb2 a601 773a 1e1c ceb4
00000200: 9ac1 2cb7 1321 0000 6a95 2234 914b 9134
00000210: 6c78 8534 2c1d 0000 0092 b734 8db5 17b4
00000220: 0fea 9d37 63a7 71b3 7ad2 9737 3019 6cb3
00000230: 0f99 a6b9 72cd 5d32 d01f 193a 9186 8eb9
00000240: b5e3 82b9 08e2 a4b5 1b40 83b6 c3dc d9b8
00000250: e61d 0000 3cff 5eb5 9cb4 ccb8 8334 a134
00000260: 9074 8e32 071c 0bb8 fbf8 9636 966b c0b2
00000270: 234d 4ab6 482a 6c35 a98a d0b3 0e00 66b4
00000280: ab9a 29b5 fcae 72b9 380d 2535 291b 343a
00000290: dd09 d2b3 2636 2f38 2176 cfba 1b97 a739
000002a0: 98c7 09b6 5a12 d734 5502 dc33 9dc6 1336
000002b0: e6c8 6bb2 d63e 99b9 8acd 5f39 3f6a 28b6
000002c0: 82b7 0736 2f6e 35b4 11b8 e7b5 c477 9fb2
000002d0: b739 a436 de70 4eb4 5eb6 8fb3 faf7 bdb8
000002e0: 56d5 16b5 8921 eab3 f266 cc32 dc22 92b7
000002f0: 9218 33b4 5c3c cb33 02e4 b13a 38b8 62b8
00000300: ec86 de38 e370 a7b5 8849 9034 1363 feb8
00000310: af64 07b3 424c 8934 871f 0000 8c95 d9b5
00000320: 59fc 1835 e3c8 1435 ee34 3835 b00d 9bb5
00000330: ee79 7837 8eff f639 a4fe 5db4 59f1 cb33
00000340: 88ef 7a35 63b3 2f39 4f8a c2b5 0ba4 79b4
00000350: f5c0 8f34 acb2 3135 3c0a 0e35 e63e c1ba
00000360: 4793 2db6 225a 61b5 ff84 6239 a3ec 48b2
00000370: 3d15 0fb8 a88d 06b7 72bb d3b8 886e 6834
00000380: 7d1a 2b35 7f3b 75b9 781a ce35 3194 743a
00000390: 0da3 9034 543f a935 3f0b 0833 59d7 2ab4
000003a0: e431 0d35 fc8f d2b8 e1b6 7c34 2d7c d2b5
000003b0: 8f53 7834 b815 fcb5 b83f 6739 b0a1 ac33
000003c0: e0af 2cb6 096f 0437 351b 9333 7029 31b8
000003d0: 60c0 2c3a 43bc 1632 2b4c 8139 9c23 4439
000003e0: 457c 16b4 e1e2 ac34 0433 9136 3678 2e31
000003f0: 6328 ca34 6d44 7134 591d 8437 c3f7 1d39

deep.2.weight f4 [64, 512]
9.647257e-09 7.124206e-07 0.00017478691 -3.1207883e-06 -1.676836e-06 9.29391e-08 2.1149299e-06 -0.00025961138
1.4206742e-06 -0.0012332174 -1.4622277e-07 -6.3855546e-06 -3.94965e-08 -1.9397008e-07 6.897335e-06 0.00020359074
1.1788597e-05 0.0003484923 7.0748837e-07 3.324714e-08 4.463782e-06 -1.325991e-08 -1.7610263e-08 7.005159e-07
-4.1297245e-08 -0.00050627766 -6.574916e-05 -1.0265703e-05 -3.1645118e-07 -0.00096019806 4.463365e-08 -4.080743e-05
1.0446395e-05 -2.7783818e-07 5.759537e-06 -1.6846414e-07 2.3263634e-07 1.2567544e-07 0.00011217683 -0.0002417567
-1.4740237e-08 1.449461e-08 0.00032246154 -2.355408e-06 -1.4207843e-06 -0.00047914762 1.3052214e-05 -7.0267384e-07
0.00082529744 1.0184049e-07 -3.061628e-05 -8.4422434e-05 -9.356373e-08 -0.0003074166 -1.7333572e-07 -0.00031096413
7.1760896e-06 2.8450362e-05 -2.5728102e-06 -8.8052694e-08 0.00074707426 -2.628025e-05 9.295148e-05 -0.0005546378
-8.8519664e-05 0.00041030796 -8.888206e-08 -0.00018153367 -6.9312584e-05 -2.632568e-06 6.151019e-08 0.000103024264
-1.6871496e-06 1.0512932e-06 7.108542e-07 1.1018e-41 -7.9464336e-08 -9.569388e-07 5.08187e-06 1.0246e-41
-2.3326113e-06 -3.1576786e-07 1.2085001e-06 1.3481987e-07 -6.3606805e-08 -0.00013739428 -2.375238e-05 -9.498631e-08
1.9083996e-06 4.1391905e-07 2.0900822e-07 -1.114538e-07 -5.7354726e-05 1.2608821e-06 -1.408072e-06 6.5385634e-06
-1.3028e-05 1.1579735e-07 1.4063361e-05 -2.2689775e-08 0.00089674984 -0.00021254692 3.9914936e-05 6.2652753e-06
6.700479e-08 3.2444784e-06 2.2061653e-07 -0.0009828311 0.0006889246 -6.174483e-08 7.898788e-08 8.8604665e-08
-2.8175037e-07 1.8662977e-06 -1.6385859e-06 -1.9793382e-09 1.1677e-41 -3.3409697e-07 -6.6252572e-09 0.0002475659
1.260738e-06 1.1046691e-05 4.961822e-07 5.836607e-07 -2.3951125e-07 -0.0003321364 -2.1171758e-07 -0.00034025847
1.0955606e-06 -1.015e-41 3.2340057e-07 -4.161712e-07 6.044624e-08 9.815e-42 7.7343964e-07 -1.3085435e-05
0.00013884155 -6.803382e-05 7.015118e-05 -5.2494875e-07 -0.00026439497 -6.3485464e-07 2.7778748e-05 1.836347e-06
-7.952836e-06 1.468438e-06 -0.00013920317 7.610326e-08 -1.2222e-41 -4.992548e-07 1.5120878e-07 -2.674947e-06
-1.9129212e-09 -2.1763183e-06 -0.0011484763 -1.356716e-07 1.0134526e-07 1.2094417e-06 -5.133474e-06 -1.9692777e-07
0.000247366 -1.0452035e-06 -2.6386148e-08 -3.7752436e-06 5.512389e-07 2.4792293e-08 5.3937747e-06 -0.0002328353
1.443005e-06 -3.5223752e-06 2.8354602e-06 3.9234896e-05 0.00061184866 -5.969132e-06 -0.00038127153 -7.635515e-05
-5.7084213e-07 -7.92124e-08 1.3701779e-06 -1.5186342e-06 1.6779653e-07 6.000139e-06 -9.465795e-06 0.00017106908
-4.6891622e-05 -6.014102e-07 -1.2627984e-07 2.0137411e-05 7.500334e-05 -8.9649603e-07 -0.0002614798 -8.6237334e-05
-6.484276e-08 9.171453e-07 2.4636805e-05 -4.6934318e-05 -0.00029542155 2.534899e-06 -1.6752169e-10 -2.1848118e-06
2.202187e-07 6.6744724e-07 -1.3124156e-06 5.6992244e-06 -2.1056306e-07 -8.9828696e-05 -4.6239595e-07 -2.1834028e-07
1.6011532e-05 6.9577e-05 0.00010225774 2.9983016e-07 7.5042855e-08 5.880833e-08 -5.0880897e-07 -4.6483165e-05
-5.2632167e-06 4.2781264e-07 -4.5711836e-06 5.0501445e-08 2.1490647e-05 -2.3696204e-07 -1.979591e-06 -6.204877e-05
4.528268e-10 0.0012897865 5.306103e-06 -2.926683e-06 6.409382e-07 -0.0010776432 3.1261025e-05 -8.1006114e-08
-2.1418366e-07 5.7594134e-05 3.8496596e-06 -1.0607239e-10 7.1287254e-10 0.00031121695 0.00055361114 2.2332288e-05
-0.00019660205 -1.3598446e-07 -3.8766206e-08 1.9317206e-06 4.550501e-08 0.00035785974 8.283567e-05 1.0309208e-06
4.8853663e-06 9.0062166e-08 -1.52543e-07 -1.5497233e-07 -1.029624e-08 -5.9286975e-07 2.5603316e-07 3.291512e-06
00000000: 16bd 2532 2c3d 3f35 0147 3739 bc6e 51b6
00000010: a50f e1b5 d095 c733 38ee 0d36 731c 88b9
00000020: fead be35 e9a3 a1ba 6901 1db4 7f43 d6b6
00000030: dca2 29b3 1746 50b4 a86f e736 f97a 5539
00000040: a3c7 4537 d8b5 b639 3bea 3d35 9ecb 0e33
00000050: 98c7 9536 b3cd 63b2 6145 97b2 160b 3c35
00000060: cd5e 31b3 b8b7 04ba d0e2 89b8 dc3a 2cb7
00000070: b8e4 a9b4 cdb5 7bba 38b3 3f33 a528 2bb8
00000080: ed42 2f37 ca29 95b4 0c42 c136 12e3 34b4
00000090: 97ca 7934 67f1 0634 7a40 eb38 1280 7db9
000000a0: 3f3c 7db2 f803 7932 0e10 a939 9a11 1eb6
000000b0: c7b1 beb5 1b36 fbb9 d5fa 5a37 619f 3cb5
000000c0: c658 583a 67b3 da33 fb69 00b8 f30b b1b8
000000d0: 34ed c8b3 c22c a1b9 291e 3ab4 e608 a3b9
000000e0: 24ca f036 b0a8 ee37 8ba8 2cb6 7b17 bdb3
000000f0: 4ed7 433a 6874 dcb7 f2ee c238 1d65 11ba
00000100: a2a3 b9b8 9a1e d739 6edf beb3 135a 3eb9
00000110: e95b 91b8 2dab 30b6 9617 8433 bb0e d838
00000120: 0572 e2b5 291a 8d35 87d1 3e35 b71e 0000
00000130: fba5 aab3 2b70 80b5 ee84 aa36 901c 0000
00000140: f589 1cb6 ce86 a9b4 bf33 a235 01c3 1034
00000150: 3698 88b3 7f11 10b9 d93f c7b7 47fb cbb3
00000160: 0e12 0036 9a38 de34 be6b 6034 6058 efb3
00000170: 2b90 70b8 943b a935 fcfc bcb5 d565 db36
00000180: d592 5ab7 44ac f833 adf1 6b37 58e7 c2b2
00000190: dd13 6b3a 21df 5eb9 566a 2738 4e3a d236
000001a0: 46e4 8f33 b7bb 5936 9ce2 6c34 57d2 80ba
000001b0: f398 343a 9498 84b3 0ca0 a933 ee46 be33
000001c0: 7a43 97b4 807d fa35 62ed dbb5 e304 08b1
000001d0: 8d20 0000 f05d b3b4 61a4 e3b1 bccb 8139
000001e0: a136 a935 2d55 3937 6231 0535 dcac 1c35
000001f0: 2d96 80b4 9822 aeb9 7c54 63b4 b864 b2b9
00000200: 2d0b 9335 4b1c 0080 d69f ad34 226e dfb4
00000210: acce 8133 5c1b 0000 5e9e 4f35 8489 5bb7
00000220: ff95 1139 61ad 8eb8 211e 9338 34ea 0cb5
00000230: 7e9e 8ab9 e16a 2ab5 6806 e937 6778 f635
00000240: 2c6d 05b7 2517 c535 11f7 11b9 366e a333
00000250: 1222 0080 8704 06b5 f45b 2234 3d83 33b6
00000260: 7774 03b1 dd0c 12b6 7888 96ba 20ad 11b4
00000270: 25a3 d933 1a54 a235 3540 acb6 1873 53b4
00000280: e7b0 8139 eb48 8cb5 c1a7 e2b2 315a 7db6
00000290: d9f8 1335 d4f6 d432 2cfc b436 4025 74b9
000002a0: 46ad c135 f261 6cb6 d648 3e36 2690 2438
000002b0: 7864 203a 744a c8b6 66e5 c7b9 dc20 a0b8
000002c0: f93b 19b5 7a1b aab3 f4e6 b735 e0d3 cbb5
000002d0: 8f2b 3434 cd54 c936 48cf 1eb7 0261 3339
000002e0: 7fad 44b8 9870 21b5 8a97 07b4 c3ec a837
000002f0: 1d4b 9d38 bda6 70b5 3a17 89b9 51da b4b8
00000300: af3f 8bb3 bf31 7635 23ab ce37 57db 44b8
00000310: cfe2 9ab9 3c1d 2a36 2a31 38af c89e 12b6
00000320: 4175 6c34 a02a 3335 4226 b0b5 f73b bf36
00000330: 2217 62b4 6a62 bcb8 373f f8b4 eb70 6ab4
00000340: 8150 8637 dee9 9138 3573 d638 58f8 a034
00000350: 3f27 a133 7194 7c33 1695 08b5 ebf6 42b8
00000360: b09a b0b6 1fae e534 2b62 99b6 ede6 5833
00000370: d046 b437 a16f 7eb4 1dd9 04b6 2e20 82b8
00000380: b5f1 f82f 0e0e a93a 140b b236 0868 44b6
00000390: f00c 2c35 b53f 8dba 451e 0338 95f5 adb3
000003a0: 5bfa 65b4 3b91 7138 532c 8136 7241 e9ae
000003b0: f2f3 4330 d52a a339 3720 113a 3956 bb37
000003c0: f626 4eb9 2003 12b4 e57f 26b3 b5a2 0136
000003d0: 4a71 4333 1f9f bb39 10b8 ad38 2b5e 8a35
000003e0: faec a336 3368 c133 b3ca 23b4 7866 26b4
000003f0: 58e3 30b2 b325 1fb5 ee74 8934 bfe3 5c36

deep.2.bias f4 [64]
-3.534488e-05 -4.4238345e-06 2.2955433e-05 1.0355018e-07 -9.434737e-05 -4.6129053e-06 -1.7548838e-07 1.0377792e-07
2.3675406e-05 -4.2682746e-05 1.348635e-05 1.4875803e-05 2.1252896e-07 3.9665954e-07 2.0855241e-05 1.0846604e-06
-9.9e-42 6.682846e-06 5.2290856e-09 4.2675692e-06 1.705596e-05 0.00022471928 -3.144861e-06 -1.0345979e-06
0.00020629472 0.00031301842 2.1709687e-07 -3.6142963e-05 -6.714329e-07 -2.7077228e-06 -1.9176034e-07 -0.00011049066
-2.8083527e-06 -2.5103445e-06 3.426721e-05 1.4935051e-05 -9.196937e-07 -1.5547012e-06 -4.8482474e-07 -6.5516415e-06
4.0696787e-06 3.2374152e-07 0.00024542128 -3.1702615e-07 7.00735e-07 -0.00041095188 1.8799856e-05 -2.5213874e-05
4.935396e-06 -5.7871046e-05 7.1647236e-08 1.3298971e-05 -1.5489388e-08 3.855232e-06 -7.188436e-05 1.7185916e-05
-2.510543e-06 9.5652336e-05 0.0001414604 -5.609762e-05 -1.5021875e-05 -8.215404e-06 -1.8174973e-05 -7.366695e-07
00000000: 473f 14b8 7370 94b6 6b90 c037 505f de33
00000010: 5cdc c5b8 8ec8 9ab6 e16d 3cb4 84dc de33
00000020: 8c9a c637 4006 33b8 6f43 6237 1693 7937
00000030: 8433 6434 79f4 d434 4af2 ae37 a694 9135
00000040: 991b 0080 363d e036 86ab b331 2432 8f36
00000050: 6513 8f37 9fa2 6b39 4d0c 53b6 83dc 8ab5
00000060: d150 5839 9f1c a439 221b 6934 3698 17b8
00000070: 843c 34b5 53b6 35b6 aee6 4db4 39b7 e7b8
00000080: 2277 3cb6 6477 28b6 23ba 0f38 8e91 7a37
00000090: dfe0 76b5 20ab d0b5 e724 02b5 2cd6 dbb6
000000a0: 468e 8836 b2ce ad34 e3ab 8039 be33 aab4
000000b0: 241a 3c35 0775 d7b9 62b4 9d37 6282 d3b7
000000c0: bb9a a536 90ba 72b8 7cdc 9933 a51e 5f37
000000d0: 860d 85b2 315c 8136 9fc0 96b8 792a 9037
000000e0: cd7a 28b6 f598 c838 fd54 1439 5c4a 6bb8
000000f0: 7606 7cb7 e4d4 09b7 7576 98b7 8bbf 45b5

deep.4.weight f4 [32, 64]
-8.255294e-06 5.552268e-07 -2.8060103e-05 5.4353774e-07 -8.199684e-05 -1.5870191e-07 3.8000946e-06 -2.2920858e-07
0.00029079732 -2.929007e-06 -3.034805e-06 1.7052314e-06 6.75368e-08 1.2620804e-07 -1.894478e-09 8.6185327e-07
9.903e-42 -5.242107e-07 -4.2091582e-07 -1.8116364e-06 4.3934014e-07 -1.6134065e-05 -1.558495e-05 2.808733e-07
1.4127955e-05 -0.0003122399 4.0732225e-08 1.7805247e-06 -8.576887e-07 -7.0621684e-07 -2.197705e-08 -4.495541e-06
3.1612892e-08 7.567044e-07 6.997863e-07 -9.835187e-07 -5.3990522e-08 2.766719e-07 -1.3038594e-06 -1.4215654e-05
-3.4365002e-07 1.5122751e-07 0.00014020917 2.3480972e-07 5.208805e-07 -2.890625e-05 -2.173499e-06 -4.137419e-07
4.467567e-07 -3.9191116e-05 -5.1283383e-08 -1.872028e-05 -3.3379783e-07 -2.589217e-06 2.3284592e-05 -3.0357617e-07
-1.3708988e-06 3.5711419e-06 -4.2688982e-05 -1.3990342e-05 -7.316908e-07 3.0022106e-06 -4.4953612e-08 -4.1298267e-07
-5.1701043e-09 1.284802e-09 6.4405554e-05 5.7047997e-09 1.3070844e-07 -3.2808227e-06 6.578339e-08 3.0812103e-08
0.00035471198 -3.4716006e-05 -1.9209265e-06 -2.4416292e-06 -4.0036362e-08 2.7412062e-08 1.5695605e-05 -6.428706e-08
-9.823e-42 9.866783e-09 1.1788197e-09 -0.0003118343 -0.00033142578 4.350213e-07 1.1410979e-08 3.772307e-09
1.0721253e-08 -1.1113199e-05 7.04933e-09 -5.8915493e-06 2.4951413e-08 -5.581297e-09 -3.980123e-05 -1.5498478e-06
-4.5671084e-07 -0.0005977556 -8.462114e-09 -1.3693851e-05 -4.0295046e-08 3.4595897e-07 -0.00073313504 0.00010214852
0.0012196341 -3.1168904e-05 -4.7192881e-07 -9.780498e-05 0.00017683854 -5.8155096e-05 -5.4956932e-09 3.2962078e-06
-0.0004061356 6.697019e-08 -1.8278079e-06 2.7775913e-09 -2.247299e-11 5.790452e-06 -9.338701e-10 -1.518387e-06
0.0009383279 -1.1589028e-08 -1.5534914e-07 -9.4197785e-05 2.6305453e-09 -3.236144e-05 -0.0010723524 5.159448e-09
1.1384e-41 -9.871e-42 -1.2141e-41 -5.136e-42 -1.0032e-41 -1.0016e-41 1.1704e-41 -1.055e-41
1.1509e-41 -1.063e-41 -1.0203e-41 -1.0632e-41 1.048e-41 -9.839e-42 -1.0123e-41 -9.911e-42
9.893e-42 -1.1217e-41 1.0385e-41 -9.822e-42 1.0655e-41 -1.0487e-41 -9.823e-42 1.0371e-41
9.813e-42 1.1104e-41 -1.0662e-41 -9.83e-42 -1.0193e-41 -1.0417e-41 -9.923e-42 1.0081e-41
9.904e-42 9.675e-42 -9.86e-42 1.0409e-41 -9.865e-42 1.0277e-41 9.819e-42 -1.1073e-41
1.028e-41 1.011e-41 -1.1048e-41 1.008e-41 -9.853e-42 -9.826e-42 1.0203e-41 9.914e-42
-1.0525e-41 -1.1027e-41 9.851e-42 -1.1917e-41 -9.896e-42 -1.101e-41 1.0506e-41 -1.035e-41
-1.1273e-41 1.0199e-41 -1.1016e-41 -1.005e-41 -1.0207e-41 1.0986e-41 -9.974e-42 -6.67e-43
-1.1519e-41 -9.363e-42 -6.6e-43 -9.935e-42 -1.2407e-41 -9.832e-42 1.1055e-41 -1.0627e-41
-1.1474e-41 -1.0343e-41 -1.0364e-41 -1.0082e-41 1.0587e-41 -9.89e-42 -1.0098e-41 1.04e-41
9.851e-42 1.2125e-41 9.958e-42 -9.843e-42 -1.1376e-41 1.196e-41 9.08e-43 -1.0536e-41
-1.0272e-41 -1.2137e-41 1.0074e-41 -1.0402e-41 -9.892e-42 1.1192e-41 -9.95e-42 1.0232e-41
9.844e-42 -1.0655e-41 -9.991e-42 -9.938e-42 9.832e-42 1.0351e-41 1.0256e-41 -1.1873e-41
1.0814e-41 1.0046e-41 1.0866e-41 1.0141e-41 -1.0147e-41 -1.2455e-41 9.857e-42 9.983e-42
1.0824e-41 1.0559e-41 9.878e-42 1.1257e-41 -9.896e-42 1.092e-41 -1.1855e-41 -1.1083e-41
-1.1722e-41 9.986e-42 1.1428e-41 1.261e-41 1.026e-41 1.0385e-41 -1.0081e-41 9.841e-42
00000000: 3880 0ab7 e50a 1535 9d62 ebb7 a1e7 1135
00000010: b8f5 abb8 a667 2ab4 2105 7f36 601c 76b4
00000020: 2876 9839 f58f 44b6 8ea9 4bb6 4edf e435
00000030: c008 9133 cd83 0734 0230 02b1 1b5a 6735
00000040: 9b1b 0000 7cb7 0cb5 3bfa e1b4 5a27 f3b5
00000050: 73de eb34 a457 87b7 6dbc 82b7 efca 9634
00000060: 1b07 6d37 21b4 a3b9 8ef1 2e33 5dfa ee35
00000070: eb3b 66b5 da92 3db5 0bc8 bcb2 67d8 96b6
00000080: bec6 0733 5520 4b35 f3d8 3b35 7201 84b5
00000090: 35e3 67b3 7f89 9434 4500 afb5 c57f 6eb7
000000a0: e67e b8b4 1a61 2234 1d05 1339 0120 7c34
000000b0: a3d2 0b35 b37b f2b7 6edc 11b6 4120 deb4
000000c0: c6d9 ef34 2461 24b8 ad42 5cb3 7f09 9db7
000000d0: d334 b3b4 69c2 2db6 4853 c337 31fb a2b4
000000e0: b9ff b7b5 c0a7 6f36 f20c 33b8 10b8 6ab7
000000f0: 6969 44b5 9679 4936 0513 41b3 e8b7 ddb4
00000100: b8a4 b1b1 f494 b030 7811 8738 f303 c431
00000110: dd58 0c34 1b2c 5cb6 cd44 8d33 4456 0433
00000120: a3f8 b939 079c 11b8 44e9 00b6 dfda 23b6
00000130: 72f4 2bb3 c377 eb32 0eaa 8337 2f0e 8ab3
00000140: 621b 0080 9282 2932 0804 a230 b17d a3b9
00000150: 37c3 adb9 df8c e934 040a 4432 909d 8131
00000160: 9230 3832 d472 3ab7 9036 f231 06b0 c5b6
00000170: bd54 d632 9cc5 bfb1 3ff0 26b8 5d04 d0b5
00000180: dc31 f5b4 b3b2 1cba c560 11b2 a4be 65b7
00000190: df10 2db3 3dbc b934 dc2f 40ba 9238 d638
000001a0: 21dc 9f3a 5bbb 02b8 675d fdb4 a61c cdb8
000001b0: bc6d 3939 8feb 73b8 a1d4 bcb1 6b34 5d36
000001c0: 99ee d4b9 40d1 8f33 0053 f5b5 e7df 3e31
000001d0: adac c5ad 9b4b c236 a259 80b0 61cb cbb5
000001e0: 1ffa 753a 1619 47b2 0cce 26b4 0d8c c5b8
000001f0: 0bc5 3431 d5bb 07b8 2d8e 8cba fc46 b131
00000200: bc1f 0000 841b 0080 d821 0080 510e 0080
00000210: f71b 0080 ec1b 0080 a020 0000 691d 0080
00000220: 1520 0000 a21d 0080 711c 0080 a31d 0080
00000230: 371d 0000 6d1b 0080 381c 0080 a11b 0080
00000240: 941b 0000 451f 0080 f31c 0000 611b 0080
00000250: b41d 0000 3c1d 0080 621b 0080 e91c 0000
00000260: 5b1b 0000 f41e 0000 b91d 0080 671b 0080
00000270: 6a1c 0080 0a1d 0080 a91b 0080 1a1c 0000
00000280: 9c1b 0000 f81a 0000 7c1b 0080 041d 0000
00000290: 801b 0080 a61c 0000 5f1b 0000 de1e 0080
000002a0: a81c 0000 2f1c 0000 cc1e 0080 191c 0000
000002b0: 771b 0080 641b 0080 711c 0000 a31b 0000
000002c0: 571d 0080 bd1e 0080 761b 0000 3821 0080
000002d0: 961b 0080 b11e 0080 491d 0000 da1c 0080
000002e0: 6d1f 0080 6e1c 0000 b51e 0080 041c 0080
000002f0: 741c 0080 a01e 0000 ce1b 0080 dc01 0080
00000300: 1c20 0080 1a1a 0080 d701 0080 b21b 0080
00000310: 9622 0080 681b 0080 d11e 0000 a01d 0080
00000320: fc1f 0080 d51c 0080 e41c 0080 1b1c 0080
00000330: 831d 0000 921b 0080 261c 0080 fe1c 0000
00000340: 761b 0000 cd21 0000 c21b 0000 701b 0080
00000350: b61f 0080 5721 0000 8802 0000 5f1d 0080
00000360: a21c 0080 d521 0080 151c 0000 ff1c 0080
00000370: 931b 0080 331f 0000 bd1b 0080 861c 0000
00000380: 711b 0000 b41d 0080 da1b 0080 b41b 0080
00000390: 681b 0000 db1c 0000 971c 0000 1921 0080
000003a0: 251e 0000 011c 0000 4a1e 0000 451c 0000
000003b0: 491c 0080 b822 0080 7a1b 0000 d41b 0000
000003c0: 2c1e 0000 6f1d 0000 891b 0000 611f 0000
000003d0: 961b 0080 711e 0000 0c21 0080 e51e 0080
000003e0: ad20 0080 d61b 0000 db1f 0000 2723 0000
000003f0: 9a1c 0000 f31c 0000 1a1c 0080 6f1b 0000

deep.4.bias f4 [32]
0.001673806 -1.8215724e-07 -1.0437e-41 -1.0032e-41 2.8445713e-08 -5.7946745e-09 -1.0405e-41 -0.02913359
-1.1685e-41 -0.0005545966 -4.83244e-09 -3.0209574e-07 -5.4245834e-06 0.00029796155 -1.0661e-41 -1.718151e-08
9.5088046e-07 -1.0203e-41 -0.0031808366 -1.0878e-41 0.0012559869 2.0225552e-07 -1.2564831e-05 0.00022864052
-1.0459935e-06 1.203181e-06 2.4789587e-08 -1.1069665e-07 -1.5072447e-05 -1.03e-41 -1.0165e-41 -0.00011896898
00000000: 9c63 db3a 0097 43b4 181d 0080 f71b 0080
00000010: c958 f432 7f1a c7b1 011d 0080 91a9 eebc
00000020: 9320 0080 5962 11ba 970a a6b1 b92f a2b4
00000030: d104 b6b6 b937 9c39 b81d 0080 8a96 93b2
00000040: 0240 7f35 711c 0080 9575 50bb 531e 0080
00000050: ed9f a43a 932b 5934 8acd 52b7 39bf 6f39
00000060: 1064 8cb5 fc7c a135 e1f0 d432 20b8 edb3
00000070: abdf 7cb7 b61c 0080 561c 0080 fc7e f9b8

output.weight f4 [1, 34]
-0.80553365 -4.1866159e-07 -0.0041397694 1.5666794e-07 9.882e-42 9.812e-42 3.8477992e-08 -1.435307e-09
9.848e-42 0.052903064 -9.931e-42 0.0005626512 5.2837055e-09 1.1847699e-06 3.7825534e-06 0.00020147451
-9.883e-42 1.7806023e-07 -9.313737e-07 9.864e-42 0.0032814199 -9.858e-42 0.00082712027 1.3633544e-07
1.7160171e-05 6.117242e-06 3.565382e-07 -7.7689924e-07 4.7409493e-08 -6.319078e-09 3.0590613e-06 9.87e-42
-9.864e-42 0.000118088836
00000000: 7437 4ebf 69c4 e0b4 e7a6 87bb 8e38 2834
00000010: 8c1b 0000 5a1b 0000 0043 2533 6044 c5b0
00000020: 741b 0000 e2b0 583d af1b 0080 e27e 133a
00000030: f78b b531 6204 9f35 c6d7 7d36 e742 5339
00000040: 8d1b 0080 d330 3f34 8303 7ab5 7f1b 0000
00000050: 170d 573b 7b1b 0080 1ad3 583a 9a63 1234
00000060: 30f3 8f37 b542 cd36 3d6a bf34 1c8c 50b5
00000070: 4a9f 4b33 331f d9b1 464a 4d36 831b 0000
00000080: 7f1b 0080 76a6 f738
