Results/DFM/20250107_152105_batch1024_epoch10_lr0.001_reg0.0001_DFM/control_deepfm.pth (torch, 174430 bytes, 9 tensors)

linear.weight f4 [1, 13]
00000000: f762 3cbd a266 833d 6490 b83d e269 dc3c
00000010: 71ab 8cbd ff3f 7f3c ef60 f33c ae5d 153d
00000020: 5ec6 b63c 787f 93bc 4d04 743d 1765 813c
00000030: 4a8f 0080
-0.045992818 0.0641606 0.09011915 0.026905958 -0.06868637 0.015579223 0.029709307 0.036466293
0.022311386 -0.018005118 0.059574414 0.015795274 -5.1402e-41

embeddings.weight f4 [13, 32]
00000000: 75e2 0e3d e8c0 adbd bd25 3bbd ae5a aa3d
00000010: fb69 19be 9b8b d3bd c9d1 7fbb 62f0 2c3d
00000020: 17d0 173d 3498 e13c 9dc7 bebd 3ecf e5bd
00000030: 0e9f 6b3d 8491 7f3b adfd 0f3d 0208 52bd
00000040: e152 8f3c 824d fdbc 3845 9abd 89af 083d
00000050: a825 ad3c db35 9f3d c205 1e3d ad56 15bd
00000060: 12ca 80bb 0fb5 fc3d 4f7a 113d 80be 023d
00000070: a771 29be f08b da3d 554d 2b3b 2e64 a43d
00000080: bf43 383b bdd9 dabc 8adf db3b f0f8 adbb
00000090: cc8b 2cbd 5225 5cba 0335 1abb 617b b83d
000000a0: 8b12 ae3b f941 553c dfbb 6e39 c5d5 393d
000000b0: d18f ab3b fe9d 1ebb 3239 69bc 14b6 8b3d
000000c0: cd30 bcbd af5a 0abc 071f 1b3e 99e9 a3bc
000000d0: 65a0 85ba 8a86 18bb 20c9 f23c 2287 49bd
000000e0: e222 bd39 1a81 3fbc 3a7a 56bc ec9c 31bb
000000f0: 14a7 fabd 2394 5e3c 29ae 433a 38f4 973c
00000100: 9f62 dfbb ab39 e6bc 853e 273b 30c8 6bbb
00000110: dace 64bd c7a9 d2ba 9114 06bb a3f8 9dbb
00000120: f9e1 bbba 8d99 1f3c f76a 99bb dfa3 183d
00000130: effa 4a3b 7b2a 063b 7761 00bd 3e3e f6b9
00000140: cb62 c23b 4df2 dbbb 88ed 4dbd 148c 11bc
00000150: 71cd 7cbb f532 c4ba 4a71 59bd 07d0 143d
00000160: ecac a137 646b aabb fd69 513a fd27 26ba
00000170: 68e0 9c3d 97b6 3eba 0e54 aa39 66da 443d
00000180: 66f8 a7b9 03c5 d53a 4488 8b37 34ec 06b9
00000190: 8fa9 a5bc 0eba c739 8a76 80ba 8c51 473b
000001a0: 234e f937 3d8a e53a 08e4 c7b8 cd06 bf3b
000001b0: c069 5db9 e4b4 bf39 d383 a0bb 76b7 e8bb
000001c0: c4ad 4f3a 3472 60bb c7a6 c0ba fc7f 75ba
000001d0: 7b5b 9d38 6baf eeb8 ccb6 5b3b d8b2 083c
000001e0: 35a3 8bb8 d446 7d39 7f2e 2e39 9ab2 8cb9
000001f0: ae0b c83c a671 0cba fbf4 1739 42d2 bcbb
00000200: 8c52 663b c476 0cbd 1da9 9fbc f04d e6bb
00000210: 0039 5abd 26cc 4fbd 033a bbbc 57d0 c9bc
00000220: 3c84 69bb 8399 14bd 9c17 ec3a 08a1 883d
00000230: 6a69 d43b f7f4 3fbd e84b b63c 2aa6 ccbc
00000240: 6763 22bb 2272 573d 5902 05bd f55c 3e3d
00000250: 3cdd 14bc e976 71bb 52c3 8fbd fcfa 8abd
00000260: df8c 0039 152c 88bc 6e19 973a 4e46 debc
00000270: bb22 a8bd 14d5 a6bb ab09 c8b9 77f7 9abb
00000280: 1014 abb8 df78 53ba 8684 853a 2530 dfba
00000290: 26a8 1a3c f3ed 19ba 2a76 c5ba 7862 bcba
000002a0: 52c6 1eba 2538 bc3a 849d c1b9 752c 8ebc
000002b0: ae4f b63a f0e7 b5b8 b620 43bb 4207 51bb
000002c0: b081 713a aece 333b 2914 4a3c 4060 6bba
000002d0: dfa9 b5b9 1e62 55ba 757d 363b bfe5 68b8
000002e0: 978e f1b7 48f5 54b9 11c1 1b3a ef03 03ba
000002f0: eba8 1cbc 17ab 0e3a bf79 6339 74f4 4fba
00000300: 668c 8aba 8e67 883c dec5 d1bb 8f9b c83b
00000310: 00dd 35bd d483 a63b c3f5 a73b 39b2 a2bc
00000320: 718b 193b 4d09 a43d a65e c43a 7133 b0bc
00000330: f76b ecbb 510f 08b8 a93a d9bb 6119 943c
00000340: f578 a4bb ec2c 3ebc 628e 9dbd 6870 473d
00000350: 9c55 cf3a cf23 313b 82bb 87bc b379 1b3d
00000360: 87b8 d8b7 aa6f d8bc 32e6 0fbb cf41 c63a
00000370: b762 ad3d 3759 b0bb 48a2 b8ba 516a 4cbd
00000380: 9270 8fba ee3f e73b ce50 f53a ff07 38bb
00000390: 0f82 c03d 0c96 2c3b d736 74b7 d64d d9bb
000003a0: 9a1c d0ba 82ea f1bc 9441 013b 6161 e43b
000003b0: d0cc 56ba e521 5f3a 8002 3fbc 0067 ae3c
000003c0: 36a8 2e3b 5081 ad3b 665e 4bbc 6aab 6d3b
000003d0: 53fb 28ba d93b 28bb 84bc 9fbc 67be 533c
000003e0: 94ec 2639 a274 06bb fa72 0aba 7fa5 30ba
000003f0: 2ccd 70bd 0c5f 02bb 5151 58b8 420a 0e3c
0.034883935 -0.084840596 -0.045690287 0.08318077 -0.14981835 -0.10329362 -0.0039034954 0.042221434
0.037063684 0.027538396 -0.09315417 -0.11221169 0.057524733 0.0038996646 0.035154033 -0.051277168
0.017495574 -0.030920748 -0.07532734 0.03337053 0.02113612 0.07773944 0.03857971 -0.036459614
-0.0039303387 0.12339222 0.035517033 0.031919956 -0.16547261 0.10671222 0.0026138623 0.0802692
0.0028116552 -0.026715154 0.0067099975 -0.0053092167 -0.04212551 -0.0008397895 -0.0023530133 0.09007908
0.005312269 0.013016217 0.00022767436 0.045369882 0.00523565 -0.0024203057 -0.014234828 0.06821838
-0.091889955 -0.008444472 0.15148555 -0.020008849 -0.0010194896 -0.002327355 0.02963692 -0.04920114
0.0003607488 -0.011688495 -0.0130906645 -0.002710159 -0.12238899 0.013585123 0.00074646116 0.01854907
-0.0068171765 -0.02810367 0.0025519442 -0.0035977475 -0.05586133 -0.0016072326 -0.0020459036 -0.0048208996
-0.0014334313 0.009741199 -0.0046819407 0.037265655 0.0030972322 0.0020472098 -0.03134295 -0.0004696715
0.005932187 -0.006712234 -0.050275356 -0.008883495 -0.00385746 -0.00149688 -0.053086556 0.036331203
1.9273219e-05 -0.0052007902 0.0007988511 -0.0006338356 0.076599896 -0.0007275133 0.00032487552 0.048059843
-0.00032037793 0.0016309324 1.6633545e-05 -0.00012867228 -0.020222453 0.0003809486 -0.0009800952 0.0030413596
2.9719498e-05 0.0017512512 -9.5315336e-05 0.005829668 -0.00021115597 0.00036565133 -0.004898527 -0.0071019484
0.00079223164 -0.0034247758 -0.0014698141 -0.00093650795 7.503383e-05 -0.000113813985 0.0033525703 0.008343421
-6.658436e-05 0.00024154346 0.00016611254 -0.0002683595 0.024419632 -0.0005357511 0.00014491745 -0.0057623694
0.0035144417 -0.03429295 -0.01948982 -0.007028334 -0.053277016 -0.0507318 -0.02285481 -0.024635477
-0.0035631796 -0.036279213 0.0018012407 0.06671339 0.006482293 -0.046864476 0.022252992 -0.024981577
-0.0024778487 0.05259908 -0.032472942 0.04647537 -0.0090859495 -0.0036844558 -0.07019676 -0.06786153
0.0001225951 -0.016622582 0.0011527964 -0.027133133 -0.08209749 -0.005091319 -0.00038154176 -0.004729207
-8.157652e-05 -0.00080670224 0.001018659 -0.0017027898 0.009439504 -0.0005871944 -0.0015065123 -0.0014372608
-0.0006056774 0.0014359994 -0.00036929187 -0.017355183 0.0013909244 -8.673954e-05 -0.0029774136 -0.0031895195
0.00092127454 0.0027436423 0.012333908 -0.0008978881 -0.00034649574 -0.0008139926 0.0027845774 -5.5527078e-05
-2.8795837e-05 -0.0002030927 0.000594155 -0.00049978396 -0.009561758 0.00054423645 0.00021693761 -0.00079328497
-0.0010570406 0.016650941 -0.0064017614 0.0061220597 -0.044400215 0.005081633 0.0051257326 -0.019860374
0.002342906 0.080095865 0.0014981821 -0.021508904 -0.007215019 -3.243919e-05 -0.0066293073 0.018078508
-0.005019302 -0.01160739 -0.07693173 0.048691183 0.001581836 0.00270294 -0.016568903 0.03795786
-2.5835134e-05 -0.026420433 -0.0021957275 0.0015125814 0.08466094 -0.005381729 -0.001408645 -0.04990608
-0.0010943583 0.0070571816 0.0018716098 -0.0028080938 0.09399807 0.0026334552 -1.4556302e-05 -0.006631593
-0.0015877665 -0.029530767 0.0019722925 0.0069696163 -0.00081939716 0.00085118256 -0.011658311 0.021289349
0.0026650555 0.0052949563 -0.012412643 0.00362655 -0.00064461416 -0.0025670438 -0.019499071 0.012923813
0.00015919126 -0.0020516296 -0.0005281415 -0.0006738528 -0.058789417 -0.0019893078 -5.1574145e-05 0.008669438

deep.0.weight f4 [512, 13]
00000000: 49d5 a9aa 1ef5 3aaa fed9 d6a9 aa0a 372a
00000010: f4e6 59aa 479c eb29 e3f7 2629 4a0d 0329
00000020: 8a7f 042a 0a01 3fab e72c 6529 ff24 8828
00000030: 7e8a 0080 7489 0000 d188 0080 0e8a 0080
00000040: 3b89 0000 c589 0080 6b89 0000 ee89 0080
00000050: 0789 0000 0689 0080 f301 02a1 0489 0000
00000060: 338a 0080 7899 0000 a236 ec34 f78c 4ab4
00000070: 85ca 1033 b58c 6233 dfac 68b3 0d18 1431
00000080: cb22 1539 b1b7 dc33 6332 9733 7e35 13bb
00000090: 7593 d433 193b 5f32 7889 0080 9f7d 589a
000000a0: 3ff8 2a80 e288 0080 1589 0080 78fa f585
000000b0: 428a 0000 7a89 0000 e288 0080 d888 0080
000000c0: f268 8aaa 9589 0080 8192 0080 248b 0000
000000d0: f169 00ba 3898 4fb9 807d 64b8 ca2c 0399
000000e0: 3643 89b9 b842 9cb1 33b5 c238 f78b e8b4
000000f0: f0f1 adb1 0c2e 10bc ee88 02b6 01ca ac17
00000100: 958a 0000 b686 559b ba83 0c9b 6b3d cb9a
00000110: 71c6 2e1b 9554 129b b6b9 7e19 7b15 5119
00000120: ffa4 eb99 4a0a f319 cf56 8e9b 4bbb 0c9a
00000130: 6586 6919 4a8a 0000 f689 0080 208a 0080
00000140: 0f8a 0000 a789 0080 9f89 0080 c788 0080
00000150: 5389 0080 1e89 0000 168a 0000 4a29 cda4
00000160: 6989 0080 c589 0000 8089 0000 1563 69b8
00000170: b0cd b3b5 983a 15b4 50f9 7118 f1a2 9db6
00000180: a113 da22 b770 3933 7f4b 97ad ef66 e721
00000190: 3999 b8ba 9160 3aae 988c a416 d78c 0080
000001a0: 07c5 0000 528f 0080 6fc2 0080 b7a4 0000
000001b0: 426e 0080 e88a 0000 6dca 0000 da9c 0000
000001c0: ba17 0000 6b4b 0380 f38a 0000 919e 0000
000001d0: f688 0000 808a 0000 ff89 0000 118a 0080
000001e0: 4289 0000 6489 0000 568c 0000 f288 0000
000001f0: ac89 0080 8d89 0080 8f42 81a2 1989 0000
00000200: a294 0080 3a91 0080 e100 cab7 5c9a 11b5
00000210: fda8 dfb3 9f67 87a9 88e6 a9b5 321e 05a7
00000220: b1dd 5933 1672 26b0 3882 cda6 6596 2bb8
00000230: 3747 49af 1475 ba15 048c 0080 9131 d9b8
00000240: 580b 3db5 1c2c 8bb3 f859 3ba3 c241 4eb6
00000250: 3779 bda5 ecb7 f934 9172 4ead da23 24a5
00000260: 375d b9b9 28b0 06af e11f 6f00 fe89 0080
00000270: ab89 0080 2aa5 0080 dc89 0000 488a 0080
00000280: fe89 0080 ec8e 0080 148a 0080 d288 0000
00000290: 4089 0000 78e0 3593 7989 0080 59a5 0080
000002a0: 9989 0080 866a afbc 4f64 9cbc bb5e 9bbc
000002b0: 66a7 adbc 1c85 9abc 7222 a9bc 98d3 0d3c
000002c0: 4420 8dbc d377 a1bc 0b91 a9bc 0b3f 9cbc
000002d0: 8bd2 2a3c 0b8b 0000 991d c3aa ab02 68aa
000002e0: f168 29aa cc2b 0628 dba5 77aa 70ac 6429
000002f0: 747d 7a2a 1da9 76a9 efe4 9b29 c87a 9faa
00000300: b250 b9a8 bcf3 9027 178a 0000 048f 0b35
00000310: 3fbb ec32 3cb2 df2f 715c 231d 7fa1 1cb4
00000320: f414 a01e 31a8 442e 4425 84a8 4081 db1d
00000330: e07b d0b8 464a 42a8 a98a 0080 e48b 0080
00000340: 9067 2c9f 5068 9609 5bdf 0000 899f 0080
00000350: 1eb8 4096 458a 0080 e12e 3200 a9ab 0000
00000360: 398a 0080 987e 8eb1 0c89 0080 3690 0000
00000370: 6596 0000 5289 0080 a089 0000 4589 0080
00000380: f088 0080 8d89 0000 d788 0080 4389 0000
00000390: cf88 0000 4489 0080 ea76 1296 7989 0000
000003a0: 31a6 0080 1da0 0000 6789 0000 c289 0080
000003b0: f189 0080 cb88 0080 7e89 0080 6189 0000
000003c0: 4089 0000 d989 0080 c188 0000 a4fa 129f
000003d0: 1a8a 0080 858a 0080 4a28 0380 3fbe 00ac
000003e0: 62ea 59a2 21f9 f69b e888 0000 408c 89a6
000003f0: a089 0080 84db 741c 0d7f f285 ec88 0000
-3.0168427e-13 -1.6605161e-13 -9.541325e-14 1.6257365e-13 -1.93536e-13 1.0463206e-13 3.7074412e-14 2.909937e-14
1.1768204e-13 -6.7858273e-13 5.088716e-14 1.5115078e-14 -4.9682e-41 4.9309e-41 -4.908e-41 -4.9525e-41
4.9229e-41 -4.9422e-41 4.9296e-41 -4.948e-41 4.9156e-41 -4.9155e-41 -4.4048293e-19 4.9152e-41
-4.9577e-41 5.5054e-41 4.3998176e-07 -1.8863999e-07 3.3711803e-08 5.2747698e-08 -5.4173935e-08 2.1550506e-09
0.00014222709 1.02779616e-07 7.040651e-08 -0.0022462304 9.8988416e-08 1.2993746e-08 -4.9314e-41 -4.476923e-23
-3.946145e-39 -4.9104e-41 -4.9176e-41 -2.3131697e-35 4.9598e-41 4.9317e-41 -4.9104e-41 -4.909e-41
-2.4586545e-13 -4.9355e-41 -5.2556e-41 4.9914e-41 -0.0004898599 -0.00019797764 -5.4476317e-05 -6.781586e-24
-0.00026180752 -4.5477826e-09 9.284392e-05 -4.3315205e-07 -5.062468e-09 -0.008800041 -1.9451213e-06 1.1166232e-24
4.9714e-41 -1.7662474e-22 -1.1623092e-22 -8.405806e-23 1.4457063e-22 -1.2104167e-22 1.3168996e-23 1.0809385e-23
-2.4365072e-23 2.5129767e-23 -2.3548028e-22 -2.9102615e-23 1.20729584e-23 4.9609e-41 -4.9491e-41 -4.955e-41
4.9526e-41 -4.938e-41 -4.9369e-41 -4.9066e-41 -4.9263e-41 4.9188e-41 4.9536e-41 -8.8974525e-17
-4.9293e-41 4.9422e-41 4.9326e-41 -5.5643806e-05 -1.3396402e-06 -1.3898023e-07 3.127439e-24 -4.6979335e-06
5.91098e-18 4.3176183e-08 -1.720024e-11 1.5680415e-18 -0.001408375 -4.2377272e-11 2.6584356e-25 -5.0524e-41
7.068e-41 -5.1414e-41 -6.975e-41 5.9089e-41 -3.9553e-41 4.983e-41 7.2617e-41 5.6268e-41
8.511e-42 -3.02561e-40 4.9846e-41 5.6883e-41 4.9132e-41 4.9684e-41 4.9504e-41 -4.9529e-41
4.9239e-41 4.9286e-41 5.0343e-41 4.9127e-41 -4.9387e-41 -4.9344e-41 -3.503599e-18 4.9181e-41
-5.332e-41 -5.2097e-41 -2.4080686e-05 -5.424133e-07 -1.04149855e-07 -6.01318e-14 -1.2658575e-06 -1.8473827e-15
5.0725877e-08 -6.0552574e-10 -1.4260028e-15 -4.0909643e-05 -1.8306144e-10 7.530952e-26 -5.0228e-41 -0.00010356599
-7.0424494e-07 -6.480715e-08 -1.0156342e-17 -3.0734668e-06 -3.2868412e-16 4.6513685e-07 -1.1735183e-11 -1.423688e-16
-0.000353554 -1.2249812e-10 1.0205176e-38 -4.9502e-41 -4.9386e-41 -5.925e-41 4.9455e-41 -4.9606e-41
-4.9502e-41 -5.1271e-41 -4.9533e-41 4.9082e-41 4.9236e-41 -2.2956083e-27 -4.9316e-41 -5.9316e-41
-4.9361e-41 -0.021413099 -0.0190908 -0.01896607 -0.021197986 -0.0188623 -0.020646308 0.008656405
-0.0172273 -0.019710457 -0.020699045 -0.01907303 0.010426174 4.9879e-41 -3.4659496e-13 -2.0606665e-13
-1.5046624e-13 7.447991e-15 -2.199555e-13 5.0775736e-14 2.2247986e-13 -5.4769655e-14 6.9230964e-14 -2.832927e-13
-2.0574122e-14 4.0232286e-15 4.9537e-41 5.198965e-07 2.7559166e-08 4.0690107e-10 2.1620661e-21 -1.4587384e-07
1.6949325e-20 4.4714624e-11 -1.4671105e-14 5.810246e-21 -9.9412864e-05 -1.0785269e-14 -4.9742e-41 -5.0183e-41
-3.6508082e-20 3.620928e-33 8.0125e-41 -5.723e-41 -1.5567734e-25 -4.9602e-41 4.608592e-39 6.158e-41
-4.9585e-41 -4.147136e-09 -4.9163e-41 5.1733e-41 5.3951e-41 -4.9261e-41 4.937e-41 -4.9243e-41
-4.9124e-41 4.9344e-41 -4.9089e-41 4.924e-41 4.9078e-41 -4.9242e-41 -1.1831309e-25 4.9316e-41
-5.9618e-41 5.7438e-41 4.929e-41 -4.9418e-41 -4.9484e-41 -4.9072e-41 -4.9323e-41 4.9282e-41
4.9236e-41 -4.945e-41 4.9058e-41 -3.1124028e-20 -4.9542e-41 -4.9691e-41 -2.8996e-40 -1.8295502e-12
-2.9533065e-18 -4.0858282e-22 4.9113e-41 -9.5443e-16 -4.937e-41 8.1016545e-22 -2.2804242e-35 4.9118e-41

deep.0.bias f4 [512]
00000000: e9fe 98a9 808a 0000 9c57 62b2 c788 0000
00000010: 1a12 4c17 f8e0 8e99 6c8b 0000 e3c4 0c17
00000020: a19b 0080 7492 0000 9cbf 6b16 b996 fe80
00000030: c589 0080 3c8a 8fbc 7b0a 8aa9 ba89 0000
00000040: 1789 0080 ed8b 0000 4c89 0000 8d8b 0000
00000050: f253 c0a7 9ca8 0e28 842b 0538 6763 0080
00000060: 1989 0000 2f8a 0080 57eb 36b1 fef6 a033
00000070: feaa 8c3c 72d7 2a93 d088 0080 cc48 c5b4
00000080: 0e89 0000 f408 c087 3d26 381f 7be7 010d
00000090: f0d0 9135 498a 0080 ac8b 0080 4d27 67a3
000000a0: 7ddc 3132 0daf fb3c 8b8a 0080 fca9 0000
000000b0: 9c12 97ab cd8a 0000 a256 7d3b 4197 400c
000000c0: 592c 09b6 0bef 9796 c36d eaae 586f cbba
000000d0: 0bce 0ea1 6089 0000 4027 1500 8f89 0000
000000e0: 4589 0080 240d 293c 775e 5b98 678a 0000
000000f0: 8789 0080 dc97 0000 358e 0080 fc55 002f
00000100: 4d0f ab23 0389 0080 17ae 0080 3905 0db2
00000110: 53a0 9681 6889 0080 f888 0080 9252 01a3
00000120: 9c89 0000 075a 7ab0 748b 0080 4e55 0201
00000130: ac3e 68b2 6089 0000 4079 6ebc 2c8a 0080
00000140: 1d8a 0080 3e8b 0080 f13a f721 c087 a8ad
00000150: c789 0000 000a 7ba2 2a8f 7f3b 384e b0ad
00000160: d9bf ecb6 b189 0080 1f89 0080 1089 0080
00000170: 4816 cba2 70b3 4b0e a7a1 16ab c06b 0696
00000180: 23bc 4c18 4d88 7aa6 22d3 8a9b 8e89 0000
00000190: b489 0000 8989 0080 588a 0080 7c76 4737
000001a0: 0306 0100 90a5 81a6 6d89 0080 238e 0000
000001b0: 038a 0000 a18a 0000 4339 832f aeb0 6882
000001c0: d374 022e 8293 0000 dd89 0000 f905 fc3c
000001d0: 769b 0080 83c3 4a16 d389 0080 10bb 4c29
000001e0: e8b1 01b5 58ec 38b6 e489 0080 64a8 0080
000001f0: 1924 f18f df88 0080 9dad 4cbc fd89 0000
00000200: ba9e 84bb 6989 0080 092c 87bc 0689 0000
00000210: c83d e492 38dc 9d04 c18d 0080 438a 0000
00000220: e389 0080 8b29 93bc 0289 0000 575f 5593
00000230: 628a 0080 018c 0080 5a8b 0000 66f1 4c1c
00000240: 98bb 86ae f1bb cb3c ff89 0000 f174 c502
00000250: a18b 0000 e188 0000 b489 0080 7bc0 cb39
00000260: df88 0080 b7c9 70b1 1aec 8d35 71e2 3d39
00000270: bb53 5100 e1df 093d fb4c 2e02 1c8c 0000
00000280: cf89 0080 7d10 8284 3f37 0a3a 1989 0000
00000290: 038a 0000 2df8 b01a e3c0 f215 a389 0080
000002a0: cadc 06ac 9442 112a 28bc 0b3d 2a8b 0080
000002b0: d688 0080 c650 0080 9995 0080 df96 0080
000002c0: d8fc c123 01e4 3f1f 492b cc86 dd88 0080
000002d0: 31b0 c914 1b89 0080 828d 0000 f897 0000
000002e0: 9350 390f 25ef 05b8 a104 5a29 b054 feb8
000002f0: f003 93b4 4169 1819 ffdb 81ac a82f ac83
00000300: 3ab3 160f ced5 709d 07cb 7623 398b c91f
00000310: 7531 1221 3bc4 42b0 e23e a180 7820 62b6
00000320: e69f 8bba 8289 0080 9af7 e235 95ab 003a
00000330: 528a 0000 1b8f 0080 37c3 832a 4f34 9509
00000340: 4f33 e530 3aa9 c3b5 6d8a 0080 e588 0080
00000350: 08c5 afb7 66d9 0200 43c5 b7b7 3955 82af
00000360: de88 0080 ae33 9538 747c 509b d688 0000
00000370: 9723 0480 7934 b2a5 ea95 0080 6469 f8a8
00000380: 4183 7810 aab8 1a22 4ff7 e60f 3d91 d03a
00000390: d895 f732 7389 0000 9313 c113 4b1a 7e21
000003a0: c8fb 2fba 2a8a 0080 7c89 0080 4489 0000
000003b0: 9bde a2ab 830d bc98 c988 0080 9890 8180
000003c0: 4b5b dba4 bd82 1e27 8b89 0080 818a 0080
000003d0: 1689 0000 2f17 3837 4271 8398 fb7b 1400
000003e0: d088 0080 aeff 5106 26ec b7b5 cb36 2c31
000003f0: 4889 0080 a58a 0000 f088 0080 9d8d 0000
-6.794376e-14 4.9684e-41 -1.3174851e-08 4.9066e-41 6.59388e-25 -1.477332e-23 5.0015e-41 4.5484946e-25
-5.5829e-41 5.2537e-41 1.904361e-25 -2.3380285e-38 -4.9422e-41 -0.01752197 -6.130249e-14 4.9407e-41
-4.9179e-41 5.0196e-41 4.9253e-41 5.0061e-41 -5.338172e-15 7.919145e-15 3.1750198e-05 -3.5659e-41
4.9181e-41 -4.9571e-41 -2.661826e-09 7.495508e-08 0.01717138 -2.156324e-27 -4.9079e-41 -3.6747076e-07
4.9166e-41 -2.8894211e-34 3.8995146e-20 4.002983e-31 1.0864151e-06 -4.9607e-41 -5.0105e-41 -1.2530857e-17
1.0352889e-08 0.03072312 -4.97e-41 6.0979e-41 -1.073436e-12 4.9792e-41 0.0038656374 1.4836658e-31
-2.0440405e-06 -2.4546223e-25 -1.06605856e-10 -0.0015520854 -4.8384167e-19 4.9281e-41 1.942626e-39 4.9347e-41
-4.9243e-41 0.010318074 -2.835278e-24 4.965e-41 -4.9336e-41 5.4477e-41 -5.1014e-41 1.167208e-10
1.8546337e-17 -4.915e-41 -6.2452e-41 -8.208468e-09 -5.533135e-38 -4.9292e-41 -4.9135e-41 -7.010589e-18
4.9365e-41 -9.1077407e-10 -5.0026e-41 2.3938432e-38 -1.3518427e-08 4.9281e-41 -0.014555275 -4.9567e-41
-4.9546e-41 -4.995e-41 1.6752973e-18 -1.9159674e-11 4.9425e-41 -3.4022137e-18 0.0038995245 -2.004362e-11
-7.055682e-06 -4.9394e-41 -4.919e-41 -4.9169e-41 -5.504685e-18 2.5108078e-30 -5.3515043e-13 -1.0858434e-25
2.6461367e-24 -8.6920896e-16 -2.2966626e-22 4.9345e-41 4.9399e-41 -4.9338e-41 -4.9628e-41 1.1888911e-05
9.3992e-41 -8.996049e-16 -4.9299e-41 5.0989e-41 4.9509e-41 4.973e-41 2.3869448e-10 -1.7095373e-37
2.966234e-11 5.2916e-41 4.9456e-41 0.030764567 -5.5769e-41 1.6379123e-25 -4.9442e-41 4.545935e-14
-4.831513e-07 -2.7555707e-06 -4.9466e-41 -6.0407e-41 -2.3778339e-29 -4.91e-41 -0.0124925645 4.9501e-41
-0.004047242 -4.9293e-41 -0.01650049 4.9155e-41 -1.4404053e-27 3.711276e-36 -5.0852e-41 4.9599e-41
-4.9464e-41 -0.017964145 4.9149e-41 -2.6931386e-27 -4.9642e-41 -5.0224e-41 4.999e-41 6.780994e-22
-6.126938e-11 0.02486989 4.9504e-41 2.901367e-37 5.009e-41 4.9103e-41 -4.9399e-41 0.00038862586
-4.91e-41 -3.5039258e-09 1.0574033e-06 0.000181088 7.468712e-39 0.033660773 1.2805593e-37 5.0262e-41
-4.9436e-41 -3.0577995e-36 0.00052725145 4.9181e-41 4.9509e-41 7.3192844e-23 9.8047343e-26 -4.9375e-41
-1.9165108e-12 1.2901686e-13 0.034114987 -4.9923e-41 -4.9087e-41 -2.8976e-41 -5.3666e-41 -5.4122e-41
2.1032185e-17 4.0634424e-20 -7.6799873e-35 -4.9097e-41 2.0365309e-26 -4.9184e-41 5.0763e-41 5.4516e-41
9.136722e-30 -3.193239e-05 4.840974e-14 -0.00012127438 -2.738375e-07 7.879472e-24 -3.690825e-12 -1.0120193e-36
7.430089e-30 -3.187427e-21 1.33786794e-17 8.5357136e-20 4.953218e-19 -7.085565e-10 -1.4808073e-38 -3.3695524e-06
-0.0010652512 -4.9329e-41 1.6910374e-06 0.000490838 4.962e-41 -5.1337e-41 2.3405732e-13 3.5919636e-33
1.6676526e-09 -1.4577884e-06 -4.9658e-41 -4.9109e-41 -2.0953375e-05 2.61659e-40 -2.1907157e-05 -2.3707417e-10
-4.9099e-41 7.1145e-05 -1.724557e-22 4.9087e-41 -3.80109e-40 -3.0913635e-16 -5.3779e-41 -2.7579237e-14
4.901049e-29 2.0968652e-18 2.2775011e-29 0.0015912425 2.8822726e-08 4.9307e-41 4.873935e-27 8.6093346e-19
-0.00067132385 -4.9564e-41 -4.932e-41 4.9242e-41 -1.1572578e-12 -4.8610504e-24 -4.9069e-41 -1.189865e-38
-9.5130767e-17 2.1997778e-15 -4.9341e-41 -4.9686e-41 4.9177e-41 1.09726525e-05 -3.3977067e-24 1.881186e-39
-4.9079e-41 3.9496375e-35 -1.3703291e-06 2.506044e-09 -4.9247e-41 4.9736e-41 -4.9124e-41 5.0801e-41

deep.2.weight f4 [64, 512]
00000000: 4ba1 0b00 0689 0000 cc37 241c 1395 0000
00000010: 0200 1487 09fe 0280 068a 0080 a07b 8984
00000020: 9989 0000 488a 0080 cf8c d184 3789 0000
00000030: 0c89 0000 19a3 a510 c260 828d d089 0080
00000040: e888 0080 bd88 0000 6889 0080 eaaa 0080
00000050: 8d22 918c 17a0 0100 c16c 9119 568b 0000
00000060: 1189 0080 2b89 0080 bafe 8017 6d66 8011
00000070: 258c 3ba8 01c2 0c80 0c89 0000 f115 341d
00000080: f589 0080 c488 0080 19c8 6e0c a7ad 0000
00000090: 2b98 839d d4a6 0080 dd8c 0080 24b4 998e
000000a0: 9630 6090 2859 b8a6 078b 0080 a493 0000
000000b0: 599c f990 5a89 0080 51c3 07a7 5e89 0000
000000c0: dc76 0280 e089 0000 0302 9114 ec9d 90a1
000000d0: 1490 0000 ef89 0080 3c0c 0080 6799 0080
000000e0: 488c 0080 ff56 02a7 7e21 0d00 5d72 0000
000000f0: 5f5d 0000 08a9 0000 0f89 0080 356f 7c95
00000100: 4c4d 9209 db88 0000 568a 0080 3770 1693
00000110: 478d 0000 ca88 0080 6689 0080 09b6 e090
00000120: b38e 0080 5dcc 1d18 8d89 0080 c588 0000
00000130: 958b c797 e688 0000 5386 2aa8 0b8a 0000
00000140: 118a 0080 2b89 0080 b1f9 0180 6d53 088f
00000150: bf89 0000 fc87 b304 20ac b4a7 52a2 4212
00000160: e765 b195 3389 0080 0f89 0000 8089 0080
00000170: f863 b986 c7a5 0000 f1ed 808f 878a 0000
00000180: 1a46 2982 5e00 4694 9189 0080 f5a5 0080
00000190: 6106 0680 fb8c 0100 7c8e 0000 715e 05a1
000001a0: 5f92 0080 579d 0000 218a 0000 909d 0080
000001b0: 678e 0080 3f89 0000 8850 0193 aeaa 0000
000001c0: d065 7e10 b6af 0000 e189 0000 0338 5026
000001d0: 0d89 0080 b489 0080 3389 0080 ffd0 5d8b
000001e0: 819a 0080 fb47 0ba0 5f89 0000 4a89 0080
000001f0: 3b90 0000 1d89 0000 129a e9a8 eb83 0180
00000200: 2069 18a6 478a 0000 019e d8a8 b089 0000
00000210: 9ba4 3700 7f7c 0080 be88 0080 6d89 0080
00000220: cf88 0080 bc3e 17a9 53d5 0180 3caa 0400
00000230: 4189 0080 c288 0080 2789 0000 73a8 f387
00000240: e40f 2d10 f68a 6d28 5489 0080 d8fc 0080
00000250: a19c 0000 6a89 0080 298a 0000 0da2 e1a8
00000260: dd9e 0080 f1e6 d687 ecb2 2a9b 2cb9 d41f
00000270: 846a 0080 033f 80a8 72a3 0000 8389 0080
00000280: 0b94 0000 de8b 0000 ee25 cba6 d989 0000
00000290: 978f 0080 df88 0080 5f90 0000 e98a 0080
000002a0: b25c 7f96 ad4e ab13 3a02 a7a6 0889 0000
000002b0: bc88 0080 dd88 0000 719b 0000 3d96 0000
000002c0: f583 fd89 b68e 5081 7e99 0080 0d89 0000
000002d0: 8ba3 0000 4a11 0380 d388 0000 3e8a 0080
000002e0: c78f 0080 f971 52a1 474c 2110 1343 4a22
000002f0: a77e cb0d 6bbe 1600 42c3 3c89 248d 0000
00000300: 158a 0080 ed34 1687 728f 8587 3aa7 af0a
00000310: ccfd ef89 8289 0080 1192 0000 550f e09f
00000320: ebae 58a8 008a 0000 34c4 1f9b 3db7 f4a6
00000330: 08af 0080 a29c 0080 bfa2 1007 229a 0080
00000340: 409d 3d12 8828 7f16 5b90 0080 fe97 0000
00000350: 3580 14a4 1e89 0080 b5bf f98d fd88 0080
00000360: ced1 0080 7fce 0d93 91bb 3702 9889 0080
00000370: 509a 0000 cfcd 0d0d 2f97 0000 23d0 7004
00000380: 1c8b 0080 63f9 b489 d788 0080 ae94 2d28
00000390: 088a 0000 8689 0080 d18e 0000 ef7e 2488
000003a0: 4d57 8ca8 85b9 0100 f288 0080 4c89 0000
000003b0: f81c e791 f421 d404 ee88 0080 d9fe 0180
000003c0: 7ddd a802 9911 db0d b089 0080 d289 0080
000003d0: 7989 0080 8737 9fa4 1389 0080 198a 0080
000003e0: 2689 0000 cd88 0080 9a1b 1b11 87c5 8e12
000003f0: ed88 0080 f988 0000 eb91 0000 f08d 0000
1.068051e-39 4.9155e-41 5.4335164e-22 5.3478e-41 -1.1134285e-34 -2.74802e-40 -4.9513e-41 -3.2322077e-36
4.9361e-41 -4.9606e-41 -4.9264976e-36 4.9223e-41 4.9163e-41 6.5332316e-29 -8.035162e-31 -4.9438e-41
-4.9113e-41 4.9052e-41 -4.9292e-41 -6.1312e-41 -2.2361582e-31 1.49265e-40 1.5036574e-23 4.9984e-41
-4.917e-41 -4.9207e-41 8.336108e-25 2.0257964e-28 -1.0410974e-14 -1.171621e-39 4.9163e-41 2.3834145e-21
-4.949e-41 -4.9062e-41 1.8395068e-31 6.2295e-41 -3.483275e-21 -5.9847e-41 -5.0532e-41 -3.789088e-30
-4.421364e-29 -1.2791731e-15 -4.9874e-41 5.2963e-41 -9.8454074e-29 -4.9272e-41 -1.8840895e-15 4.9278e-41
-2.2631e-40 4.946e-41 1.4642052e-26 -9.799621e-19 5.1685e-41 -4.9481e-41 -4.389e-42 -5.503e-41
-5.0323e-41 -1.8088285e-15 1.205876e-39 4.1026e-41 3.3495e-41 6.0637e-41 -4.9167e-41 -5.0978722e-26
3.522091e-33 4.9094e-41 -4.9626e-41 -1.8987988e-27 5.0681e-41 -4.907e-41 -4.9289e-41 -8.863289e-29
-5.1191e-41 2.0394951e-24 -4.9344e-41 4.9064e-41 -1.2895309e-24 4.911e-41 -9.466023e-15 4.952e-41
-4.9529e-41 -4.9207e-41 -1.81408e-40 -6.721385e-30 4.9414e-41 4.220758e-36 -5.0146654e-15 6.141568e-28
-7.1650504e-26 -4.9218e-41 4.9167e-41 -4.9326e-41 -6.9736156e-35 5.947e-41 -1.2713426e-29 4.9694e-41
-1.2436277e-37 -9.996518e-27 -4.935e-41 -5.9534e-41 -5.53301e-40 1.4241e-40 5.1114e-41 -4.5187145e-19
-5.2508e-41 5.6443e-41 4.9551e-41 -5.6523e-41 -5.1084e-41 4.9235e-41 -1.6321794e-27 6.1228e-41
5.01711e-29 6.3033e-41 4.9462e-41 7.2240407e-16 -4.9165e-41 -4.9399e-41 -4.9218e-41 -4.2720283e-32
-5.5426e-41 -1.1797574e-19 4.928e-41 -4.925e-41 5.174e-41 4.9187e-41 -2.5935014e-14 -1.39159e-40
-5.2878065e-16 4.9605e-41 -2.404934e-14 4.9393e-41 5.110002e-39 -4.4661e-41 -4.9054e-41 -4.9299e-41
-4.9078e-41 -3.358315e-14 -1.68362e-40 4.2841e-40 -4.9237e-41 -4.906e-41 4.9201e-41 -3.6661582e-34
3.4130476e-29 1.3186275e-14 -4.9264e-41 -9.0703e-41 5.6188e-41 -4.9295e-41 4.9563e-41 -2.5050296e-14
-5.699e-41 -3.2334876e-34 -1.4119883e-22 9.0091834e-20 -3.821e-41 -1.4238182e-14 5.8633e-41 -4.933e-41
5.3108e-41 5.0175e-41 -1.4096235e-15 4.945e-41 -5.151e-41 -4.91e-41 5.179e-41 -4.9832e-41
-2.0627985e-25 4.324405e-27 -1.1588556e-15 4.9158e-41 -4.9051e-41 4.9097e-41 5.5762e-41 5.3895e-41
-6.1031626e-33 -3.8305956e-38 -5.5063e-41 4.9165e-41 5.8668e-41 -2.81709e-40 4.9083e-41 -4.9592e-41
-5.1578e-41 -7.130161e-19 3.1810413e-29 2.7411614e-18 1.2541331e-30 2.08869e-39 -2.2721487e-33 5.0632e-41
-4.9534e-41 -1.1300299e-34 -2.0095925e-34 1.691479e-32 -5.7775827e-33 -4.9329e-41 5.2399e-41 -9.4893055e-20
-1.2028338e-14 4.9505e-41 -1.3215568e-22 -1.6980568e-15 -6.279e-41 -5.6189e-41 1.0881183e-34 -5.5292e-41
5.983171e-28 2.0611525e-25 -5.1785e-41 5.4525e-41 -3.220098e-17 -4.9188e-41 -1.5391962e-30 -4.9142e-41
-7.5264e-41 -1.7898512e-27 1.3498546e-37 -4.936e-41 5.5357e-41 4.3696713e-31 5.4234e-41 2.8307436e-36
-4.9903e-41 -4.3567946e-33 -4.9089e-41 9.635669e-15 4.9516e-41 -4.9334e-41 5.1233e-41 -4.9501165e-34
-1.5580983e-14 1.58387e-40 -4.9127e-41 4.9253e-41 -3.6463227e-28 4.987214e-36 -4.9121e-41 -1.83258e-40
2.481251e-37 1.3501154e-30 -4.9393e-41 -4.944e-41 -4.9316e-41 -6.9049325e-17 -4.9173e-41 -4.954e-41
4.92e-41 -4.9075e-41 1.223585e-28 9.010154e-28 -4.912e-41 4.9137e-41 5.2346e-41 5.0918e-41

deep.2.bias f4 [64]
00000000: 93ca b1a8 9b8c 87b6 e33c c238 4a20 3dbb
00000010: 7b46 a5b9 4bac 7abb 3001 3c2f 6d56 5fbb
00000020: 80b2 b0b5 4a79 cfa5 a272 8e33 b790 0a00
00000030: 5556 daac 79f8 2a3d 8304 58bb 52a5 2bb2
00000040: eb58 f13c 3cdc 3017 de59 853b 9bcc fbb4
00000050: 4df6 1b1e 97ba 3f29 9f77 f313 6349 5cbb
00000060: 6a6f 3f85 803f d09d fd86 75bb c31a cdbb
00000070: dac7 1eb8 c222 31b6 3be7 603d 676a 83a5
00000080: 3558 06bb 7ff8 63a8 568a 0000 d552 f8b5
00000090: ee1b 16b8 e484 10a5 f82c a03d 65bd 652d
000000a0: 99da 64a2 397c 0403 4e16 5032 8117 39b8
000000b0: 1944 8123 2bb2 14b2 65ba e5b3 9af1 1cb1
000000c0: 0472 28ba 062c 20b7 dcd7 a6b8 4335 ad27
000000d0: 464b 923d df69 b3b7 1816 64a7 11ce d19d
000000e0: 3930 1498 c8c4 b19a c643 e5b8 7d50 c69c
000000f0: 6b8a 0000 20fa 9318 f93a b0bb da07 c12e
-1.97388e-14 -4.039682e-06 9.261982e-05 -0.0028858357 -0.00031523764 -0.0038249667 1.7098922e-10 -0.0034078613
-1.3164972e-06 -3.5990965e-16 6.633242e-08 9.70269e-40 -6.2055174e-12 0.04174087 -0.0032961674 -9.9910995e-09
0.029461345 5.714664e-25 0.004069551 -4.6901263e-07 8.2565655e-21 4.257236e-14 6.145978e-27 -0.0033613078
-9.0012404e-36 -5.51228e-21 -0.0037464492 -0.0062592938 -3.785626e-05 -2.6395287e-06 0.05490802 -2.2796979e-16
-0.0020499353 -1.2654915e-14 4.9626e-41 -1.8501547e-06 -3.57888e-05 -1.2535034e-16 0.07821077 1.3059197e-11
-3.1015487e-18 3.8933914e-37 1.2112265e-08 -4.4129327e-05 1.4015049e-17 -8.6552445e-09 -1.06975484e-07 -2.2838322e-09
-0.0006425681 -9.546993e-06 -7.955704e-05 4.8074892e-15 0.071432635 -2.1387763e-05 -3.1653333e-15 -5.5534907e-21
-1.9152898e-24 -7.35234e-23 -0.00010932195 -1.3123347e-21 4.9655e-41 3.825117e-24 -0.005378124 8.7780186e-11

deep.4.weight f4 [32, 64]
00000000: 188e 5229 7346 e6b6 d604 5bb7 31aa 053d
00000010: 8772 4f38 ca8e cf3c 51ce 4a31 1415 113d
00000020: bc91 3437 9a11 b622 e437 3c35 3515 1280
00000030: 9d62 a4a9 c994 923d 828a 3c3d 60fa 1331
00000040: a92c 2b3d 2cf9 6d16 1046 b03d a1c3 0db6
00000050: 6e9f 34a0 03ae ff30 e19d 0e13 c24b 293d
00000060: 4648 ba85 3021 0323 8ea4 303d 104b b13d
00000070: 1e0b 2536 fcfd 75b9 6cbd b33d 85f0 9fa4
00000080: 26c3 963b ad1b 2aaa a858 d225 4cc9 f734
00000090: a019 5c36 8498 37a6 b41d 0d3e cc29 762c
000000a0: 2a28 4522 d0bc 351d e73f 01b1 a5af 3a39
000000b0: 53c9 09af 70ff 11af 2472 1535 fdb1 fb30
000000c0: 2283 0238 58ec 0337 f28a 7138 ba5a 50a7
000000d0: 3580 f63d c604 fc36 fd78 1ba7 c288 28a7
000000e0: a5c9 d2a3 a366 5a1b 331d 8338 6c75 212b
000000f0: f389 0000 cb33 bf20 0489 1e3d 96ad f3ae
00000100: d9d3 8017 50ee 35ae 9cb9 d8a1 12ab 88b0
00000110: a2f0 fcaa 6fea 1bb1 dd78 c518 da09 06af
00000120: 8a25 eb22 df33 321d f40d 38a5 328a 0080
00000130: 5e8f 0000 b762 11b1 8e39 d72e 83ce 0b23
00000140: 2595 fab1 2096 ff0d 7e67 edb1 c853 a3a5
00000150: 0178 0280 2530 3e9a a8c2 3084 ec81 862f
00000160: b989 4082 bec1 161a f827 9c2f a78d eab1
00000170: 0ef3 c4aa bfaa a791 98ae 4131 4023 3a93
00000180: 9e53 a7b0 1a9d 851e 328e 0080 c3f9 df26
00000190: 22b5 5a2b d849 b698 91e4 0530 a36f 0393
000001a0: e9d2 068e 9193 0000 2556 8728 01bf 44a2
000001b0: e397 091d 8078 3126 a900 cd1e 7f65 c625
000001c0: 2575 0aa5 a55f 882b 9a0e 0aa9 13e6 501b
000001d0: 5492 c830 115b f4ac b8d1 e09a cbcb cb0f
000001e0: f43a 0f86 f46a f784 7c58 d725 7e30 8d16
000001f0: aa9c 0080 d6db 1895 b60d c12e 32c5 e925
00000200: 59f6 0529 cebc 3ab7 6668 b8b7 b311 2d3d
00000210: 40de be38 5d31 033d ea1b 8c31 9326 333d
00000220: 0f0e 4737 e6e7 aea3 347b 4835 863e 0f80
00000230: dd7c 3b2c f1df 843d d015 713d 03f9 44b1
00000240: bded 433d 6364 6398 38e1 d33d 1d14 8eb4
00000250: c48c aba0 7e72 4033 eb2b 1e94 a42d 593d
00000260: b0bd 6297 6189 092a 411e 603d 1e3b c83d
00000270: 81cc 94b6 ae2e 01ba e755 dc3d c5e9 d325
00000280: 4c60 c83b 8b48 10ab 1f48 cd31 8e76 e1b6
00000290: c961 b1b8 8396 afa6 2af1 c43d 1367 d4ab
000002a0: 59c0 7ba4 ddfc bd2a 4b3f 01b2 477a 093a
000002b0: d5f1 4fb1 b8ef 57b4 428b 7135 e26e a930
000002c0: 54d1 00b8 6963 ef37 8fd9 8d38 776d c1a7
000002d0: 9236 143e 753e 2236 b55d 9fa6 3989 daad
000002e0: 498e c2a8 b48a 771b aab2 8238 5f99 852f
000002f0: aa14 6281 8f3a 1421 b350 4d3d ed02 05b1
00000300: 5fbc 1a29 3579 68b7 c528 0bb8 7659 493d
00000310: 6c7e 1139 efc0 283d 19db a431 f394 4e3d
00000320: 47e6 6a37 4711 3aa7 58fc 5735 c088 0200
00000330: 7d44 0fac d419 d23d 620b 5f3d be3d 0db2
00000340: 1d40 803d c1c0 d698 51f7 ec3d f7df 1b35
00000350: 205c cea0 6f1f 8f34 b1aa 9194 8ef0 663d
00000360: ac30 d898 b8b2 992d 6cc7 813d 0f0d f83d
00000370: c0ba 4cb6 c1c7 42ba b13a ce3d 28b3 e425
00000380: e4ca 2d3c 9d07 22ab cac1 b2b1 b5e5 2db7
00000390: 07e3 11b8 ee6e 9ca6 cad0 3b3e 246c aaab
000003a0: 82db 8fa4 2a16 7b2b f2a2 21b2 c18b 153a
000003b0: 4592 a9b0 6446 80b5 7900 8a35 72bc c130
000003c0: 6d96 83b8 1f0e f737 1470 bb38 0c6c e9a7
000003d0: 4ff4 2d3e 1534 c635 8661 b4a6 24a9 e9af
000003e0: 895d acaa 7993 891b 9699 5d38 40cf ad31
000003f0: b338 f184 ac16 2e21 31b0 643d a0fb a3af
4.6752614e-14 -6.8627355e-06 -1.3054543e-05 0.03263301 4.9459308e-05 0.025336642 2.9512146e-09 0.035420492
1.07627675e-05 4.9349835e-18 7.011679e-07 -1.660647e-39 -7.30017e-14 0.07157285 0.04603053 2.1533637e-09
0.041790638 1.9223332e-25 0.08607113 -2.1124508e-06 -1.5299344e-19 1.8603149e-09 1.800076e-27 0.041332014
-1.7517905e-35 7.108552e-18 0.04312568 0.08656895 2.4593387e-06 -0.00023459637 0.08776364 -6.9362714e-17
0.0046009 -1.5108635e-13 3.648927e-16 4.6153798e-07 3.279747e-06 -6.3697576e-16 0.13780862 3.4981905e-12
2.6719741e-18 2.4052764e-21 -1.8808295e-09 0.00017803775 -1.2531602e-10 -1.3278423e-10 5.567292e-07 1.8313241e-09
3.1116542e-05 7.8632365e-06 5.758828e-05 -2.8914982e-15 0.12036172 7.510741e-06 -2.157616e-15 -2.338882e-15
-2.2853645e-17 1.8065701e-22 6.2520056e-05 5.7361646e-13 4.9487e-41 3.2390932e-19 0.038704887 -1.1081196e-10
8.325284e-25 -4.13663e-11 -1.468586e-18 -9.943923e-10 -4.4931165e-13 -2.2688729e-09 5.1045347e-24 -1.2190729e-10
6.3736624e-18 2.358492e-21 -1.5964183e-16 -4.9575e-41 5.143e-41 -2.115639e-09 9.787292e-11 7.578936e-18
-7.2929134e-09 1.575173e-30 -6.9093735e-09 -2.8332765e-16 -2.2672e-40 -3.932997e-23 -2.0778082e-36 2.4466773e-10
-1.4145457e-37 3.1175777e-23 2.8404634e-10 -6.8264003e-09 -3.4985247e-13 -2.6453185e-28 2.8184441e-09 -2.349388e-27
-1.2174615e-09 1.4146898e-20 -5.101e-41 1.5541431e-15 7.770053e-13 -4.712046e-24 4.870993e-10 -1.6589566e-27
-1.6618325e-30 5.2937e-41 1.502537e-14 -2.666407e-18 1.8210323e-21 6.157252e-16 2.1705492e-20 3.44163e-16
-1.2009282e-16 9.689928e-13 -3.065482e-14 1.7279698e-22 1.4593504e-09 -6.9450075e-12 -9.298305e-23 2.0095844e-29
-2.6938623e-35 -5.8167642e-36 3.7356514e-16 2.2810381e-25 -5.62e-41 -3.0869576e-26 8.7790594e-11 4.0552682e-16
2.9745605e-14 -1.1130423e-05 -2.1983124e-05 0.042253207 9.101303e-05 0.0320295 4.0777097e-09 0.04373796
1.1864598e-05 -1.896333e-17 7.468509e-07 -1.399962e-39 2.6643611e-12 0.06488026 0.058858693 -2.86633e-09
0.047834147 -2.9389745e-24 0.103456914 -2.6464195e-07 -2.9061678e-19 4.4807614e-08 -7.985623e-27 0.053022042
-7.326396e-25 1.2215707e-13 0.054716352 0.09776901 -4.434551e-06 -0.0004927915 0.10758572 3.6761074e-16
0.006114995 -5.125975e-13 5.9744845e-09 -6.719324e-06 -8.4582316e-05 -1.2183861e-15 0.09616311 -1.5092115e-12
-5.4589874e-17 3.3748603e-13 -7.523179e-09 0.0005244356 -3.025993e-09 -2.0110645e-07 8.9982143e-07 1.2327883e-09
-3.071253e-05 2.8537312e-05 6.7639274e-05 -5.3686943e-15 0.14473942 2.4176236e-06 -1.1058241e-15 -2.484467e-11
-2.1600033e-14 2.0476179e-22 6.232162e-05 2.4301536e-10 -4.152447e-38 5.022185e-19 0.05012579 -1.935571e-09
3.4358255e-14 -1.3856498e-05 -3.3178152e-05 0.049157582 0.00013875373 0.04119962 4.7979367e-09 0.050435018
1.40011025e-05 -2.5822051e-15 8.046095e-07 2.32728e-40 -2.035954e-12 0.102588326 0.054454215 -8.221319e-09
0.06262229 -5.5512335e-24 0.11570609 5.806791e-07 -3.495872e-19 2.6658697e-07 -1.4708584e-26 0.056381755
-5.5883837e-24 1.7473453e-11 0.06336865 0.12111866 -3.0507072e-06 -0.00074302783 0.10069788 3.9673096e-16
0.010607455 -5.7564527e-13 -5.202513e-09 -1.0365086e-05 -3.478213e-05 -1.0854742e-15 0.18341365 -1.2109242e-12
-6.2388225e-17 8.920387e-13 -9.408483e-09 0.0005704724 -1.2337941e-09 -9.55723e-07 1.0281939e-06 1.4096158e-09
-6.274586e-05 2.945127e-05 8.937731e-05 -6.4787636e-15 0.16987728 1.4767307e-06 -1.2516443e-15 -4.2502635e-10
-3.061824e-13 2.276005e-22 5.2833544e-05 5.0585243e-09 -5.6710898e-36 5.89835e-19 0.05583209 -2.9828318e-10

deep.4.bias f4 [32]
00000000: cff8 cb3c 302d 1eb3 fd35 053d 417c 263d
00000010: 46b4 a83c cc88 0080 fa27 0e3d d57e b43c
00000020: 40ab 153d 4ef4 9bb8 d78c 0080 1e25 b5b6
00000030: 0824 6fb5 2628 9a27 2d2a 093d 8032 e3b0
00000040: 9969 36ae dde0 dc3c 835e dfba 26a0 333d
00000050: 9cbf 6d36 7629 2a3d 5e90 132a 6b94 3ab8
00000060: 03e9 1224 42c2 d4a6 479b 0cad d139 0eb9
00000070: 3b0c c9b6 55f2 183d dbbe 053d 0d7b 37b9
0.024898915 -3.682834e-08 0.03252219 0.04064584 0.020593774 -4.9073e-41 0.034706093 0.022033134
0.03654027 -7.436481e-05 -5.0524e-41 -5.3985414e-06 -8.908687e-07 4.2787115e-15 0.033487488 -1.6530777e-09
-4.14758e-11 0.026962692 -0.0017041716 0.0438539 3.5427283e-06 0.041543446 1.310631e-13 -4.448408e-05
3.1856072e-17 -1.4763109e-15 -7.992557e-12 -0.00013563714 -5.9916906e-06 0.03734048 0.032652717 -0.0001749808

output.weight f4 [1, 34]
00000000: 6281 08bd 9573 c1b9 f97b 48be 91f1 3334
00000010: 3cf0 6dbe 2f15 88be d011 31be f48a 0080
00000020: 36cd 7abe a5bc 38be 98b9 84be 2025 093d
00000030: 8f8a 0080 5ceb 3ab8 7396 1d37 b537 0329
00000040: 681f 73be 14ec 63b2 53ea caaf 920d 53be
00000050: 3c00 5d3c 63c2 8bbe 2563 7ab7 f4b6 8fbe
00000060: 77c1 152c 8c53 67b7 6892 7526 f083 9326
00000070: 83f5 89ae 5148 2ab9 b323 65b4 9073 88be
00000080: fec7 75be 046b c53a
-0.033326514 -0.00036897944 -0.19578542 1.6758555e-07 -0.23236173 -0.26578662 -0.17291951 -4.9847e-41
-0.24492344 -0.18040712 -0.25922847 0.03348267 -4.9705e-41 -4.456505e-05 9.392958e-06 2.913616e-14
-0.2374245 -1.3266817e-08 -3.6910083e-10 -0.20610645 0.013488825 -0.27296743 -1.4924245e-05 -0.2806927
2.1281568e-12 -1.3788125e-05 8.519987e-16 1.0235936e-15 -6.2736503e-11 -0.00016239403 -2.1340274e-07 -0.26650667
-0.24002072 0.00150618
