Results/DCN/20250115_205331_batch1024_epoch10_lr0.01_reg0.0005_cross16_DCN/treatment_dcn.pth (torch, 182886 bytes, 39 tensors)

cross_network.cross_weights.0.weight f4 [1, 13]
00000000: d50b 53bb 9848 ec3b 67d7 76ba bb0b aabc
00000010: a04f 88ba 95cd a5bc fb46 87bc 5262 b93b
00000020: 2995 c9bb 1ea8 893c c630 153b 9845 a2bc
00000030: f410 f03b
-0.0032203097 0.0072108023 -0.0009416253 -0.020757547 -0.0010399707 -0.02023963 -0.016513338 0.0056574726
-0.0061518145 0.016803797 0.0022764667 -0.019808576 0.0073262397

cross_network.cross_weights.1.weight f4 [1, 13]
00000000: 0a22 47bb accb af3b 8cb9 90b9 42f0 9bbc
00000010: 3027 23bb 4d25 9ebc 0619 7fbc e3a6 5b3b
00000020: ba57 0abc 2bd7 8e3c fb96 4eba 67c6 a0bc
00000030: 6c0b 003c
-0.003038528 0.0053648558 -0.00027604064 -0.019035462 -0.0024895184 -0.019304896 -0.015569931 0.003351622
-0.008443767 0.017436584 -0.0007880774 -0.019625856 0.007815223

cross_network.cross_weights.2.weight f4 [1, 13]
00000000: ef9e 44bb 41e6 203b 693b 7fb9 ebb4 91bc
00000010: 14fc c3bb 0b5a 99bc cf36 74bc e236 9c3a
00000020: 7e99 2abc 9797 743c e609 61bb eb1b a1bc
00000030: bb2e f23b
-0.0030001958 0.0024551305 -0.00024340827 -0.017786464 -0.005980978 -0.018719694 -0.0149056455 0.0011918212
-0.010412572 0.01492872 -0.0034338175 -0.019666633 0.0073908246

cross_network.cross_weights.3.weight f4 [1, 13]
00000000: 342a 4bbb 63d7 cb3a 75fb 44ba f3f6 8bbc
00000010: 5a75 ebba 636e 98bc 2b94 6fbc f57c 35ba
00000020: a5d8 45bc 7a74 463c 1db6 b0bb c884 a4bc
00000030: af74 cd3b
-0.0031000497 0.0015551861 -0.00075142767 -0.017085528 -0.0017964051 -0.018607324 -0.014622728 -0.0006923222
-0.012075578 0.012112731 -0.0053928033 -0.020082846 0.0062700133

cross_network.cross_weights.4.weight f4 [1, 13]
00000000: 6b97 5bbb e6d6 1c3b 0e99 deba 908d 8bbc
00000010: 9e7e 943a 3d86 9cbc 1564 73bc 3dcc 0fbb
00000020: 9ea4 5cbc 5900 133c c055 d9bb 8e60 acbc
00000030: 1a17 983b
-0.0033507 0.00239318 -0.001698287 -0.017035276 0.0011329239 -0.019106979 -0.014855404 -0.0021941804
-0.013466982 0.008972251 -0.0066325366 -0.021042135 0.004641426

cross_network.cross_weights.5.weight f4 [1, 13]
00000000: 8e9c 7bbb 5593 423b 7964 44bb d51f 92bc
00000010: c67c 633a 0b75 a7bc 28b6 81bc 7cd2 4abb
00000020: b5ff 6fbc df68 5a3b e236 e6bb 0db8 babc
00000030: 9637 243b
-0.0038392874 0.0029689868 -0.0029967113 -0.017837444 0.00086779555 -0.020441553 -0.01583393 -0.0030948212
-0.014648368 0.0033326668 -0.0070255855 -0.02279284 0.0025057546

cross_network.cross_weights.6.weight f4 [1, 13]
00000000: 65ea 9bbb 0f35 a93a eeac 95bb 83fa a2bc
00000010: beb1 54bb 7a2f bcbc 263c 93bc 1f9f 46bb
00000020: dc0b 80bc 952d 75bb 72f0 e9bb 7d44 d2bc
00000030: 1705 d5b9
-0.0047581666 0.001290949 -0.004567734 -0.019894844 -0.0032454575 -0.022971857 -0.017973017 -0.0030307246
-0.015630655 -0.0037411202 -0.007139259 -0.025667423 -0.00040630318

cross_network.cross_weights.7.weight f4 [1, 13]
00000000: 9621 d5bb 8074 2fba a729 d5bb b191 c5bc
00000010: cdd5 4abc 97d2 e0bc 37e3 b4bc 4e48 d3ba
00000020: a19b 85bc 84c8 3ebc 4af3 06bc f5c7 f7bc
00000030: 0680 95bb
-0.006504248 -0.000669308 -0.0065052095 -0.024117323 -0.012380076 -0.027444167 -0.022081 -0.0016119571
-0.016309561 -0.011644486 -0.008236716 -0.030246714 -0.0045623807

cross_network.cross_weights.8.weight f4 [1, 13]
00000000: 243c 22bc 37b6 48ba d1cd 1bbc 23d6 03bd
00000010: 5fd2 eebc e16e 10bd 76b3 f1bc 3529 a13a
00000020: 08e0 84bc 6c32 a8bc cec3 3ebc e46b 1abd
00000030: 3152 30bc
-0.009902034 -0.00076565467 -0.00950952 -0.03218664 -0.029153047 -0.035261992 -0.029504519 0.0012295606
-0.016220108 -0.020531856 -0.011643363 -0.03770055 -0.010761783

cross_network.cross_weights.9.weight f4 [1, 13]
00000000: 8fc3 89bc 859a 5bb8 44f9 7dbc 538d 3ebd
00000010: 3475 75bd 3f21 47bd 9a1c 2cbd 93a6 9e3b
00000020: d1b3 5bbc 1241 03bd 4739 9abc e2a7 4ebd
00000030: 2f66 adbc
-0.016816882 -5.2357576e-05 -0.015501324 -0.046521496 -0.059926227 -0.04861569 -0.042019464 0.0048416345
-0.013409571 -0.032044478 -0.01882614 -0.050453074 -0.021166889

cross_network.cross_weights.10.weight f4 [1, 13]
00000000: 9841 05bd 3b42 9a39 5645 f7bc 6873 8fbd
00000010: 3cc2 fabd 0fb6 8ebd def8 78bd 818f e83b
00000020: 9646 333a 98a2 54bd 0f58 07bd b493 90bd
00000030: 5758 31bd
-0.03253326 0.00029422514 -0.03018443 -0.07004434 -0.122440785 -0.06968319 -0.060784213 0.007097185
0.0006838826 -0.051912874 -0.033042964 -0.07059422 -0.043297138

cross_network.cross_weights.11.weight f4 [1, 13]
00000000: c7a8 7bbd 97e8 e4ba 3d6f 6fbd 5c61 b8bd
00000010: 0828 72be 58e9 a5bd b82c 8dbd 4814 f03a
00000020: ec21 5e3d cbb1 abbd c393 74bd 46c9 9abd
00000030: c1f4 b3bd
-0.061440255 -0.0017464337 -0.058455694 -0.09002945 -0.23648083 -0.081011474 -0.06893295 0.0018316591
0.05423157 -0.08383521 -0.05971123 -0.07557921 -0.087869175

cross_network.cross_weights.12.weight f4 [1, 13]
00000000: dfed 89bd 556b a6bb 8687 94bd 4ed8 41bd
00000010: b3dd 9abe f33a a4bc d83b 58bc 8ca0 78bc
00000020: 6f7f 193e 9cbb b7bd 6219 b6bd 612e 0ebc
00000030: c37e ecbd
-0.067348234 -0.005078713 -0.072524115 -0.047325425 -0.30247268 -0.02004764 -0.013197862 -0.015174996
0.14990018 -0.089713305 -0.0889156 -0.00867805 -0.115476154

cross_network.cross_weights.13.weight f4 [1, 13]
00000000: f804 4ebd db93 1ebc fe1f 98bd 92cd 6c3c
00000010: 566e 90be af64 703d d74e 733d 0be7 1ebd
00000020: 03ac 613e 63ee 72bd 9e6f e5bd efc7 953d
00000030: e694 dabd
-0.050297707 -0.009678806 -0.07427977 0.014453309 -0.2820918 0.05868977 0.05940136 -0.03879456
0.22038274 -0.059309375 -0.1120293 0.07313525 -0.106729314

cross_network.cross_weights.14.weight f4 [1, 13]
00000000: 585d f7bc 1c60 6ebc 289e 93bd ac65 7c3d
00000010: 3a0a 63be 3a41 ef3d 5997 e63d 7571 67bd
00000020: 8382 7f3e 36a8 70bc 6cf6 f8bd 7748 043e
00000030: bc3a 9ebd
-0.030195877 -0.014549281 -0.072079 0.0616204 -0.2217187 0.11682363 0.11259336 -0.056504685
0.2495213 -0.014688542 -0.12156376 0.12918268 -0.077260464

cross_network.cross_weights.15.weight f4 [1, 13]
00000000: 7034 62bc 9c2b 92bc 05f6 8cbd 4598 be3d
00000010: c196 1bbe 6296 1d3e 2402 163e 971b 87bd
00000020: 45c1 813e 24c7 983c 84be f7bd 739d 223e
00000030: 4c3e 3bbd
-0.013806447 -0.01784306 -0.06882862 0.09306387 -0.15194227 0.15389398 0.14649254 -0.06597059
0.25342765 0.018649645 -0.12096885 0.15880375 -0.045713708

cross_network.cross_biases.0 f4 [13]
00000000: e696 22bd 9687 1fbc 8cd8 5abd 4058 50bd
00000010: be2b 35be 0767 ecbc b92c e6bc da30 6abc
00000020: 5437 983d 5e58 5bbd b1b1 50bd 87ac a9bc
00000030: 761a 81bd
-0.03969469 -0.009736916 -0.05342917 -0.05086541 -0.17692468 -0.028857721 -0.028097497 -0.014293874
0.07432428 -0.05355107 -0.05095071 -0.02071215 -0.06303875

cross_network.cross_biases.1 f4 [13]
00000000: 3d22 22bd 309c 1cbc 8416 59bd ea2b 4cbd
00000010: 2cc7 35be 37c7 e2bc aec5 dcbc e549 6fbc
00000020: 01ff 993d d18e 59bd 2218 51bd 6c0b a5bc
00000030: 20e2 81bd
-0.039583433 -0.009558722 -0.05299999 -0.049846567 -0.1775176 -0.027682884 -0.02694973 -0.01460502
0.07519341 -0.053114716 -0.051048405 -0.020147048 -0.06341958

cross_network.cross_biases.2 f4 [13]
00000000: a7d7 21bd 6644 1abc 68ad 57bd a6a1 47bd
00000010: 05c5 36be cf4d d8bc e6aa d2bc 176c 75bc
00000020: 4fe5 9b3d db3d 59bd 216e 52bd de56 9fbc
00000030: 4bf8 82bd
-0.039512303 -0.0094157215 -0.052655607 -0.048738144 -0.17848594 -0.02640429 -0.025716256 -0.014979384
0.076120965 -0.053037506 -0.05137456 -0.019450601 -0.063950144

cross_network.cross_biases.3 f4 [13]
00000000: 6cbf 21bd 5bf4 18bc b6d1 56bd 43b7 42bd
00000010: 7dfb 37be 0dca ccbc 50aa c7bc ab0d 7dbc
00000020: 61fe 9d3d f589 5abd bdc5 54bd 206e 98bc
00000030: 0171 84bd
-0.039489195 -0.009335603 -0.05244609 -0.047538053 -0.17967029 -0.02499869 -0.024373204 -0.015445153
0.077145346 -0.053354222 -0.05194639 -0.0186072 -0.06466866

cross_network.cross_biases.4 f4 [13]
00000000: 74e0 21bd 2bab 17bc 3abc 56bd d456 3dbd
00000010: 0c62 39be 16ce bfbc 995f bbbc 1053 83bc
00000020: e660 a03d dd1d 5dbd 2c11 58bd eb11 90bc
00000030: 1958 86bd
-0.039520696 -0.009257118 -0.0524256 -0.046225384 -0.18103808 -0.0234137 -0.022872733 -0.016030818
0.07830982 -0.053983558 -0.05275075 -0.017586669 -0.06559772

cross_network.cross_biases.5 f4 [13]
00000000: d23c 22bd 22f6 16bc 85a7 57bd fa47 37bd
00000010: dbf7 3abe db7e b0bc ab0d adbc 855f 89bc
00000020: 3229 a33d f2ac 60bd 7335 5cbd 94ca 85bc
00000030: 2baf 88bd
-0.039608784 -0.009213956 -0.052649993 -0.044746377 -0.18258612 -0.021544864 -0.021124681 -0.01676918
0.07966842 -0.054852434 -0.05376191 -0.016331948 -0.06674036

cross_network.cross_biases.6 f4 [13]
00000000: 6bcd 22bd 6738 18bc 8dc8 59bd dd13 30bd
00000010: 83b5 3cbe 2e35 9dbc 1158 9bbc 8b01 91bc
00000020: 5b7e a63d c2fa 64bd 1418 61bd 566a 71bc
00000030: 136e 8bbd
-0.039746683 -0.009290791 -0.053169776 -0.042987693 -0.18428616 -0.019190397 -0.018962892 -0.017700931
0.08129569 -0.055903204 -0.054954603 -0.014734825 -0.06808104

cross_network.cross_biases.7 f4 [13]
00000000: d374 23bd 4b5d 1cbc cd3d 5dbd 85bf 26bd
00000010: 667f 3ebe 879e 82bc 1aa7 83bc 62a6 9abc
00000020: ef9b aa3d c2bf 69bd 78a7 66bd 7224 4ebc
00000030: 4686 8ebd
-0.039906334 -0.009543727 -0.054014016 -0.04070999 -0.18603286 -0.015944732 -0.016070891 -0.018878166
0.08330523 -0.05706764 -0.056312054 -0.012581931 -0.069592044

cross_network.cross_biases.8 f4 [13]
00000000: 6bd3 23bd ee6b 23bc 4bf9 61bd 7500 19bd
00000010: c002 40be b6c1 32bc 0272 41bc 66e6 a6bc
00000020: cee3 af3d 338d 6ebd 2ade 6cbd c044 1abc
00000030: ffdc 91bd
-0.039996546 -0.009974463 -0.055169385 -0.03735395 -0.18751049 -0.010910442 -0.011806967 -0.020373534
0.08588372 -0.058240127 -0.05782906 -0.009415805 -0.0712223

cross_network.cross_biases.9 f4 [13]
00000000: e28f 22bd e29e 2dbc d478 67bd 2082 00bd
00000010: c42b 40be a1dd f2ba 9be4 9ebb 6cb8 b6bc
00000020: 80ec b63d 2220 72bd 6f9f 73bd bd53 87bb
00000030: be07 95bd
-0.039688 -0.010596963 -0.056511715 -0.031374097 -0.18766695 -0.0018529185 -0.0048490292 -0.022304736
0.089318275 -0.059112675 -0.05947822 -0.0041298554 -0.07276867

cross_network.cross_biases.10 f4 [13]
00000000: c456 19bd 6e59 3cbc 1a47 6abd caa1 92bc
00000010: ed6d 3abe cd03 783c 2f80 c63b deb3 cabc
00000020: 6f7a bf3d cea5 6ebd fc33 79bd a325 ca3b
00000030: ca7f 95bd
-0.03743626 -0.011495931 -0.057196714 -0.017899413 -0.18205996 0.015137625 0.006057761 -0.02474397
0.09349524 -0.058263592 -0.06084059 0.0061690374 -0.072997645

cross_network.cross_biases.11 f4 [13]
00000000: 9c2f e9bc b669 4abc eb8f 5bbd 99fb 993b
00000010: c3b2 1fbe 2162 d63c 3a2d 8b3c f190 d5bc
00000020: d13f bd3d bfb7 4ebd c85f 71bd 276c c43c
00000030: 18c0 87bd
-0.028465085 -0.012354305 -0.053604048 0.004699182 -0.15595536 0.026169838 0.01698934 -0.02607009
0.09240688 -0.050468203 -0.058929235 0.023977352 -0.06628436

cross_network.cross_biases.12 f4 [13]
00000000: b35e 97bc 97e7 46bc 1a52 35bd 9be1 803c
00000010: 4d81 e7bd 586a f63c 0341 c43c 7a9c b0bc
00000020: b02e 973d 943d 16bd 30df 49bd bc9a 073d
00000030: df86 51bd
-0.018477773 -0.012140176 -0.04426775 0.015732577 -0.11303959 0.030080006 0.023956781 -0.021558989
0.07381952 -0.03667982 -0.049285114 0.03310655 -0.051154014

cross_network.cross_biases.13 f4 [13]
00000000: 8d97 62bc 610b 1ebc 2083 05bd 9ad2 a13c
00000010: 15fe 9cbd ef40 f33c ea0c bb3c 95cf 38bc
00000020: 2865 303d 739a cbbc cc0b 02bd 672e e33c
00000030: 2200 10bd
-0.013830078 -0.009646268 -0.032595754 0.019753743 -0.0766565 0.029694049 0.022833306 -0.01127996
0.04306522 -0.02485392 -0.03174953 0.027732087 -0.035156377

cross_network.cross_biases.14 f4 [13]
00000000: 9edf 5bbc 75fa aabb af0f b5bc b9ad 923c
00000010: de56 5fbd eb30 d83c 7ae7 703c e90e a43a
00000020: 878b 353c 280b 8ebc 07ca 4dbc dc83 813c
00000030: 0ff6 c4bc
-0.013420014 -0.005217845 -0.022102205 0.017905103 -0.054526202 0.026390513 0.014703626 0.0012516651
0.011080629 -0.017339304 -0.012560374 0.015809946 -0.024043111

cross_network.cross_biases.15 f4 [13]
00000000: f54a 6cbc 3725 0dba 97f2 66bc 5f7c 263c
00000010: b87e 31bd 5b33 1e3c 0479 c4bb 80ea 453c
00000020: d2e6 5fbc 133e 5cbc 008e 0b3b fbee 813b
00000030: d1d3 93bc
-0.014422168 -0.00053842686 -0.014095924 0.010161488 -0.04333374 0.009655799 -0.0059958715 0.012079835
-0.013665872 -0.013442534 0.0021294355 0.0039652563 -0.018045338

deep_network.0.weight f4 [512, 13]
00000000: 83d8 8e36 2ea4 36ba 577d 44b5 d4ac 0a37
00000010: 7cfb 0c36 4560 9fb4 64d0 ae34 9cbd d334
00000020: 9943 e336 857c 48b7 935e a8b4 75de 8d35
00000030: 8855 8635 041d 0080 321c 0080 a71e 0080
00000040: d811 0080 751c 0080 221c 0080 531d 0080
00000050: d01b 0080 5d1c 0000 491c 0080 d71c 0080
00000060: 6d1d 0080 431c 0080 d1a4 ba36 f7f0 7c38
00000070: c5c6 0bb4 202d 42b4 0734 9037 25ea 97b4
00000080: 428d 1033 ec8e b8b4 2ac6 6737 26e4 0933
00000090: d74e 5336 edc0 a1b7 57db 9e37 1498 36b4
000000a0: f674 dfb9 54a9 b735 cbf3 9b34 cf2d d7b3
000000b0: c8bd d0b2 076f d233 7c69 8233 4b86 2c34
000000c0: f241 36b5 25ad e532 b8a4 94b7 9834 9238
000000d0: ba30 8234 4a68 8e38 23ff 37b5 4d20 d033
000000e0: 91d9 abb2 9265 bfb7 d77d adb3 9829 9036
000000f0: 888a 23b4 ecd9 1534 65f2 4635 0c54 643a
00000100: 624c bdb6 1404 4b34 9270 a537 0f4f 12b5
00000110: 6178 8835 2996 43b4 50b4 0936 0052 3635
00000120: 459a 02b4 51cb 9434 d701 a6b4 6a92 5935
00000130: 60e7 393a d9dc bab3 e682 2236 3037 f437
00000140: 66d4 8c35 bfb8 4435 6f95 9933 0ebb e134
00000150: 3d9f 1a35 7e63 2c34 38fb 0539 6aed 21b8
00000160: 6733 3136 578a 3f37 fb25 3736 5c70 7fb8
00000170: 2551 b4b3 3eca 0636 715d aeb5 bbd7 0234
00000180: c5c9 c0b7 5f5a 3fb6 0c40 34b7 be61 3f34
00000190: c965 0fb5 e989 3033 6309 bc38 5a23 12ba
000001a0: fce0 d9b4 50df 41b3 feea c734 cfd8 1839
000001b0: 8438 aeb6 8a2a a9b4 c4f9 f637 4bf9 ba31
000001c0: 94ed 5f39 bda3 80b6 2f50 81b4 0f52 f9b4
000001d0: 3a8b 18b4 d1e8 1535 b782 1033 c1a1 9cb6
000001e0: b2c1 9d34 1c42 01b6 036f 0c36 8e9e 0eb3
000001f0: d442 51b3 213a cc33 4c42 8334 8194 4635
00000200: dd38 8834 17a9 16b5 0b7e 8533 2a53 0d38
00000210: 65ef acb3 f25e 7d34 2754 d833 37b5 3434
00000220: e4b3 2cb4 e151 0c3a 45bc 1333 6f0c 14b1
00000230: d713 e833 aae6 90b9 02b1 aeb4 4103 f933
00000240: 4318 d634 d209 4e33 7f03 8a34 1a58 04b6
00000250: c563 b437 4d0c a434 32cf 9334 69dd aa38
00000260: da6f 9b34 c5d9 9c32 1b45 9339 f180 8438
00000270: f62f e9b3 9d84 0235 bbc2 3237 69c9 1e33
00000280: 3e84 b838 1e3c d537 c716 48b5 ecbb 40b5
00000290: 4a2d e537 7713 fab4 8b53 db34 c7f3 1ab5
000002a0: e496 04b3 1fab 7534 74ea 3235 dd7d fab6
000002b0: a1d1 0936 1e1f e932 4009 1c3a ea3f 8234
000002c0: e980 b1b4 9bf6 6f32 98b0 5833 e12a 39b5
000002d0: 2a4e 20b6 6ce3 a834 ad71 a934 344a 2937
000002e0: 1694 f4b9 2d73 7a35 bbfc f0b5 730e a535
000002f0: 195b de34 383d 9ab5 c36c acb5 34c5 cfb3
00000300: 4592 5d33 74bf c134 f048 1db5 07f5 4f35
00000310: f873 00ba 2ea4 b0b5 86f2 c439 c518 85b6
00000320: b7c2 4235 788f 1837 0ae2 0db7 136f 8cb9
00000330: cdc1 acb5 3bba 2bb6 183c 6036 ea16 1235
00000340: c516 9db4 97f7 8cb2 7d52 f534 9185 2cb5
00000350: b851 d1b6 e496 17b7 2204 0337 2132 9234
00000360: de57 9238 f17c ea36 51a8 0534 e474 8237
00000370: 12c7 67b3 f3e4 2135 6032 eab8 1f91 0836
00000380: 2116 8335 c482 b636 1fab 44b9 5ae8 85b9
00000390: 0f09 e2b6 9721 8433 7df7 ab33 87b7 bdb4
000003a0: d5bd 5634 10cd a534 501c 2833 2cd7 dfb9
000003b0: e6ac dd32 618a 38b5 55d6 2bb4 a545 adb9
000003c0: 869e 3f35 c740 feb4 876b e633 abc9 24b9
000003d0: 2496 ab34 d4f7 1d35 d68a 4434 4d79 b9b5
000003e0: 4425 2534 dbd0 9536 735f 0a36 421b 1236
000003f0: 800c 9fb4 b1f0 17b4 c1ea 9236 5ef5 c8b3
4.257135e-06 -0.00069672137 -7.3198083e-07 8.265681e-06 2.1008009e-06 -2.9686103e-07 3.256165e-07 3.9439772e-07
6.7729966e-06 -1.1949921e-05 -3.136125e-07 1.0570062e-06 1.0008671e-06 -1.0409e-41 -1.0115e-41 -1.0996e-41
-6.401e-42 -1.0208e-41 -1.0092e-41 -1.052e-41 -9.977e-42 1.0175e-41 -1.0147e-41 -1.0346e-41
-1.0556e-41 -1.0138e-41 5.562419e-06 6.0305898e-05 -1.3017696e-07 -1.8084074e-07 1.7190365e-05 -2.8296304e-07
3.3656086e-08 -3.437666e-07 1.3814812e-05 3.2105298e-08 3.148734e-06 -1.9282534e-05 1.8937206e-05 -1.7005397e-07
-0.00042621017 1.3683843e-06 2.9048383e-07 -1.002005e-07 -2.430069e-08 9.799083e-08 6.072784e-08 1.6067604e-07
-6.7896246e-07 2.6737846e-08 -1.7719678e-05 6.971619e-05 2.424984e-07 6.790513e-05 -6.8544085e-07 9.69163e-08
-2.0005958e-08 -2.2816272e-05 -8.0788304e-08 4.2963766e-06 -1.5230955e-07 1.3955986e-07 7.411348e-07 0.0008710034
-5.641531e-06 1.8907332e-07 1.9721952e-05 -5.4504284e-07 1.0167824e-06 -1.8215418e-07 2.0519547e-06 6.791961e-07
-1.2163316e-07 2.771508e-07 -3.0921248e-07 8.105186e-07 0.00070916675 -8.701472e-08 2.4216074e-06 2.9112765e-05
1.0492629e-06 7.328453e-07 7.1517995e-08 4.2045616e-07 5.760119e-07 1.6054943e-07 0.00012777455 -3.86065e-05
2.6404975e-06 1.1416697e-05 2.7291233e-06 -6.090138e-05 -8.396663e-08 2.0085276e-06 -1.2991205e-06 1.2185676e-07
-2.298214e-05 -2.851382e-06 -1.0743748e-05 1.782382e-07 -5.341977e-07 4.1103622e-08 8.966287e-05 -0.0005574726
-4.0583097e-07 -4.5139416e-08 3.7237618e-07 0.00014576617 -5.1921834e-06 -3.1509654e-07 2.9441791e-05 5.441654e-09
0.00021355442 -3.833759e-06 -2.4086464e-07 -4.643957e-07 -1.4206753e-07 5.584562e-07 3.3646497e-08 -4.667993e-06
2.938446e-07 -1.9260979e-06 2.0926243e-06 -3.3206156e-08 -4.8722384e-08 9.510064e-08 2.444889e-07 7.397685e-07
2.5373348e-07 -5.612541e-07 6.216222e-08 3.3694472e-05 -8.05292e-08 2.3597002e-07 1.0073591e-07 1.6829732e-07
-1.6084192e-07 0.0005352777 3.4397335e-08 -2.1543902e-09 1.0806951e-07 -0.00027637678 -3.2538816e-07 1.1595558e-07
3.987826e-07 4.7972044e-08 2.5707047e-07 -1.9720815e-06 2.1504131e-05 3.055633e-07 2.7531638e-07 8.1474725e-05
2.8952383e-07 1.825982e-08 0.00028089512 6.318268e-05 -1.0858632e-07 4.862175e-07 1.0654966e-05 3.6970423e-08
8.798436e-05 2.5419573e-05 -7.453895e-07 -7.1799036e-07 2.7320017e-05 -4.658029e-07 4.0852714e-07 -5.7724213e-07
-3.087088e-08 2.2879657e-07 6.665134e-07 -7.465233e-06 2.053661e-06 2.713892e-08 0.0005952306 2.426089e-07
-3.3062614e-07 1.39677026e-08 5.045203e-08 -6.898027e-07 -2.3887355e-06 3.145791e-07 3.1561413e-07 1.0090462e-05
-0.0004664964 9.329986e-07 -1.7954948e-06 1.2297663e-06 4.1417005e-07 -1.1491711e-06 -1.2846652e-06 -9.67506e-08
5.1588604e-08 3.6088352e-07 -5.8593196e-07 7.747007e-07 -0.0004900093 -1.3160804e-06 0.00037564727 -3.9665924e-06
7.255398e-07 9.09331e-06 -8.456884e-06 -0.00026785638 -1.2871402e-06 -2.5589386e-06 3.341358e-06 5.442258e-07
-2.9260096e-07 -1.6410736e-08 4.5694824e-07 -6.426936e-07 -6.2381987e-06 -9.035433e-06 7.809171e-06 2.7231093e-07
6.978189e-05 6.9882885e-06 1.2447823e-07 1.5551639e-05 -5.3964932e-08 6.031034e-07 -0.000111673726 2.035005e-06
9.766701e-07 5.439246e-06 -0.00018755764 -0.00025540852 -6.7363794e-06 6.152839e-08 8.007826e-08 -3.5337527e-07
1.9999364e-07 3.0882848e-07 3.9141298e-08 -0.0004269419 2.5806411e-08 -6.874671e-07 -1.600359e-07 -0.0003304902
7.1383727e-07 -4.7358319e-07 1.0729769e-07 -0.00015715386 3.1960474e-07 5.8847695e-07 1.830443e-07 -1.3818877e-06
1.538038e-07 4.46486e-06 2.0619161e-06 2.1771561e-06 -2.9625153e-07 -1.4150534e-07 4.378468e-06 -9.357858e-08

deep_network.0.bias f4 [512]
00000000: 1257 76b9 141d 0080 c09e 7bb2 948b fa35
00000010: 47db 9634 f71e 4635 188d 3e35 0704 fbb3
00000020: 4f3a 9439 3ca2 7534 0eb0 f1b4 449e 5035
00000030: d359 8438 2807 53b2 de53 7c36 874a 7535
00000040: 2ea2 c139 52df 35b4 15f3 df34 689a 94b5
00000050: 331d 0080 d5b9 59b4 114b bab9 c29e 8835
00000060: 8478 1039 e22c 4235 31c1 3137 bd18 a1b7
00000070: a524 0739 c00c 4a3a f4eb 0135 eb3e be36
00000080: f2e6 3735 d70d c9b6 551c 0080 54de 0037
00000090: fe63 0eb8 8e01 c434 eddd 31b5 33af 113a
000000a0: d137 4db5 4da0 9834 391c 0080 0150 7036
000000b0: 38d1 26b4 119c 01b5 e2e4 9ab6 bf82 1935
000000c0: 43b7 d636 77c6 a833 e611 99b6 020b 4c34
000000d0: a81b 0080 5042 9f33 6e16 eeb5 bba7 3337
000000e0: 3678 f0b4 d306 f839 fdbf 2bb7 04db bd34
000000f0: e106 adb5 598a 89b5 c5e8 2cb3 2915 a4b4
00000100: 0ec3 87b8 56d5 fd34 e4bc f6b6 f354 6636
00000110: ad1b 0080 cfa4 0e35 59c2 6cb3 9673 d2b3
00000120: d2f0 41b8 5a1b 0080 851c 0080 3a09 4637
00000130: a1d2 9935 eebe 9bb4 eb12 92b9 5bc3 32b5
00000140: 796a eeb8 e923 2336 4277 0738 2a65 be39
00000150: db06 bcba b7e0 7534 66b0 2db4 7643 5234
00000160: 96d6 b334 d61b 0080 2461 a0b2 6edd a7ba
00000170: bb72 d7b6 c121 b0ba fed7 e0b9 831b a1b5
00000180: 981f 24b4 95c1 b4b4 57ea fe36 f71b 0080
00000190: efd7 deb4 a7ea d3b9 891e 0080 f8a7 a6b9
000001a0: ea4b 1cb4 7e15 bc35 b12e 8533 011c 0080
000001b0: 8901 06b9 b058 58b3 b21b 0080 711b 0080
000001c0: 1961 1939 c8d1 aa34 b019 ec39 e01b 0080
000001d0: 571d 1cb5 5659 4ab3 56cf 88b6 ae62 1eb5
000001e0: eb07 c2b8 9726 0ab5 2965 0637 a276 97b3
000001f0: f51b 0080 36c7 0eb4 7e95 a4b7 823f 00ba
00000200: 99b4 8434 881c 0080 b21b 0000 a1ea 4b39
00000210: cc70 1e38 c498 ecb7 9bfb 3b34 e514 a833
00000220: c8c7 04b5 326e 4834 8202 cfb5 fce0 9934
00000230: 377f 2339 b34a 1335 751e 88ba e2fc 51b7
00000240: d993 bab4 9529 c2b4 199b d7b3 851c 0080
00000250: 6b42 8335 bd03 7ab6 238e 36b5 ceeb 4eba
00000260: af15 7535 5c47 6f36 9793 5eb5 371c 0080
00000270: df0e 3635 3920 0134 fb32 5336 19f7 cf36
00000280: a0f9 5339 1eff 8ab4 0f54 5136 e25e 98b7
00000290: ea8b e3b4 6a01 9534 ab9e 9b39 40a9 d336
000002a0: 50df 57b4 fcf5 02b9 06a4 cbb4 3fa1 d738
000002b0: a785 feb4 ce1b 0080 211c 0080 4dd0 0f38
000002c0: 76c2 29b5 a17c a437 cac6 2436 387d 2cb7
000002d0: 53ed a8b1 4d17 70b3 381c 0080 a1a0 13b9
000002e0: f89a 0934 635e 9435 19cd 5833 f8d3 59b3
000002f0: be8d 38b5 c121 0080 cbc2 c5b5 623f 2737
00000300: 85eb a0b8 c21d 0080 cfb1 9534 da1d 0080
00000310: ac79 26b9 b8e4 5db5 1b97 69b4 9f5e c1b4
00000320: 4f3f a0b4 1194 ef34 94e2 87b5 92b0 a134
00000330: 45b3 f1b2 d3fe a7b5 22ea 58b5 c31d 0080
00000340: d13a 5539 97cb 92b7 3d1c 0080 797a d1b3
00000350: 1857 3e38 1e9c a636 3964 a734 7b5a a9b7
00000360: 8356 ce37 dc63 68b3 a5f8 90b5 cda9 38b5
00000370: 3849 da35 a4fc 50ba b71e 0080 c1ca 3eb8
00000380: 8868 0935 9500 bc33 b21b 0080 4aca b739
00000390: fb44 3db6 b664 4eb8 9e1b 0080 453c 9436
000003a0: 22c3 c234 89de 2639 478b eeb9 83f9 bab4
000003b0: f094 94b8 544f 8535 06a4 0937 98c3 b636
000003c0: 0883 34b4 6e6c 0b36 1387 aeb4 946e a534
000003d0: 951b 0080 9943 0d36 42fe 59b9 ac35 aeb4
000003e0: e879 d6b5 ee3e 34ba bb1b 0080 b0e7 9db7
000003f0: c626 b334 5987 a233 f229 3cb3 3994 dcb6
-0.00023492824 -1.0431e-41 -1.46462185e-08 1.8667074e-06 2.8099223e-07 7.380581e-07 7.0985834e-07 -1.1688831e-07
0.00028272203 2.2876424e-07 -4.5017845e-07 7.7716345e-07 6.3109816e-05 -1.2283444e-08 3.7599743e-06 9.1378064e-07
0.00036932662 -1.6938182e-07 4.1713852e-07 -1.1071797e-06 -1.0475e-41 -2.0277305e-07 -0.00035532613 1.0178994e-06
0.00013777806 7.2335945e-07 1.0595003e-05 -1.9204215e-05 0.00012888254 0.00077075884 4.83996e-07 5.669766e-06
6.850888e-07 -5.991878e-06 -1.0164e-41 7.681159e-06 -3.3948563e-05 3.6508976e-07 -6.626058e-07 0.0005557418
-7.6449675e-07 2.842884e-07 -1.0124e-41 3.5809355e-06 -1.5536068e-07 -4.828335e-07 -4.616203e-06 5.71872e-07
6.3990315e-06 7.85921e-08 -4.561839e-06 1.9002985e-07 -9.921e-42 7.4160766e-08 -1.773891e-06 1.0708284e-05
-4.4790949e-07 0.0004730733 -1.0237095e-05 3.5363348e-07 -1.2891506e-06 -1.024756e-06 -4.0258573e-08 -3.0562776e-07
-6.4736334e-05 4.7280145e-07 -7.353361e-06 3.4322118e-06 -9.928e-42 5.313895e-07 -5.512479e-08 -9.799912e-08
-4.6239067e-05 -9.812e-42 -1.0231e-41 1.1803868e-05 1.1460689e-06 -2.900992e-07 -0.00027861385 -6.6594447e-07
-0.000113685564 2.4309795e-06 3.2297576e-05 0.00036314997 -0.0014345305 2.2899154e-07 -1.6176054e-07 1.9582316e-07
3.349748e-07 -9.986e-42 -1.8670626e-08 -0.001280708 -6.4208557e-06 -0.0013437794 -0.00042885536 -1.2003442e-06
-1.5285184e-07 -3.3668462e-07 7.5970706e-06 -1.0032e-41 -4.1507835e-07 -0.00040419886 -1.0954e-41 -0.00031787134
-1.455625e-07 1.4013347e-06 6.201788e-08 -1.0046e-41 -0.00012779808 -5.037208e-08 -9.935e-42 -9.844e-42
0.00014627389 3.1817603e-07 0.00045032566 -1e-41 -5.8157224e-07 -4.711304e-08 -4.077253e-06 -5.9003185e-07
-9.252116e-05 -5.146516e-07 8.010576e-06 -7.0530646e-08 -1.0029e-41 -1.3297253e-07 -1.9619936e-05 -0.0004892276
2.4718318e-07 -1.0235e-41 9.935e-42 0.00019446995 3.7775186e-05 -2.820453e-05 1.7507266e-07 7.82691e-08
-4.946455e-07 1.866654e-07 -1.5423432e-06 2.8662168e-07 0.00015592283 5.487047e-07 -0.0010385053 -1.251625e-05
-3.4752773e-07 -3.616557e-07 -1.003993e-07 -1.0231e-41 9.779591e-07 -3.725508e-06 -6.800712e-07 -0.0007893414
9.1301166e-07 3.5655312e-06 -8.2916216e-07 -1.0122e-41 6.7821924e-07 1.2025784e-07 3.1471125e-06 6.1978467e-06
0.0002021552 -2.5890125e-07 3.1192355e-06 -1.8163995e-05 -4.2383846e-07 2.7754442e-07 0.0002968212 6.3079933e-06
-2.0104676e-07 -0.00012489402 -3.793104e-07 0.00010282033 -4.7408432e-07 -9.974e-42 -1.0091e-41 3.4287852e-05
-6.3240384e-07 1.9608358e-05 2.4553615e-06 -1.0281154e-05 -4.916424e-09 -5.5900546e-08 -1.0123e-41 -0.00014078851
1.2815497e-07 1.105433e-06 5.0477954e-08 -5.0717034e-08 -6.8751604e-07 -1.2109e-41 -1.4734336e-06 9.968733e-06
-7.6732635e-05 -1.0675e-41 2.7882786e-07 -1.0709e-41 -0.0001587632 -8.2661745e-07 -2.1754788e-07 -3.6017897e-07
-2.9848385e-07 4.4624952e-07 -1.0124227e-06 3.011706e-07 -2.8137615e-08 -1.2516633e-06 -8.080698e-07 -1.0676e-41
0.00020335174 -1.749936e-05 -1.013e-41 -9.7545986e-08 4.5380642e-05 4.96536e-06 3.1179096e-07 -2.0188503e-05
2.4597399e-05 -5.410753e-08 -1.0801201e-06 -6.8792434e-07 1.6263575e-06 -0.00079722167 -1.1018e-41 -4.548836e-05
5.118859e-07 8.754538e-08 -9.935e-42 0.00035055197 -2.8203347e-06 -4.920802e-05 -9.907e-42 4.41776e-06
3.6277294e-07 0.00015913894 -0.00045498667 -3.4826743e-07 -7.084932e-05 9.93236e-07 8.204026e-06 5.446793e-06
-1.6811475e-07 2.0775728e-06 -3.2508305e-07 3.08141e-07 -9.895e-42 2.1049984e-06 -0.00020789451 -3.2449077e-07
-1.5979722e-06 -0.00068758323 -9.948e-42 -1.8823746e-05 3.336956e-07 7.5683324e-08 -4.381031e-08 -6.5737663e-06

deep_network.2.weight f4 [64, 512]
00000000: 7c72 ee33 06fd 9d2c 50f3 94b4 0409 50b7
00000010: dba5 fb38 0a5a a934 c4ed 2bb3 b0e1 c2b3
00000020: 659c 4e33 d6a0 78b8 4784 6638 cad9 bcb4
00000030: 9078 7eb5 3e7d a7b7 eab7 9632 1e03 55b5
00000040: c2c6 9036 2421 87b5 10dd 49b5 79cc 5935
00000050: 6e1b 0080 43b6 18b5 d09a 45b9 1b3e beb4
00000060: 6a49 f9af eccf 04b6 5051 db37 a493 94b8
00000070: bc06 86b9 4b4b 85b6 998d 3eb4 7066 08b7
00000080: 4162 82b7 874d 8cb6 2020 0080 ae57 eb32
00000090: 9b68 9538 d973 e9b3 2b81 1db5 5b97 0db3
000000a0: 82ad 1eb9 9a5b a735 701d 0000 3b57 8a33
000000b0: efb0 2e35 300b 1333 e401 ab36 3f0c 4838
000000c0: 734e 3cb6 bde2 76b2 943b 2db4 34d0 2eb6
000000d0: 331f 0080 8415 4a35 921f dcb3 4b26 ad34
000000e0: 0d8c 1db5 6e3c bdb5 0d1f 5e34 fb64 fcb6
000000f0: 183e de34 46ef 35b9 b1fe 2f38 4fa1 71b8
00000100: 0b82 8e3a f035 8a35 9e23 2f39 3179 82b3
00000110: e21b 0000 e1c7 f7b6 bdb9 06b5 48b1 09b6
00000120: 2b3d 7134 511f 0080 601b 0080 f0b4 3eb7
00000130: 9cab 5536 71ec 27b5 d7d3 0d39 b433 91b5
00000140: 2110 61b5 7bd4 9a35 7c29 7db5 4797 8634
00000150: fbed 1634 e2ca 9734 f4b3 40b6 5059 34b5
00000160: 6454 5838 681b 0080 7af0 ad36 875b 2234
00000170: 861b dc34 9f9a 83b4 0baa 4138 14a7 ac33
00000180: 0eae f4b2 46ca abb3 3410 9f33 431e 0080
00000190: 79d5 4638 a130 21b8 691b 0080 c042 f3b7
000001a0: e013 44b4 42d5 edb2 cc62 9b31 d26a 85ae
000001b0: cc1d 0e32 3bb7 f0b4 8ae9 872f 431e 0000
000001c0: 9a4d 32b5 c25e 6b37 8c0b 07b6 8e1f 0000
000001d0: 6717 84b5 47a8 6533 ef26 9ab4 1bb6 13b5
000001e0: 7a46 4435 219a 79b5 f0ea 2a35 4c51 3d34
000001f0: 641b 0080 230b 2fb5 ed74 e3b1 83f5 5db7
00000200: 2a29 8231 eb1b 0080 7a1b 0080 170b 3c37
00000210: 1de1 aeb7 18a7 4936 5271 273a d9ed 2bb3
00000220: 806c afb5 4246 1333 b79b 03ba e957 8a35
00000230: 4f9f 9033 8609 ceb6 d781 a735 cba6 00b7
00000240: e8a1 1d34 4d08 30b1 ac79 7e38 bc1b 0000
00000250: 0c9e 5f39 1052 9c37 3a47 d0b9 4e80 83b7
00000260: 8e41 993a aa6b 0233 3c9d eeb5 621b 0080
00000270: 64b2 a835 8ca7 ee36 4b62 0139 bfa2 5434
00000280: b921 c936 dc3b c1b5 7ea7 ab34 8451 bbb5
00000290: e698 a834 b4f8 c1b8 3e01 fdb8 9684 6f39
000002a0: 8d8d 7eb6 8d18 06b6 16d6 2ab6 349f ab35
000002b0: 6a18 7033 9d1d 0000 6d1b 0080 79f8 7cb4
000002c0: 533b e235 3c92 5039 747f a534 701c b836
000002d0: 8023 8534 2b76 b736 4321 0000 49cf 8b2f
000002e0: 880e fd39 34e0 75b5 8a5f 36b6 0474 823a
000002f0: 4c39 6237 0e20 0080 c673 dfb6 c1ef 8ab4
00000300: 28b9 e4b5 7c1b 0080 6d62 0ab4 641b 0080
00000310: 8214 d937 00d0 f1b3 ca6c d134 d295 f8b8
00000320: e262 4235 640d 5fb7 9f65 6eba e4d2 1136
00000330: 80c8 75b4 6133 ac36 3213 9538 f21c 0080
00000340: 5b13 a1b4 d6af 6233 d021 0080 cd45 21b6
00000350: 0e30 39b6 8d4a 0d35 ea45 34ba 9e57 bfb4
00000360: aa58 ed34 9887 4935 3c85 a8b8 6917 7e34
00000370: 0085 1e3a f383 50b6 9c1f 0000 6142 15b6
00000380: 1abe a1b4 35e4 9eb6 5e1b 0080 e049 a138
00000390: a425 7337 09ee 4938 701f 0000 f147 1f39
000003a0: 62f2 3bb6 3eb9 51b5 102f 6bb5 de0b 17b4
000003b0: b037 d7b5 9a2e a9b5 8f03 23b4 5ccd d7b5
000003c0: f184 2f34 7fb7 ebb6 e725 4d34 4dc5 93b5
000003d0: c820 0080 4558 f039 b479 45b9 80a6 0a35
000003e0: 4eed 52b5 b1a1 1a35 ca1e 0080 90e6 99b6
000003f0: 5233 e936 99fe 8635 fc20 1337 3bfd 9234
1.1103563e-07 4.4902996e-12 -2.774418e-07 -1.2399865e-05 0.00011999506 3.1544215e-07 -4.0030287e-08 -9.074881e-08
4.8105353e-08 -5.9277598e-05 5.4959466e-05 -3.517619e-07 -9.4797815e-07 -1.9966272e-05 1.7545933e-08 -7.935322e-07
4.314673e-06 -1.0067929e-06 -7.5200023e-07 8.1136346e-07 -9.84e-42 -5.688964e-07 -0.00018845056 -3.5435446e-07
-4.5345e-10 -1.979056e-06 2.6144698e-05 -7.08469e-05 -0.0002556349 -3.972474e-06 -1.7746642e-07 -8.130082e-06
-1.554296e-05 -4.1813505e-06 -1.1524e-41 2.7397473e-08 7.124358e-05 -1.08709806e-07 -5.867502e-07 -3.2966778e-08
-0.00015132691 1.2469129e-06 1.056e-41 6.441993e-08 6.5077523e-07 3.423628e-08 5.096417e-06 4.769512e-05
-2.8059846e-06 -1.4370639e-08 -1.6133555e-07 -2.604921e-06 -1.1192e-41 7.5282173e-07 -1.0250291e-07 3.2251623e-07
-5.869086e-07 -1.4099185e-06 2.0686657e-07 -7.521941e-06 4.1395901e-07 -0.00017350641 4.196045e-05 -5.7609108e-05
0.0010872496 1.0297499e-06 0.00016702569 -6.075641e-08 1.0002e-41 -7.3844426e-06 -5.0189175e-07 -2.0517782e-06
2.2467127e-07 -1.1234e-41 -9.82e-42 -1.136701e-05 3.1839363e-06 -6.2556416e-07 0.00013525724 -1.081839e-06
-8.38425e-07 1.1535734e-06 -9.431021e-07 2.5069514e-07 1.4056415e-07 2.8273558e-07 -2.8714976e-06 -6.718519e-07
5.1577008e-05 -9.832e-42 5.183797e-06 1.5120723e-07 4.099822e-07 -2.4513153e-07 4.617315e-05 8.0397655e-08
-2.848449e-08 -7.999601e-08 7.406962e-08 -1.0856e-41 4.740569e-05 -3.843068e-05 -9.833e-42 -2.899894e-05
-1.8261153e-07 -2.768741e-08 4.5223256e-09 -6.067115e-11 8.272263e-09 -4.48368e-07 2.4722296e-10 1.0856e-41
-6.642309e-07 1.4029154e-05 -2.0123289e-06 1.132e-41 -9.841577e-07 5.3471265e-08 -2.8713063e-07 -5.5026766e-07
7.3118247e-07 -9.2984016e-07 6.3671814e-07 1.7631572e-07 -9.826e-42 -6.5208786e-07 -6.6198624e-09 -1.3229789e-05
3.7881778e-09 -1.0015e-41 -9.857e-42 1.1208255e-05 -2.0847243e-05 3.0048595e-06 0.00063874305 -4.003036e-08
-1.3070094e-06 3.4290004e-08 -0.0005020457 1.0307386e-06 6.7345006e-08 -6.140387e-06 1.2480258e-06 -7.668229e-06
1.4680666e-07 -2.561609e-09 6.0671635e-05 9.949e-42 0.00021325814 1.8634862e-05 -0.0003972592 -1.5676163e-05
0.001169251 3.0365904e-08 -1.7778143e-06 -9.823e-42 1.2568894e-06 7.1124578e-06 0.00012339016 1.9803245e-07
5.9941926e-06 -1.4397042e-06 3.19731e-07 -1.395631e-06 3.1403687e-07 -9.249282e-05 -0.000120642115 0.00022842208
-3.7931343e-06 -1.9981846e-06 -2.5456588e-06 1.2786827e-06 5.590156e-08 1.0623e-41 -9.839e-42 -2.3559723e-07
1.6855578e-06 0.00019890902 3.082638e-07 5.486938e-06 2.479901e-07 5.4675816e-06 1.1932e-41 2.5431238e-10
0.00048266747 -9.159587e-07 -2.7175724e-06 0.0009952788 1.348399e-05 -1.1499e-41 -6.6593957e-06 -2.5878947e-07
-1.7041211e-06 -9.86e-42 -1.2888059e-07 -9.826e-42 2.5877966e-05 -1.1260272e-07 3.9008438e-07 -0.00011853468
7.2414525e-07 -1.32949535e-05 -0.0009094122 2.1729438e-06 -2.2890345e-07 5.1319807e-06 7.108449e-05 -1.0384e-41
-3.000267e-07 5.2779647e-08 -1.213e-41 -2.40315e-06 -2.759512e-06 5.263508e-07 -0.0006876873 -3.5640272e-07
4.4209202e-07 7.507565e-07 -8.035681e-05 2.366411e-07 0.000604704 -3.107122e-06 1.134e-41 -2.2241368e-06
-3.0126904e-07 -4.7353337e-06 -9.817e-42 7.6908385e-05 1.4492693e-05 4.8143822e-05 1.1278e-41 0.00015190222
-2.8006257e-06 -7.812813e-07 -8.7612807e-07 -1.4067288e-07 -1.6034955e-06 -1.2605044e-06 -1.5181853e-07 -1.6078516e-06
1.6346509e-07 -7.0249075e-06 1.9105902e-07 -1.1009776e-06 -1.176e-41 0.00045842133 -0.00018832722 5.1651296e-07
-7.857642e-07 5.760476e-07 -1.1045e-41 -4.5865963e-06 6.9499156e-06 1.0057876e-06 8.769563e-06 2.737887e-07

deep_network.2.bias f4 [64]
00000000: 2d76 8939 f4a6 9ab4 9719 0a38 41c3 453a
00000010: 3c7d cb37 cea5 46b7 3c7c ac37 3b82 8d38
00000020: 23df 3fb7 b582 a736 edf4 e936 f9d3 aa39
00000030: 3e4d 0eb4 cd37 163a 91d7 0837 cc24 1038
00000040: 5647 93b8 b27c dfb7 65e8 c039 f267 223a
00000050: 4eaa 8937 d50e 5f35 cc2c 5f39 d6ca 7eb7
00000060: 35fa ab38 259a a0b8 974f 91b7 9f09 c63a
00000070: 8b38 02b9 a5f4 c2b9 3ceb e236 e657 df36
00000080: 6454 21b8 6d94 b438 164a b8b6 5c4a beb8
00000090: 89a1 52b6 cfea d7b8 7b2d be35 1755 c638
000000a0: 0814 453a 3ff9 ac37 8788 1f3a 4a49 5735
000000b0: f50d 1e39 5b39 6439 45a6 b7b8 366b 5c39
000000c0: cccb a039 b419 10b8 1d75 dfb8 f296 d1b4
000000d0: 2b5e 9f39 4ca9 af38 d6ec 273a 3f36 e237
000000e0: a5ce 5f37 b632 e8b8 7267 3d37 2bee cdb7
000000f0: 58dc 0637 c30c f0b6 538d a837 cc06 83b9
0.00026218724 -2.880621e-07 3.2925596e-05 0.0007544049 2.4257803e-05 -1.1840324e-05 2.0561849e-05 6.747661e-05
-1.143644e-05 4.992204e-06 6.9724542e-06 0.0003258286 -1.3252881e-07 0.0005730361 8.156422e-06 3.4366545e-05
-7.0227936e-05 -2.6641737e-05 0.0003679424 0.00061952986 1.6410977e-05 8.3095557e-07 0.00021283625 -1.5186806e-05
8.20052e-05 -7.658106e-05 -1.7322409e-05 0.0015109068 -0.0001241883 -0.00037184838 6.7627097e-06 6.6561506e-06
-3.8463986e-05 8.610715e-05 -5.492252e-06 -9.0737565e-05 -3.1386464e-06 -0.000102957354 1.416934e-06 9.457225e-05
0.00075179385 2.0620062e-05 0.0006085713 8.020039e-07 0.00015073254 0.00021765141 -8.75709e-05 0.00021020774
0.0003066942 -3.4356213e-05 -0.00010655283 -3.903911e-07 0.00030397004 8.376184e-05 0.0006405836 2.696656e-05
1.3339949e-05 -0.00011072068 1.1289363e-05 -2.454881e-05 8.038325e-06 -7.154043e-06 2.009297e-05 -0.0002499133

deep_network.4.weight f4 [32, 64]
00000000: 649a 95b6 7f17 4b39 b48d b334 b472 37b8
00000010: 6a6c a436 6cfd 0636 d79e 6a35 8f03 4534
00000020: 5801 1db6 0047 603a b46c b835 e549 ddb9
00000030: 9560 3136 179c b439 2b3d 8038 2093 c5b3
00000040: f155 0bb6 bdf1 0638 0d4a e636 d5d8 9fba
00000050: 6e7e 0ab5 a61f 74b6 07d2 c539 6e03 95b6
00000060: 6c67 97b9 e181 99b4 dd55 8335 aed8 1038
00000070: a9d2 21b6 2dcf 4db4 766c 64b6 dbb0 e4b9
00000080: 555e 72b6 3ea3 3cb7 9ef4 d7b9 b253 f1b2
00000090: 2cda a1b8 01e3 cc39 0d6c ab34 eaba ac35
000000a0: 7d31 0f39 43a9 a137 7cd5 69b3 c444 bfb6
000000b0: 008c 03b7 8c90 2139 ab1d e5b8 bdab b434
000000c0: a2eb 8bb6 67b8 1aba 71e9 fa37 502b 5136
000000d0: cbbb 9a35 07c8 0ab9 8c67 e435 7a50 f6b3
000000e0: b7b9 a3b9 a659 eab5 6fd7 feb5 ffb0 9c33
000000f0: 759c ae33 3a9f afb9 e917 c437 6346 46b7
00000100: e509 8bb1 8a6c e7ae 7b88 22b0 0cc2 d230
00000110: 0bc0 7c38 990b 363a 6c7b ad32 f191 91ae
00000120: e3b9 d6af aec6 64b9 3503 3136 1686 30b8
00000130: dc98 1a3a 45db dbb8 819f d4b4 aa7b b9b4
00000140: c0c2 5833 a4fc 042f 1163 cb31 9a20 8c34
00000150: cba8 9230 d6fc 1bb8 1d67 2f31 f9ef 6931
00000160: a277 d635 6b79 8732 d100 75ba 488f 5036
00000170: 9b9a 2bb9 6022 ca31 ac5a 8daf bfa7 9b2f
00000180: ed5e afb2 3e9d a9b4 372d cc37 d12f c531
00000190: 91d9 9037 3395 2fb1 6e81 4f2d 4500 d8b7
000001a0: 2129 dc31 8a8b 8637 dfaa fcb8 3bdf 803a
000001b0: 4794 ecb0 0125 ea39 a1a9 02b8 6d98 0f34
000001c0: b1f6 3230 3f95 e52d 7beb 0ab1 e58d 8b2c
000001d0: 795c c7b7 7ea1 4f38 dc69 9eb8 44bf fd2d
000001e0: 7d3b 87ae 30a0 0d35 8c32 a1b0 dd46 0e31
000001f0: 8291 a82f 4401 b9af ac62 5a32 15be f135
00000200: 8eaf 0738 4f72 2536 81eb cab6 fd5a 65ba
00000210: e2cf 22b8 9ab6 e838 4067 80b9 9c09 f4b9
00000220: 285c ceb3 2861 f4b6 9bad 6fb8 97b7 64ba
00000230: 9ba7 8cb6 535b a7ba 72e7 73b9 78ae 1432
00000240: 27ea 8ab9 3995 6938 2b98 9bb8 6d2d 38ba
00000250: 281d 69b8 96e2 0eb7 1bca 1437 ceee 0ab9
00000260: a8df 69ba b1e8 8bb8 9305 82b9 5942 703a
00000270: 5643 b2ba 4f2a 20b4 44e5 30b8 47f6 c237
00000280: efbb 8db9 124b df37 6608 e8b8 c938 0838
00000290: 29e9 aeb4 0b9c 0ab8 5f39 9435 b992 1db9
000002a0: 5608 f939 6dc2 8eb5 cdeb 10ba dec0 8e35
000002b0: 66e8 93b8 32f8 d4b8 468b 313a fe55 35ba
000002c0: 11cd 9a39 19b8 c336 ef11 54b9 3ab2 75b5
000002d0: 9cfc 5ab8 0b88 84b7 fcaa bab9 78f7 3136
000002e0: cb8a 0fb7 8ef5 dd39 680b e639 4503 5d34
000002f0: f2f5 3db8 1cee 3737 33e2 403a f7e9 82b8
00000300: da65 0db3 7bfa 99b9 91b2 9430 8b82 8231
00000310: 5616 2fb8 c124 a8b3 d667 05b5 0857 93b9
00000320: 718e 0237 6683 c4b4 9ddb 17b7 8e37 1dba
00000330: 9d94 d3b6 2287 3ab2 c518 4034 e5a9 d6b7
00000340: 1a93 9238 7ce6 4c32 8a25 a932 8ae7 a938
00000350: c097 82b1 a747 b2b8 82e2 91b5 44e4 9cb9
00000360: 7907 04ba e443 3c33 d1fb ac3a 2f5a 04b4
00000370: c386 a5b6 65c7 ffb9 0ecf 6b30 baa6 79b9
00000380: 343b 06b2 792d 3a39 b3fa 09b9 5ca8 62b6
00000390: 04de b2b3 3eeb 9733 0edf 9437 f0ce 82b2
000003a0: b058 e6b6 636b 4935 0ff8 e837 d057 073a
000003b0: 5db0 4eb9 bd07 7339 9ecd 2eb4 0bb9 d533
000003c0: 8ed6 1f39 e8fd 2038 892e 15b4 43f1 2d36
000003d0: 5ad1 f3b6 8d8b 7c38 0741 5739 33be 7232
000003e0: c772 52b9 dc0e 9cb6 df9c 28b1 d919 dcb0
000003f0: 83f5 3cb3 ab01 05b0 e412 d7b7 0830 943a
-4.4585195e-06 0.00019368342 3.344445e-07 -4.3737426e-05 4.900202e-06 2.0115067e-06 8.7402935e-07 1.834835e-07
-2.3395605e-06 0.00085555017 1.3740705e-06 -0.0004220746 2.6431273e-06 0.0003444857 6.114909e-05 -9.200289e-08
-2.0762639e-06 3.2173226e-05 6.863155e-06 -0.0012195358 -5.1592986e-07 -3.6377255e-06 0.0003773125 -4.4409453e-06
-0.0002887802 -2.859297e-07 9.78525e-07 3.4534074e-05 -2.411349e-06 -1.9167483e-07 -3.403778e-06 -0.00043619316
-3.6115719e-06 -1.1243681e-05 -0.0004119025 -2.8094153e-08 -7.717716e-05 0.00039079043 3.192985e-07 1.2869398e-06
0.00013655979 1.9271514e-05 -5.4443703e-08 -5.700249e-06 -7.840805e-06 0.00015408004 -0.00010925097 3.365257e-07
-4.169954e-06 -0.0005902112 2.9911027e-05 3.1168638e-06 1.1528549e-06 -0.00013235222 1.701746e-06 -1.1469906e-07
-0.0003122815 -1.746045e-06 -1.8987174e-06 7.2965115e-08 8.130966e-08 -0.00033497234 2.3376155e-05 -1.1818108e-05
-4.0465573e-09 -1.0523944e-10 -5.9129207e-10 1.5334662e-09 6.0260336e-05 0.0006944477 2.0195976e-08 -6.619761e-11
-3.9058454e-10 -0.00021817788 2.6376922e-06 -4.2086547e-05 0.00058974116 -0.00010483576 -3.9604132e-07 -3.4548913e-07
5.0468543e-08 1.2095086e-10 5.91934e-09 2.6100753e-07 1.0670872e-09 -3.719035e-05 2.5524465e-09 3.4042371e-09
1.597906e-06 1.5771283e-08 -0.000934613 3.1077816e-06 -0.00016365426 5.8828817e-09 -2.5712177e-10 2.8313527e-10
-2.0415849e-08 -3.1593112e-07 2.433975e-05 5.7388907e-09 1.726745e-05 -2.5550662e-09 1.1795327e-11 -2.5749332e-05
6.4075185e-09 1.6039023e-05 -0.000120481236 0.0009832153 -1.7213403e-09 0.00044659528 -3.1152395e-05 1.3373365e-07
6.510659e-10 2.6100564e-11 -2.0215498e-09 3.966371e-12 -2.376571e-05 4.9503047e-05 -7.553745e-05 2.8847709e-11
-6.1496565e-11 5.2759697e-07 -1.1728658e-09 2.0704e-09 3.0662411e-10 -3.3652203e-10 1.27117055e-08 1.801122e-06
3.2350006e-05 2.4653452e-06 -6.0474854e-06 -0.0008749215 -3.8817416e-05 0.00011096634 -0.0002449099 -0.00046546466
-9.6093856e-08 -7.283077e-06 -5.7143723e-05 -0.0008724867 -4.191837e-06 -0.0012768306 -0.00023260506 8.654403e-09
-0.00026495868 5.5690503e-05 -7.4193194e-05 -0.0007025812 -5.5578683e-05 -8.516616e-06 8.868544e-06 -0.00013249667
-0.0008921572 -6.671379e-05 -0.00024799685 0.000916516 -0.001360039 -1.4916553e-07 -4.217519e-05 2.3241284e-05
-0.00027033637 2.6618629e-05 -0.000110641864 3.2477812e-05 -3.2579672e-07 -3.304709e-05 1.1043556e-06 -0.00015027345
0.00047499192 -1.063641e-06 -0.0005528301 1.0635956e-06 -7.052794e-05 -0.00010155178 0.00067727675 -0.0006917416
0.00029525955 5.8328847e-06 -0.00020224576 -9.1528966e-07 -5.221051e-05 -1.5798976e-05 -0.00035604078 2.65191e-06
-8.5557795e-06 0.00042335357 0.00043877517 2.0583418e-07 -4.5290166e-05 1.0963089e-05 0.0007357925 -6.2424624e-05
-3.2921754e-08 -0.00029369057 1.0819169e-09 3.798339e-09 -4.1744053e-05 -7.829795e-08 -4.969746e-07 -0.00028102868
7.7817685e-06 -3.660345e-07 -9.051434e-06 -0.0005997353 -6.305591e-06 -1.0857351e-08 1.7890405e-07 -2.5589901e-05
6.989222e-05 1.1926769e-08 1.969126e-08 8.1016755e-05 -3.80075e-09 -8.501048e-05 -1.0869264e-06 -0.0002992471
-0.0005036514 4.3833907e-08 0.0013197606 -1.2326267e-07 -4.9330715e-06 -0.0004878595 8.5786744e-10 -0.00023808601
-7.813288e-09 0.00017755282 -0.00013158731 -3.3774622e-06 -8.329155e-08 7.074276e-08 1.7746843e-05 -1.5228096e-08
-6.8648587e-06 7.5034603e-07 2.7772066e-05 0.00051629264 -0.00019711391 0.00023177169 -1.6279816e-07 9.9522445e-08
0.0001524335 3.838344e-05 -1.3893636e-07 2.5919442e-06 -7.266336e-06 6.021145e-05 0.00020528222 1.41295e-08
-0.00020069919 -4.650892e-06 -2.4536388e-09 -1.6014453e-09 -4.3995453e-08 -4.838749e-10 -2.5638794e-05 0.0011305818

deep_network.4.bias f4 [32]
00000000: 9112 00b8 cb8c 4635 464e 16bd 3673 9835
00000010: 4566 4fb6 7395 beb3 95b2 9435 2fd7 b1b3
00000020: 90a8 ffb6 d395 18b6 083f c4ba 0612 4732
00000030: 6bd8 d1b6 9767 0bb7 da37 6234 5410 abb7
00000040: 4b28 1bb9 2f62 8fb8 c504 eeb6 760b 2c39
00000050: c1b9 1fb8 1ba5 1735 1445 b8b7 ce87 19b8
00000060: 3d3a 96b9 89ad 7d3b b4f0 08b7 994a 2eb6
00000070: c770 9cb7 45cc 45b4 70e6 bfb5 3ef1 2ab5
-3.053487e-05 7.396563e-07 -0.03669574 1.1358413e-06 -3.0904932e-06 -8.874749e-08 1.1078833e-06 -8.2813465e-08
-7.6192155e-06 -2.2736974e-06 -0.0014972398 1.1587423e-08 -6.2538797e-06 -8.3091645e-06 2.1068209e-07 -2.0392392e-05
-0.00014796962 -6.8370595e-05 -7.093508e-06 0.00016407468 -3.808155e-05 5.6492144e-07 -2.1966676e-05 -3.660452e-05
-0.0002865362 0.0038708171 -8.162275e-06 -2.5971442e-06 -1.8649165e-05 -1.8421368e-07 -1.4297675e-06 -6.368099e-07

output_layer.weight f4 [1, 45]
00000000: cc6a 15bd 828d 4538 134b d6bd 8f64 523d
00000010: be13 463f 0d71 1a3d f2b8 15ba d6e4 683d
00000020: fb71 17be 2b9e 7b3e 3f8f 103d ae9b a7be
00000030: e581 8d3e a918 f5b7 92da 7135 2c52 123d
00000040: 3fc8 eb35 c7c0 8ab6 fe4c cbb3 084b 8cb3
00000050: 0d06 1e33 eeab 0937 63c6 0436 1c92 a03a
00000060: f42b a634 29dd ecb5 3ae7 0037 68d9 3135
00000070: 08ae 3a37 f7c4 1639 f4d2 7f38 52d0 e936
00000080: 099e 3b3a b6b3 1cb8 5ebc 8336 2f6d a537
00000090: aeb5 fe37 9fc0 9739 ae68 7dbb 8e3b 2736
000000a0: ab3a 3436 3ff4 9f37 1d32 52b4 dc7d 43b5
000000b0: 3497 29b5
-0.036478803 4.710025e-05 -0.10463538 0.05136543 0.77373874 0.03770547 -0.0005711458 0.05685886
-0.14789574 0.24572055 0.03529286 -0.32735962 0.27638164 -2.921776e-05 9.009756e-07 0.035722896
1.7567144e-06 -4.1351627e-06 -9.466929e-08 -6.532906e-08 3.6792745e-08 8.205867e-06 1.978501e-06 0.0012250575
3.095189e-07 -1.7647736e-06 7.683231e-06 6.6254006e-07 1.1126984e-05 0.0001437849 6.0993203e-05 6.968193e-06
0.0007157033 -3.7360667e-05 3.926033e-06 1.9720375e-05 3.036376e-05 0.00028944478 -0.003866713 2.4919605e-06
2.685624e-06 1.9068013e-05 -1.9576005e-07 -7.282631e-07 -6.3177436e-07
