Results/FM/20250106_213307_batch1024_epoch10_lr0.001_k10_FM/treatment_fm.pth (torch, 2359 bytes, 2 tensors)

v f4 [13, 10]
-0.06740312 -0.16895929 0.13826968 -0.07398859 -0.04905121 0.047444716 0.1129494 -0.005882669
0.18040508 -0.006820187 0.075608425 0.0059837895 -0.014209194 0.07776147 0.014535282 0.009883851
-0.0780926 -0.06586838 -0.13037878 0.0020913873 -0.0056726113 0.08282263 -0.009385855 -0.024310565
-0.027788477 -0.013805272 -0.042823147 0.027265327 -0.034041885 -0.007806054 -0.02536732 0.022030134
-0.026629485 -0.008632998 -0.010613389 -0.016414907 0.015563858 0.009420665 0.0046527847 0.023914542
-0.065264165 -0.13597454 -0.054973893 -0.017819608 0.008604502 0.040905695 0.069729224 0.024965735
0.04432913 0.028241476 0.017623108 0.006418579 0.016451199 0.0076361876 0.012584146 -0.002380019
0.0011652305 -0.011809695 -0.0081122015 0.0140900025 0.0005708469 -0.0053672367 -0.014676728 -0.0031748114
0.013173526 0.027281098 -0.0013803194 0.00782469 -0.022022875 -0.01543872 0.0003979349 -0.0032991383
-0.0057459287 0.010265301 0.0056371186 -0.012102034 0.0031346995 0.0061331163 0.00428504 -0.010388711
-0.006968979 0.0066675767 -0.04192647 0.007186981 0.015708657 -0.0010796542 0.01240275 0.005595588
3.3856293e-05 0.011709613 -0.0070542595 -0.096605845 -0.0040540756 0.011449838 0.023211757 0.08588174
0.011059158 -0.043016203 -0.087135695 0.03271273 -0.025591878 -0.045738928 0.016686663 -0.009614434
0.060583837 0.03332373 0.033362247 -0.0063434923 0.018680405 0.026517548 0.011629289 0.0075566345
-0.0058353115 -0.0013219597 -0.010185452 0.0071878303 0.014101054 0.01575384 0.004300846 -0.003618229
-0.0558389 -0.1852443 0.032519564 -0.014382504 -0.0008467551 0.10509995 0.05563038 -0.038020108
-0.0067695216 0.04915733
00000000: a60a 8abd aa03 2dbe 9196 0d3e 5487 97bd
00000010: ece9 48bd 6455 423d 0452 e73d 67c3 c0bb
00000020: 1cbc 383e e07b dfbb 97d8 9a3d aa13 c43b
00000030: aecd 68bc 6841 9f3d 6425 6e3c e0ef 213c
00000040: 03ef 9fbd 00e6 86bd 0482 05be a80f 093b
00000050: 50e1 b9bb e99e a93d 21c7 19bc f326 c7bc
00000060: a9a4 e3bc 822f 62bc 5367 2fbd 895b df3c
00000070: 816f 0bbd edc9 ffbb 20cf cfbc 8a78 b43c
00000080: 1426 dabc 6b71 0dbc c8e3 2dbc 8e78 86bc
00000090: 8dff 7e3c 2259 1a3c 6376 983b 6ee8 c33c
000000a0: 38a9 85bd e93c 0bbe 4e2c 61bd 6dfa 91bc
000000b0: e6f9 0c3c bb8c 273d 32ce 8e3d f184 cc3c
000000c0: 7692 353d ab5a e73c 565e 903c f152 d23b
000000d0: aac4 863c fc38 fa3b bc2d 4e3c 18fa 1bbb
000000e0: a6ba 983a 737d 41bc 0ae9 04bc c1d9 663c
000000f0: e3a4 153a a5df afbb a976 70bc 7f10 50bb
00000100: c6d5 573c 9c7c df3c d5eb b4ba 2133 003c
00000110: 5169 b4bc aff2 7cbc eba1 d039 5b36 58bb
00000120: 5848 bcbb cb2f 283c 94b7 b83b 9c47 46bc
00000130: 886f 4d3b 4ff8 c83b 8569 8c3b 6935 2abc
00000140: 085c e4bb b07b da3b 17bb 2bbd c480 eb3b
00000150: 71af 803c 2f83 8dba e734 4b3c 325b b73b
00000160: eb00 0e38 add9 3f3c 6b27 e7bb 49d9 c5bd
00000170: 0dd8 84bb 1a98 3b3c 9526 be3c c4e2 af3d
00000180: 7831 353c c231 30bd 3374 b2bd c9fd 053d
00000190: 0fa6 d1bc be58 3bbd 78b2 883c dc85 1dbc
000001a0: c226 783d 777e 083d daa6 083d 12dd cfbb
000001b0: a607 993c 543b d93c c688 3e3c a59d f73b
000001c0: 2436 bfbb 9b45 adba e2e0 26bc e487 eb3b
000001d0: 1b08 673c 320e 813c 1cee 8c3b cf1f 6dbb
000001e0: 55b7 64bd afb0 3dbe 3c33 053d 98a4 6bbc
000001f0: c6f8 5dba a53e d73d aedc 633d f9ba 1bbd
00000200: ddd2 ddbb 3259 493d

linear.weight f4 [1, 13]
-0.025663609 0.037579674 -0.23693861 0.15923142 -0.2150484 -0.02960283 -0.13328218 0.06926234
0.16214618 -0.23112708 0.14968589 0.051881462 0.24061503
00000000: 7d3c d2bc 25ed 193d 09a0 72be 900d 233e
00000010: a635 5cbe a281 f2bc 207b 08be 6ad9 8d3d
00000020: a609 263e 94ac 6cbe 4247 193e a881 543d
00000030: c963 763e
