Results/DFM/20250107_172842_batch1024_epoch10_lr0.01_reg0.001_DFM/control_deepfm.pth (torch, 174430 bytes, 9 tensors)

linear.weight f4 [1, 13]
00000000: 8502 0b3e 4afa 1b3f 53a8 083f ea03 2ebb
00000010: 6d9c 05bf 703d 643e dc68 c83d fa80 633d
00000020: 0d83 863e 9746 09be 2296 1a3e 5401 c03d
00000030: f3a1 d1af
0.1357518 0.60928786 0.5338184 -0.0026552626 -0.5219181 0.22289062 0.09785625 0.055542924
0.2627186 -0.13405834 0.15096334 0.09375253 -3.813195e-10

embeddings.weight f4 [13, 32]
00000000: cd0d 0080 ee0d 0000 c00d 0000 cd0d 0080
00000010: d90d 0000 bb0d 0000 ee0f 0000 ca0d 0080
00000020: ba0d 0000 d40d 0000 0c0d 0080 ba0d 0080
00000030: cd0d 0000 220e 0080 d00d 0000 bd0d 0080
00000040: fd0d 0080 b40d 0000 b00d 0000 c80d 0080
00000050: e10d 0000 c40d 0080 e30d 0000 b60d 0080
00000060: e40d 0000 ca0d 0000 cf0d 0000 d00d 0080
00000070: e60f 0080 dc0d 0000 470e 0000 b80d 0000
00000080: fd0d 0080 0e0e 0000 e70d 0080 ce0d 0000
00000090: d70d 0000 b40d 0080 6f11 0000 b510 0000
000000a0: f30d 0000 b10d 0000 150e 0080 1b0e 0000
000000b0: ed0d 0000 b70d 0000 bb0d 0080 8211 0000
000000c0: cc0d 0080 b00d 0000 c50d 0080 f10d 0080
000000d0: e40b 0080 b810 0000 de0d 0000 bc0d 0080
000000e0: e00d 0000 db0d 0000 ea0e 0080 bc10 0000
000000f0: b10d 0080 280e 0000 bf0d 0000 cc0d 0000
00000100: bd0d 0080 380e 0000 080e 0080 9310 0080
00000110: fb0d 0080 360e 0000 f20e 0000 0410 0000
00000120: 3a0f 0080 b10d 0000 f10d 0080 d00d 0080
00000130: d70d 0080 5307 0080 dc0d 0080 dc0e 0000
00000140: 3911 0000 fd0d 0000 ba0d 0080 db0d 0080
00000150: 500b 0080 5310 0000 ec0d 0000 e20d 0080
00000160: c60e 0080 d10d 0000 a40f 0080 b60d 0080
00000170: b70d 0000 850c 0080 b20d 0000 be0d 0000
00000180: fc00 0000 d40d 0000 0d0e 0080 280f 0000
00000190: 410e 0000 af0e 0000 320e 0000 390e 0080
000001a0: 1e0c 0080 ce0d 0080 5d02 0080 e40d 0000
000001b0: ca0c 0080 ae0d 0000 170f 0080 e10e 0000
000001c0: 440e 0080 e80d 0080 8e0f 0080 c60e 0080
000001d0: bd08 0000 a60c 0000 250e 0080 c80d 0080
000001e0: 990e 0000 f20d 0000 c20a 0000 f10c 0080
000001f0: ee0d 0080 d704 0080 820e 0000 f80d 0000
00000200: 7d05 0080 d70d 0000 d70d 0080 230e 0080
00000210: bd0d 0080 f20d 0000 dc10 0000 b00d 0080
00000220: fd0d 0000 c10d 0080 cb0d 0000 bd0d 0000
00000230: fd0d 0000 b50d 0000 b70d 0080 cf0d 0080
00000240: bc0d 0080 c20d 0080 c90d 0000 ba0d 0080
00000250: de0d 0000 9510 0000 cc0d 0080 fe0d 0080
00000260: f20d 0000 b70d 0080 ce0d 0000 b90d 0080
00000270: c90d 0080 ea0d 0000 230b 0000 af0d 0080
00000280: 2b0e 0000 950e 0000 b60e 0000 cb0e 0080
00000290: d60d 0080 fc0e 0000 6b10 0000 d60e 0000
000002a0: ae0e 0080 480e 0000 a500 0000 4c0e 0000
000002b0: 9a01 0000 c30d 0000 1a0e 0000 2510 0000
000002c0: c60d 0080 070e 0080 ba0d 0080 4e00 0080
000002d0: 7900 0000 1111 0000 280e 0080 4b11 0000
000002e0: ca00 0080 610e 0000 7611 0080 2600 0000
000002f0: bf0d 0080 ad0e 0080 d304 0000 c60d 0000
00000300: dd0d 0000 300e 0000 bf0d 0080 8f0e 0000
00000310: be0d 0080 5d0e 0080 640b 0080 cb0d 0000
00000320: 880e 0000 ee0d 0080 240e 0000 8d0e 0080
00000330: 7a0f 0000 cb06 0000 c50d 0080 180e 0080
00000340: c90d 0000 110e 0080 e60d 0080 e00f 0080
00000350: 280c 0000 c010 0080 780e 0080 5e10 0080
00000360: d10d 0000 fa0d 0000 b60f 0000 7711 0080
00000370: 240e 0080 e30d 0080 fb0d 0080 f20d 0080
00000380: cb0d 0080 b30d 0000 120e 0000 320e 0000
00000390: e10d 0000 8a10 0000 460f 0000 210e 0080
000003a0: c210 0080 e80f 0000 520e 0080 360e 0080
000003b0: dd0e 0080 380e 0000 b80d 0000 ca0f 0000
000003c0: dc0d 0000 2d0e 0080 c00d 0080 9610 0000
000003d0: b510 0080 100e 0000 bc0d 0000 8a0f 0000
000003e0: 870b 0080 740e 0000 cc10 0080 bd04 0000
000003f0: 040e 0000 c800 0080 460e 0000 f20d 0080
-4.951e-42 4.997e-42 4.933e-42 -4.951e-42 4.968e-42 4.926e-42 5.714e-42 -4.947e-42
4.924e-42 4.96e-42 -4.68e-42 -4.924e-42 4.951e-42 -5.07e-42 4.955e-42 -4.928e-42
-5.018e-42 4.916e-42 4.91e-42 -4.944e-42 4.979e-42 -4.938e-42 4.982e-42 -4.919e-42
4.983e-42 4.947e-42 4.954e-42 -4.955e-42 -5.703e-42 4.972e-42 5.122e-42 4.921e-42
-5.018e-42 5.042e-42 -4.987e-42 4.952e-42 4.965e-42 -4.916e-42 6.254e-42 5.993e-42
5.004e-42 4.912e-42 -5.052e-42 5.06e-42 4.996e-42 4.92e-42 -4.926e-42 6.28e-42
-4.95e-42 4.91e-42 -4.94e-42 -5.001e-42 -4.266e-42 5.998e-42 4.975e-42 -4.927e-42
4.977e-42 4.97e-42 -5.35e-42 6.003e-42 -4.912e-42 5.078e-42 4.931e-42 4.95e-42
-4.928e-42 5.101e-42 -5.033e-42 -5.946e-42 -5.015e-42 5.098e-42 5.361e-42 5.745e-42
-5.462e-42 4.912e-42 -5.001e-42 -4.955e-42 -4.965e-42 -2.627e-42 -4.972e-42 5.33e-42
6.178e-42 5.018e-42 -4.924e-42 -4.97e-42 -4.058e-42 5.856e-42 4.994e-42 -4.98e-42
-5.3e-42 4.956e-42 -5.611e-42 -4.919e-42 4.92e-42 -4.491e-42 4.913e-42 4.93e-42
3.53e-43 4.96e-42 -5.04e-42 5.437e-42 5.113e-42 5.267e-42 5.092e-42 -5.102e-42
-4.347e-42 -4.952e-42 -8.48e-43 4.983e-42 -4.588e-42 4.907e-42 -5.413e-42 5.338e-42
-5.118e-42 -4.989e-42 -5.58e-42 -5.3e-42 3.135e-42 4.537e-42 -5.074e-42 -4.944e-42
5.237e-42 5.003e-42 3.859e-42 -4.643e-42 -4.997e-42 -1.736e-42 5.204e-42 5.011e-42
-1.969e-42 4.965e-42 -4.965e-42 -5.071e-42 -4.928e-42 5.003e-42 6.048e-42 -4.91e-42
5.018e-42 -4.934e-42 4.948e-42 4.928e-42 5.018e-42 4.917e-42 -4.92e-42 -4.954e-42
-4.927e-42 -4.935e-42 4.945e-42 -4.924e-42 4.975e-42 5.949e-42 -4.95e-42 -5.02e-42
5.003e-42 -4.92e-42 4.952e-42 -4.923e-42 -4.945e-42 4.991e-42 3.995e-42 -4.909e-42
5.083e-42 5.231e-42 5.277e-42 -5.307e-42 -4.963e-42 5.375e-42 5.89e-42 5.322e-42
-5.266e-42 5.123e-42 2.31e-43 5.129e-42 5.75e-43 4.937e-42 5.059e-42 5.792e-42
-4.941e-42 -5.032e-42 -4.924e-42 -1.1e-43 1.7e-43 6.122e-42 -5.078e-42 6.204e-42
-2.83e-43 5.158e-42 -6.264e-42 5.3e-44 -4.931e-42 -5.265e-42 1.73e-42 4.941e-42
4.973e-42 5.09e-42 -4.931e-42 5.223e-42 -4.93e-42 -5.153e-42 -4.086e-42 4.948e-42
5.213e-42 -4.997e-42 5.073e-42 -5.22e-42 5.552e-42 2.437e-42 -4.94e-42 -5.056e-42
4.945e-42 -5.046e-42 -4.986e-42 -5.695e-42 4.361e-42 -6.009e-42 -5.19e-42 -5.871e-42
4.956e-42 5.014e-42 5.636e-42 -6.265e-42 -5.073e-42 -4.982e-42 -5.015e-42 -5.003e-42
-4.948e-42 4.914e-42 5.047e-42 5.092e-42 4.979e-42 5.933e-42 5.479e-42 -5.068e-42
-6.012e-42 5.706e-42 -5.137e-42 -5.098e-42 -5.332e-42 5.101e-42 4.921e-42 5.664e-42
4.972e-42 -5.085e-42 -4.933e-42 5.95e-42 -5.993e-42 5.045e-42 4.927e-42 5.574e-42
-4.135e-42 5.185e-42 -6.026e-42 1.7e-42 5.028e-42 -2.8e-43 5.12e-42 -5.003e-42

deep.0.weight f4 [512, 13]
00000000: b20d 0080 cc0d 0080 b410 0080 a10e 0080
00000010: 160e 0080 8310 0000 ea0d 0000 090f 0080
00000020: e50d 0080 ac0d 0080 6b0e 0080 b10d 0080
00000030: b00e 0080 11c3 f836 18f7 6eb7 f72a b037
00000040: f472 72b8 efca a738 04f7 66b8 7ece 2437
00000050: e99b e7b6 d001 bbb7 9cd2 2938 31dd 7137
00000060: 9afb abb5 cabd 582d 906d c2b9 3105 feb7
00000070: b664 3f35 3e72 2838 3d1e e036 ed97 a9b9
00000080: ec9f cc39 553a d0b7 fd6d 4a39 889d 2cba
00000090: 4d07 2fb6 8e90 c634 230e 0080 db3e 0537
000000a0: 9ea3 3d35 cc27 4537 3891 313a 8f8b f436
000000b0: 9bf4 70b8 b138 22b7 a562 5936 5a44 ad39
000000c0: c7a7 7337 15ca 5936 26c4 41ba 0410 0000
000000d0: 61b6 a5b6 f917 f1b7 b109 9637 887f da37
000000e0: 5a42 d935 3308 d3b8 7523 23b9 c8a8 ae38
000000f0: c831 65b8 0c51 5436 db32 79b7 79c7 2d35
00000100: b90d 0000 21ed 9839 9665 f6b7 d818 a438
00000110: ae17 e2b8 f8cf c836 f943 0337 3d3a e2b8
00000120: 9ab2 afb7 ca60 5bb6 4baa 0335 a1db 6037
00000130: 174d 9636 89bc 8eb1 af12 05ba 6d2d db35
00000140: 2302 61b8 f411 7e39 ae75 e935 30eb 39b8
00000150: 4bde 8f37 3823 2db8 034c b4ba fff5 2e36
00000160: 14d9 a6b8 255d 2838 3b0e 0000 3cb9 a2b4
00000170: b91b c8b8 5c54 353a c56f dcb8 0a02 7935
00000180: 6d35 0fb6 55d6 c9b8 8dc5 2a37 673b 5c38
00000190: 0b69 e336 22cb d8b6 0d78 f135 f84a 072e
000001a0: 0dab b838 d961 1536 81c4 40b9 5825 d239
000001b0: b732 f237 b101 5838 09f3 f136 8e8c e8b5
000001c0: 37e4 d2b7 2dcb d4b8 d194 1539 57e8 31b8
000001d0: 8b10 0080 82f2 18b7 628e 53b6 cd10 beb5
000001e0: 46af 563a 8075 2f37 5b72 80b8 1fe8 3836
000001f0: c53a 0db9 d67e 8eb6 a389 9038 5e5e 1939
00000200: 0518 65b5 6310 0000 5a8e 6ab4 7790 6c37
00000210: d853 ceb7 41d7 6a39 c16b 3ab6 3cbf 64b8
00000220: 165a f537 ee56 90b8 8afe ef38 7e18 a836
00000230: 014c 5838 8de8 30b4 f80d 0000 f7c9 d3b6
00000240: 5b7d e336 64fb 48b8 d66f e0b6 e81c 9cb8
00000250: a2ab 0338 31dc c0b6 5751 4d35 90d7 f136
00000260: 46a8 dc36 411d 4939 0587 a835 5d0f 0000
00000270: 7538 68b9 5153 1039 e67a 613a 4473 86b9
00000280: 044f 3639 4d90 f8b8 ef99 6536 5824 8338
00000290: 23b3 e7b7 a1a9 2b36 36ff 6cb9 55ca 8ab8
000002a0: 0e0f 0080 7a74 abb4 88eb 7f37 e7e8 e937
000002b0: e6b4 6637 b4b3 8f38 9273 5539 bc96 ee36
000002c0: b691 9b36 fecb 2c3a d800 1f39 299a 8f35
000002d0: a1eb 8d37 8b0e 0000 4a23 f0b4 1b54 81b4
000002e0: cdde 8ab8 1982 8938 2ccb b233 5164 8c38
000002f0: 9e23 98b8 0085 ae37 3022 b139 98f8 1e36
00000300: ddb6 16b6 23c0 7f34 4710 0080 76b3 a23a
00000310: c12c e9b7 49cb 2db6 5a58 05b8 4e2a aeb6
00000320: 7469 a8b8 1ec9 bb37 986f 07b9 a5d5 2e38
00000330: 526b 0eb7 d58a 3bb8 dc88 52b9 f20f 0080
00000340: 1fb5 b534 85ec 0d37 6865 bd34 ea0c 2bb9
00000350: f752 40b7 506e f6b7 0eea ef37 b4e7 8138
00000360: 0301 3a39 4c2a 0bb9 0b1b c1b8 2dcd b9b3
00000370: b10d 0080 539d 8e34 3c05 9d37 a052 eeb5
00000380: a152 bc38 9a71 cdb9 f587 8738 de6d da37
00000390: 3036 c2b8 ecc8 e6b8 038a 2bb5 4f13 11b8
000003a0: eaee d6ba e30f 0080 9250 81b3 d0e2 0237
000003b0: 4388 b536 d505 23b9 f7a9 10b9 7f59 a939
000003c0: 745a f0b8 7fd5 d337 6e65 1139 83e6 d4b5
000003d0: 4f2d 5a39 ea70 1fb7 0bc6 a2ad ca0c 1a35
000003e0: 8ec3 b6b5 38bc b9b4 9913 143a 411c 0634
000003f0: 1db7 2c33 a046 bcb8 420f 2238 c6cc 093a
-4.913e-42 -4.95e-42 -5.992e-42 -5.248e-42 -5.053e-42 5.923e-42 4.991e-42 -5.394e-42
-4.984e-42 -4.905e-42 -5.172e-42 -4.912e-42 -5.269e-42 7.4136847e-06 -1.4243436e-05 2.1000842e-05
-5.7804355e-05 8.00098e-05 -5.5066324e-05 9.823239e-06 -6.902487e-06 -2.2292981e-05 4.0488885e-05 1.44162195e-05
-1.2813719e-06 1.232032e-11 -0.00037084194 -3.0281577e-05 7.12996e-07 4.0160718e-05 6.6792404e-06 -0.00032347385
0.00039029063 -2.4822695e-05 0.00019305195 -0.0006584753 -2.6081282e-06 3.698555e-07 -5.071e-42 7.942052e-06
7.064608e-07 1.1751381e-05 0.00067736534 7.2880134e-06 -5.7448266e-05 -9.669152e-06 3.2392938e-06 0.00033048057
1.4522992e-05 3.2453147e-06 -0.0007391594 5.745e-42 -4.938615e-06 -2.8740602e-05 1.7885906e-05 2.6047011e-05
1.6187071e-06 -0.00010062791 -0.000155581 8.3284045e-05 -5.4644217e-05 3.1637637e-06 -1.4853397e-05 6.4737793e-07
4.923e-42 0.00029168374 -2.937279e-05 7.824757e-05 -0.000107809305 5.984675e-06 7.824035e-06 -0.000107873675
-2.0944794e-05 -3.2689882e-06 4.904911e-07 1.3402577e-05 4.479323e-06 -4.154178e-09 -0.00050763314 1.6329992e-06
-5.364617e-05 0.00024230016 1.7394102e-06 -4.4326473e-05 1.7150442e-05 -4.1279214e-05 -0.0013755563 2.607121e-06
-7.955931e-05 4.014107e-05 5.105e-42 -3.0309627e-07 -9.541907e-05 0.00069171726 -0.00010511236 9.2762696e-07
-2.1339758e-06 -9.624349e-05 1.01787855e-05 5.250741e-05 6.777356e-06 -6.4609494e-06 1.7990839e-06 3.0762032e-11
8.8056644e-05 2.2259685e-06 -0.0001838375 0.00040082145 2.8872264e-05 5.149999e-05 7.2106527e-06 -1.7326254e-06
-2.5140222e-05 -0.00010146792 0.00014265186 -4.2416472e-05 -5.934e-42 -9.116369e-06 -3.1524328e-06 -1.4160993e-06
0.000818957 1.045817e-05 -6.124816e-05 2.7553249e-06 -0.00013468701 -4.2466954e-06 6.892092e-05 0.00014626372
-8.53441e-07 5.878e-42 -2.1844735e-07 1.4100332e-05 -2.4596156e-05 0.00022396167 -2.777888e-06 -5.4537537e-05
2.9248225e-05 -6.882647e-05 0.0001144382 5.0096414e-06 5.1569197e-05 -1.6475879e-07 5.011e-42 -6.311802e-06
6.7797205e-06 -4.791784e-05 -6.6887396e-06 -7.444044e-05 3.139268e-05 -5.7476796e-06 7.6486816e-07 7.2074545e-06
6.5761005e-06 0.00019179752 1.2556271e-06 5.511e-42 -0.00022146276 0.00013763948 0.0008601382 -0.0002564435
0.00017386308 -0.0001185244 3.421326e-06 6.253336e-05 -2.7620763e-05 2.5579723e-06 -0.00022601787 -6.61804e-05
-5.4e-42 -3.193598e-07 1.5254023e-05 2.7884218e-05 1.3751187e-05 6.852244e-05 0.00020356316 7.1105005e-06
4.636323e-06 0.00065916765 0.00015163736 1.0699197e-06 1.6918233e-05 5.217e-42 -4.472916e-07 -2.4089317e-07
-6.621853e-05 6.556902e-05 8.325728e-08 6.6944056e-05 -7.254559e-05 2.080435e-05 0.00033785542 2.3688535e-06
-2.2458182e-06 2.3818625e-07 -5.839e-42 0.0012413103 -2.7796605e-05 -2.5897336e-06 -3.1791955e-05 -5.190529e-06
-8.0305064e-05 2.238579e-05 -0.00012916175 4.1683805e-05 -8.488847e-06 -4.471357e-05 -0.00020078145 -5.72e-42
3.384566e-07 8.459324e-06 3.5277776e-07 -0.00016312642 -1.1463409e-05 -2.9376853e-05 2.860001e-05 6.1943574e-05
0.00017738719 -0.0001327183 -9.207994e-05 -8.652055e-08 -4.912e-42 2.656403e-07 1.8718296e-05 -1.7756429e-06
8.9799294e-05 -0.00039185287 6.4626256e-05 2.6038786e-05 -9.260734e-05 -0.00011004679 -6.39033e-07 -3.4588676e-05
-0.0016398106 -5.699e-42 -6.021686e-08 7.801413e-06 5.4100833e-06 -0.00015547064 -0.00013796227 0.00032300872
-0.0001146094 2.5252577e-05 0.00013866063 -1.5862319e-06 0.00020806979 -9.503428e-06 -1.8505216e-11 5.738808e-07
-1.3616971e-06 -3.4595882e-07 0.0005648672 1.2490001e-07 4.021341e-08 -8.9776935e-05 3.863802e-05 0.0005256649

deep.0.bias f4 [512]
00000000: 750e 0080 3e89 02b7 fb21 78b9 35e9 2dba
00000010: 0dd3 6338 b39d af35 e8e4 2cb5 b04c baba
00000020: ae6e 39ba 5c67 0eb7 af78 64b9 0f34 0136
00000030: 0574 c4b7 eb91 15b4 0c8a 0837 6616 e535
00000040: af83 0b35 d3f6 3eb5 8f09 a63a 4f56 f3b3
00000050: 584f 633a 78b9 d039 81a7 26b9 b2d8 9f3a
00000060: 3674 f4b7 0420 6a37 b243 8eb9 e9a4 c0b9
00000070: 10b5 b5b5 2fb3 30b9 801c 0e39 2e61 c5b4
00000080: e2fb e839 a63f 8639 52e3 213a 51e4 9f36
00000090: 0e69 ad33 7701 ad39 22f1 18b5 7f48 343a
000000a0: 5b1f 1f39 f361 2e3a 106f 6835 0dec 45b5
000000b0: ba23 88b9 3718 ba38 eb49 a236 089d 07b7
000000c0: 174f 80b3 8a6f 21b8 a8d7 0bb7 6dc2 9aba
000000d0: e051 1ab8 12d0 6ab3 04ff 9d39 5074 ff39
000000e0: 9495 b035 dcbb cb35 480d fbb9 cc15 c438
000000f0: d3d3 5535 c21f 5239 fda7 acb9 70e0 8bb7
00000100: 5090 a4b5 5a7d 6334 6d3f 3bb5 1ef7 1538
00000110: ffeb 9cb5 77f2 bf35 7911 0000 fbff ed39
00000120: 24c8 41b5 88d7 4635 4591 8338 9d0e 0080
00000130: 5ccd b834 6cc3 0a39 b9b7 fab8 157f 3eb5
00000140: 3a79 b235 9323 1f37 2419 e333 3667 c239
00000150: a35e 9935 a213 9235 f9c8 a734 ad44 f4b7
00000160: 3701 8cb5 644b 0435 56d3 ffb3 eb4e 23b8
00000170: edaa 4339 36ae 7f39 7af4 78b6 100e 0000
00000180: 9b5e 2cb8 5c9b 8e3a 328e 80b5 faef 0cb9
00000190: 1620 14b6 52fc c2b9 597e c435 e37b dfb6
000001a0: 4866 9d34 254a 703a 3a7b 403a 7f46 3eb9
000001b0: 5d06 8e35 bebf 90b6 b1d3 07b7 5120 8ab6
000001c0: f1be ee39 c44f 55ba 0e42 4a39 6488 4432
000001d0: cac2 aa39 13a1 24b9 271c 07ba f74f ef38
000001e0: 3db9 7bb6 a8a2 c739 b19e 65b6 2ff2 89ba
000001f0: ff5f d334 c6fb 9338 ef1f ba3a afca 913a
00000200: 64c7 c4b7 6148 a4ba 5a1a 50b9 946f 0d3a
00000210: 9e8d 6234 0302 0000 8fee ad35 6afd 08b6
00000220: f24c 52b4 b47e 0c3a 2f82 a9b9 a835 9537
00000230: 5380 a8b5 cb0a 0080 5193 a339 0aab 87b8
00000240: 52c9 c236 e00f ed37 92a0 fa34 61a8 ce35
00000250: a310 0000 f748 2535 751a 92b7 2dee 8137
00000260: 0f32 9ab5 5450 ae37 832d 6938 cf81 b538
00000270: fff8 a139 1319 3537 fcc0 163a 9604 36b6
00000280: b33e 143a e20f 0080 a40e 0080 a379 a8b4
00000290: 2eec 6a35 9945 1935 5501 7eb9 e644 e7b4
000002a0: 9191 c0b9 1267 2839 8d76 cd34 d2fe 6f37
000002b0: afb9 8b35 4a3e d7b7 4353 0e35 daf7 05ba
000002c0: df4e 43ba 8fc5 c3b5 ea88 7db5 d28e 6634
000002d0: ad19 29b5 80c2 8b34 a6c3 b233 50ca f135
000002e0: 37cb 37b7 162b 5734 1ca7 acb9 ee1d 1238
000002f0: 02ca 7c37 4745 003a 026e 1d38 ac79 afb9
00000300: 4341 2438 eca3 5039 5221 bfb6 12b6 1b3a
00000310: ba77 e139 a110 0000 d867 be3a ecf6 5534
00000320: a990 80b9 3506 0aba a089 79ba f97d dab4
00000330: 2a73 7535 ad96 963a a341 4ab9 449c 67b9
00000340: ea96 b5b7 86fc 003a 90d1 3cb9 2870 8935
00000350: 467e 033a c4d8 00b5 72c0 cf35 4f81 5137
00000360: 5666 e436 42c1 3e37 dfe2 4339 f39c 0735
00000370: 5376 0d38 94b1 bfba 5e52 adb6 c856 a3b5
00000380: 6df6 7437 86dc 6439 7f9b 293a 30da a939
00000390: 3112 aeba 601d 023a 0ea2 83ba 3f2a a938
000003a0: 7e1a 19b7 9d49 a834 9d54 dab6 c2c2 c634
000003b0: bac5 9f37 18ed 2a39 ede2 b6b8 8a60 d1b8
000003c0: f695 86b8 5f19 5335 1573 0b35 9e90 e238
000003d0: 023b a436 4511 0080 7471 8a35 9a73 b6b9
000003e0: 600f 9ab9 e245 483a d606 34b5 91d4 87b4
000003f0: ecab 1b37 1dcc ccb8 b12f be34 2501 cd36
-5.186e-42 -7.780558e-06 -0.00023663782 -0.0006634177 5.4317574e-05 1.3084413e-06 -6.4408096e-07 -0.0014213528
-0.00070736825 -8.487925e-06 -0.00021788733 1.92528e-06 -2.3419047e-05 -1.3929791e-07 8.138373e-06 1.7068348e-06
5.197316e-07 -7.113969e-07 0.0012667644 -1.1331269e-07 0.0008671186 0.00039811037 -0.00015893394 0.0012195318
-2.9141182e-05 1.3954941e-05 -0.00027134788 -0.0003674396 -1.3538247e-06 -0.00016851419 0.00013552792 -3.6764817e-07
0.00044438156 0.00025605893 0.0006175536 4.765149e-06 8.0750496e-08 0.00032998223 -5.6975307e-07 0.0006877258
0.00015175102 0.0006652169 8.658835e-07 -7.373172e-07 -0.0002596656 8.8736815e-05 4.8365814e-06 -8.083189e-06
-5.974851e-08 -3.848927e-05 -8.335257e-06 -0.0011807211 -3.6792713e-05 -5.467161e-08 0.00030135375 0.0004872405
1.3156555e-06 1.5179353e-06 -0.00047884346 9.350068e-05 7.965693e-07 0.00020038991 -0.00032931558 -1.6674603e-05
-1.2260953e-06 2.1186625e-07 -6.9755225e-07 3.5754514e-05 -1.169159e-06 1.4301175e-06 6.268e-42 0.00045394883
-7.2189346e-07 7.4074387e-07 6.273625e-05 -5.242e-42 3.442209e-07 0.00013233506 -0.0001195515 -7.0965444e-07
1.3297315e-06 9.485421e-06 1.0575084e-07 0.00037079462 1.1426931e-06 1.0883562e-06 3.12524e-07 -2.9119046e-05
-1.0431166e-06 4.928354e-07 -1.19128046e-07 -3.8935726e-05 0.00018660324 0.00024383594 -3.7097184e-06 5.045e-42
-4.1096104e-05 0.0010880041 -9.578127e-07 -0.00013440839 -2.2072395e-06 -0.00037190557 1.463991e-06 -6.66034e-06
2.9317948e-07 0.0009166322 0.0007342581 -0.00018146074 1.0581676e-06 -4.313856e-06 -8.095915e-06 -4.1164826e-06
0.0004553716 -0.0008137191 0.00019288828 1.1439713e-08 0.00032570056 -0.00015700264 -0.00051540363 0.00011411303
-3.7509737e-06 0.00038077426 -3.421603e-06 -0.0010524447 3.937166e-07 7.056403e-05 0.0014200191 0.0011123026
-2.345787e-05 -0.0012533778 -0.00019846243 0.00053953496 2.109941e-07 7.22e-43 1.2958934e-06 -2.0413086e-06
-1.9585767e-07 0.00053594564 -0.00032331186 1.778717e-05 -1.2554323e-06 -3.872e-42 0.00031199542 -6.46916e-05
5.8050873e-06 2.8259994e-05 4.668296e-07 1.5397201e-06 5.968e-42 6.157347e-07 -1.7416876e-05 1.5488908e-05
-1.1488463e-06 2.0779822e-05 5.5593915e-05 8.654931e-05 0.0003089383 1.0794279e-05 0.0005750803 -2.7122783e-06
0.0005655095 -5.698e-42 -5.252e-42 -3.138094e-07 8.751548e-07 5.709822e-07 -0.00024223824 -4.3077233e-07
-0.0003672955 0.00016060125 3.8270483e-07 1.430484e-05 1.0410348e-06 -2.5659003e-05 5.3020284e-07 -0.000511048
-0.00074504124 -1.4586129e-06 -9.444908e-07 2.1472377e-07 -6.299477e-07 2.6032285e-07 8.324359e-08 1.801478e-06
-1.0954965e-05 2.003911e-07 -0.00032930903 3.4836987e-05 1.5067404e-05 0.00048931356 3.753417e-05 -0.00033469254
3.9161427e-05 0.00019897491 -5.6961226e-06 0.00059399114 0.00043004547 5.965e-42 0.0014526797 1.9927e-07
-0.00024521843 -0.0005265207 -0.0009519104 -4.0697321e-07 9.14372e-07 0.0011488997 -0.00019288673 -0.0002208809
-2.1647156e-05 0.00049204414 -0.00018007145 1.0239937e-06 0.00050160696 -4.799915e-07 1.5478711e-06 1.2487478e-05
6.806843e-06 1.1369879e-05 0.00018681165 5.051981e-07 3.3727218e-05 -0.0014625066 -5.1653906e-06 -1.2169703e-06
1.4600909e-05 0.00021825926 0.0006470009 0.00032396754 -0.0013280568 0.00049634837 -0.0010042803 8.066417e-05
-9.125679e-06 3.1346e-07 -6.5067566e-06 3.702208e-07 1.904635e-05 0.00016300788 -8.7207045e-05 -9.9838784e-05
-6.41755e-05 7.8640545e-07 5.1949e-07 0.00010803457 4.8944503e-06 -6.195e-42 1.031482e-06 -0.00034799875
-0.00029384624 0.0007639808 -6.7065173e-07 -2.5300372e-07 9.278749e-06 -9.765497e-05 3.5424958e-07 6.1096093e-06

deep.2.weight f4 [64, 512]
00000000: 580e 0080 c611 97b9 e6d8 fd36 44b8 c939
00000010: ee26 8634 6ccb 04b9 bdb4 0eba 6bcc 7b39
00000020: 628c bfb9 fde1 0739 05d6 0a33 dae1 393a
00000030: a81f 7038 f046 ad33 74ef dd35 3f4e b4b5
00000040: 26b2 5b38 5afb 85b8 3823 0c35 e75b a538
00000050: b163 8934 2b66 a93a 245b 3c34 f8ae 1039
00000060: f3e7 3438 38cb 7e35 a1cc 0236 0a45 1237
00000070: 5786 33b7 3d2b 1aba be78 a433 822e c839
00000080: 351f a7b7 d700 35b8 df9e 6db5 19d0 9db6
00000090: eab3 c7b9 2ba0 cb38 7582 80b5 36ae 1d38
000000a0: 4c40 e0b8 c11b 8cb5 f5cc b635 7f1c 80b5
000000b0: 2bc4 9537 a95d 6e35 a9a3 beb7 0bbb bbb6
000000c0: 3523 d5b4 ed58 0139 7098 d039 44ed 26b9
000000d0: 1217 f9b6 f980 f836 8ebb a7b8 4c79 8f38
000000e0: 2da6 bd36 61ea d2b6 ff70 da34 5a12 353a
000000f0: 35e1 c838 a03d c9b4 3373 d439 f213 a9b6
00000100: d249 27b9 9541 4db6 ff79 45b7 5d8f 40b7
00000110: 3387 c838 a3d0 82b6 2d02 0000 166d 1439
00000120: 1312 a338 aa51 1939 1768 61b5 cf0e 0000
00000130: 1dca 60b4 f64d ec39 d8d2 d1b4 4215 1139
00000140: 261e 0e36 bbe2 4ab8 9f38 f1b0 0032 7c39
00000150: 6760 9136 4059 44b6 5c83 df37 68d0 9735
00000160: 2bc8 19b5 1102 41b6 f961 823a a4d6 b335
00000170: 557f 5ab5 7c07 bb38 915e 2135 fd0e 0000
00000180: 7f96 d4b3 8bdf c9b5 d1b4 9cb9 bd42 efb7
00000190: 4a63 4639 61fb 6237 d43b 3bb7 163d 4339
000001a0: 072a a0b4 29a6 1b37 e204 0db8 ca2b fdb6
000001b0: e0a2 5737 04e9 d537 4c86 da36 80d8 3f35
000001c0: 8ae6 f1b8 d12a 90ba 45b2 15b6 7e5a 6c3a
000001d0: 414f b9b3 c557 a137 5e28 3d39 e322 16b4
000001e0: fc68 4db5 fe6a 0eb7 78e5 11b9 cd03 42b9
000001f0: 5b62 a2b5 cedc 0d35 1757 66b5 f96a 4738
00000200: 8a8d c5b7 1a65 b6b9 c85c 0aba 6689 ea37
00000210: 4e28 e9b6 6011 0000 9ad0 75b8 735e f8b9
00000220: 731a 81b8 9677 9637 e5c3 a3b7 c198 0db9
00000230: 257d 15ba 500f 17b1 cc5c 3f38 3495 6cb7
00000240: f6cc 2934 3b03 a139 2de7 ab37 8558 6d35
00000250: 9a0e 0080 ddb7 4e38 b886 f7b5 d6a7 6b35
00000260: b312 a837 6ec2 4a39 5737 f6b7 bc13 dcb6
00000270: 469f 01ba b8db e835 653d 5c34 1981 19ba
00000280: 033f c8b4 4311 0000 700e 0080 c8e5 4cb7
00000290: 8d83 9134 6d69 d834 5193 8937 2d59 8938
000002a0: 09cf 9039 2dfc 1739 6f42 f035 4d16 79b7
000002b0: 8f7f 41b9 5288 b4b4 4a2c 4c35 c754 8339
000002c0: 0952 e5b7 013b d5b8 6fb9 9235 fd2a 6a39
000002d0: 0999 fe39 e139 7db8 4d29 eeb8 0d68 f036
000002e0: 3b12 a936 3753 4738 5a9d 8eb7 1242 0538
000002f0: b06a efb8 7626 0fb4 9aef e437 243e e438
00000300: 3b42 eb38 a81e dab8 f461 e4b3 1dbe a737
00000310: 331e 40b2 c210 0080 173c 8039 6e1b d634
00000320: b2bb 06ba fd79 ecb6 bd01 5537 2e22 2fb1
00000330: 2206 cd36 9e57 2634 68f1 92ba bb84 39b7
00000340: fc83 1eb7 0886 90b6 2d7c 2eb8 a574 1137
00000350: 4215 9db8 d038 b139 0d18 363a ad15 07b9
00000360: a789 47b5 722d 0839 0e63 063a 7b26 9b36
00000370: 2e5b a7b7 892a 3436 34d5 0439 8029 6eb7
00000380: 349e 50b9 7c8b c739 e7d7 08b6 d7d0 47b9
00000390: c788 36b8 d874 9937 5ef7 85b8 ad94 84b8
000003a0: 1d90 023a 6724 ba37 a0ae 9339 5be5 91b7
000003b0: 2d52 6fb8 e9e3 a9b8 8223 aa37 3517 7935
000003c0: ac6d de38 3de7 9e36 f284 17ba 9a2c 22b7
000003d0: bab3 8136 0e0f 0000 c82b 0838 9584 e036
000003e0: ea49 6eb9 2bd0 d034 ef54 0fb8 3d84 3538
000003f0: 75bb 85b6 27c6 1d38 db77 0eb9 90c2 a4b6
-5.146e-42 -0.00028814207 7.565238e-06 0.00038474996 2.498777e-07 -0.00012664282 -0.0005443802 0.00024013377
-0.00036534952 0.0001295879 3.232528e-08 0.00070908444 5.724994e-05 8.068844e-08 1.6535473e-06 -1.3433818e-06
5.2379582e-05 -6.388752e-05 5.2205314e-07 7.884931e-05 2.5590774e-07 0.0012924125 1.7542021e-07 0.00013798091
4.3131364e-05 9.4918096e-07 1.949062e-06 8.718353e-06 -1.070051e-05 -0.0005881077 7.658808e-08 0.00038181624
-1.9922483e-05 -4.3154545e-05 -8.852057e-07 -4.7031904e-06 -0.00038090284 9.709628e-05 -9.574711e-07 3.7593963e-05
-0.000106931286 -1.043889e-06 1.3619707e-06 -9.545037e-07 1.7853532e-05 8.87982e-07 -2.2725975e-05 -5.594809e-06
-3.9699958e-07 0.00012335526 0.00039786426 -0.00015919382 -7.423464e-06 7.4059903e-06 -7.998115e-05 6.841365e-05
5.6519843e-06 -6.285773e-06 4.068788e-07 0.00069073366 9.578691e-05 -3.7484006e-07 0.0004052162 -5.0389144e-06
-0.00015953861 -3.0585554e-06 -1.1770519e-05 -1.1477471e-05 9.561926e-05 -3.8985904e-06 7.8e-43 0.00014155018
7.775812e-05 0.0001462164 -8.39705e-07 5.312e-42 -2.0935154e-07 0.00045071513 -3.9082693e-07 0.00013836197
2.1177198e-06 -4.8371712e-05 -1.755115e-09 0.00024051219 4.3325595e-06 -2.9258226e-06 2.664484e-05 1.1311031e-06
-5.7288224e-07 -2.8760444e-06 0.0009947411 1.3399008e-06 -8.139662e-07 8.918249e-05 6.0114786e-07 5.377e-42
-9.8993944e-08 -1.5040727e-06 -0.00029889357 -2.8522098e-05 0.0001891974 1.3529178e-05 -1.1159998e-05 0.00018619405
-2.98329e-07 9.277407e-06 -3.3621567e-05 -7.5450853e-06 1.2852921e-05 2.5500085e-05 6.5125405e-06 7.1468094e-07
-0.00011534717 -0.0010999088 -2.2306497e-06 0.000901617 -8.62915e-08 1.9233566e-05 0.00018039483 -1.398253e-07
-7.6521223e-07 -8.488771e-06 -0.00013913761 -0.00018502698 -1.2098566e-06 5.2847906e-07 -8.580841e-07 4.7544923e-05
-2.355014e-05 -0.00034789072 -0.0005278108 2.7958955e-05 -6.948633e-06 6.233e-42 -5.8606827e-05 -0.00047372616
-6.156126e-05 1.793708e-05 -1.9522335e-05 -0.00013503713 -0.0005702547 -2.1982096e-09 4.5624372e-05 -1.4101435e-05
1.5813916e-07 0.0003071072 2.0492438e-05 8.8418193e-07 -5.238e-42 4.9285463e-05 -1.8442142e-06 8.7788555e-07
2.0035868e-05 0.00019336652 -2.9351255e-05 -6.5588083e-06 -0.0004944693 1.7349294e-06 2.0511432e-07 -0.0005855724
-3.729875e-07 6.192e-42 -5.179e-42 -1.2212848e-05 2.710407e-07 4.0309843e-07 1.6400272e-05 6.549279e-05
0.00027620074 0.00014494425 1.7900728e-06 -1.4846749e-05 -0.00018453434 -3.36268e-07 7.606037e-07 0.0002504943
-2.7337128e-05 -0.00010167622 1.0931816e-06 0.00022331993 0.00048560675 -6.0373804e-05 -0.00011356417 7.1646705e-06
5.038715e-06 4.7522797e-05 -1.7000992e-05 3.1771204e-05 -0.0001141628 -1.3331905e-07 2.7291291e-05 0.00010883462
0.000112180096 -0.0001040076 -1.0634895e-07 1.999648e-05 -1.1182737e-08 -6.012e-42 0.00024458833 3.9880564e-07
-0.0005139663 -7.0475494e-06 1.2696194e-05 -2.548528e-09 6.11019e-06 1.549183e-07 -0.0011210861 -1.1057763e-05
-9.448264e-06 -4.3071377e-06 -4.160048e-05 8.669832e-06 -7.490303e-05 0.000338024 0.0006946333 -0.00012882678
-7.433359e-07 0.000129869 0.00051264546 4.6238397e-06 -1.995041e-05 2.684685e-06 0.00012667925 -1.4195568e-05
-0.00019895361 0.00038060162 -2.039125e-06 -0.00019055918 -4.3519565e-05 1.8293431e-05 -6.38801e-05 -6.3219435e-05
0.0004980581 2.2189879e-05 0.0002816813 -1.7392149e-05 -5.7058573e-05 -8.1009995e-05 2.0282114e-05 9.27935e-07
0.00010606213 4.7356866e-06 -0.0005780003 -9.666337e-06 3.8654225e-06 5.4e-42 3.24657e-05 6.691155e-06
-0.00022724984 3.889448e-07 -3.4172957e-05 4.327692e-05 -3.9855317e-06 3.761626e-05 -0.00013586825 -4.910231e-06

deep.2.bias f4 [64]
00000000: 0369 59b8 5f9f 0b38 a5dc 4b38 28e6 8138
00000010: 082c 56b6 def0 1838 de92 3c39 c4e9 8537
00000020: fa73 0139 c87c 9238 f726 9c37 8e60 28b7
00000030: 5609 fe37 6df9 9736 aa50 42b7 d256 49b7
00000040: a3da 74b4 8d2a 7939 1b9e a937 53af 7138
00000050: 4ed1 79b8 19bf 2c39 64d5 2737 441c f2b7
00000060: 04c5 5fb8 6e3a b537 6fa7 c4b7 7703 d9b7
00000070: c211 9cb8 c0da f8b7 2248 52b7 a61f bab8
00000080: 4e1d 5fb7 330d 4a36 5a73 15b9 4282 2ab7
00000090: 19d9 3a38 f798 8736 92ca c638 b162 03b9
000000a0: ce1f 4f38 00b4 08b7 bfd1 3cb9 2693 6739
000000b0: 1551 e8b9 4115 d538 c75b d7b7 d384 80b8
000000c0: 32b1 0839 f184 b1b9 dbdd a2b6 1077 0739
000000d0: 98bc 44b6 24e9 07b8 0048 e3b7 14c7 beb8
000000e0: 9106 6837 c6e5 1939 0b18 6638 fe0e 5c37
000000f0: b521 06ba 35b2 1ab9 3624 6339 a03a 6e39
-5.183463e-05 3.328861e-05 4.8604463e-05 6.194069e-05 -3.1914115e-06 3.646395e-05 0.0001798379 1.5963691e-05
0.00012345603 6.985065e-05 1.8614794e-05 -1.0036061e-05 3.0283507e-05 4.5291877e-06 -1.1582082e-05 -1.2000748e-05
-2.280381e-07 0.00023762342 2.0219994e-05 5.762216e-05 -5.9561156e-05 0.00016474388 1.000366e-05 -2.886181e-05
-5.335083e-05 2.160409e-05 -2.3442988e-05 -2.587003e-05 -7.441967e-05 -2.9665767e-05 -1.253377e-05 -8.875066e-05
-1.3298659e-05 3.0108029e-06 -0.00014252719 -1.0163118e-05 4.4548044e-05 4.041121e-06 9.4791074e-05 -0.00012529899
4.9382266e-05 -8.148141e-06 -0.00018007214 0.00022084694 -0.000443109 0.0001016059 -2.5672734e-05 -6.128256e-05
0.00013035981 -0.0003385912 -4.8538036e-06 0.00012918958 -2.9316052e-06 -3.2403637e-05 -2.7094036e-05 -9.096987e-05
1.3829806e-05 0.00014676814 5.4858665e-05 1.31165125e-05 -0.0005116717 -0.00014752972 0.00021661897 0.00022719288

deep.4.weight f4 [32, 64]
00000000: 2d98 fe38 b409 8834 498c 7238 ae0e 5bb5
00000010: dcdb 5bb7 216e 53b4 06c5 1038 f6a6 76b5
00000020: 1451 40b7 4284 aab8 2e6f 74b9 aac5 94b7
00000030: 9e27 a534 1f9f e131 ca48 0634 c137 8934
00000040: b60b ddb3 c486 d4b8 9399 24b5 942f c636
00000050: 7781 f135 3310 2437 c5b4 a837 06c7 9434
00000060: fa8e 68b1 2be2 dfb9 782f 82b5 9101 0234
00000070: 0385 36b5 7ded 05b9 d145 7434 8562 d734
00000080: dd6d 81b2 eb72 9db3 8194 3833 7964 5c34
00000090: 7ad9 3533 6c66 26b5 c233 fc34 074f 2c36
000000a0: 3f22 f5b6 765d 0833 75fa 83b9 3286 1735
000000b0: 1559 4235 446a 1f36 5e97 5d34 d060 e634
000000c0: b652 51b5 d9bf 3038 19d0 3734 8418 1bb6
000000d0: 481f 0ab3 06fc 2f36 07f3 8c36 379c 1f3a
000000e0: d84e 01b8 ad11 3a34 ed1d b7b7 bc3a e8b8
000000f0: 0e83 86b4 168c 5435 c64d 7034 330b f633
00000100: a477 a5b9 02df 02ba eb7b 97b9 88f7 6a38
00000110: d4a5 8b36 d4a8 34b8 1a78 09b9 e5ce 6eb8
00000120: f97b 8c38 e00c b3b8 0092 1a39 af9f 91b9
00000130: 358f 6fb9 becd 4837 b662 e835 13b2 51b7
00000140: 7e79 3e36 54bb 5d39 183a 72b9 299a 3f35
00000150: a180 c139 3db0 0638 f603 fa37 f516 bf35
00000160: c7a6 47b6 c95b 3db8 61fe ac38 ba43 293a
00000170: 1d6e da39 dcae 1138 86a6 3238 f01f 3fb6
00000180: 19ed 4db7 42c7 34b5 25af 92b7 c88a cab6
00000190: 488a b338 081b fc35 2098 9937 aa66 a439
000001a0: aca1 4d37 c549 eb37 67d0 afb8 0d4c bb38
000001b0: c9be 8238 efb6 60b7 b76c 073a 523c fa38
000001c0: 9e1d 4bba 5e84 f439 882d 5f39 74d1 6c36
000001d0: 49f9 d739 3e3f 9138 6d4b 10b7 116b 7839
000001e0: d58c 263a 9830 9bb8 2c27 7639 ebe4 3fb8
000001f0: c0d5 90b7 e07a b4b9 9a0f 2eb8 304e 8eb9
00000200: 521e b737 1e6d 04b3 2dc7 26b8 ae8d 0332
00000210: 8877 11b8 cfe0 39b2 5a99 8cba 07fa cf31
00000220: bd4a b3b5 a1fb 5136 863a cc37 243f fe36
00000230: 9311 bd31 fb4f 7d31 3f8b 6a31 691e 0932
00000240: 2048 542f 1155 fbb9 9974 1232 a7dc bd37
00000250: af42 4e33 bd9e 703a 9409 702f 8a88 b6b1
00000260: e75a 3e31 b940 64ba 779a 6231 967f 4831
00000270: 666c 8032 c622 7939 de3c db30 476c 81b2
00000280: 7c60 c331 252f 0eb3 a0e7 83b0 fd20 adb1
00000290: 1436 fa31 7c68 c032 7429 88b2 2c6b 00b5
000002a0: 5c57 ffb6 d554 3cb1 37db ccb8 2029 a3b1
000002b0: afc4 5333 ab37 9238 de8a 9ab2 0562 f9b1
000002c0: d616 f032 1a50 4b34 d0a5 912f 2634 2738
000002d0: bcd8 14af e6df 07b9 03db f9b6 60c0 9739
000002e0: 3c09 da36 4997 8c32 5fc2 0338 4ee0 a734
000002f0: f5bd 06b4 a969 d7b3 0584 7db3 3868 e0b1
00000300: bacf ac3a 9f0b 91ae d922 30b4 4ca8 802e
00000310: f2eb d8b9 2a83 8aad 5719 71b9 c14c dcad
00000320: 0fe5 3ab8 a0a2 2db5 a91a 0fb9 98b3 f0b9
00000330: 447d 38ad 791f a22c 76a4 5aac fee7 25ad
00000340: 043c 59ab 6d7b 58b7 7aab b52d a3ed 0336
00000350: 4274 9fae 980d 3a3a 36cc a7b4 88d0 b92b
00000360: 17fb 49ac 8339 19b8 c626 512e 1d0b 57ad
00000370: ded5 b42d e3c4 1036 82a8 0b2c df1e 81ae
00000380: bc45 f02c c808 7aae 2fda 822d 6838 312e
00000390: 2f21 df2c fd9c 7d2e b945 27ae 526e a8ba
000003a0: b0d1 7637 815e eeac feb1 d6b9 ece9 f42c
000003b0: 81f4 d02d 536e 9aba a9ca 9c2b 1833 1bad
000003c0: 2b6d 4d2e f442 f335 69a1 4ead bc05 1c37
000003d0: 4252 942b efd1 1cb8 8385 a7b5 d949 48ba
000003e0: 362d 9a34 e143 852f 47ee cd38 426b a0b5
000003f0: 1bdb caaf b576 a4ae 53b8 28af fc2b 972d
0.00012140009 2.5339034e-07 5.7827947e-05 -8.160522e-07 -1.3104607e-05 -1.9690971e-07 3.4515768e-05 -9.18851e-07
-1.1462969e-05 -8.1308666e-05 -0.00023311071 -1.773502e-05 3.076247e-07 6.566452e-09 1.2506203e-07 2.5558805e-07
-1.0293245e-07 -0.0001013405 -6.131824e-07 5.9063987e-06 1.7993578e-06 9.778933e-06 2.0111338e-05 2.7711957e-07
-3.3841716e-09 -0.00042702383 -9.69957e-07 1.2107763e-07 -6.799384e-07 -0.0001277234 2.274967e-07 4.0118553e-07
-1.5067537e-08 -7.331786e-08 4.2975902e-08 2.0525648e-07 4.234014e-08 -6.198886e-07 4.6976317e-07 2.5675997e-06
-7.3055558e-06 3.174997e-08 -0.00025172872 5.6447163e-07 7.2400263e-07 2.37547e-06 2.0637296e-07 4.291128e-07
-7.797893e-07 4.2140342e-05 1.7118909e-07 -2.311107e-06 -3.215908e-08 2.622373e-06 4.2006172e-06 0.00060886465
-3.0829426e-05 1.732903e-07 -2.1829235e-05 -0.00011073562 -2.50548e-07 7.9180006e-07 2.2380036e-07 1.1457305e-07
-0.00031560392 -0.0004992337 -0.0002889329 5.602048e-05 4.1618277e-06 -4.3072578e-05 -0.0001311008 -5.6936307e-05
6.698812e-05 -8.537783e-05 0.00014740974 -0.0002777553 -0.00022846165 1.1968832e-05 1.7314076e-06 -1.2498832e-05
2.8382924e-06 0.00021145988 -0.0002310056 7.137738e-07 0.00036907665 3.2112224e-05 2.9804167e-05 1.423729e-06
-2.9750388e-06 -4.5146593e-05 8.248981e-05 0.00064569304 0.0004166224 3.4733544e-05 4.2593594e-05 -2.8479808e-06
-1.2274156e-05 -6.7345184e-07 -1.7486114e-05 -6.0362254e-06 8.561142e-05 1.878333e-06 1.830986e-05 0.00031357008
1.2256594e-05 2.8048535e-05 -8.383468e-05 8.9310204e-05 6.2344196e-05 -1.3394033e-05 0.0005166041 0.000119321645
-0.0007748249 0.00046637928 0.00021283899 3.5288658e-06 0.00041193728 6.9259186e-05 -8.60063e-06 0.00023691008
0.0006353383 -7.400027e-05 0.00023474981 -4.5751145e-05 -1.7265673e-05 -0.00034423824 -4.1499363e-05 -0.00027142605
2.1829419e-05 -3.0832886e-08 -3.976298e-05 7.657418e-09 -3.4682016e-05 -1.0819533e-08 -0.0010726855 6.0529177e-09
-1.3358291e-06 3.1289894e-06 2.4345947e-05 7.5771404e-06 5.502622e-09 3.686181e-09 3.4130634e-09 7.981364e-09
1.9306912e-10 -0.0004793783 8.52483e-09 2.2633305e-05 4.802376e-08 0.0009178927 2.1831276e-10 -5.31242e-09
2.770031e-09 -0.0008707154 3.2975132e-09 2.9176355e-09 1.4950455e-08 0.00023759445 1.5951647e-09 -1.5066815e-08
5.686216e-09 -3.310483e-08 -9.597336e-10 -5.038713e-09 7.2821056e-09 2.2399256e-08 -1.5851334e-08 -4.783967e-07
-7.609762e-06 -2.7405822e-09 -9.76831e-05 -4.7485997e-09 4.930615e-08 6.9721915e-05 -1.7991109e-08 -7.2579973e-09
2.7950062e-08 1.8934989e-07 2.6493163e-10 3.986447e-05 -1.3537521e-10 -0.00012958012 -7.4462746e-06 0.00028944295
6.4979813e-06 1.6366942e-08 3.1413856e-05 3.1269377e-07 -1.2548828e-07 -1.0030937e-07 -5.9026224e-08 -6.5311063e-09
0.0013184466 -6.595901e-11 -1.6403955e-07 5.8506616e-11 -0.00041374523 -1.5747032e-11 -0.00022992991 -2.504519e-11
-4.4559183e-05 -6.468417e-07 -0.00013647474 -0.00045910175 -1.0487004e-11 4.607811e-12 -3.1070957e-12 -9.430677e-12
-7.7177175e-13 -1.2903341e-05 2.0653469e-11 1.9658844e-06 -7.2511344e-11 0.00070973625 -3.1254757e-07 1.320292e-12
-2.87032e-12 -3.6531605e-05 4.7555536e-11 -1.2223803e-11 2.0558607e-11 2.1572275e-06 1.9846629e-12 -5.8717246e-11
6.8289523e-12 -5.6851218e-11 1.4876182e-11 4.029524e-11 6.3417253e-12 5.7664973e-11 -3.803333e-11 -0.0012850261
1.4711564e-05 -6.774859e-12 -0.00040949875 6.9608676e-12 2.3755444e-11 -0.0011782147 1.1140716e-12 -8.822075e-12
4.6708564e-11 1.8124397e-06 -1.17455845e-11 9.29966e-06 1.0538864e-12 -3.7388814e-05 -1.2481327e-06 -0.00076403987
2.871763e-07 2.424079e-10 9.819544e-05 -1.1952145e-06 -3.689927e-10 -7.478943e-11 -1.5344996e-10 1.7186245e-11

deep.4.bias f4 [32]
00000000: 0af8 40b9 43c3 a63a 9b40 ec37 0c48 ddb3
00000010: 99d8 6f39 7b00 ba38 4fd6 1f36 f776 72b7
00000020: fdb2 8035 e8b3 2db9 bad9 a7b4 441e 24b6
00000030: 6d4a 1db6 004b c73c cc73 b734 3dcc 753c
00000040: 037e e439 799b 0937 39e1 c238 f888 3e36
00000050: 2b72 da38 0bee 06bb 68ba cbb5 f5c8 7dba
00000060: b41b 0bb2 0e95 66b7 3d96 32b9 c903 a2bb
00000070: c7ff 1138 1230 4635 a71a 00b5 c2f2 2635
-0.00018402949 0.0012722987 2.8163477e-05 -1.030422e-07 0.00022873505 8.869261e-05 2.381759e-06 -1.4452023e-05
9.588836e-07 -0.00016565586 -3.126459e-07 -2.4455521e-06 -2.3438145e-06 0.024327755 3.417066e-07 0.0150023075
0.00043581435 8.202035e-06 9.292592e-05 2.8391933e-06 0.000104163155 -0.0020588662 -1.517893e-06 -0.0009681129
-8.097164e-09 -1.3743773e-05 -0.00017031371 -0.004944299 3.4808905e-05 7.38307e-07 -4.77225e-07 6.219308e-07

output.weight f4 [1, 34]
00000000: 6c5d 4bbf 6818 0eb4 0b64 8539 af71 a93a
00000010: ad89 4d38 8c1c 6434 ddfc c638 b504 aab8
00000020: 27f4 79b5 5b4d b034 491c db34 c999 2d39
00000030: fb8b d2b1 28a2 2c36 8f1b 1b36 a71a cabc
00000040: 9284 db33 78c9 75bc c882 0c3a c98c 9436
00000050: 8704 c4b8 227d 3935 1750 cb39 97c2 2139
00000060: d9f3 1436 4f85 22ba e650 2c35 2957 6737
00000070: 298d 0839 4302 a23b 3fef 12b7 5de9 5eb5
00000080: 16b3 2b35 ae6a 4fb5
-0.79439425 -1.323366e-07 0.00025442275 0.0012927557 4.900403e-05 2.124454e-07 9.488475e-05 -8.1071084e-05
-9.3115017e-07 3.2838838e-07 4.081251e-07 0.00016555855 -6.1277183e-09 2.5724385e-06 2.311284e-06 -0.024670912
1.02220966e-07 -0.015001647 0.0005360064 4.4271333e-06 -9.3468516e-05 6.909996e-07 0.0003877885 0.00015426647
2.2195657e-06 -0.0006199674 6.4192716e-07 1.37889665e-05 0.00013022557 0.0049441173 -8.757982e-06 -8.3041033e-07
6.396307e-07 -7.726875e-07
