Results/FM_batch1024_epoch10_lr0.001_k20/control_fm.pth (torch, 2857 bytes, 2 tensors)

v f4 [13, 20]
0	0xbc53a2a5	-0.012917195
1	0xbcfcdf6a	-0.03086825
2	0x3cd9bdc7	0.02657975
3	0xbccbbea1	-0.024871172
4	0x3c560f8f	0.013065233
5	0x3ce0c5c1	0.027438046
6	0x3d39e068	0.045380026
7	0x3cacab1c	0.021077685
8	0x3dc95b58	0.098318756
9	0x3d5091c3	0.05092026
10	0x3d2f421a	0.04278765
11	0xbc6b56d9	-0.014363968
12	0xbced7ec9	-0.02899112
13	0xbd00632b	-0.031344574
14	0xbd8de4b9	-0.06928391
15	0x3ca81bb9	0.020521032
16	0xbcb3f889	-0.021969097
17	0xbce0f02e	-0.027458277
18	0xbd1bef2d	-0.038069893
19	0x3c895beb	0.016767463
20	0x3cdc1226	0.026864123
21	0x3c0e5ea4	0.008689556
22	0x396ce078	0.00022590335
23	0xbbc48d88	-0.005998317
24	0xbd28a9c5	-0.04117753
25	0x3b39d92c	0.0028358204
26	0x3a5bd10e	0.00083853386
27	0x3d5e4400	0.05426407
28	0xbd539114	-0.05165203
29	0xbd688e93	-0.056776594
30	0xbce0b26a	-0.027428824
31	0xb9c371e9	-0.00037278168
32	0xbc9e931f	-0.019357262
33	0x3d1fd827	0.0390245
34	0x3d05d8bf	0.03267741
35	0xbbbddeb9	-0.005794373
36	0xbcbf7d7f	-0.02337527
37	0xbd4d640a	-0.050144233
38	0xbc5d176a	-0.013494352
39	0xbbbbfe2a	-0.005737086
40	0x3c8f5a22	0.017499033
41	0x3c748fae	0.014926834
42	0x3c606057	0.013694844
43	0x3c1ff8ab	0.009763877
44	0x3cdf62cf	0.027268795
45	0xbd2fbffe	-0.042907707
46	0x3bb74d94	0.005593965
47	0x3cd4c4e7	0.025972797
48	0xbdab7d8c	-0.083735555
49	0xbb8573c6	-0.004072639
50	0x3c6e92af	0.014561339
51	0xbc560da3	-0.013064775
52	0x3bd869d5	0.006604413
53	0xbcdc333b	-0.026879897
54	0xbc8f2d3f	-0.01747763
55	0x3c1d26e8	0.0095917955
56	0xbc1a0c95	-0.009402414
57	0x3c27d92b	0.010244648
58	0x3d0c280d	0.034217883
59	0xbc7eefca	-0.0155601
60	0xbbfe97f5	-0.0077695795
61	0xbbbb84d3	-0.005722621
62	0x3b3b34de	0.0028565447
63	0x3b3b0da4	0.0028542066
64	0xbaa88785	-0.0012857771
65	0xbca93f3b	-0.020660033
66	0xbcc3b976	-0.023892146
67	0xbc9be88b	-0.019031784
68	0xbc5501d4	-0.013000924
69	0x3c8a01f3	0.016846633
70	0xbc284e09	-0.010272511
71	0x3c8e0aa2	0.017339054
72	0x3c2adaac	0.010428112
73	0x3a7d8e7d	0.00096724165
74	0x3c782b68	0.015147068
75	0xbbe7eeda	-0.007078034
76	0x3bdf9f79	0.0068244305
77	0xbc920620	-0.017825186
78	0x3afb8018	0.0019187955
79	0xbc75aabd	-0.01499432
80	0x3b8c948d	0.0042901696
81	0xbbce40ae	-0.0062943315
82	0xbcc7e193	-0.024399554
83	0xbd1fb4dd	-0.038990844
84	0xbc6fb90b	-0.01463152
85	0x3d211b44	0.039332643
86	0xbd06c0c6	-0.032898687
87	0xbd2283ab	-0.03967635
88	0x3db4f150	0.08835089
89	0xbab95b65	-0.0014141618
90	0x3c37adb9	0.011210852
91	0xbd0744cc	-0.033024594
92	0x3ca222cf	0.019791989
93	0x3c600150	0.013672188
94	0xbc2fa9e7	-0.01072166
95	0x3b96b4a6	0.0045991717
96	0x3c408cec	0.011752348
97	0x3d323eb6	0.043516837
98	0x3d225a69	0.039637003
99	0x3d1f1937	0.038842406
100	0x3c88d256	0.016701858
101	0xbbba29a1	-0.005681232
102	0x3b0b1dd7	0.0021227503
103	0xbad19c08	-0.0015991936
104	0x39021836	0.00012406785
105	0xbc26bc73	-0.010176766
106	0xbc417c18	-0.011809371
107	0xbc00a749	-0.007852384
108	0xbcaa50f0	-0.020790547
109	0x3bc33beb	0.0059580705
110	0xba1526be	-0.0005689672
111	0xbc5bc167	-0.01341281
112	0x3aafc9fb	0.0013411635
113	0x3b8aafd9	0.0042323885
114	0x39dd3836	0.00042194285
115	0xbc8178c2	-0.015804652
116	0x3c7e2b6a	0.01551328
117	0x3bccec80	0.006253779
118	0xbb42b111	-0.002970759
119	0xbbf73cd4	-0.007545093
120	0x3bd09cae	0.006366334
121	0x3c34071d	0.010988024
122	0xbc5423c6	-0.012947982
123	0x3c9f273e	0.019427892
124	0xbbc67f8a	-0.0060576843
125	0xbc66bcbc	-0.014083084
126	0xbbfc4cd9	-0.0076995906
127	0xbc78ce77	-0.015185944
128	0xbd09b18c	-0.033616588
129	0xbbc7fa34	-0.0061028246
130	0xbc7d0a9b	-0.015444423
131	0x3cc4a080	0.024002314
132	0x3ca8d6e2	0.020610277
133	0xbb71654c	-0.003683406
134	0x3cc0a513	0.023516214
135	0xbb6d720c	-0.0036231307
136	0x3cac3840	0.021022916
137	0x3c8c076b	0.01709338
138	0xbc1534a1	-0.009106786
139	0xbcafe9c1	-0.021473767
140	0xbc4e2db7	-0.012584141
141	0xbcf6fffb	-0.030151358
142	0x3c266c67	0.010157681
143	0x3b3bc1ed	0.0028649524
144	0x3c6360eb	0.0138780875
145	0x3c87f15c	0.016594581
146	0x3bd35b01	0.0064500575
147	0xbbabe6fa	-0.0052460404
148	0xbbf3c591	-0.0074393232
149	0x3bdf7556	0.0068194075
150	0xbbd9c6fe	-0.006646036
151	0xbc03fd97	-0.008056066
152	0xbc2740b5	-0.010208298
153	0x3b840c71	0.0040298034
154	0xbc8bb71b	-0.017055085
155	0x3a70e891	0.00091899285
156	0xbb15c006	-0.002285005
157	0xbc1ef423	-0.009701761
158	0x3bc21c23	0.0059237643
159	0x3b584538	0.0033000242
160	0xbc8f5032	-0.017494295
161	0x3bc6f8b5	0.0060721287
162	0x3c411f6d	0.011787278
163	0xbc935b97	-0.01798801
164	0x3c9007d5	0.01758186
165	0xbc9130fc	-0.017723553
166	0x3b890560	0.004181549
167	0x3c072e5c	0.008250799
168	0x3ab727c6	0.0013973645
169	0x3aeac94b	0.0017912773
170	0xbcaa7f3f	-0.020812629
171	0xbb7cbbd1	-0.0038564096
172	0x3a575f80	0.000821583
173	0xbac52e58	-0.0015043719
174	0x3c49c16e	0.012314184
175	0xbbcdebdb	-0.0062842197
176	0x3a9f43f7	0.0012150992
177	0xbc40753d	-0.011746702
178	0xbbed820a	-0.007248168
179	0xba653f0b	-0.0008745051
180	0xbd785546	-0.060628198
181	0x3beb5fdd	0.0071830587
182	0xbd5e1444	-0.054218546
183	0x3b8c00fc	0.0042725783
184	0xbb749b8d	-0.003732416
185	0x3d4a44a5	0.04938187
186	0xbcc5bb69	-0.024137216
187	0xbdb34497	-0.08753317
188	0x3de08451	0.10962737
189	0xbc126d50	-0.008937195
190	0x3d007967	0.03136578
191	0x3cb14406	0.021638881
192	0x3cc98d20	0.024603426
193	0x3cc18349	0.023622172
194	0x3cedd295	0.029031077
195	0x3b07e101	0.0020733478
196	0x3d141312	0.036151
197	0x3daaef17	0.08346384
198	0x3cc90638	0.024539098
199	0x3d2c4526	0.042058133
200	0x3c672bbe	0.01410955
201	0x3c86b8ee	0.016445603
202	0x3beec38b	0.007286494
203	0x3d1769ca	0.036966123
204	0x3c1314ed	0.008977157
205	0x3c4f55aa	0.012654701
206	0x3c058860	0.00815019
207	0xbbafff1a	-0.0053709866
208	0x3c2d327a	0.010571117
209	0x3cb6c21f	0.022309361
210	0xbcdc5bad	-0.026899183
211	0x3b0e2917	0.0021691972
212	0xbc636999	-0.013880157
213	0xbc3c8c94	-0.011508126
214	0xbb0a9b04	-0.0021149525
215	0xbc22d42f	-0.009938284
216	0xbc6ba1bc	-0.014381822
217	0x3bbe6dac	0.0058114138
218	0xbbcb19c9	-0.006198142
219	0x3b50fdf2	0.0031889644
220	0xbb012bc7	-0.0019709931
221	0xbc547136	-0.012966445
222	0x3c15dc03	0.009146693
223	0x3a096d96	0.0005242465
224	0xbc44f8c3	-0.0120222
225	0x3c2f2f08	0.0106923655
226	0x3c1ae783	0.009454611
227	0xbc9aea53	-0.018910563
228	0xbb8d5e95	-0.0043142536
229	0x3a905f63	0.0011014756
230	0x3bba8038	0.0056915544
231	0xbb01ff66	-0.0019836067
232	0x3b3bc362	0.0028650393
233	0x3b8674c2	0.004103274
234	0xbc550900	-0.013002634
235	0xbc0c3dc0	-0.008559644
236	0x3b8d8a68	0.004319478
237	0xbc70137b	-0.014653082
238	0x39a711ba	0.0003186593
239	0x3b0f7e1c	0.0021895235
240	0x3b9aeae7	0.0047277096
241	0x3b6e90f9	0.0036402328
242	0xbb3849c0	-0.002812013
243	0xbc29fb5c	-0.01037487
244	0xbb8796e7	-0.004137862
245	0x3ba9df49	0.0051840884
246	0xbbe5e12b	-0.0070153675
247	0xbb8dab62	-0.004323409
248	0x3ab96fd2	0.0014147705
249	0x3a3a64d5	0.0007110362
250	0x3bb8997b	0.0056335307
251	0xbbbd9b7c	-0.0057863574
252	0xbc31925b	-0.0108381165
253	0xbb7ee2f4	-0.0038892599
254	0x3c05235b	0.008126105
255	0x3c7573a7	0.014981187

linear.weight f4 [1, 13]
0	0xbd747112	-0.059678145
1	0x3d499169	0.04921094
2	0x3df75862	0.120774046
3	0x3dce7436	0.10080759
4	0xbeb52de1	-0.35386565
5	0xbca67be4	-0.020322748
6	0x3e107f69	0.14111103
7	0xbd8b7439	-0.06809277
8	0xbe516393	-0.20448141
9	0x3e093706	0.13399896
10	0xbe1d0377	-0.15333353
11	0xbe2176ea	-0.15768018
12	0xbe800614	-0.25004637
