Results/FM_batch1024_epoch10_lr0.001_k20/treatment_fm.pth (torch, 2871 bytes, 2 tensors)

v f4 [13, 20]
00000000: 8045 853d 7abd 19bd eacd 283e 36a0 233c
00000010: 1626 2dbd fe60 b9bd 63f2 673d 0a6a fcba
00000020: 2e37 f23d 9072 54bd 7cfa b33d 6743 40bd
00000030: b928 cc3c cc67 a53d e809 b5bc 6d5e 893a
00000040: 4060 d6bd b408 03bc 2c04 b3bc a146 f7bd
00000050: e1b7 003d 1c90 8b3d 2f99 36bc 863d 23bc
00000060: ac20 2cbd e79f a5bc 6a60 23bd bd37 0e3c
00000070: c59d adbd d186 f3bb b2de cbbd 9893 5b3d
00000080: 7517 b1bd eeb0 54bd 0dba 40bd 3db5 10bd
00000090: cd99 8c3d 434b 053d f198 b63c 0a27 8f3d
000000a0: 2c6d 85bd f1a3 6ebd 4169 84bd 25e0 55ba
000000b0: cb11 813c 3d29 333d 4426 4fbb 8be5 ea3c
000000c0: e00a 283d 4e42 063c cdc7 423d 2e07 9138
000000d0: ca02 b63d cd96 e03a 71ca 0a3d 78a9 943b
000000e0: e04d 8a3c 21e0 dfbc 5b00 1a3c bae3 ca3c
000000f0: d111 87b9 7f86 f53a 7ab1 a9bb 462d 01bc
00000100: 2f7d 933c cc66 bb3c 72a2 f73b 5832 9bbc
00000110: aa61 aebc 00fb a9b9 1ce3 003c 0ae0 e5bb
00000120: 67f1 ddbc 18d6 473c 4998 6f3c c5df 62ba
00000130: 488a 5cbb ee47 0b3c db0f c2bc c40c 8abc
00000140: cae7 553d 644b 07bd 1dbe 32bd 97bb f83c
00000150: 35b4 7a3c 8d8b a3bd dd31 b43d 312a 563a
00000160: e0be c43c d5f4 7f3b d942 6a3c c670 28bd
00000170: 7d5e 3ebc 1334 0c3c cf94 09bc 668b bc3c
00000180: 3129 7fbc ea07 1a3b a65d 13bc 49cb 48bd
00000190: c6af 443c 0b00 91bb 47a3 07bc a333 263c
000001a0: 501a 5f3d 3563 8fbb 445a b93c 7997 483b
000001b0: f21d 84bb b1ee 543c d4b2 393c cf37 22bc
000001c0: 1e23 80bc 9f55 f4bb 314c b33c 4cee 623c
000001d0: 03b5 1dbc b1f1 90bc 495a 103c 070e a43c
000001e0: 1539 4d3c a989 b13b 981e 30bc 98f7 bd3b
000001f0: 580c a0bc 2a99 91b9 1a2d 7b3b f283 f43c
00000200: 4be5 cabc c7a0 b939 cc1d adbc f139 843c
00000210: bd17 e73c 1833 853c a634 3dbb 777d 373a
00000220: c6e6 b7bc 1d75 eb3b 01e6 c73b 700f 953c
00000230: 083b ab3b 9f59 933c abba a1bc d0bc 85bb
00000240: fdf9 b3bb f491 9639 421b 90bc faa6 b7bb
00000250: ae2b d83b 8956 cabb c8cd 323c 59f1 ccbc
00000260: e201 b33c 9cb6 1c3b 8e93 bbbc a5b4 b53c
00000270: 7859 5b3c 82d6 3e3a 1284 abbc 03a0 f1ba
00000280: f5ff e0bb cf15 b2bb 7461 e7bb 665f 493b
00000290: 3960 18bc f8b2 4db9 81ad 32bc 18f7 e8bc
000002a0: 1833 48bc 45c8 8c3c 457f 4ebc 709e d0bc
000002b0: cd97 e0bc de1d 2abb 51b5 8c3c a75e 99bb
000002c0: 87a5 42bb 7ab1 e8bb e259 e73c fb5a 12bc
000002d0: 473b aa3d 62b5 92bc ea78 ecbc bd7c da3c
000002e0: 28ef 4fbd 4e29 96bd 52d2 5a3d 0dbd 2a3d
000002f0: 89d4 f8bc c17e 8ebc 3393 ccbc 4976 10bb
00000300: 50ba ecbc eef9 003b c11c 02bd 7d2c d2bc
00000310: ae05 3a3c cdec b5bb 0c06 213d ad26 9a3c
00000320: fa69 183d 0a81 9dbc 4a18 703b 1410 d53c
00000330: 7c0a 05bd 3faf 98bc fd0d 1e3d 7d8c 48bc
00000340: a44d c83c 4247 893b a4b5 3b3c e264 30bb
00000350: d5b4 ccbb 9542 20bc 0204 8bbc 0c5e 483a
00000360: 7ba1 933b 2510 66bc 023b f43b dff9 17bd
00000370: e7d0 b5bc 1ff7 1cbc 41c9 21ba d26d 023a
00000380: 8572 063b bb49 4b3a dad1 32bc f7f0 0c3b
00000390: b58a b5bb 2e09 b33b 2800 18bc 3f77 203a
000003a0: 1919 883b 65ea 23bb 4b33 593c 3a06 c9bb
000003b0: 822a 0e3c 426d b53b b99b 943b a550 d83b
000003c0: 18d5 dd3d fe0d 49bd 146d 343c 2acb 1c3d
000003d0: 6cac 85bd eac4 febd ae9e c03d 7abd b83c
000003e0: 0db8 563d 7f49 0bbd 2cef 103d 242b 42bd
000003f0: 486d 80bc b6ad 093d 95d5 15bd 7eb3 cfbb
0.06507397 -0.037534215 0.164848 0.009986928 -0.04227265 -0.09051703 0.056627642 -0.0019257676
0.11826931 -0.051867068 0.087880105 -0.04693928 0.024921762 0.08076438 -0.02209945 0.0010480412
-0.10467577 -0.00799768 -0.021852575 -0.12074018 0.03142536 0.06814596 -0.01114492 -0.009963399
-0.042023346 -0.020217849 -0.03988687 0.008680281 -0.08477358 -0.007431843 -0.09954585 0.053607553
-0.08647052 -0.051926546 -0.04705243 -0.035329092 0.06865273 0.03254248 0.022289725 0.06989868
-0.065149635 -0.058261815 -0.06465388 -0.00081587053 0.015755555 0.0437405 -0.0031608501 0.028673908
0.041025996 0.008194519 0.047553826 6.915476e-05 0.08887251 0.0017134786 0.03388447 0.004536804
0.016882837 -0.027328553 0.009399499 0.024766792 -0.0002576248 0.00187321 -0.0051786276 -0.007884329
0.018004028 0.022876166 0.007557207 -0.018944904 -0.021286804 -0.00032421201 0.007866647 -0.007015233
-0.027092649 0.01219704 0.01462371 -0.000865456 -0.0033651758 0.008501036 -0.023689201 -0.01685179
0.052223004 -0.033030882 -0.043638337 0.030362887 0.015301754 -0.079856016 0.08798573 0.0008169739
0.024016798 0.0039055843 0.014298164 -0.041123174 -0.011619207 0.008557337 -0.008397295 0.02301569
-0.015573786 0.0023503252 -0.0089944955 -0.049021993 0.012004798 -0.004425054 -0.008278674 0.010144147
0.054468453 -0.00437584 0.02262605 0.0030607863 -0.00403189 0.012996362 0.01133414 -0.009901001
-0.015641745 -0.007456496 0.021886917 0.01385076 -0.009625676 -0.017693372 0.008810588 0.02002622
0.012525816 0.0054180217 -0.010749482 0.0057973377 -0.019537136 -0.0002777067 0.0038326443 0.029848073
-0.024767539 0.00035405738 -0.021132372 0.01614091 0.028209561 0.016259715 -0.0028870492 0.0006999592
-0.022448909 0.007185592 0.0061004166 0.018195838 0.005225543 0.01798707 -0.01974233 -0.004081346
-0.0054924474 0.00028718973 -0.017591123 -0.005604622 0.006597004 -0.0061748666 0.01091332 -0.025017427
0.021851484 0.0023912555 -0.022897508 0.022180865 0.01338803 0.0007279889 -0.020937 -0.0018434528
-0.00686645 -0.0054347287 -0.007061178 0.0030727028 -0.009300285 -0.00019616995 -0.010905624 -0.028438136
-0.012219213 0.01718534 -0.012603586 -0.025466174 -0.027416134 -0.0025957744 0.017176302 -0.004680473
-0.0029700713 -0.007101235 0.028241102 -0.008932824 0.083120875 -0.017908756 -0.02886625 0.026670808
-0.050765187 -0.07332097 0.053423233 0.0416842 -0.030374782 -0.017394425 -0.024972534 -0.002204316
-0.028897434 0.001968022 -0.031765703 -0.02565598 0.011353893 -0.0055519105 0.039312407 0.01881727
0.037210442 -0.01922657 0.003663557 0.026008643 -0.0324807 -0.018638251 0.03858756 -0.012240526
0.024451084 0.004189403 0.011456881 -0.00269156 -0.006247143 -0.009781499 -0.016969685 0.00076434086
0.004505334 -0.014041935 0.0074533233 -0.03710353 -0.022194339 -0.009580403 -0.0006171652 0.0004975471
0.0020515036 0.0007754822 -0.01091429 0.002150593 -0.005540217 0.005463741 -0.009277381 0.00061212847
0.0041533825 -0.0025011536 0.013256858 -0.0061347755 0.008677127 0.005536706 0.004535165 0.0066014105
0.1083166 -0.04908561 0.011012334 0.03827969 -0.065270275 -0.12439902 0.09405266 0.022551287
0.05242162 -0.03400564 0.035384342 -0.047404423 -0.01567711 0.03361293 -0.03658064 -0.006338536

linear.weight f4 [1, 13]
00000000: f56e 46bb e0a4 493d 2545 6abe 3960 2e3e
00000010: 663c 4ebe 002a a2bc 551a f4bd 0dac 993d
00000020: 74a5 2c3e cef6 77be 199a 223e 42c3 563d
00000030: 79d8 753e
-0.0030278538 0.049229503 -0.22877939 0.17028894 -0.20140228 -0.019795418 -0.11919085 0.07503519
0.1685999 -0.24215242 0.15879096 0.052432306 0.24008359
