Results/WD/20250107_142739_batch1024_epoch10_lr0.01_reg0.001_WD/control_wide_deep.pth (torch, 173714 bytes, 10 tensors)

wide.weight f4 [1, 13]
00000000: 8907 22be 29a7 1cbf 89c7 09bf d22b 8abd
00000010: 34fc 093f c8be 50be 306e ecbd b0f6 b2bd
00000020: c93d 86be e843 d93d 5400 11be bb48 80bd
00000030: b70d 0080
-0.15823187 -0.61192566 -0.5382009 -0.06746639 0.53900456 -0.20385277 -0.11544454 -0.08738458
-0.26219013 0.10608655 -0.14160281 -0.06263872 -4.92e-42

deep.0.weight f4 [13, 13]
00000000: 2963 70ae be9f 0eae 4b2c 8aad 8023 072d
00000010: 04ba 0eae 3244 522d 5afe 0fae 3d76 ccad
00000020: 38c2 5e2c 565a e1ae 63b1 bbad 96ff 8eb4
00000030: 630e 0000 da1a 46ae fc83 56ae 1794 5bb4
00000040: 835b 06b2 27f2 56ae cff4 bcba 6742 4a32
00000050: 01f1 2a32 6d00 5b37 19a4 9fad 37b2 8f32
00000060: 7a21 103a d40e 0000 2fa9 edaf 50e4 d0af
00000070: 7b87 92af 6047 58ae 099b f8af c6de 2e2e
00000080: eb2d 99af 5139 95ae 1c1c 472e f384 4ab0
00000090: fd97 93ae 4c22 56b2 5310 0000 3ed6 5dad
000000a0: 445b 0bac fe09 8fad 605a 64ac 67e0 8f2c
000000b0: c0e0 44ad 1d06 03ad 3a9a a92b d9c9 44ad
000000c0: 00c2 90ae 7939 55ac 0705 d833 af0d 0080
000000d0: 7d0b ccad 08b5 ea2c c83a 1a2d a7c4 c8ad
000000e0: 770a 882c 4194 39ad e3d1 5cad 3873 ea2c
000000f0: 8967 5fad e6ef c7ad b5d6 f529 4d20 1930
00000100: 400e 0080 c5bb 2daf c9bd b02e e3d8 4b2f
00000110: f15a 6033 1b4f ba2e d80c b6b2 6ff8 95b4
00000120: 6178 6ab2 cbf3 b42f 9ad7 19af 1a7e 9738
00000130: bcfe 5438 1a10 0080 a18c 6333 83da 81ba
00000140: 630b 3fb3 8738 dab8 3f52 24b2 bfbf 56b3
00000150: 7a2d 7532 42eb 0fb5 e7d3 233a bfe2 3d32
00000160: d4bd 1034 34f1 f8af a70e 0080 9aab 2e2f
00000170: e2b9 052f ca82 062f 58fe 722e 1d72 212f
00000180: 248b 072f 300f c2af a5dd 102f 27f5 f62e
00000190: 8879 922f 4294 292f 1188 a7b6 3a11 0000
000001a0: a62b d8ae 5faa ffae 46a2 ffae b67a fcad
000001b0: b52b 19af 57c0 b7ae c960 7c2f da03 bdae
000001c0: b83d a6ae 352f 16af 2401 e8ae 31b4 49b7
000001d0: 6910 0000 d94d 0033 ecbb e434 8843 1136
000001e0: e08d c1b7 39b3 76b3 2fc3 cbb8 5bb9 aab8
000001f0: 993c b9b1 1343 0a35 5872 5a38 770f 2fb4
00000200: a8cc 9e3a 9e0f 0080 3b33 f7b0 e3d0 a7b0
00000210: f98e 99b0 a9f3 362f b7bd b9b0 3996 ee2d
00000220: 1256 d430 4096 13b0 3263 c4ac 3fa1 beb0
00000230: fdf8 2ab0 f82b 5baf c6bc 0eb6 96ce 5bb2
00000240: 1e1a 59b7 1ef5 ce32 829a 9eb2 6198 6db5
00000250: d12c 9d33 5252 cc34 7978 2e30 84ff c1b0
00000260: d5c8 6f37 9e62 27b6 33cb d330 b30d 0000
00000270: 1be5 2d30 7f4f 9932 00a4 f4b2 a550 0739
00000280: 9827 f2b3 cc2a 8232 e81e 30b2 9689 c933
00000290: c961 3b33 0de5 1633 ce21 8333 c495 06b7
000002a0: cc73 9baa
-5.4657754e-11 -3.242894e-11 -1.5708454e-11 7.681744e-12 -3.2452277e-11 1.195226e-11 -3.2740345e-11 -2.3244623e-11
3.165591e-12 -1.0247862e-10 -2.1338214e-11 -2.6635524e-07 5.161e-42 -4.5043837e-11 -4.8775192e-11 -2.0449839e-07
-7.820634e-09 -4.887304e-11 -0.001441622 1.1773046e-08 9.9501e-09 1.3053516e-05 -1.8149081e-11 1.6728434e-08
0.00054981525 5.32e-42 -4.323026e-10 -3.7997205e-10 -2.665351e-10 -4.9176108e-11 -4.5221096e-10 3.9760882e-11
-2.7863165e-10 -6.785917e-11 4.5272328e-11 -7.3676104e-10 -6.7117846e-11 -1.2464238e-08 5.856e-42 -1.2609967e-11
-1.980375e-12 -1.6261655e-11 -3.2450917e-12 4.089218e-12 -1.1191215e-11 -7.447845e-12 1.2050979e-12 -1.1186129e-11
-6.582823e-11 -3.0301024e-12 1.0059198e-07 -4.909e-42 -2.3197217e-11 6.6707785e-12 8.7669386e-12 -2.2824699e-11
3.8665143e-12 -1.05489515e-11 -1.2552156e-11 6.663472e-12 -1.2699072e-11 -2.2730217e-11 1.09174314e-13 5.570698e-10
-5.112e-42 -1.5800967e-10 8.037266e-11 1.8539796e-10 5.2236775e-08 8.472353e-11 -2.119343e-08 -2.7934172e-07
-1.3647964e-08 3.2915035e-10 -1.3991866e-10 7.223729e-05 5.078198e-05 -5.776e-42 5.2980457e-08 -0.000990704
-4.448101e-08 -0.00010405579 -9.564757e-09 -5.000015e-08 1.4271217e-08 -5.3613996e-07 0.00062495325 1.1052804e-08
1.3480104e-07 -4.5282322e-10 -5.256e-42 1.5886173e-10 1.2162318e-10 1.2233695e-10 5.5250332e-11 1.4683406e-10
1.2327611e-10 -3.5299186e-10 1.3175468e-10 1.12303326e-10 2.6643598e-10 1.5423132e-10 -4.992828e-06 6.18e-42
-9.830296e-11 -1.16263214e-10 -1.1624883e-10 -2.8703578e-11 -1.3930797e-10 -8.356043e-11 2.2953651e-10 -8.595409e-11
-7.5597695e-11 -1.3659192e-10 -1.0550341e-10 -1.2022488e-05 5.887e-42 2.9873124e-08 4.260504e-07 2.1645992e-06
-2.3073459e-05 -5.743934e-08 -9.71615e-05 -8.140757e-05 -5.391098e-09 5.150661e-07 5.208174e-05 -1.6303771e-07
0.0012115436 -5.602e-42 -1.7986176e-09 -1.2210218e-09 -1.117285e-09 1.6639369e-10 -1.3514442e-09 2.712418e-11
1.5449493e-09 -5.3691807e-10 -5.581668e-12 -1.3870148e-09 -6.2199473e-10 -1.9933555e-10 -2.126953e-06 -1.279445e-08
-1.2940289e-05 2.4093023e-08 -1.8463883e-08 -8.851112e-07 7.319034e-08 3.8057857e-07 6.3472033e-10 -1.411522e-09
1.429227e-05 -2.4942342e-06 1.5410023e-09 4.914e-42 6.326261e-10 1.7847695e-08 -2.8479917e-08 0.00012904646
-1.1276205e-07 1.5153454e-08 -1.0251576e-08 9.3848186e-08 4.3628265e-08 3.5132917e-08 6.106312e-08 -8.021892e-06
-2.761388e-13

deep.0.bias f4 [13]
00000000: 3132 8d38 8138 10b7 deec b0af ee96 85ab
00000010: 86d6 52ad 92d4 8b3a 498b e1b9 d196 08af
00000020: 5ff2 f7ac d3bf e2af 11cf a438 6848 04b1
00000030: ff71 b433
6.732753e-05 -8.596225e-06 -3.2182518e-10 -9.49211e-13 -1.1984752e-11 0.0010668209 -0.0004301912 -1.2422709e-10
-7.047071e-12 -4.124546e-10 7.8586985e-05 -1.9249686e-09 8.402639e-08

deep.2.weight f4 [512, 13]
00000000: 5932 9533 3574 7a31 f96b b3b6 5883 22a7
00000010: 3d16 1d2e d902 312e 819d a7b8 99f8 bbb0
00000020: 32ed e127 cf64 97b0 84fb 9bb0 8a2d 0cb6
00000030: da9a ba34 e2f5 bc3a 958b 46b6 8db6 6e37
00000040: fe16 bb36 fa0f 61b3 787c 3933 79db 65b3
00000050: adac c130 941c 13bb 253d 2234 a51a 713a
00000060: 6f59 1e39 5a3f 5935 4a20 8b2e 9ea8 67b6
00000070: eeb0 61b0 a776 86a8 c7ef 04af b119 d5b2
00000080: 45f0 acb9 c3e1 402b 7c3a c5a7 a82d 2c36
00000090: 02ae 98b8 2d1c b2ae 3d24 fb36 39f1 60ac
000000a0: 96ce 2eb6 2517 6123 2315 2da6 ad9b 37a1
000000b0: 1904 0db6 6666 acb5 825b a433 902a 2c26
000000c0: e857 032f 1d8b c3b9 7269 5b36 99a9 0433
000000d0: 1c8a 0d36 a09d 3b39 1073 03b9 5f03 90b1
000000e0: 4205 bf32 a550 92ad f27e a138 50f5 882b
000000f0: 8bd2 ef2d a9e2 58b5 0524 f8b0 4f59 9237
00000100: c47f 1eb0 ce0d 0000 d40d 0000 c40d 0080
00000110: 400b 0080 2b0e 0000 070e 0080 3711 0080
00000120: bc0d 0000 b90d 0000 e40e 0000 be10 0080
00000130: cb0f 0000 e110 0000 30f2 9631 48f2 1436
00000140: 5a2a aab8 a291 91b4 6518 8338 48db 2c37
00000150: 125d 1036 9b60 7437 d311 33ad a11a d338
00000160: 3772 a3b1 4656 8732 07bc a0b6 7c81 c5aa
00000170: 7bf5 fc2a 941a ee24 4c2d 6c26 6ec4 3521
00000180: 9b7c ff35 7810 6234 97a6 d9a5 a147 0428
00000190: 4e12 8732 3f58 c8aa edc5 4bb7 1c48 65b1
000001a0: 320f ad37 e581 ec2d cac0 44b7 d7aa d4ae
000001b0: 64c2 29b3 81bd 9c35 820e 98b3 2a8a 042e
000001c0: a481 9a2c 8676 03bb 0640 232c 2036 0237
000001d0: ae39 90ba eab9 6bb9 4496 f4b4 8dc5 5f39
000001e0: f233 f5b8 b605 3633 18c9 71b4 9a23 8eb9
000001f0: f665 aab7 5082 fa2c a419 59ba f2ec 17b6
00000200: 22a3 66b8 08bc 0c36 860b 6835 3f79 2237
00000210: ff58 ca34 670b 23b9 0f3f 07b2 5237 1f34
00000220: 6ed0 e32f 142d b3b2 2991 4533 8c08 c932
00000230: d1b3 3b2d 0975 ceb6 0fd8 3baf 3b72 9937
00000240: 193b 73b8 b56e 2bb8 b40d f2ab 0069 3fb5
00000250: 22b4 e1b1 f362 07b7 7db1 c534 0afe 8e3a
00000260: 2188 ca35 4d50 c739 65f7 f638 95c3 1239
00000270: b0da 4ab5 fba8 8e2f eb0c 14b2 4dab 9cad
00000280: c1ff 4b33 5eae 7935 205c d337 5e09 a130
00000290: 8fbf 0a2c 362d 81b8 6f78 2e2d 7623 6e38
000002a0: 50ab 0e31 da8d 8439 3416 2eb4 ebaa 6d37
000002b0: b4c6 f62c dadd d4b7 6472 e2af 9cf1 5a31
000002c0: 5a22 462c 7418 82b1 6eeb 8338 9f74 56b0
000002d0: 312a 9ab7 253f 88b2 ef2d 9fb4 bb75 0636
000002e0: 1580 d737 4ad7 202d 42bb 0a38 6ca8 8d2d
000002f0: 199d 91b5 4e4a c3b4 b5c1 1928 2ca9 73b0
00000300: 0de4 382c 006e b436 d01e 913a 1bd8 3438
00000310: d323 8532 53c3 9537 b259 7bb0 c958 e3b7
00000320: 04da ceac 2ace 88b6 c423 b32f f7da 9f39
00000330: 611d 11ba 2f51 0ebb ef70 b2b5 afc1 abb6
00000340: bf75 8a33 09fd 9332 5b0e 18b5 8575 f926
00000350: 3534 8e2e aff1 4434 fa6a 6b33 d8f2 3b32
00000360: 8d17 b9a8 4776 6933 7c97 8aad d77c ed34
00000370: 070a 5b31 2cf0 09b6 1715 be35 2c0f 9bb2
00000380: 1f42 d535 3f1e 452d 6052 d4b5 543b 1932
00000390: e1c1 8bad 4afe 0b2e b45c 1b3a 769a ddb3
000003a0: 0038 992d a533 cc2e 234e 0d38 c108 5837
000003b0: c5d9 ad33 d24d 4fb5 325e b2af 1595 322e
000003c0: 6962 b636 bd4b 28ba 7c28 1a28 a7c5 abb9
000003d0: fbb9 8eaf 4061 ff37 2d84 e7b7 6320 a034
000003e0: 77b1 1aae 0f9a f224 56d1 2330 bcd6 b7a1
000003f0: 16c2 32ae e41e 0db3 4cbe e12e d673 9ba9
6.9475114e-08 3.6445844e-09 -5.3471854e-06 -2.2553218e-15 3.571742e-11 4.024767e-11 -7.992518e-05 -1.3676696e-09
6.2707213e-15 -1.1015348e-09 -1.1349219e-09 -2.0888133e-06 3.475787e-07 0.001441654 -2.9585547e-06 1.4228409e-05
5.575711e-06 -5.2401425e-08 4.3186873e-08 -5.3517827e-08 1.4091676e-09 -0.0022447454 1.510967e-07 0.0009197391
0.00015101371 8.093099e-07 6.326724e-11 -3.451983e-06 -8.2105955e-10 -1.4928446e-14 -1.2090516e-10 -2.4808147e-08
-0.0003298541 6.852541e-13 -5.4741893e-15 2.5656573e-06 -7.280336e-05 -8.099508e-11 7.4846016e-06 -3.196622e-12
-2.604827e-06 1.22021755e-17 -6.005008e-16 -6.2208847e-19 -2.1013022e-06 -1.28448e-06 7.65349e-08 5.973217e-16
1.1945611e-10 -0.00037296946 3.269492e-06 3.0887893e-08 2.1091028e-06 0.0001789243 -0.00012535998 -4.191335e-09
2.2237717e-08 -1.6634092e-11 7.700724e-05 9.731469e-13 2.7264654e-11 -8.0796104e-07 -1.8054612e-09 1.7446144e-05
-5.766163e-10 4.952e-42 4.96e-42 -4.938e-42 -4.036e-42 5.083e-42 -5.032e-42 -6.176e-42
4.927e-42 4.923e-42 5.342e-42 -6.006e-42 5.665e-42 6.055e-42 4.393108e-09 2.2194745e-06
-8.11412e-05 -2.7114316e-07 6.2511106e-05 1.0303054e-05 2.1511846e-06 1.4566026e-05 -1.017893e-11 0.00010066224
-4.756909e-09 1.5755301e-08 -4.790261e-06 -3.5084078e-13 4.493453e-13 1.0326107e-16 8.1940337e-16 6.158516e-19
1.9035245e-06 2.1053881e-07 -3.7756385e-16 7.343004e-15 1.5724392e-08 -3.558837e-13 -1.2145826e-05 -3.3364875e-09
2.0630283e-05 2.6887778e-11 -1.1727398e-05 -9.670991e-11 -3.9525176e-08 1.1678059e-06 -7.0806905e-08 3.013604e-11
4.3913363e-12 -0.002005966 2.3199233e-12 7.761206e-06 -0.0011003518 -0.00022480605 -4.5557874e-07 0.0002134053
-0.00011692186 4.238037e-08 -2.2518032e-07 -0.00027110876 -2.0313058e-05 7.119895e-12 -0.0008281714 -2.2638674e-06
-5.4988202e-05 2.0971074e-06 8.6443504e-07 9.684182e-06 3.7690185e-07 -0.00015549139 -7.872372e-09 1.4828154e-07
4.1439158e-10 -2.0858842e-08 4.599966e-08 2.3403366e-08 1.0669647e-11 -6.152903e-06 -1.708431e-10 1.8292214e-05
-5.7990754e-05 -4.087268e-05 -1.7198938e-12 -7.130584e-07 -6.5688406e-09 -8.0696655e-06 3.682325e-07 0.001090945
1.5089792e-06 0.00038016067 0.00011776275 0.00013996505 -7.5569096e-07 2.5949717e-10 -8.617671e-09 -1.781122e-11
4.7497227e-08 9.3013466e-07 2.519606e-05 1.1716954e-09 1.9717316e-12 -6.1596205e-05 9.9174965e-12 5.6776647e-05
2.07611e-09 0.0002528269 -1.621309e-07 1.4166096e-05 7.013801e-12 -2.5375677e-05 -4.119044e-10 3.1860514e-09
2.8156561e-12 -3.786278e-09 6.290419e-05 -7.8018475e-10 -1.8377877e-05 -1.5861199e-08 -2.964948e-07 2.0036084e-06
2.568964e-05 9.142751e-12 3.307616e-05 1.6104638e-11 -1.0849063e-06 -3.6375644e-07 8.53521e-15 -8.864329e-10
2.6274566e-12 5.3772237e-06 0.0011071805 4.3116608e-05 1.5499529e-08 1.7853139e-05 -9.144073e-10 -2.7101853e-05
-5.8790767e-12 -4.0771165e-06 3.2585323e-10 0.00030489985 -0.0005535689 -0.002171587 -1.3294901e-06 -5.118745e-06
6.447544e-08 1.722812e-08 -5.66453e-07 1.73097e-15 6.466686e-11 1.8341846e-07 5.4812496e-08 1.0940049e-08
-2.054934e-14 5.4357113e-08 -1.5756056e-11 4.4235523e-07 3.1874394e-09 -2.055439e-06 1.4162241e-06 -1.8051274e-08
1.588898e-06 1.12048695e-11 -1.5819205e-06 8.919262e-09 -1.588857e-11 3.1830795e-11 0.00059265946 -1.0319211e-07
1.7418955e-11 9.28602e-11 3.368979e-05 1.2876641e-05 8.095552e-08 -7.722675e-07 -3.244494e-10 4.0604926e-11
5.435479e-06 -0.0006419977 8.557496e-15 -0.00032762924 -2.5961797e-10 3.0443654e-05 -2.7598895e-05 2.9825887e-07
-3.5173166e-11 1.05211756e-16 5.959654e-10 -1.2457402e-18 -4.0644897e-11 -3.2857216e-08 1.0265619e-10 -6.903477e-14

deep.2.bias f4 [512]
00000000: 770f 4233 8893 e8b8 82ec 3f38 61ae 54b5
00000010: 37e0 35ba 590e 0080 be96 c3b9 56b3 983a
00000020: d1ad fa38 0d11 cab6 041c b839 8a6f aa39
00000030: 387a 6fb7 ff50 dfb7 76aa b3b9 c1b8 78b6
00000040: 11e2 47b9 2d3a 8b39 2153 2fb9 b402 02b4
00000050: 9e16 16b8 0141 b0b7 3131 88b6 bd39 13b2
00000060: 632f baba 0c0e 0080 d96c d537 f945 7ab8
00000070: 209c 273a 971f 903a f4cc e431 626e 753a
00000080: 851e 65b6 6774 3f37 9eea 4b37 79a8 b7b8
00000090: ede6 8039 39a5 eab9 79cc 9239 0dc2 0fb4
000000a0: 9a3a 2635 8530 9a39 526f cfb3 3157 0138
000000b0: c10d 0080 38b9 a932 4e8d 4236 7996 d5b7
000000c0: ef2e ccb8 00f9 8e33 dec5 0bb9 658a b539
000000d0: 110d 2c38 a72c e639 42a7 df38 89ce 6039
000000e0: 7f0e 0080 2206 cfb9 ad57 5d3a 5be3 653a
000000f0: 2523 abba 058f 00ba fe04 ce37 434b 4e37
00000100: 820e 0080 3826 5034 3d02 88b8 1b29 923a
00000110: fb5b 76b6 560e 0080 c032 1eb8 88dc f2b7
00000120: c7c6 233a b95a 7fb9 b372 5933 f7fc 1139
00000130: 1041 2235 22f7 99b3 c230 56ba eedb c9b7
00000140: c362 2ab9 24f1 b1b6 4d59 2b39 b67a 6bb7
00000150: 912a 38b7 d01d 4c38 dfa2 15b9 f6ef 5b3a
00000160: 092b ccb8 94f7 fa34 ae0d 0080 917c a737
00000170: 941c 84b9 4f96 0db9 0bce 50b9 ad92 3cb6
00000180: 2dd8 3fb8 3428 bb34 fc6f c939 dfd0 ce37
00000190: 9f10 0080 2411 e032 940e 0080 5cd1 e93a
000001a0: 2746 5639 3cf9 75b7 6dc1 c738 fe9e ffb9
000001b0: 786b 0a31 f5ca 0939 aaee 2134 4172 4835
000001c0: 2d0f 0080 3511 0000 3deb 5734 dec8 c233
000001d0: 290e 0080 6315 3239 d140 d23a ecc6 9eb4
000001e0: b20e 0080 2ca3 0438 8b8c b7b8 eeec e1b7
000001f0: 228a 26b5 5c4f 20b4 ab56 6d3a 9d19 1639
00000200: 91fc aeb6 d977 a53a a314 7839 cf89 1b37
00000210: ebb4 af35 1d17 c938 971c 8139 fafa 86b7
00000220: 62bd af38 4110 e938 2e03 0a35 936f a9b6
00000230: 263f 0739 ab86 70b9 2dfe 8938 3ca7 d9b3
00000240: de81 67b7 9ab7 e934 7756 8c38 3c54 6639
00000250: 7e88 1fb9 2c40 39b7 03d0 83b7 ac8e 0638
00000260: 9e14 b639 2a83 8536 31d0 e437 7132 36b9
00000270: e9a7 9e38 6392 37b7 48e8 9839 b949 2337
00000280: fada d6b6 eed5 ae35 2420 2738 1910 0080
00000290: 4b4a 96b9 f1e1 c339 d659 c53a 92ed 8a37
000002a0: 5e83 a0b5 b4ec 5638 d8e1 f2b3 af28 e439
000002b0: eb69 f7b8 3ddf 33b9 7b47 3a37 9240 30b4
000002c0: 0966 e436 82de 1fb9 4abf 8038 4cb9 8db3
000002d0: 3996 b536 e2e8 5db2 e70e 0080 38bc a538
000002e0: 93b1 a8b2 047f b739 9180 f3b6 da31 15b9
000002f0: 46fc c336 96ab 6638 1d0e 0080 6272 5cba
00000300: cce6 8638 dc48 4b38 325c 8438 f20d 0080
00000310: 4fbe 263a 4670 d3b9 8765 e83a 5e74 1ab5
00000320: 838e 9a38 6bfd 5f38 acb1 4f35 6f1a 7db6
00000330: 4a07 62b6 2890 d0b7 e2b2 0c39 a71d 77ba
00000340: ccdf 5f36 7a7e 0db9 7dbc 5fba 7236 2db2
00000350: f0ed e934 13a4 09b7 731f dbb1 23f6 8739
00000360: 9ce9 acb9 6753 6538 eb7b 1f36 2a0e 0080
00000370: 311e 87b9 3ae2 65b9 002d e3b9 7f02 0434
00000380: ac64 bf3a f3fe dd3a d8c1 ac36 14cc adb5
00000390: ad34 4a39 964e a734 165a c2b6 8558 f1b7
000003a0: 39a3 d5b9 eb5b 8e38 10d7 c7ba 8b57 ceb9
000003b0: 5ee9 2d34 e72a b139 ffcc 8135 bb65 e0b8
000003c0: 3099 6db1 4fca e836 4fd3 c3b7 bf6d 0bba
000003d0: 15e5 8fb5 810e 0080 c128 b6b9 bcd1 adb0
000003e0: cff4 02b8 b281 e239 a9f5 38b4 f4f2 f237
000003f0: 4ae3 9f36 0fa9 1f36 9a89 803a 0d31 813a
4.518321e-08 -0.00011090102 4.5758214e-05 -7.922991e-07 -0.00069380127 -5.147e-42 -0.0003730561 0.0011650126
0.00011953305 -6.022054e-06 0.00035116088 0.0003250803 -1.4273966e-05 -2.6621388e-05 -0.00034268544 -3.706242e-06
-0.00019062335 0.0002655549 -0.00016720268 -1.2108177e-07 -3.578385e-05 -2.1011105e-05 -4.0588425e-06 -8.569654e-09
-0.0014204796 -5.039e-42 2.5442265e-05 -5.9669812e-05 0.0006393809 0.0010995743 6.658974e-09 0.00093624566
-3.4141424e-06 1.1411589e-05 1.2154369e-05 -8.7575005e-05 0.00024586116 -0.00044755058 0.00027999634 -1.3388508e-07
6.1925095e-07 0.0002940932 -9.659438e-08 3.08372e-05 -4.934e-42 1.9758417e-08 2.8990503e-06 -2.5461648e-05
-9.73622e-05 6.657683e-08 -0.00013329784 0.00034626122 4.1020165e-05 0.00043902287 0.00010664623 0.00021439245
-5.2e-42 -0.00039486686 0.00084435457 0.00087695353 -0.0013056739 -0.0004904124 2.4559438e-05 1.229608e-05
-5.204e-42 1.9385413e-07 -6.485402e-05 0.0011151166 -3.6710396e-06 -5.143e-42 -3.77174e-05 -2.8951341e-05
0.00062475767 -0.00024352492 5.0628568e-08 0.00013922514 6.044438e-07 -7.169571e-08 -0.00081707176 -2.406348e-05
-0.00016249255 -5.3030835e-06 0.00016341098 -1.4035662e-05 -1.0977165e-05 4.8665155e-05 -0.00014270422 0.0008389944
-9.735494e-05 4.6746266e-07 -4.907e-42 1.9965957e-05 -0.00025198294 -0.00013502802 -0.00019913183 -2.809956e-06
-4.5739278e-05 3.4860716e-07 0.00038421142 2.4654377e-05 -5.963e-42 2.6084827e-08 -5.23e-42 0.0017838883
0.00020434764 -1.4661167e-05 9.525088e-05 -0.0004875585 2.0142732e-09 0.00013140946 1.5081119e-07 7.467207e-07
-5.444e-42 6.173e-42 2.0109015e-07 9.0703665e-08 -5.08e-42 0.0001698337 0.0016041045 -2.9574528e-07
-5.272e-42 3.1623218e-05 -8.752298e-05 -2.693242e-05 -6.204083e-07 -1.4930032e-07 0.0009053747 0.00014314656
-5.2150067e-06 0.0012624218 0.00023658811 9.270806e-06 1.309117e-06 9.588732e-05 0.00024626098 -1.6090915e-05
8.3799256e-05 0.00011113333 5.1413633e-07 -5.0495814e-06 0.00012898128 -0.00022938351 6.580013e-05 -1.013527e-07
-1.379891e-05 4.353322e-07 6.6918255e-05 0.00021965889 -0.00015214269 -1.10418005e-05 -1.571328e-05 3.2080963e-05
0.00034729106 3.9789784e-06 2.7276665e-05 -0.00017375663 7.565303e-05 -1.0941733e-05 0.00029164762 9.732722e-06
-6.403189e-06 1.3026272e-06 3.9845836e-05 -5.775e-42 -0.00028665582 0.00037361638 0.001505668 1.656151e-05
-1.1959162e-06 5.1242023e-05 -1.1310084e-07 0.0004351786 -0.000117976066 -0.00017153933 1.1103107e-05 -1.6414768e-07
6.806808e-06 -0.00015246312 6.139146e-05 -6.5995295e-08 5.4117086e-06 -1.29168445e-08 -5.346e-42 7.9028716e-05
-1.9638525e-08 0.00034999114 -7.2569314e-06 -0.00014228318 5.8408214e-06 5.4996075e-05 -5.063e-42 -0.00084093784
6.432607e-05 4.8466827e-05 6.311423e-05 -5.003e-42 0.00063607557 -0.00040328706 0.0017730453 -5.7538807e-07
7.369837e-05 5.3403357e-05 7.7372056e-07 -3.7715324e-06 -3.3680867e-06 -2.486266e-05 0.0001341808 -0.0009426721
3.3359856e-06 -0.00013493924 -0.0008534862 -1.0082305e-08 4.3572754e-07 -8.204038e-06 -6.3773142e-09 0.00025932593
-0.0003298045 5.467553e-05 2.3764976e-06 -5.081e-42 -0.000257717 -0.00021923418 -0.00043330342 1.2294366e-07
0.0014602146 0.0016936943 5.148566e-06 -1.2948899e-06 0.00019283844 3.1163353e-07 -5.792138e-06 -2.8770659e-05
-0.00040748136 6.788209e-05 -0.0015246589 -0.00039356606 1.6196779e-07 0.00033792036 9.670911e-07 -0.00010700101
-3.4575116e-09 6.9376906e-06 -2.334421e-05 -0.00053187826 -1.0721002e-06 -5.203e-42 -0.0003474411 -1.2647017e-09
-3.122241e-05 0.0004320271 -1.7225706e-07 2.8961782e-05 4.765029e-06 2.3791251e-06 0.0009806633 0.0009856537

deep.4.weight f4 [64, 512]
00000000: d4bf c6b0 5294 8aab f9f5 352a e42e 5d2a
00000010: 9394 5930 c40d 0000 69ef 5daf 5dc2 01ab
00000020: 1d2e 39b1 0605 3131 d1cd 7433 b4b9 e6b2
00000030: 6eb8 c03a d027 0931 e35a 6fb8 8727 04b7
00000040: 2daa 5934 0cdf 0d34 60fe 5038 7f58 4232
00000050: e2cb 8935 a61a b935 2065 33ad 15e9 9133
00000060: 109b a1aa 2010 0000 51ae beab 0cd4 0039
00000070: 2080 d4b7 6d96 c52f 0e9a 323a f821 9d37
00000080: 2eaa 1236 95e3 b53a f1a0 a6b0 73b1 f139
00000090: 09ad a9b1 ef85 e429 8900 cab7 7746 b338
000000a0: f9ea 8cba ea3c a5aa 89ac 8b32 33f7 3f3a
000000b0: dd0d 0000 3b13 d9b8 fc01 7830 d406 0eb5
000000c0: 28db 28b9 72fd 4c35 d51d bc2e d4cd 53a8
000000d0: e121 8337 1c01 3c2b f966 5eb8 b17c 72ab
000000e0: e00d 0000 fe4e c732 613a 883a d30c d531
000000f0: de9d 6eb3 565a 2a29 f75e 8cb6 279e 8aba
00000100: c90d 0000 5de5 c237 c7fb cc38 e06b 2631
00000110: cc74 9ab6 df0d 0000 2d26 3bb6 15ce 072b
00000120: 9b3a 61b2 93f6 a7b3 6527 892f 9fd5 5231
00000130: 467f 0a3b 9bb1 8ea8 b5fd a53a 7760 fbb4
00000140: a85a 8db1 2e3e 03b5 189a 68a7 f9ba 73b6
00000150: e494 abb0 8494 2d38 fb73 93b7 e8ce d0b7
00000160: a97a 9332 0a60 56ba cc0d 0080 af0b 1cae
00000170: 28c9 24b4 aabd 38ae 5a40 82b7 f2bb 212f
00000180: 17bb d02a 9a70 b7b5 e622 2ab0 60f2 d8b6
00000190: e00d 0000 fe60 d332 c10d 0000 bf57 e1ae
000001a0: 3bc0 c036 f8a2 2cb3 50fa db31 ecf6 c92e
000001b0: df4d 7626 fb9f 453a 5c2d 7eb2 a41e 09bb
000001c0: b60d 0000 e40d 0000 d650 9bb4 12dd b6af
000001d0: d90d 0000 5e62 00ac df95 69a9 4402 02b3
000001e0: d30d 0000 1d64 b2b5 96e5 f9b5 c175 5236
000001f0: 65e1 bca4 453c df34 ced3 9031 3b59 fe34
00000200: 5ebf 222a 8a71 0d34 407b d334 6ce1 d425
00000210: bc82 94ba 454d 8fb3 51c8 25b5 b531 fc36
00000220: e30c 85b7 ab30 5fb1 b547 a933 f400 66b9
00000230: 1702 4237 e1f2 28b6 73a1 0338 8251 6bb7
00000240: 4de9 6e34 ec8d 05b3 2859 3a2a ebe4 90b8
00000250: e535 abb3 c663 8829 8ed3 7c33 c200 cc35
00000260: a627 83ad 9fdc 0932 31b3 a338 2cfc 8a2f
00000270: 65d1 422e f749 0baa 982f d735 52b9 9038
00000280: e317 00ad 588e 5f37 ec54 6e38 d10d 0080
00000290: 6ba8 7036 3d0e 95b5 8c2e 18b7 9408 aa35
000002a0: 118a 4eb4 9e51 48b3 1673 50a9 42e2 3a39
000002b0: 77a0 8939 af94 c8a9 2e6a f732 22e4 9ba7
000002c0: b085 6a31 f83f 2f35 86de 66ac 0779 2b2f
000002d0: 6cec 6e2f 5756 76b8 d20d 0000 86a1 65ac
000002e0: 093c 12b2 e761 42aa 5f36 f8b1 640a 23b8
000002f0: c81a 6332 6c5d 1ab5 cf0d 0000 fb20 eb2a
00000300: c662 272f 4a73 a939 ff39 cdb1 bb0d 0000
00000310: c2e9 6b3a c647 2030 afe0 73a7 edbf f437
00000320: 3abf 1f36 6d67 972f b465 4936 6f11 d1b1
00000330: 35b5 0136 2538 e130 8010 f538 0d42 4934
00000340: d2c5 a633 be0b 82a9 16ff 5bb4 4e04 41b6
00000350: c47b 42b7 9ef8 c026 3357 edab 19b9 1bb6
00000360: 9321 0ab6 c1c7 4137 dc2e 073b f60d 0000
00000370: 3695 0c39 ba37 b3af fe65 9ba9 df87 2ab6
00000380: 079a 21b0 505d 9628 369e 20af 1686 4031
00000390: 0ce1 e6af b8da 0e2b 6746 b935 a975 ee32
000003a0: 80a3 06ab b798 aca6 d977 14ae 5ded bb37
000003b0: ec59 a3b8 0c3b ee39 e624 f3b4 2bc9 7338
000003c0: 3595 07b4 9b34 e42d 73a7 63b1 8520 db34
000003d0: 8171 ff30 f40d 0000 2e60 adb7 434e a325
000003e0: e5cc 36b7 38f0 d4b4 97f0 0fad 1651 a731
000003f0: d130 ea2f c09a 272f 1f3f 7db4 9e11 b4b2
-1.4460917e-09 -9.846657e-13 1.6161368e-13 1.9645012e-13 7.9155277e-10 4.938e-42 -2.0184888e-10 -4.609974e-13
-2.6947256e-09 2.5759745e-09 5.6997866e-08 -2.6859972e-08 0.0014703402 1.9958755e-09 -5.7066685e-05 -7.877016e-06
2.027161e-07 1.3212792e-07 4.982797e-05 1.1312408e-08 1.0266633e-06 1.379133e-06 -1.0197426e-11 6.794486e-08
-2.870694e-13 5.785e-42 -1.3548695e-12 0.00012286025 -2.5332032e-05 3.5940975e-10 0.0006813117 1.8731676e-05
2.1854753e-06 0.0013877029 -1.2123832e-09 0.00046099312 -4.938219e-09 1.0148468e-13 -2.4080526e-05 8.54851e-05
-0.001075118 -2.9352155e-13 1.626019e-08 0.00073229073 4.973e-42 -0.00010350948 9.0224694e-10 -5.290906e-07
-0.0001610337 7.6364734e-07 8.5545494e-11 -1.1757485e-14 1.5632193e-05 6.6792557e-13 -5.3024825e-05 -8.6148715e-13
4.977e-42 2.320257e-08 0.0010393375 6.200574e-09 -5.5557273e-08 3.7825937e-14 -4.1833805e-06 -0.0010575698
4.945e-42 2.3233408e-05 9.774375e-05 2.42175e-09 -4.6031546e-06 4.976e-42 -2.7887393e-06 4.824763e-13
-1.3110049e-08 -7.821395e-08 2.4948146e-10 3.0680452e-09 0.002113299 -1.5842191e-14 0.0012664112 -4.682258e-07
-4.1139465e-09 -4.8891786e-07 -3.2280002e-15 -3.6318654e-06 -1.2484205e-09 4.138473e-05 -1.7577773e-05 -2.489188e-05
1.7168832e-08 -0.0008177763 -4.95e-42 -3.548067e-11 -1.534687e-07 -4.2005212e-11 -1.5527174e-05 1.4709636e-10
3.7078042e-13 -1.3667334e-06 -6.1895233e-10 -6.465518e-06 4.977e-42 2.460774e-08 4.934e-42 -1.0247402e-10
5.7444245e-06 -4.019509e-08 6.402196e-09 9.184284e-11 8.545393e-16 0.00075387926 -1.4795059e-08 -0.0020922804
4.919e-42 4.983e-42 -2.8929816e-07 -3.3262687e-10 4.968e-42 -1.8244499e-12 -5.1866385e-14 -3.0270044e-08
4.959e-42 -1.329117e-06 -1.8618764e-06 3.136098e-06 -8.1913837e-17 4.158084e-07 4.215031e-09 4.737611e-07
1.4454884e-13 1.3172954e-07 3.939149e-07 3.692889e-16 -0.0011330466 -6.673012e-08 -6.175879e-07 7.515972e-06
-1.5860836e-05 -3.2478435e-09 7.882719e-08 -0.00021934864 1.1563788e-05 -2.5175325e-06 3.1383195e-05 -1.4026069e-05
2.2250352e-07 -3.1095553e-08 1.6551051e-13 -6.9090944e-05 -7.9726114e-08 6.056921e-14 5.886573e-08 1.5199405e-06
-1.4910583e-11 8.024613e-09 7.805823e-05 2.5281233e-10 4.4296473e-11 -1.2371342e-13 1.60326e-06 6.900974e-05
-7.2812615e-12 1.3324978e-05 5.682271e-05 -4.956e-42 3.586082e-06 -1.1105509e-06 -9.0707435e-06 1.2668484e-06
-1.9235473e-07 -4.664036e-08 -4.62851e-14 0.0001782263 0.00026250232 -8.907577e-14 2.880287e-08 -4.3268484e-15
3.4127474e-09 6.5285667e-07 -3.2808491e-12 1.5595357e-10 2.1729968e-10 -5.873138e-05 4.958e-42 -3.263252e-12
-8.511969e-09 -1.7264628e-13 -7.2239312e-09 -3.8871905e-05 1.3219228e-08 -5.750542e-07 4.954e-42 4.176727e-13
1.5223653e-10 0.0003232009 -5.9728786e-09 4.926e-42 0.0008999371 5.8309657e-10 -3.3844826e-15 2.9176439e-05
2.3804155e-06 2.7540228e-10 3.0010533e-06 -6.0846825e-09 1.9327974e-06 1.6386862e-09 0.00011685584 1.8743613e-07
7.765961e-08 -5.775197e-14 -2.0488764e-07 -2.8761747e-06 -1.15921175e-05 1.3390064e-15 -1.6864065e-12 -2.320454e-06
-2.0583145e-06 1.1550205e-05 0.0020627296 5.008e-42 0.00013407026 -3.2599506e-10 -6.9010756e-14 -2.5411061e-06
-5.8790345e-10 1.6693813e-14 -1.4608123e-10 2.8015896e-09 -4.1996662e-10 5.075207e-13 1.3804064e-06 2.7760352e-08
-4.7833265e-13 -1.1976291e-15 -3.375775e-11 2.2402668e-05 -7.789195e-05 0.0004543889 -4.5289124e-07 5.8123067e-05
-1.2627136e-07 2.594396e-11 -3.3128031e-09 4.081559e-07 1.8585952e-09 5.005e-42 -2.0667994e-05 2.8329025e-16
-1.0895751e-05 -3.966286e-07 -8.182031e-12 4.869558e-09 4.2599038e-10 1.524354e-10 -2.3585424e-07 -2.096277e-08

deep.4.bias f4 [64]
00000000: 188d afb0 19fe d5b9 af91 1638 e474 89b3
00000010: bd57 bc36 21ae 29b5 5fdf 8e38 54c5 3737
00000020: ebad 9437 3540 cbb5 8f5e f2b7 2ca2 5d38
00000030: 186d 92b6 159e 15ba c9d2 a7b5 ce2a 3f37
00000040: ce5d 8937 df2c 6ab8 1355 2e37 223a 9c39
00000050: c2f7 9eb1 ac80 9c35 8457 26b7 43b1 08ba
00000060: 7cd1 3839 4d07 3937 4a72 afb8 a1bb 2ab2
00000070: eabe e4b8 3547 a138 ec46 fa31 fb4c 6a33
00000080: df9b a1b6 5528 bf35 41f1 aa38 8afe ddb8
00000090: 03da bd38 e74f 15b7 31a5 e434 9731 4639
000000a0: 612c 41b6 6050 b136 3ef4 6eb9 fcdc 3b37
000000b0: 1f05 5939 8fe5 03b7 3ec0 4ab9 86ff abba
000000c0: 3460 3a3a 27ef 3bb7 7caa 3e35 be7a e5b6
000000d0: 5515 dbb9 5607 2137 dc6f ca38 bfc7 44b3
000000e0: c610 3539 6a84 fe37 f236 5d38 db05 3fb6
000000f0: b5d0 7b36 b547 4338 2b70 9937 fea9 2c36
-1.2773027e-09 -0.00040815843 3.5898465e-05 -6.400822e-08 5.6130507e-06 -6.3210797e-07 6.812694e-05 1.0953594e-05
1.7723962e-05 -1.5143365e-06 -2.889268e-05 5.284154e-05 -4.3638393e-06 -0.0005707455 -1.2503816e-06 1.1394453e-05
1.6375354e-05 -5.5831737e-05 1.0391016e-05 0.0002979795 -4.626572e-09 1.1660354e-06 -9.914747e-06 -0.00052144023
0.00017625646 1.1028559e-05 -8.365938e-05 -9.937964e-09 -0.00010907448 7.6903416e-05 7.2840205e-09 5.4552384e-08
-4.8163197e-06 1.4242347e-06 8.151169e-05 -0.00010585513 9.05283e-05 -8.899696e-06 4.2588502e-07 0.00018901225
-2.8785073e-06 5.284368e-06 -0.00022788436 1.11975205e-05 0.0002069664 -7.861657e-06 -0.00019335837 -0.0013122417
0.00071096723 -1.1201751e-05 7.1028603e-07 -6.839021e-06 -0.0004178683 9.598056e-06 9.652946e-05 -4.5816474e-08
0.00017267754 3.034082e-05 5.2741678e-05 -2.8464626e-06 3.7523398e-06 4.6558405e-05 1.8291254e-05 2.5728946e-06

deep.6.weight f4 [32, 64]
00000000: 29e3 4037 bd2d 9eb5 24c9 0d39 91d4 2ab5
00000010: cfbb 863a 2886 bd39 7bdc ab35 c4c4 6539
00000020: 70f0 5db4 247e 50b5 60e4 edb4 f30f f0b9
00000030: 36f0 0132 b0bd 2236 dae2 f438 1eee e1b3
00000040: b230 a538 cf63 3fb7 dbca 02b1 4a28 edb4
00000050: 364e abb8 7c4c 27b7 c3ff 92b9 1822 1435
00000060: 4dab 942f 2f4e a4b8 1422 9538 88b9 bb2f
00000070: 6f70 243a 842d 1433 f4c8 a3b7 acb4 a338
00000080: cba7 4a33 ae11 9d34 ad17 c736 3a21 8f38
00000090: 29c5 b833 22b3 5936 19b4 5eb6 ddec 3039
000000a0: c756 78b6 56ab 3938 4beb beb4 587b 1930
000000b0: e71d a0b6 3e1e d3b6 10a6 e937 9a13 543a
000000c0: f8bd c1b3 7a16 1db6 59b9 29b1 a6c8 5139
000000d0: 7049 24b6 dbfb 9fb4 bf5c 79b3 5051 8233
000000e0: 359e 1535 a534 7938 93df 1ab5 2343 35b9
000000f0: 11f9 88b9 ba4f 31b3 8a12 83b8 564b 9fb6
00000100: 532d beb3 e6de b8b8 725e 3335 dab7 d339
00000110: 245f 2838 0f5f 1036 1b2d 58b7 dbfb a1b8
00000120: c73d 5736 d5f4 8339 5a21 d539 6625 d037
00000130: 45e5 e8b8 e482 98b5 6ab5 1d38 bfe1 2635
00000140: e52b 7bb3 bebe 5bba f954 3039 fe7b 86b5
00000150: f52b e8b9 d4d5 afb9 9cea ccb9 7692 5db7
00000160: 7cbe 1fb8 b955 98b5 c9da 8138 8a47 b338
00000170: 047e 5636 87ae 1dba 08e3 c1b9 ad93 2736
00000180: 57da 3e3a d868 e7b4 06da 9a3a 3bf7 99b9
00000190: c42f e6b5 c8cd 11b6 3960 09ba e696 adb6
000001a0: d1e3 9fb9 f994 1538 36dd 0a39 8fd0 d7b5
000001b0: 51d5 a435 bb50 44ba ff53 0cb9 528c 2836
000001c0: 99af 4537 0485 763a 5888 a637 3983 473a
000001d0: 9c01 bfb6 8570 fc35 d685 b0b7 39e5 d0b6
000001e0: 2c38 1db7 7dcc 6f3a 4198 d639 d54a bdb8
000001f0: b1e1 8fba cb33 7b38 3fd0 2db6 3f4b 19b8
00000200: 4d02 d236 eade 2739 6230 e8ba 6610 9a2b
00000210: 3604 25b9 7d4c 0332 cf3c bd37 b886 a7b3
00000220: 62c5 b837 0f17 79ac de13 b530 1890 1d3a
00000230: 6e6c e732 239e 44b7 4ead 8936 d87a 8039
00000240: a2f9 b3b9 ee1c a4b3 3498 6f2f eb09 2436
00000250: 4846 f7b0 c252 0f37 853a 07b4 2c3e 49b2
00000260: 5ef0 7b33 e31b 0633 1292 02b7 0af6 d634
00000270: e64a 79b0 752c ceb0 dded ef39 b25b 2bb9
00000280: d41c daae 2e3c 57b3 dfb5 2cb2 6867 1638
00000290: 7227 f136 f9f1 f632 c956 e7b4 da14 e2ba
000002a0: 1319 4032 7085 70b2 9c37 b3b0 d307 0238
000002b0: 6084 0434 676a e5b9 cd8e 5331 6dda 6fb0
000002c0: 204e 24b2 0e7b 4caf fbec 57b5 8e4e e3ad
000002d0: 9b8c 97b5 e47e 2cb6 2d89 6cb3 6989 84b8
000002e0: e15b 8231 8bda 8130 f0cb 3eb8 977b ff32
000002f0: 89e7 3a38 5e9c 00b4 4f0a 4dba 465c 5cb3
00000300: 514a 962d 43a7 7533 2c7e 08b4 b176 3ab9
00000310: 3887 3331 20c4 ca35 3063 5e38 24f5 e431
00000320: 6c77 cdb9 2062 54b9 40d3 2eb2 d452 adb3
00000330: 29dd 9bb1 808e c933 5148 7e2f e921 2e36
00000340: 3970 1ab0 9e12 7633 4167 8cba 39ba d638
00000350: cefc c0af dd39 18b4 1de2 2332 2705 cab8
00000360: d68d 53b3 2cb4 9737 54c9 b5b7 8b5a bd2e
00000370: 324c 58b1 3f73 d335 3552 79af f4cf 2cb0
00000380: dc34 4934 6f15 95af 8453 4eb2 4358 af31
00000390: 9a36 a536 2d39 9eb8 cb0e a6b8 be07 2cb9
000003a0: 17d9 b731 c85d 79b8 f24b 80b2 7839 ebb1
000003b0: 17d9 af34 bcda bab5 747c 1038 e883 96b8
000003c0: 6c9b edb4 220a 452f af12 453a cdf1 2d30
000003d0: 325a 7db7 8652 dab4 349d de32 073a 3a2d
000003e0: a97f 45b7 8a6b 0131 7f11 06b0 0f71 8c35
000003f0: 1f99 9436 74c7 49b9 69c4 ff34 a157 5537
1.1496982e-05 -1.1785229e-06 0.00013521739 -6.363926e-07 0.001027936 0.00036148843 1.2804661e-06 0.00021912443
-2.06697e-07 -7.7669597e-07 -4.4310855e-07 -0.0004578825 7.563406e-09 2.4250294e-06 0.00011677081 -1.0520692e-07
7.876883e-05 -1.1407726e-05 -1.90328e-09 -4.4174004e-07 -8.168483e-05 -9.971784e-06 -0.00028037847 5.518391e-07
2.704276e-10 -7.834692e-05 7.111221e-05 3.414693e-10 0.00062728574 3.450033e-08 -1.952469e-05 7.8060984e-05
4.7184397e-08 2.9256393e-07 5.9334184e-06 6.82496e-05 8.604031e-08 3.2439789e-06 -3.3185408e-06 0.00016872906
-3.700539e-06 4.4267006e-05 -3.5561456e-07 5.583636e-10 -4.7718527e-06 -6.2918107e-06 2.7853093e-05 0.0008090079
-9.021818e-08 -2.3407906e-06 -2.4698095e-09 0.0002000654 -2.448065e-06 -2.9799307e-07 -5.8059182e-08 6.0683874e-08
5.5737047e-07 5.9415255e-05 -5.7694814e-07 -0.00017286516 -0.0002612551 -4.1283535e-08 -6.25002e-05 -4.7473395e-06
-8.855809e-08 -8.815322e-05 6.682013e-07 0.00040382036 4.0142928e-05 2.1513004e-06 -1.2885105e-05 -7.72399e-05
3.2073456e-06 0.0002516868 0.00040651375 2.4812947e-05 -0.00011105327 -1.1362977e-06 3.7600672e-05 6.216832e-07
-5.8480413e-08 -0.000838261 0.00016816323 -1.0019864e-06 -0.0004428324 -0.00033537915 -0.0003908471 -1.3206727e-05
-3.8085956e-05 -1.1349831e-06 6.191951e-05 8.54871e-05 3.1961836e-06 -0.00060150813 -0.0003698098 2.4970898e-06
0.000728046 -4.3103387e-07 0.0011814244 -0.00029366635 -1.7150237e-06 -2.1726464e-06 -0.00052404735 -5.1733687e-06
-0.0003049658 3.566311e-05 0.00013243113 -1.6079447e-06 1.2281035e-06 -0.00074888364 -0.00013382731 2.5115628e-06
1.17829995e-05 0.0009403976 1.9852232e-05 0.0007610801 -5.692431e-06 1.8808211e-06 -2.1043157e-05 -6.225568e-06
-9.371008e-06 0.00091475976 0.000409307 -9.026161e-05 -0.0010977295 5.98913e-05 -2.5900224e-06 -3.654812e-05
6.2587555e-06 0.00016009403 -0.0017714615 1.094691e-12 -0.00015737195 7.642595e-09 2.2558872e-05 -7.801049e-08
2.2026423e-05 -3.5397828e-12 1.317513e-09 0.00060105463 2.6941247e-08 -1.1719329e-05 4.1030935e-06 0.00024505588
-0.00034327531 -7.6421074e-08 2.1790997e-10 2.4443677e-06 -1.799159e-09 8.542733e-06 -1.2594144e-07 -1.1713876e-08
5.8659104e-08 3.122467e-08 -7.7826135e-06 4.0039623e-07 -9.069211e-10 -1.5001108e-09 0.00045762854 -0.0001634199
-9.918613e-11 -5.011332e-08 -1.005307e-08 3.585909e-05 7.1869517e-06 2.8748206e-08 -4.3090247e-07 -0.0017248646
1.1181572e-08 -1.4000179e-08 -1.3039769e-09 3.1001702e-05 1.2341616e-07 -0.0004375756 3.0785714e-09 -8.7258095e-10
-9.56382e-09 -1.859741e-10 -8.0438593e-07 -2.5841797e-11 -1.1291298e-06 -2.5703857e-06 -5.5072793e-08 -6.319845e-05
3.7939434e-09 9.448099e-10 -4.548946e-05 2.974211e-08 4.456149e-05 -1.1977815e-07 -0.00078216655 -5.1306664e-08
1.7086029e-11 5.719563e-08 -1.2711888e-07 -0.00017782558 2.6124791e-09 1.5107253e-06 5.30213e-05 6.6635426e-09
-0.00039189623 -0.0002025445 -1.0176166e-08 -8.0710066e-08 -4.5362367e-09 9.3857125e-08 2.3126857e-10 2.5947759e-06
-5.618435e-10 5.729327e-08 -0.0010711924 0.00010239002 -3.5104225e-10 -1.4177154e-07 9.539261e-09 -9.63307e-05
-4.9256265e-08 1.8084502e-05 -2.1670632e-05 8.6108086e-11 -3.147545e-09 1.5754266e-06 -2.2675624e-10 -6.2868755e-10
1.8738814e-07 -2.7118172e-10 -1.2009767e-08 5.1032045e-09 4.9237397e-06 -7.544677e-05 -7.918252e-05 -0.00016406082
5.3506812e-09 -5.9453567e-05 -1.4935697e-08 -6.8459336e-09 3.2754244e-07 -1.392174e-06 3.444818e-05 -7.177127e-05
-4.4257774e-07 1.7920646e-10 0.00075177377 6.3280653e-10 -1.5100975e-05 -4.0665708e-07 2.591569e-08 1.0585761e-11
-1.1771838e-05 1.88331e-09 -4.877378e-10 1.0463717e-06 4.4285694e-06 -0.00019243156 4.7640359e-07 1.2716192e-05

deep.6.bias f4 [32]
00000000: 0aae cf32 a37e e9b3 d92e 76b3 4f86 06b9
00000010: cd87 59b7 a32b 4634 aa9a 9cbb d6b4 06b3
00000020: fe41 a4b3 39bf 8cb5 7641 3333 a4e3 2cb5
00000030: 9b9c e933 8786 e1b6 d8a8 2333 4188 8fb3
00000040: 85d4 5dbb 20e9 c233 8db1 9cbb ff7f cab6
00000050: ec05 dcb5 78df 80b4 460b be34 aad3 ad33
00000060: 846c eb32 cb6b acb7 dacc 50b4 7d39 1eb4
00000070: 513e acb5 bf09 9133 2c16 35b5 4383 90b5
2.4177115e-08 -1.0872943e-07 -5.7318946e-08 -0.0001282927 -1.29658265e-05 1.8456062e-07 -0.0047791796 -3.1363776e-08
-7.648849e-08 -1.0486466e-06 4.173622e-08 -6.4406254e-07 1.08783944e-07 -6.7211836e-06 3.8104957e-08 -6.683741e-08
-0.0033848595 9.076234e-08 -0.004781908 -6.03497e-06 -1.6393001e-06 -2.4004453e-07 3.539846e-07 8.094442e-08
2.7406948e-08 -2.0554193e-05 -1.9446034e-07 -1.4735811e-07 -1.2833135e-06 6.7538615e-08 -6.746002e-07 -1.0767038e-06

output.weight f4 [1, 33]
00000000: 4ab5 583f 5a75 23b5 08b0 b6b3 24d7 2eb5
00000010: 4b89 1036 a348 60b6 378a 46b4 0614 80ba
00000020: afcb 37b4 37dc 2cb4 eda3 53b6 eaf0 3e33
00000030: 6fa8 84b5 d815 1535 2777 fab5 b0c8 0eb5
00000040: 78c2 35b4 b70d 71b7 0866 7bb3 d423 4cbb
00000050: bf8c 9336 6a75 30b4 4a94 cab4 8beb 8134
00000060: 7d3a 8332 4742 8d33 c188 2fb6 ddc1 c1b4
00000070: 3de7 aa34 6fc5 18b5 8448 1234 b88e 8cb5
00000080: 1094 65b4
0.84651625 -6.0893e-07 -8.507055e-08 -6.513312e-07 2.1537587e-06 -3.3420881e-06 -1.8490469e-07 -0.0009771592
-1.7117303e-07 -1.6098862e-07 -3.1536867e-06 4.4456932e-08 -9.883787e-07 5.553861e-07 -1.8661129e-06 -5.319116e-07
-1.6927686e-07 -1.4367913e-05 -5.853329e-08 -0.0031149285 4.3973264e-06 -1.6433992e-07 -3.7733327e-07 2.4199502e-07
1.5277005e-08 6.57788e-08 -2.6156633e-06 -3.6090105e-07 3.1833216e-07 -5.6911716e-07 1.362369e-07 -1.047235e-06
-2.1381152e-07
