Results/WD/20250107_142739_batch1024_epoch10_lr0.01_reg0.001_WD/treatment_wide_deep.pth (torch, 173746 bytes, 10 tensors)

wide.weight f4 [1, 13]
0	0x3de258e0	0.11052108
1	0x3f1fe22f	0.62454504
2	0x3f0d8559	0.552816
3	0xbcc3ffad	-0.023925627
4	0xbf184492	-0.5947963
5	0x3e49a9ec	0.19693726
6	0x3d595573	0.053060006
7	0x3cc64b2f	0.024205772
8	0x3e980d25	0.29697528
9	0xbdc30ce3	-0.09523942
10	0x3d705412	0.058673926
11	0x3d9f20d2	0.07769932
12	0xbf253920	-0.6454029

deep.0.weight f4 [13, 13]
0	0x32740e79	1.420596e-08
1	0x3a9c03b6	0.0011902961
2	0xb214860d	-8.645213e-09
3	0x34cf7f8c	3.8649557e-07
4	0xb6576179	-3.2094233e-06
5	0xb56e541c	-8.8784304e-07
6	0x36416eb3	2.8823677e-06
7	0x30f4f68c	1.7823409e-09
8	0xb89f7a16	-7.604451e-05
9	0x34ddc4ff	4.130779e-07
10	0xb6b06492	-5.2569167e-06
11	0x335531bf	4.963817e-08
12	0x34791c1f	2.3200163e-07
13	0x3330a729	4.1130225e-08
14	0x357b748c	9.3674385e-07
15	0x347f7a61	2.3793247e-07
16	0xb3802264	-5.96672e-08
17	0x361508fe	2.2207964e-06
18	0x374dbf86	1.2263545e-05
19	0xb320a152	-3.7399623e-08
20	0xb8a6d152	-7.954486e-05
21	0xb32bf33e	-4.0035268e-08
22	0x37d03fba	2.4825207e-05
23	0x37818675	1.544061e-05
24	0xb8cfaf44	-9.903175e-05
25	0xb1c31e29	-5.6786758e-09
26	0x396b0772	0.0002241412
27	0x33fd6ca6	1.18009936e-07
28	0x3294ecaa	1.733709e-08
29	0xb52d1895	-6.4483294e-07
30	0xb3da3519	-1.01610745e-07
31	0x325a3274	1.2700742e-08
32	0xb40a5cf6	-1.288607e-07
33	0x34c4afce	3.663576e-07
34	0x399dfb03	0.00030132392
35	0x32ae5d88	2.0298799e-08
36	0x362cace8	2.5730642e-06
37	0x338526e6	6.200371e-08
38	0xb1e92765	-6.785671e-09
39	0xb336a6ed	-4.2526995e-08
40	0x35b1ef3e	1.3257156e-06
41	0x35881d3d	1.0141299e-06
42	0xb70bd3b4	-8.334337e-06
43	0x3a82dffe	0.0009984968
44	0xb14f07e4	-3.012695e-09
45	0xb349f543	-4.7022024e-08
46	0x3485ca83	2.4920527e-07
47	0xb4f3b339	-4.539268e-07
48	0x3a638825	0.000867965
49	0x38007805	3.0629355e-05
50	0xb3650255	-5.332034e-08
51	0x3093c4df	1.0751612e-09
52	0x330bbcf6	3.253532e-08
53	0xb2bee1f1	-2.2221657e-08
54	0xb1206ac2	-2.334375e-09
55	0x31c4b0da	5.7244565e-09
56	0xb5871397	-1.0063985e-06
57	0x357cef73	9.422576e-07
58	0xb1949326	-4.3240957e-09
59	0xb8eb91a0	-0.00011232798
60	0x328c4939	1.6331443e-08
61	0xb91fd48d	-0.00015242603
62	0xb21e0573	-9.198049e-09
63	0xb70baa94	-8.324761e-06
64	0x32895600	1.5988007e-08
65	0x30f0d2f5	1.7522256e-09
66	0xb9a689a3	-0.00031764535
67	0xb33cc0ee	-4.394763e-08
68	0xb2cbf70f	-2.374466e-08
69	0xb5f61875	-1.8335546e-06
70	0x34a76cf3	3.1185445e-07
71	0x33121f43	3.4021706e-08
72	0xb2938019	-1.7171304e-08
73	0x32d3c388	2.465255e-08
74	0x3835b65a	4.332359e-05
75	0x359397dc	1.099655e-06
76	0x34538880	1.9700565e-07
77	0xb37123a3	-5.6144597e-08
78	0x34cc868d	3.809586e-07
79	0x35b1f05f	1.3257485e-06
80	0xb34d19d6	-4.775378e-08
81	0xb3343585	-4.195819e-08
82	0x34bed406	3.5544525e-07
83	0x33ffd55b	1.1913172e-07
84	0x351e76ff	5.903275e-07
85	0x3203ab0f	7.664098e-09
86	0x328d0028	1.6414631e-08
87	0xb6f3ae91	-7.2622865e-06
88	0x3200b261	7.491139e-09
89	0xb5c33512	-1.4544078e-06
90	0x33a547d7	7.696479e-08
91	0x33fda63f	1.18114706e-07
92	0xb9ba4e74	-0.00035535137
93	0x3537740c	6.8341683e-07
94	0x310839c2	1.9823436e-09
95	0xb546b298	-7.4020636e-07
96	0xb573cde9	-9.0824193e-07
97	0x3085f5a9	9.746844e-10
98	0xb422d4b7	-1.5164811e-07
99	0x33a00b57	7.452643e-08
100	0xba390058	-0.0007057241
101	0xb31e60e3	-3.687536e-08
102	0x35376f30	6.833461e-07
103	0x394253a7	0.00018532445
104	0x36129551	2.184261e-06
105	0xb1172f0a	-2.200013e-09
106	0x2fcb8c7c	3.7025305e-10
107	0xb487235b	-2.5171434e-07
108	0x3291fcfd	1.6995267e-08
109	0xb7804791	-1.5292115e-05
110	0xb5b02245	-1.3122996e-06
111	0x3714db9a	8.872617e-06
112	0xb1d7cc54	-6.280553e-09
113	0xb9d89ded	-0.00041316394
114	0x31c9d8d5	5.874521e-09
115	0x370e8aea	8.496203e-06
116	0x3031f381	6.4738265e-10
117	0x36ab813e	5.111243e-06
118	0xb70f4662	-8.5398515e-06
119	0x33e8af37	1.0835213e-07
120	0x324713b8	1.1587808e-08
121	0x36e021fd	6.679677e-06
122	0x3355d61e	4.9787666e-08
123	0x33c4d4ac	9.165646e-08
124	0x3694415b	4.418352e-06
125	0x341ae7ac	1.442665e-07
126	0x367c2150	3.7570317e-06
127	0xb5f31990	-1.811235e-06
128	0x399983f5	0.0002928075
129	0x38ba8059	8.893078e-05
130	0xba115270	-0.0005543595
131	0x3262ea28	1.3208172e-08
132	0x3235b7fa	1.0577418e-08
133	0xb8063880	-3.200071e-05
134	0x37e1c591	2.691409e-05
135	0x301536de	5.4283855e-10
136	0xb41fd8af	-1.4886858e-07
137	0x3ab34413	0.0013676904
138	0xb509557b	-5.116087e-07
139	0x3957f621	0.00020595688
140	0xb4bee9d0	-3.556038e-07
141	0xb3433bc6	-4.545634e-08
142	0x30b7d049	1.3374201e-09
143	0x32875cd3	1.575828e-08
144	0xb368bddd	-5.418939e-08
145	0x337652fb	5.735181e-08
146	0xb3c44d5d	-9.1410335e-08
147	0x31915686	4.229892e-09
148	0x320bfa21	8.147738e-09
149	0xb8ab0edc	-8.156683e-05
150	0xb558ded3	-8.079052e-07
151	0x34cc686b	3.8073935e-07
152	0x37542d4e	1.2646733e-05
153	0xb294fa82	-1.7343385e-08
154	0x30500eed	7.569117e-10
155	0x330038da	2.985403e-08
156	0x35bc7c3b	1.4043247e-06
157	0x33a6a9f1	7.7608895e-08
158	0xb6250919	-2.4592212e-06
159	0x377a3461	1.4913357e-05
160	0x39eaf60e	0.00044815283
161	0x3a2d0b3f	0.0006601102
162	0x39002980	0.00012222491
163	0x33893723	6.389589e-08
164	0xb4a61077	-3.093189e-07
165	0x36d196c4	6.246237e-06
166	0xb8f38ccc	-0.000116133684
167	0xb4060885	-1.2482822e-07
168	0xb47dd079	-2.3638303e-07

deep.0.bias f4 [13]
0	0x314964f0	2.9306726e-09
1	0x35a25575	1.2094812e-06
2	0xb6316437	-2.6433388e-06
3	0x3314f3d6	3.4680703e-08
4	0x349deaae	2.941428e-07
5	0xb22e66a5	-1.0151472e-08
6	0xb2ca0800	-2.3519533e-08
7	0xb619d055	-2.2920042e-06
8	0xb0bcb33b	-1.3729741e-09
9	0x34978914	2.822568e-07
10	0xba03ecfc	-0.0005032567
11	0x318bd236	4.0693307e-09
12	0x37fc73b7	3.0094625e-05

deep.2.weight f4 [512, 13]
0	0xb296e132	-1.7564705e-08
1	0xb4ab3064	-3.188644e-07
2	0x3421303b	1.501184e-07
3	0x328dae23	1.6493749e-08
4	0xb3b884b8	-8.592309e-08
5	0x3420ee71	1.4987906e-07
6	0xb8a19c45	-7.706186e-05
7	0xb1a42095	-4.7767323e-09
8	0x35800e4d	9.540905e-07
9	0x34dc1a1a	4.0997185e-07
10	0x331d6bbf	3.6652406e-08
11	0xb24077f3	-1.1203144e-08
12	0xb5319727	-6.6157594e-07
13	0xb784331e	-1.575943e-05
14	0x3694cca6	4.434568e-06
15	0xb66512de	-3.4134641e-06
16	0x34537b09	1.9695666e-07
17	0xb275cc69	-1.4307354e-08
18	0x3495b21c	2.7883004e-07
19	0x3726c94c	9.941239e-06
20	0xb8c969af	-9.604112e-05
21	0xb2e4710f	-2.6594106e-08
22	0x392572a7	0.00015778338
23	0x3313d5d8	3.4420594e-08
24	0x371a483f	9.195936e-06
25	0xb774f291	-1.460001e-05
26	0x358c1b56	1.0438769e-06
27	0x396c0683	0.0002250914
28	0xb77b0867	-1.4962722e-05
29	0xb5ad6889	-1.2919928e-06
30	0xb6020488	-1.9374147e-06
31	0xb44f391b	-1.9299152e-07
32	0x38eef417	0.0001139419
33	0xb2fb15cf	-2.9230163e-08
34	0x3204da02	7.7329805e-09
35	0xb4274ae7	-1.5580336e-07
36	0x320c0cc2	8.151973e-09
37	0xb51cc2e9	-5.839816e-07
38	0x35b80060	1.3709177e-06
39	0xb6c44df5	-5.8503306e-06
40	0x3493ed90	2.7553733e-07
41	0xb1fa00be	-7.276042e-09
42	0x37db2910	2.6125956e-05
43	0x303602c2	6.6215133e-10
44	0xb965d149	-0.00021917107
45	0x304e27a2	7.4998685e-10
46	0xb34d30d6	-4.7774698e-08
47	0x31a926f9	4.922978e-09
48	0x370ecbab	8.51128e-06
49	0x35244c09	6.1205407e-07
50	0xb03b3fce	-6.8120876e-10
51	0x342916f8	1.5747707e-07
52	0x3394ba94	6.9257254e-08
53	0x32cb6528	2.367831e-08
54	0xb6aff0d0	-5.2434407e-06
55	0xb844ae85	-4.6892575e-05
56	0x321eadda	9.23634e-09
57	0x31d0dcb3	6.0786873e-09
58	0x34aa1a18	3.1683953e-07
59	0x33f3eb79	1.13584015e-07
60	0x33c34a26	9.0938826e-08
61	0xb404a8a8	-1.2354815e-07
62	0x31928685	4.2644523e-09
63	0xb3565d0a	-4.9910376e-08
64	0x304cd853	7.4522183e-10
65	0xb2d9d242	-2.5357739e-08
66	0xb365bf35	-5.349212e-08
67	0x339843cc	7.090384e-08
68	0x36330d04	2.6680655e-06
69	0x367e0e03	3.7857105e-06
70	0x35f2d7e6	1.809324e-06
71	0x37d61db6	2.5524623e-05
72	0x387dda06	6.052295e-05
73	0x32a3dbb8	1.9075614e-08
74	0xba2a3d07	-0.0006494079
75	0x30ba14b8	1.353917e-09
76	0x36ff7296	7.6129318e-06
77	0xb21145a7	-8.455948e-09
78	0x32b6d5fd	2.12849e-08
79	0x34489269	1.8679715e-07
80	0x371cca7f	9.345472e-06
81	0xb4b192f9	-3.3075756e-07
82	0x376a5ec2	1.3969549e-05
83	0x36a1776d	4.812077e-06
84	0x34f32b44	4.5293757e-07
85	0x32db8bd4	2.5558542e-08
86	0x32c284a1	2.2644885e-08
87	0xb297a8d1	-1.7655482e-08
88	0xb4a302fa	-3.0363282e-07
89	0xb4588a10	-2.0166794e-07
90	0x37896b47	1.6381628e-05
91	0xb50ac669	-5.169773e-07
92	0x32b14419	2.063648e-08
93	0xb507850b	-5.048502e-07
94	0x33ba89a6	8.686338e-08
95	0xb88e730a	-6.792515e-05
96	0xba13846a	-0.0005627336
97	0x3531caf5	6.623298e-07
98	0x330a5d6e	3.2215603e-08
99	0x35b83740	1.3725148e-06
100	0x398341b8	0.0002503523
101	0x39826161	0.00024868085
102	0x35867e1b	1.002048e-06
103	0x38f557e2	0.0001169888
104	0x34ca624c	3.7696952e-07
105	0xb1bd58e8	-5.5107314e-09
106	0x345d4758	2.0608184e-07
107	0x331417bc	3.448052e-08
108	0xb279ce8c	-1.4540671e-08
109	0xad984175	-1.7309468e-11
110	0x33f00325	1.1176443e-07
111	0xb9a95208	-0.0003229531
112	0x31630a48	3.3038692e-09
113	0xba0702d8	-0.0005150265
114	0x3281af6e	1.5097353e-08
115	0xb59f7abc	-1.1882144e-06
116	0x32e2458d	2.634149e-08
117	0x80000ee2	-5.339e-42
118	0x80000f1f	-5.424e-42
119	0x80000de1	-4.979e-42
120	0x00000dd5	4.962e-42
121	0x00000f87	5.57e-42
122	0x00000e14	5.05e-42
123	0x00000f12	5.406e-42
124	0x8000104d	-5.848e-42
125	0x80000ef1	-5.36e-42
126	0x80000e90	-5.224e-42
127	0x0000101f	5.783e-42
128	0x00000e24	5.073e-42
129	0x00000dbf	4.931e-42
130	0xb8dea147	-0.00010615825
131	0x337bf3f5	5.866237e-08
132	0x3088640f	9.923741e-10
133	0x348cf020	2.6251746e-07
134	0x3208a844	7.954501e-09
135	0x32a805d9	1.9560433e-08
136	0x352f3528	6.526993e-07
137	0xb6083e2c	-2.0301768e-06
138	0x3265f9c3	1.3386344e-08
139	0x383e6837	4.5396588e-05
140	0x32918e3f	1.6944908e-08
141	0x32071c25	7.8644335e-09
142	0xb08c9082	-1.0227412e-09
143	0xb24222d0	-1.1300202e-08
144	0x338913a1	6.38313e-08
145	0xb7dab05e	-2.6069752e-05
146	0xb2b4d233	-2.1050345e-08
147	0xb138bd10	-2.6882994e-09
148	0xb8a4dfd9	-7.861824e-05
149	0x330139da	3.008777e-08
150	0x2e874105	6.150639e-11
151	0xb18325b9	-3.8168904e-09
152	0x33aa40e3	7.928045e-08
153	0x31abf4aa	5.00457e-09
154	0xb0ce3ba3	-1.5005422e-09
155	0x30bfcbf2	1.3955044e-09
156	0xb9136b41	-0.00014058968
157	0x32a58cac	1.9272498e-08
158	0x3637abc5	2.7369108e-06
159	0x37d5117c	2.539972e-05
160	0xb4031061	-1.2206284e-07
161	0x342cca71	1.6092396e-07
162	0xb131369a	-2.5787927e-09
163	0xb2556d89	-1.2423137e-08
164	0x3288f123	1.594214e-08
165	0xb91b8bca	-0.00014834027
166	0xb9604153	-0.0002138664
167	0xb64ee9c9	-3.0832473e-06
168	0xb302105c	-3.0282862e-08
169	0x38a2f589	7.7704964e-05
170	0xb767e733	-1.3822503e-05
171	0x3290f4f7	1.6875203e-08
172	0x3490227a	2.6847175e-07
173	0x32ca2813	2.3534119e-08
174	0x34219eab	1.5052017e-07
175	0xb481d182	-2.418056e-07
176	0xb4e29402	-4.220347e-07
177	0xb3365f9b	-4.246213e-08
178	0xb2c97e02	-2.3456781e-08
179	0xb7fd85ba	-3.0222222e-05
180	0x33a48c13	7.6623245e-08
181	0x31a35209	4.7532507e-09
182	0xb5353e38	-6.7518295e-07
183	0x35acf7c6	1.288711e-06
184	0x39220a88	0.00015453447
185	0x342ea98a	1.6266691e-07
186	0x32e02c6d	2.6097235e-08
187	0xb1d4631d	-6.18128e-09
188	0xb10c2e7d	-2.0399107e-09
189	0x2fb9ebd9	3.3818884e-10
190	0xb19b8023	-4.525661e-09
191	0xb1a06331	-4.6678896e-09
192	0xb408fc29	-1.2757722e-07
193	0x332751fd	3.8957285e-08
194	0x338c20c6	6.5252195e-08
195	0x00000e4c	5.129e-42
196	0x80001090	-5.942e-42
197	0x00000db9	4.923e-42
198	0x00000e5a	5.148e-42
199	0x80000eac	-5.263e-42
200	0x0000102f	5.806e-42
201	0x80000e6b	-5.172e-42
202	0x80000dad	-4.906e-42
203	0x800010e0	-6.054e-42
204	0x80000db8	-4.921e-42
205	0x00000efb	5.374e-42
206	0x00000eae	5.266e-42
207	0x00000dae	4.907e-42
208	0x389551e0	7.120124e-05
209	0xb6954eee	-4.4497347e-06
210	0x327080fd	1.3999167e-08
211	0x31bdfaa7	5.52912e-09
212	0xb0a0c023	-1.1696141e-09
213	0x2e9ee2cf	7.2252974e-11
214	0x36ca4145	6.0276675e-06
215	0x38c0a157	9.185325e-05
216	0xb22b9d0d	-9.989219e-09
217	0x353ade01	6.961346e-07
218	0x39262505	0.00015844785
219	0x3409d830	1.2837768e-07
220	0x33978621	7.055883e-08
221	0x3970ed6f	0.00022976635
222	0x340e6e59	1.3264925e-07
223	0x355794fa	8.031053e-07
224	0xb2dfccb5	-2.6053707e-08
225	0xb76a2d41	-1.3958023e-05
226	0xb1377166	-2.6694464e-09
227	0x3819c83a	3.6664518e-05
228	0x38968e28	7.179036e-05
229	0x326d63db	1.381792e-08
230	0x3243fc44	1.1407852e-08
231	0x3346f362	4.6321823e-08
232	0xb056f2ce	-7.819779e-10
233	0xb9a62409	-0.00031688836
234	0xb77bcdc5	-1.5008675e-05
235	0x398b0db1	0.00026522347
236	0xb5ce2f94	-1.5362043e-06
237	0xb23f1dc6	-1.1124433e-08
238	0xb17f2a39	-3.7131385e-09
239	0xb3df45f1	-1.0396969e-07
240	0x390220a8	0.00012409932
241	0xb62e2e6e	-2.5955046e-06
242	0x367b4d3a	3.7446866e-06
243	0xb743dc8a	-1.1674254e-05
244	0x31a770d5	4.873167e-09
245	0xba756e04	-0.0009362402
246	0x34917e8d	2.7100432e-07
247	0x3867896b	5.5202672e-05
248	0x33d27603	9.800353e-08
249	0x3999540d	0.00029245057
250	0xb69cea10	-4.6764108e-06
251	0xb30e2d99	-3.3103422e-08
252	0xb2a8a039	-1.9630635e-08
253	0x34987dfa	2.8403866e-07
254	0xb41ca70e	-1.4589406e-07
255	0x3021133a	5.859878e-10

deep.2.bias f4 [512]
0	0x36116a4a	2.1668552e-06
1	0x37132b80	8.772011e-06
2	0x3694d388	4.435369e-06
3	0xb6135940	-2.1956657e-06
4	0x382e636d	4.157743e-05
5	0x37973ecb	1.8029843e-05
6	0xb6c13bda	-5.758816e-06
7	0xb80e400f	-3.3915097e-05
8	0xb85252b0	-5.014491e-05
9	0x80000f8b	-5.576e-42
10	0x37fc6b09	3.0090583e-05
11	0xb6c6f35c	-5.9291906e-06
12	0x34fc7952	4.702693e-07
13	0xb3c5116c	-9.1766964e-08
14	0xb69c3121	-4.6548816e-06
15	0x800010a7	-5.974e-42
16	0x3301ae51	3.0193693e-08
17	0x364a934b	3.0186081e-06
18	0x352a4483	6.342963e-07
19	0x37810dc7	1.5384414e-05
20	0x3786dbc3	1.607638e-05
21	0x00000e42	5.115e-42
22	0x38236fd7	3.8966387e-05
23	0xb4cc69af	-3.8074856e-07
24	0x37117e65	8.672102e-06
25	0xb405cb60	-1.2460578e-07
26	0xb8be9a10	-9.0886024e-05
27	0x80000df1	-5.001e-42
28	0x338823a0	6.339474e-08
29	0xb6f73030	-7.3667834e-06
30	0x352596b1	6.1686575e-07
31	0xb4f18729	-4.498809e-07
32	0x37c2921d	2.3194641e-05
33	0xb720e3e0	-9.589799e-06
34	0xb6d76363	-6.4190695e-06
35	0xb893cf59	-7.048128e-05
36	0x35eb1bb3	1.7516926e-06
37	0x379c7cb4	1.8654719e-05
38	0xb73ac780	-1.1132914e-05
39	0x37d02092	2.4810699e-05
40	0xb61d3600	-2.3426255e-06
41	0xb520ed62	-5.995008e-07
42	0xb689cc84	-4.106727e-06
43	0x36efe339	7.1492072e-06
44	0x80000e3e	-5.109e-42
45	0x368142cf	3.852277e-06
46	0xb69d5c9c	-4.6897458e-06
47	0x3656c7c6	3.2004768e-06
48	0xb8801f94	-6.1093975e-05
49	0xb8057178	-3.1815347e-05
50	0xb893030e	-7.010075e-05
51	0xb61e68a9	-2.3604755e-06
52	0xb5093ac8	-5.1122015e-07
53	0xb6240bc8	-2.4444762e-06
54	0x354051ec	7.1644786e-07
55	0x358a43c0	1.0301519e-06
56	0x363a0944	2.7721553e-06
57	0x390dde42	0.00013529605
58	0x3781da4e	1.5479654e-05
59	0x36a6d1de	4.9716173e-06
60	0x00000db1	4.912e-42
61	0xb5e64516	-1.7156442e-06
62	0x359b5b1d	1.1574917e-06
63	0x35ab71b6	1.2773587e-06
64	0xb7a79e2f	-1.9981611e-05
65	0xb84a2383	-4.8193626e-05
66	0xb4e89d67	-4.3327893e-07
67	0x32fcbe2d	2.9423143e-08
68	0x3597f5e9	1.1321946e-06
69	0x3785e367	1.5960728e-05
70	0xb6f8dda1	-7.416777e-06
71	0xb959699c	-0.00020734075
72	0xb6c7e55b	-5.9573626e-06
73	0x3664c5c5	3.4089765e-06
74	0xb53ea574	-7.102128e-07
75	0x361bd90c	2.3223138e-06
76	0xb5cde25a	-1.5339567e-06
77	0xb708ba48	-8.149604e-06
78	0x800010f0	-6.076e-42
79	0x80000ef8	-5.37e-42
80	0x80000dc7	-4.942e-42
81	0xb727d13e	-1.0002694e-05
82	0x37953465	1.7786582e-05
83	0x80000de8	-4.989e-42
84	0x80000e01	-5.024e-42
85	0x352ccaa5	6.436988e-07
86	0x372d322e	1.0323287e-05
87	0x378d1fc5	1.6823304e-05
88	0xb3693cf8	-5.430499e-08
89	0xb481491e	-2.4081322e-07
90	0x800010d1	-6.033e-42
91	0x80000e98	-5.235e-42
92	0xba0a8ebf	-0.0005285553
93	0x39125d12	0.00013958316
94	0x80000ef2	-5.361e-42
95	0x371809e8	9.0622125e-06
96	0xb624ffc8	-2.4586789e-06
97	0x362434e4	2.446869e-06
98	0x80000e5d	-5.153e-42
99	0x36ce5154	6.1487463e-06
100	0x8000109d	-5.96e-42
101	0x80000e29	-5.08e-42
102	0x36f0c591	7.175557e-06
103	0xb52e07aa	-6.4831204e-07
104	0x354d89a6	7.6568756e-07
105	0xb8201b39	-3.8172326e-05
106	0xb6954733	-4.4488347e-06
107	0x346e6fb6	2.2206117e-07
108	0xb764aae6	-1.3629649e-05
109	0x80000e4a	-5.126e-42
110	0x80000f97	-5.593e-42
111	0x35b07235	1.314626e-06
112	0x3932bd29	0.0001704587
113	0x80000e71	-5.18e-42
114	0x80000dc4	-4.938e-42
115	0xb6351dd6	-2.6988469e-06
116	0x314abfbd	2.950386e-09
117	0x37181a45	9.066022e-06
118	0xb6da6ce8	-6.5095846e-06
119	0x80000ed4	-5.32e-42
120	0x00000e1b	5.06e-42
121	0x3621982e	2.407945e-06
122	0x348a7d51	2.5795683e-07
123	0xb6a1e9a7	-4.8253746e-06
124	0xb5dc2a98	-1.6403674e-06
125	0x364a66ea	3.016025e-06
126	0xb90708a7	-0.00012877827
127	0xba12e0da	-0.00056029635
128	0x80000dd0	-4.955e-42
129	0x37a51aab	1.9681951e-05
130	0xb5f15983	-1.7981951e-06
131	0xb6dd656f	-6.5981217e-06
132	0x37e8f1e5	2.7769196e-05
133	0xb4f00fed	-4.471507e-07
134	0x3756c8c8	1.2802142e-05
135	0x39186257	0.00014532484
136	0x80000e39	-5.102e-42
137	0x35ccb60d	1.5252168e-06
138	0x38943ce0	7.068529e-05
139	0x37025657	7.768706e-06
140	0xb6d386bb	-6.3039747e-06
141	0x368f8e36	4.2782876e-06
142	0x358252b2	9.709822e-07
143	0x36799291	3.7189204e-06
144	0xb9873a0f	-0.00025792464
145	0x80000eef	-5.357e-42
146	0x36b05e66	5.256198e-06
147	0x80000db5	-4.917e-42
148	0xb89e2fc1	-7.542922e-05
149	0x80000f99	-5.595e-42
150	0x80000e82	-5.204e-42
151	0x800010b3	-5.99e-42
152	0xb2dfd465	-2.6057203e-08
153	0x3625a5bc	2.4683386e-06
154	0xb8a416be	-7.8243655e-05
155	0x350aa032	5.164212e-07
156	0xb99d6ab2	-0.00030024868
157	0xb614bca1	-2.2163515e-06
158	0x37fe277a	3.0297542e-05
159	0x379ada4e	1.8459887e-05
160	0xb4215247	-1.5024226e-07
161	0x38b0f76d	8.4384206e-05
162	0xb53004ea	-6.557226e-07
163	0xb786dedf	-1.6077827e-05
164	0x3589b05e	1.0258625e-06
165	0x80000e5c	-5.151e-42
166	0x80000dc5	-4.94e-42
167	0x80000e74	-5.185e-42
168	0xb7f6c68a	-2.9417937e-05
169	0xb518f71c	-5.6984004e-07
170	0x38e1308e	0.0001073788
171	0xb748de02	-1.1972619e-05
172	0x39e390e2	0.0004340476
173	0x80000f70	-5.538e-42
174	0xb535073b	-6.7438276e-07
175	0x3825429d	3.9401104e-05
176	0xb889a47a	-6.563305e-05
177	0xb6b79281	-5.4708803e-06
178	0xb97fa021	-0.00024378348
179	0xb94c2bca	-0.00019471269
180	0xbace8c06	-0.0015758283
181	0x80001146	-6.197e-42
182	0xba276cfa	-0.0006386783
183	0x3401cbe2	1.2088233e-07
184	0xb5dfbd56	-1.6669899e-06
185	0x3730b0ce	1.0531583e-05
186	0x80000f1e	-5.423e-42
187	0x80000e60	-5.157e-42
188	0xb6666300	-3.4330296e-06
189	0x36b4fff2	5.394214e-06
190	0xb7b6fb45	-2.1813097e-05
191	0xb8544c63	-5.061588e-05
192	0x38c5b70b	9.4277864e-05
193	0x80001058	-5.863e-42
194	0x3927485d	0.00015953319
195	0xb70549d1	-7.9446045e-06
196	0xb7436496	-1.1646325e-05
197	0x80000f4d	-5.489e-42
198	0xb664e3b6	-3.4107193e-06
199	0x36b5d504	5.4190186e-06
200	0x80000dc7	-4.942e-42
201	0xb52896f3	-6.2804537e-07
202	0x36f0c0dc	7.175009e-06
203	0x35f01730	1.7888142e-06
204	0x80000e87	-5.211e-42
205	0xb9cd53fa	-0.00039163214
206	0x373caeb4	1.12463495e-05
207	0xb6112622	-2.162888e-06
208	0x36a157e1	4.8084044e-06
209	0x374f02fb	1.2338855e-05
210	0xbaab9bf3	-0.0013092741
211	0xb8856572	-6.36083e-05
212	0x80000f0d	-5.399e-42
213	0xb3cfe8dd	-9.681546e-08
214	0x80000f71	-5.54e-42
215	0x80000f79	-5.55e-42
216	0xb73704eb	-1.0908795e-05
217	0xb7371db3	-1.0914565e-05
218	0xb61972d3	-2.2865613e-06
219	0x80000ece	-5.311e-42
220	0x38591d48	5.1764102e-05
221	0xb6c03545	-5.7282473e-06
222	0x3aa1c0fe	0.0012340841
223	0xb6de3ae3	-6.622971e-06
224	0x354489d8	7.321628e-07
225	0x80000f72	-5.541e-42
226	0xb523eee5	-6.106987e-07
227	0x80000fa2	-5.608e-42
228	0x80001077	-5.906e-42
229	0x3696a56c	4.489606e-06
230	0x34a2d986	3.033312e-07
231	0x3588a154	1.0179742e-06
232	0x800010cc	-6.026e-42
233	0xb7fb5975	-2.9963188e-05
234	0xb6650a4c	-3.4129653e-06
235	0x38a397ed	7.800744e-05
236	0xb616da55	-2.2478828e-06
237	0x3789030e	1.6333095e-05
238	0xb66de7ee	-3.5450753e-06
239	0xb680044b	-3.815197e-06
240	0xb7c911c5	-2.3969342e-05
241	0x34f29e7c	4.5191325e-07
242	0x80000db7	-4.92e-42
243	0x390b22d1	0.00013269043
244	0xb7782816	-1.4791285e-05
245	0x37f8300a	2.9586274e-05
246	0xb7ee33f4	-2.8396003e-05
247	0xb81d3301	-3.7479218e-05
248	0x374f49c3	1.23553355e-05
249	0x34804815	2.3894304e-07
250	0xb6a09d96	-4.786717e-06
251	0xb61616d1	-2.2365023e-06
252	0x390b3f80	0.00013279729
253	0x33b390f3	8.361703e-08
254	0x3855a85b	5.093995e-05
255	0x800010eb	-6.069e-42

deep.4.weight f4 [64, 512]
0	0xb1ed4f93	-6.9066544e-09
1	0xb4d4fcb6	-3.9671949e-07
2	0xb56e2ec8	-8.8729985e-07
3	0x376e0f66	1.4189491e-05
4	0x34433b1b	1.8182293e-07
5	0xba21a767	-0.00061666075
6	0xb5549e2e	-7.9206336e-07
7	0xb84085f4	-4.590112e-05
8	0xb420f8ce	-1.4991676e-07
9	0x00000ebc	5.286e-42
10	0xb8c9c9be	-9.622004e-05
11	0x33dd0de0	1.0293638e-07
12	0xb5d4d329	-1.5856687e-06
13	0x396a6c5d	0.00022356347
14	0x386a16c1	5.581114e-05
15	0x800010df	-6.052e-42
16	0xb4f180b5	-4.4983395e-07
17	0xb70b8486	-8.315901e-06
18	0xb82924e9	-4.0327115e-05
19	0x3a16de10	0.0005755136
20	0x33c15b34	9.0038526e-08
21	0x80000e55	-5.141e-42
22	0xb5f915dc	-1.8558308e-06
23	0xb22b555a	-9.972917e-09
24	0xb480a4ff	-2.3961908e-07
25	0xb49266c3	-2.7269388e-07
26	0xb3bdfd7f	-8.847109e-08
27	0x00000f57	5.503e-42
28	0xb957d10e	-0.00020581877
29	0x3621dcb3	2.4119333e-06
30	0x3547e5c7	7.4467647e-07
31	0x337ac7fa	5.838954e-08
32	0x38e220c1	0.00010782621
33	0x35d363b4	1.5749742e-06
34	0xb7b911cc	-2.2062006e-05
35	0x35ab9e6e	1.2786602e-06
36	0xb9ea34aa	-0.00044671196
37	0xb734f743	-1.0786406e-05
38	0x37e0d272	2.6800877e-05
39	0x372269f9	9.680626e-06
40	0xb37369cd	-5.667407e-08
41	0xb97da125	-0.00024187991
42	0x38aa7e59	8.129766e-05
43	0xba611d18	-0.0008587404
44	0x00000db7	4.92e-42
45	0x37a84ca7	2.0062855e-05
46	0x36b1dd41	5.3007684e-06
47	0x3049c89e	7.340847e-10
48	0xb40d4688	-1.3157307e-07
49	0x335ac546	5.09365e-08
50	0xba93d1a0	-0.0011277683
51	0x3792de36	1.7508031e-05
52	0xb3fd0731	-1.1782539e-07
53	0xb6f37ee8	-7.256738e-06
54	0xb7a1b07e	-1.9274881e-05
55	0x333097d0	4.1116266e-08
56	0xb51cee65	-5.846144e-07
57	0x34cdf357	3.836128e-07
58	0x3812990b	3.4951645e-05
59	0x33476b99	4.6431158e-08
60	0x80000e4e	-5.132e-42
61	0x34454506	1.8372165e-07
62	0xb50cdfe7	-5.2479885e-07
63	0x3304fe9c	3.096521e-08
64	0xb5c76199	-1.485506e-06
65	0xb7a2b4a9	-1.9396031e-05
66	0x372b97ec	1.0227766e-05
67	0x36fc8cc4	7.5265725e-06
68	0x357d8b90	9.4452935e-07
69	0xb8b80878	-8.775381e-05
70	0x38159a0c	3.5667836e-05
71	0x364682a5	2.9580344e-06
72	0xb13cf50b	-2.7496891e-09
73	0x39b1c9bf	0.00033910383
74	0x3597e7b8	1.1317816e-06
75	0x35ad3170	1.2903893e-06
76	0xb75f8064	-1.3321729e-05
77	0xb621a68f	-2.408782e-06
78	0x00000e26	5.076e-42
79	0x00000fe8	5.706e-42
80	0x00000e46	5.12e-42
81	0xb82dcd78	-4.1437772e-05
82	0x3947d153	0.00019056098
83	0x80000fae	-5.625e-42
84	0x80000f0e	-5.4e-42
85	0xb712f17a	-8.758501e-06
86	0x37696ef0	1.3913712e-05
87	0x3581618a	9.639637e-07
88	0x34c7e4ec	3.72332e-07
89	0xb73e2411	-1.133328e-05
90	0x00000eb0	5.269e-42
91	0x80000f71	-5.54e-42
92	0xb38f09e0	-6.660753e-08
93	0x389a8602	7.368253e-05
94	0x80000fc2	-5.653e-42
95	0xb747b2ab	-1.1902924e-05
96	0x35fa39a4	1.8643227e-06
97	0xb71dc374	-9.403437e-06
98	0x00000dc2	4.935e-42
99	0x3ab6a356	0.0013934176
100	0x80000dc1	-4.934e-42
101	0x00000f5f	5.514e-42
102	0x3409667a	1.27964e-07
103	0xb3296b12	-3.944576e-08
104	0xb25a4331	-1.2704548e-08
105	0x348daaac	2.6387477e-07
106	0x35b9f252	1.3854099e-06
107	0xb6bebbf4	-5.684322e-06
108	0xb9968ab9	-0.00028713586
109	0x00001028	5.796e-42
110	0x80000f4a	-5.485e-42
111	0x328daf34	1.6494234e-08
112	0xba1ffb9a	-0.000610286
113	0x000010ba	6e-42
114	0x00000fe5	5.702e-42
115	0x396316a6	0.00021656844
116	0x3428c4b9	1.5717787e-07
117	0xba6f84dc	-0.0009136924
118	0x3a895cc6	0.0010479919
119	0x80000dff	-5.021e-42
120	0x00000e6b	5.172e-42
121	0xb966ae1a	-0.00021999367
122	0xb110763b	-2.1021964e-09
123	0x330696e4	3.133654e-08
124	0x389cd62f	7.4785545e-05
125	0xb56baee6	-8.779883e-07
126	0x3a6ad80c	0.0008958585
127	0x32955c00	1.738772e-08
128	0x80000e45	-5.119e-42
129	0xb989c300	-0.00026275963
130	0x341cdc06	1.4608676e-07
131	0x30c3a778	1.4235715e-09
132	0xb388839d	-6.356934e-08
133	0x3492476d	2.7246588e-07
134	0x398323d3	0.00025012958
135	0xb1a2d3e5	-4.73891e-09
136	0x00000e58	5.146e-42
137	0x3105a5ed	1.9448365e-09
138	0x349206bb	2.7199516e-07
139	0x3522b9dd	6.062017e-07
140	0x33e0d21d	1.0469032e-07
141	0xb7fad10b	-2.9899666e-05
142	0x33cc47ff	9.512586e-08
143	0xb632f59f	-2.6667037e-06
144	0x38032438	3.1266565e-05
145	0x00000db1	4.912e-42
146	0x382fd97f	4.192581e-05
147	0x00000f25	5.433e-42
148	0x3336bfe5	4.2549704e-08
149	0x00001057	5.862e-42
150	0x8000107b	-5.912e-42
151	0x00000fc3	5.654e-42
152	0x35a2fde6	1.2143835e-06
153	0x359208e4	1.0880435e-06
154	0xb709a5fe	-8.204484e-06
155	0x397ba00c	0.00023996847
156	0x37a7e854	2.0016138e-05
157	0xb1770184	-3.5944092e-09
158	0xb3c608f0	-9.221719e-08
159	0xb86f677d	-5.707842e-05
160	0xb689d91d	-4.1081935e-06
161	0xb14be62c	-2.9671225e-09
162	0xb1b58a77	-5.283535e-09
163	0x390989f1	0.00013116725
164	0x35ba0651	1.3859918e-06
165	0x80000e46	-5.12e-42
166	0x00000e2f	5.088e-42
167	0x00000dd6	4.963e-42
168	0xb77ff6e9	-1.5256673e-05
169	0x31fd264c	7.367623e-09
170	0x3466a5c9	2.1480732e-07
171	0xb882d031	-6.237662e-05
172	0x323cbd20	1.0986042e-08
173	0x80000eb5	-5.276e-42
174	0x328b3990	1.6207906e-08
175	0x34cc652f	3.8071582e-07
176	0x3588621b	1.0161342e-06
177	0x384de931	4.9092985e-05
178	0x3a30d10f	0.00067450193
179	0xb41f6cc8	-1.4847603e-07
180	0xb4be2cef	-3.542295e-07
181	0x80000f99	-5.595e-42
182	0x3aa19f2a	0.001233076
183	0x382043e6	3.8210208e-05
184	0x3812f484	3.5036835e-05
185	0x37a06826	1.9121984e-05
186	0x8000102a	-5.799e-42
187	0x00001147	6.198e-42
188	0x356b8ea4	8.775189e-07
189	0x3492f2f8	2.7371402e-07
190	0xb8af3697	-8.3548184e-05
191	0x33c2fc60	9.079736e-08
192	0xb911ccfe	-0.00013904643
193	0x314ba1f3	2.9632445e-09
194	0xb16ff129	-3.491616e-09
195	0xb715fffe	-8.940695e-06
196	0xb4e55206	-4.2714254e-07
197	0x00000e15	5.052e-42
198	0xb863d5c8	-5.4320117e-05
199	0xb75f28fa	-1.3301376e-05
200	0x80000fd2	-5.675e-42
201	0xb3f0bc3b	-1.121011e-07
202	0xb88dcdca	-6.761735e-05
203	0x38a1b05b	7.709927e-05
204	0x80000e91	-5.225e-42
205	0x3923de2f	0.00015627661
206	0x3a536705	0.00080643623
207	0x35615fcf	8.395845e-07
208	0x3967a45a	0.00022091102
209	0x35b05d00	1.3140088e-06
210	0x375418dc	1.2641973e-05
211	0x37df996e	2.6655118e-05
212	0x00001070	5.897e-42
213	0x3145471f	2.87077e-09
214	0x80000ed8	-5.325e-42
215	0x80000ffb	-5.733e-42
216	0xb42b0a64	-1.5929396e-07
217	0xb800d210	-3.0713214e-05
218	0x33d5769d	9.940161e-08
219	0x80000edc	-5.33e-42
220	0xb4c8dc51	-3.7413204e-07
221	0x30a0d67a	1.170249e-09
222	0xb2296723	-9.860545e-09
223	0x33148efb	3.4588975e-08
224	0xb6e7d554	-6.909171e-06
225	0x00000e35	5.097e-42
226	0x33e2d01d	1.0561801e-07
227	0x800010d0	-6.031e-42
228	0x80000ded	-4.996e-42
229	0xb7bff2c3	-2.2882019e-05
230	0x35bd7945	1.4116891e-06
231	0x38f38ef5	0.00011613771
232	0x80000daf	-4.909e-42
233	0x3a0fa115	0.000547902
234	0x3514ca43	5.5428626e-07
235	0x35cf33cb	1.5437776e-06
236	0x356f9d9d	8.9263796e-07
237	0xb567b25d	-8.631376e-07
238	0xb948f553	-0.00019164877
239	0x3abbe9f6	0.0014336694
240	0xaf16a71b	-1.3701788e-10
241	0xb8d339b6	-0.000100720135
242	0x00001099	5.954e-42
243	0x35330940	6.6696157e-07
244	0x3a7931aa	0.0009505997
245	0xba1796c4	-0.00057826587
246	0xb304e348	-3.0940356e-08
247	0xb1b40e93	-5.2403464e-09
248	0x34b2b98f	3.3290095e-07
249	0xb2d31c29	-2.4576439e-08
250	0xb8926c20	-6.981962e-05
251	0xb3a428c9	-7.644264e-08
252	0xb2d205c8	-2.4449847e-08
253	0xb656e275	-3.20203e-06
254	0xb2d65bb9	-2.495459e-08
255	0x00000db4	4.916e-42

deep.4.bias f4 [64]
0	0x37a4f084	1.9662322e-05
1	0x36ba4352	5.551069e-06
2	0x37406ceb	1.1469451e-05
3	0x36fd7d36	7.554564e-06
4	0x3730b7f2	1.0533246e-05
5	0xb86de4ba	-5.671822e-05
6	0x35077bd9	5.047164e-07
7	0xb819696d	-3.6576228e-05
8	0x36a99431	5.0538442e-06
9	0xb5a164fc	-1.2024825e-06
10	0x3802fb26	3.1228315e-05
11	0x388c31bd	6.684985e-05
12	0x3486fa66	2.5141634e-07
13	0xb6598c34	-3.2417129e-06
14	0xb7220857	-9.657894e-06
15	0x37233ac9	9.729244e-06
16	0xb880c6b3	-6.140526e-05
17	0x372766dc	9.9779245e-06
18	0xb6d9b09a	-6.487663e-06
19	0x3705faa0	7.985771e-06
20	0x37b01829	2.0992085e-05
21	0xb794d226	-1.7740833e-05
22	0xb81dc70a	-3.7617086e-05
23	0x36aebb1c	5.2073865e-06
24	0xb8824b76	-6.212939e-05
25	0x3841a003	4.616381e-05
26	0x362c9bf6	2.5720778e-06
27	0x37c4e679	2.3472343e-05
28	0xb71533f5	-8.893189e-06
29	0xb81a0b98	-3.672726e-05
30	0x37e04136	2.6733247e-05
31	0xb81438d9	-3.5338893e-05
32	0x371bd480	9.288196e-06
33	0xb74a6c62	-1.2065373e-05
34	0xb6a52f5b	-4.922896e-06
35	0xb885bdfa	-6.37732e-05
36	0x374a567c	1.20602745e-05
37	0xb5bbf7ed	-1.4004742e-06
38	0x3840d938	4.5978668e-05
39	0x38271139	3.9831943e-05
40	0xb72aacac	-1.0172993e-05
41	0x371338ec	8.775136e-06
42	0xb6ebdb51	-7.0290776e-06
43	0x36ef2b3a	7.1277873e-06
44	0xb80c5316	-3.345598e-05
45	0xb8800600	-6.104633e-05
46	0x37160e23	8.943988e-06
47	0x374c7c33	1.2188265e-05
48	0x37d2ae3f	2.511509e-05
49	0x36b31369	5.3368753e-06
50	0x374c6643	1.2183157e-05
51	0xb6cd35c5	-6.1157357e-06
52	0xb82dc56d	-4.143028e-05
53	0xb6628a56	-3.3757146e-06
54	0xb7c3c5b3	-2.3337872e-05
55	0xb6fa2c10	-7.45571e-06
56	0x357e66db	9.477205e-07
57	0xb6bc427b	-5.610576e-06
58	0xb7ad4f5d	-2.0660163e-05
59	0xb6e8e562	-6.9408425e-06
60	0x360a6789	2.0623868e-06
61	0x3666a385	3.4367852e-06
62	0xb701a879	-7.728225e-06
63	0x34685b85	2.1639978e-07

deep.6.weight f4 [32, 64]
0	0x37ac8ebb	2.0570462e-05
1	0x34351f1a	1.6868253e-07
2	0x35c0a82b	1.4354058e-06
3	0x34261f62	1.5471372e-07
4	0x38a60e56	7.918167e-05
5	0x34da4202	4.065369e-07
6	0x350c4e1e	5.226774e-07
7	0x3589e72d	1.0274576e-06
8	0x377d7659	1.510753e-05
9	0x37664b55	1.3726608e-05
10	0x34a2c0b0	3.031505e-07
11	0x349b5648	2.8933778e-07
12	0x34539ea6	1.9708622e-07
13	0xb79670fa	-1.7934002e-05
14	0x36a62aca	4.952167e-06
15	0x35806200	9.565265e-07
16	0x3809a1a8	3.28139e-05
17	0x385f0fd8	5.31821e-05
18	0x38f4e95a	0.00011678292
19	0xb830d895	-4.2163378e-05
20	0xb5a90972	-1.259423e-06
21	0xb8dab559	-0.00010428829
22	0x36c92071	5.9940435e-06
23	0xb70a7f88	-8.255134e-06
24	0x386a2f6c	5.5834113e-05
25	0xb58ddc2b	-1.0569396e-06
26	0x341cbb2f	1.4596729e-07
27	0xb4832953	-2.443072e-07
28	0x38dbcdab	0.000104810424
29	0xb73227f8	-1.0618933e-05
30	0xb950c6eb	-0.00019910528
31	0x34ff4c43	4.755294e-07
32	0x343460d4	1.6799032e-07
33	0x337c79fc	5.8784266e-08
34	0xb905f3fe	-0.00012774763
35	0xb5c261ed	-1.4482627e-06
36	0x36b40235	5.364675e-06
37	0x36073165	2.014532e-06
38	0x36dbe3dd	6.5532354e-06
39	0x3434423c	1.6787902e-07
40	0x34c6c6bd	3.7024975e-07
41	0xb6424a02	-2.895133e-06
42	0xb515e5b7	-5.5841105e-07
43	0xb5862d92	-9.997041e-07
44	0xb47b6871	-2.3414192e-07
45	0x34f1c5c8	4.5033653e-07
46	0xb98ac062	-0.00026464747
47	0x3a13dc17	0.0005640401
48	0xb603073c	-1.9524732e-06
49	0xb6d1a5a8	-6.2479703e-06
50	0xb89717ef	-7.204699e-05
51	0x351a531a	5.74904e-07
52	0xb5027b4d	-4.86082e-07
53	0xb47a9e4f	-2.3340657e-07
54	0x3702d5d8	7.798393e-06
55	0x3654ddf1	3.1719649e-06
56	0xb8021b31	-3.101974e-05
57	0xb38a8e57	-6.452017e-08
58	0x34279575	1.5607459e-07
59	0x362e0eb4	2.5936579e-06
60	0xb49fb509	-2.9747778e-07
61	0x37a44f59	1.9587273e-05
62	0xb9999645	-0.00029294394
63	0x31ea0eed	6.811993e-09
64	0x31c09bbd	5.605641e-09
65	0xb2284338	-9.794171e-09
66	0xaf2b0ab6	-1.5556165e-10
67	0xb58da19b	-1.0552352e-06
68	0xb5846930	-9.86538e-07
69	0xab271f8a	-5.937409e-13
70	0xb39baf4b	-7.2496356e-08
71	0x340d7403	1.3173853e-07
72	0x335233b0	4.8941445e-08
73	0x30fd7198	1.8440458e-09
74	0x3954b03e	0.00020283551
75	0x30cc469b	1.4863021e-09
76	0xb76c53cf	-1.4086209e-05
77	0x3225e8d2	9.657201e-09
78	0xb46cd348	-2.2056076e-07
79	0xb2ef7fb2	-2.7881331e-08
80	0x336ddf43	5.5383918e-08
81	0xb379c233	-5.8151453e-08
82	0xb57dc664	-9.453854e-07
83	0x33212650	3.752058e-08
84	0x3a1753cc	0.00057726796
85	0x3353bee2	4.9300873e-08
86	0xb18725b3	-3.933303e-09
87	0xb0cdfbd8	-1.4987291e-09
88	0x37002fc6	7.640518e-06
89	0x322524e6	9.612654e-09
90	0xbadd8617	-0.0016900924
91	0xb2c644b7	-2.3081482e-08
92	0x2ef281fa	1.10279744e-10
93	0x369583c2	4.4558847e-06
94	0xaffce5a6	-4.6001708e-10
95	0xaf457a1e	-1.796043e-10
96	0x2e5f02a1	5.0706665e-11
97	0xba1edc67	-0.0006060064
98	0x34c3687d	3.6397606e-07
99	0x35de3032	1.6554316e-06
100	0x35237a2d	6.090002e-07
101	0xae3cb129	-4.29036e-11
102	0x311d2ec3	2.2873088e-09
103	0x377d14a9	1.5084785e-05
104	0xb716469d	-8.957138e-06
105	0xb08b8816	-1.0152259e-09
106	0xb506c0d4	-5.019949e-07
107	0xb7a9b7ee	-2.0232019e-05
108	0x302c571d	6.269703e-10
109	0xb485f01b	-2.494788e-07
110	0xb6348906	-2.6901848e-06
111	0xb2d7272b	-2.5047106e-08
112	0x39991e79	0.00029205138
113	0x38256144	3.942965e-05
114	0x336ec6af	5.5594395e-08
115	0xba1cdb77	-0.00059836305
116	0x33ee2bb7	1.109069e-07
117	0xafde22ed	-4.040638e-10
118	0xb0b7a3ae	-1.3361523e-09
119	0xb3355f72	-4.2229154e-08
120	0xb652830b	-3.1368716e-06
121	0x3511fef4	5.4387715e-07
122	0xaed82831	-9.829682e-11
123	0x38b6e356	8.720781e-05
124	0xb8aa6aad	-8.1261016e-05
125	0x30ab5629	1.2466376e-09
126	0x38430edb	4.6505458e-05
127	0x2f21417d	1.4666131e-10
128	0x37974c57	1.8036151e-05
129	0xb84129bf	-4.6053665e-05
130	0xb86d507e	-5.6580167e-05
131	0x39169263	0.00014359648
132	0x38731c9e	5.7962367e-05
133	0xb94a74df	-0.00019307759
134	0x39a6b83a	0.00031799247
135	0x3724e9a0	9.829557e-06
136	0x37462a5e	1.1811584e-05
137	0x36ccf84c	6.1085793e-06
138	0x3729c002	1.011789e-05
139	0xb991fe3c	-0.00027845975
140	0xb7ad298d	-2.0642556e-05
141	0xb790d487	-1.7265103e-05
142	0xb81efe56	-3.7907004e-05
143	0x383704db	4.3635122e-05
144	0x36e42e5a	6.8003255e-06
145	0x3a600fbd	0.0008547267
146	0x38e1b7d4	0.00010763077
147	0x37a4af7a	1.9632036e-05
148	0x3864273b	5.4395972e-05
149	0x3717580f	9.020804e-06
150	0x398ed559	0.00027243307
151	0x369563bd	4.452157e-06
152	0x38023b72	3.1049778e-05
153	0x37f27d83	2.8907094e-05
154	0x3718bf01	9.104378e-06
155	0xb53f5af6	-7.128541e-07
156	0x38101eaf	3.436085e-05
157	0xb6d81b7b	-6.440501e-06
158	0x388e7738	6.793294e-05
159	0x37c6b3c2	2.3687146e-05
160	0xb5ea1eeb	-1.7443357e-06
161	0x39561787	0.00020417395
162	0xb80471d5	-3.1577267e-05
163	0x3a409658	0.0007346622
164	0x380c2617	3.3414075e-05
165	0xb73feb8d	-1.1439331e-05
166	0x38d19223	9.993117e-05
167	0xba0fbe23	-0.00054833497
168	0x35957271	1.1134672e-06
169	0xb63b3896	-2.7898109e-06
170	0xb833469a	-4.274268e-05
171	0xb91dcf85	-0.00015049994
172	0xb84a78a6	-4.8272916e-05
173	0x392a388d	0.0001623353
174	0x384902bf	4.7924692e-05
175	0xb599390e	-1.1415993e-06
176	0xb9a15608	-0.0003077241
177	0xb814ebaf	-3.5505447e-05
178	0x3750ee97	1.2453317e-05
179	0xb622e284	-2.427173e-06
180	0xb814b829	-3.5457462e-05
181	0xb79369db	-1.7573058e-05
182	0x3727f677	1.001136e-05
183	0x38228700	3.874954e-05
184	0xb785e316	-1.596058e-05
185	0xb853fed5	-5.054365e-05
186	0xba2cb349	-0.0006587995
187	0x385a02b6	5.1977775e-05
188	0x343e3b31	1.7716663e-07
189	0x3794d93b	1.774413e-05
190	0x373c7c05	1.1234549e-05
191	0xb4b33964	-3.3383105e-07
192	0x3311b6b4	3.392661e-08
193	0x3a01e371	0.0004954851
194	0xaffa6bc4	-4.5551307e-10
195	0x31d69065	6.2446355e-09
196	0xb9cb1641	-0.00038735758
197	0xafccad8f	-3.7230705e-10
198	0xb18e59ce	-4.1429535e-09
199	0x396ea4e2	0.00022758872
200	0xb536fa43	-6.816446e-07
201	0x33c9e911	9.4021864e-08
202	0x332fac3b	4.0902005e-08
203	0x37892251	1.6347652e-05
204	0xb3aa3960	-7.926678e-08
205	0xb86b7601	-5.6138266e-05
206	0xb6e53057	-6.8303593e-06
207	0x38c66d67	9.4617535e-05
208	0xb78374cf	-1.567081e-05
209	0xb200e713	-7.503121e-09
210	0xb25a6393	-1.2711911e-08
211	0xb4395747	-1.7261219e-07
212	0xb198660e	-4.4353845e-09
213	0xb7a7e92c	-2.001653e-05
214	0x3530b7c8	6.5832546e-07
215	0xb51eb45d	-5.912205e-07
216	0xb9208ec0	-0.00015311968
217	0xb22b1e4d	-9.9604e-09
218	0xb31c305f	-3.6365574e-08
219	0x3880476e	6.1168204e-05
220	0x397d9888	0.00024184783
221	0x34f98a23	4.6480372e-07
222	0x3688edf5	4.0808177e-06
223	0x326a22a8	1.3628473e-08
224	0xb0ad8cc9	-1.262742e-09
225	0x3abd81cf	0.0014458242
226	0xb17fad9e	-3.7206074e-09
227	0x3156250a	3.1162153e-09
228	0xb6a1c051	-4.8205625e-06
229	0x352aa017	6.3562896e-07
230	0x32256c26	9.628854e-09
231	0xb6348c1f	-2.6903651e-06
232	0xb2512f4f	-1.2176158e-08
233	0xbadf3ba0	-0.001703132
234	0x39402914	0.0001832585
235	0xb546bdf2	-7.4037155e-07
236	0x33f91e7d	1.1600512e-07
237	0x3399ebd6	7.167516e-08
238	0xb8acfe0c	-8.248919e-05
239	0x37e1107e	2.682977e-05
240	0xb9785dfd	-0.00023686136
241	0x2f2fc947	1.5987665e-10
242	0x37f5e26e	2.9311715e-05
243	0xb5b376d4	-1.3371123e-06
244	0x30dc332d	1.6021652e-09
245	0xb32dfe14	-4.0510784e-08
246	0xb9ce6d52	-0.00039372832
247	0xb259e625	-1.2683391e-08
248	0x3aa5ff1a	0.0012664527
249	0xb22a0728	-9.8969295e-09
250	0x30a648cd	1.2098781e-09
251	0xb9370fc4	-0.00017458113
252	0x3339d73f	4.3269434e-08
253	0xb39d1078	-7.313878e-08
254	0x38261d0a	3.960453e-05
255	0x2ff7494d	4.4981122e-10

deep.6.bias f4 [32]
0	0x3a827642	0.0009953456
1	0x343998e1	1.7285085e-07
2	0xba0013d2	-0.0004885766
3	0xb4938adf	-2.7481926e-07
4	0xb43609b0	-1.6953595e-07
5	0x3a1b92b2	0.000593464
6	0xb779cd83	-1.4889406e-05
7	0x39e7c63e	0.00044207455
8	0x358e4147	1.0598823e-06
9	0xbb4f8f13	-0.0031670972
10	0xb5131307	-5.4789456e-07
11	0xb47d7dc3	-2.3608213e-07
12	0xbc011288	-0.007877953
13	0xb6eeb467	-7.1139543e-06
14	0xb9a871b0	-0.0003212816
15	0xb49c6b50	-2.9135344e-07
16	0xb3866264	-6.2577584e-08
17	0x34dfba0d	4.1672357e-07
18	0xb73710f9	-1.0911602e-05
19	0xb894ce50	-7.095619e-05
20	0xb526256f	-6.189429e-07
21	0xb5c373d1	-1.4562339e-06
22	0xb491c92f	-2.7154735e-07
23	0xb758b2f0	-1.2916265e-05
24	0x35dd6a98	1.6496806e-06
25	0x387d0b19	6.0330236e-05
26	0xb7071739	-8.052034e-06
27	0x3a4a669c	0.00077209785
28	0xb2ff28ea	-2.9704513e-08
29	0xb818c9ac	-3.6427446e-05
30	0x342ecc64	1.627937e-07
31	0x391f08eb	0.00015166744

output.weight f4 [1, 33]
0	0xbf5f3320	-0.87187386
1	0xba8264e6	-0.0009948283
2	0x353ad60c	6.960188e-07
3	0x3a001a84	0.00048867636
4	0xb506a92b	-5.016506e-07
5	0x344f045e	1.9279966e-07
6	0xba1c22e8	-0.0005956129
7	0xb788bfd5	-1.6301792e-05
8	0xb9e7c8c5	-0.00044209338
9	0xb601bad6	-1.933125e-06
10	0xbb4f8ee3	-0.003167086
11	0x34f7f7f2	4.618774e-07
12	0xb3e010cb	-1.04338675e-07
13	0x3c010dc8	0.007876821
14	0x36dec4dd	6.6390335e-06
15	0xb9ad5b43	-0.00033065127
16	0x348b847d	2.5987165e-07
17	0x33ae92f2	8.1292356e-08
18	0xb40da519	-1.319171e-07
19	0xb73d4b7c	-1.1282853e-05
20	0xb84b85af	-4.8523474e-05
21	0x3518854b	5.681838e-07
22	0x35c80fb7	1.4905735e-06
23	0xb4b5de05	-3.3875418e-07
24	0xb785abdd	-1.5934866e-05
25	0xb64bbdbb	-3.0359795e-06
26	0xb87b49cc	-5.9911792e-05
27	0xb6f864f8	-7.4027303e-06
28	0x3a478c34	0.00076121395
29	0x332d7192	4.0382993e-08
30	0x381734e8	3.605048e-05
31	0xb32e5e3b	-4.0598234e-08
32	0xb90d99f5	-0.00013504161
