Results/WD_batch1024_epoch10_lr0.001/treatment_wide_deep.pth (torch, 15504 bytes, 6 tensors)

wide.weight f4 [1, 13]
00000000: 3055 103e 20e3 c23e 9c5b a23e be8e 1a3d
00000010: 3171 a4be 08df d8bc 8bd4 0cbd 0487 063e
00000020: c79b 353f 8197 57be 7a17 ec3e e414 ab3f
00000030: be1d f4bf
0.14094996 0.38063908 0.31710517 0.037733786 -0.32117608 -0.026473537 -0.034382384 0.13137442
0.7094082 -0.21053888 0.4611166 1.336575 -1.9071577

deep.0.weight f4 [64, 13]
00000000: 117b e53c 5d69 9bbd 87c2 5a3e f74b aa3d
00000010: 6895 d0be 49c8 883d e1c3 2a3e 3735 39be
00000020: 5a55 e3bd d743 803d ff6f bfbe 9717 573f
00000030: 5918 4abf 8f5d 43be bfda 043c 0b2f 95be
00000040: dfe7 6d3e e236 81be 21d8 483e f5a4 813d
00000050: 13c1 e1bd c83a 193e bd6d 453d 9f99 4f3e
00000060: a644 823d 3e55 f4bd 7ed9 cc3d 908c 91ba
00000070: 8df2 c8bd 1bb4 973e ea4d e3bb edb9 19be
00000080: 7e56 583d 7831 053e b373 c03e 30ca 91be
00000090: 364d 06bf e70d aabd 72b0 f9bf e331 013e
000000a0: 3706 d73d 7f84 a93d 6713 2d3d d723 93be
000000b0: 340c a43e faa0 783d 909f d0bd 4b04 b2bd
000000c0: 1041 dcbd 9f88 9fbe 71e2 393f ae6b b6be
000000d0: 0c00 5d3e cb66 3fbe 9553 42be 2e46 47be
000000e0: eda6 673e 9dca 7e3d 8d49 943e c4fa 83be
000000f0: 6254 9cbe f7a7 72be 692d 5cbe 0211 253e
00000100: 9bae 993d 2b7b 673e 1725 17bd 1b78 c4be
00000110: f467 873e c1f8 35be d6d7 a73e 656c cfba
00000120: 1a15 9c3c 0151 df3c d558 83be 0056 72bd
00000130: e1b5 93bc 9d68 f1bf 24b3 d8bc d188 1bbb
00000140: 7765 82be 7398 02bf 111d 1f3f b263 99be
00000150: 7127 eabd 7bcd 11be 63f1 1ebf c346 5f3c
00000160: 22de 123f 6b21 5cbf 5cc7 f1bf e5ff 41be
00000170: 3ef3 70be 4b64 1cbe e090 78be 76d6 34be
00000180: 9df2 8d3e 2091 563d e809 af3d b771 84be
00000190: 2d87 3abe 0211 bdbd 40a4 313d 44e7 79be
000001a0: d2bd f4bd 9806 2abe 007c 493a 065c d3bd
000001b0: 9071 9dbc 8473 40be d1f0 42be 9eb0 25be
000001c0: ec6d c2bd 3129 60be 8221 6e3e d875 61bd
000001d0: b65b 743e 2c36 ba3d 63bb c4be 9a0f 9c3e
000001e0: 9688 23be f8cb 3bbe 0bd8 b7bf df23 e0bd
000001f0: 20f3 b83e 27db efbb 3876 643c af1c 23be
00000200: d742 0f3f 390f d6be b4a4 04be 2e55 e53c
00000210: d88e b13d d96d 133e 7875 023e 76ef 6dbe
00000220: 6128 eb3d bc8f 3dbe c388 0ebd ce62 a3be
00000230: 9154 113e db76 c4bd 21ec 39bf 7541 883c
00000240: 228a 6abc 2959 84be 2c6c 843e a828 6bbd
00000250: d677 0bbe f33e 26be ed48 71bd 9718 1bbe
00000260: cc21 62be a130 003e 02ea d13e 4c40 58bf
00000270: dd13 36be 0e84 44bd 3d9e f23d f1b1 91bd
00000280: e2f2 52be 41cd 07be c211 29be 1f20 943d
00000290: b90b 3a3e 883e 9abe ee6d a13c 1ad5 363e
000002a0: 07af 23bd c58a 55be 63a3 a23b e17b a43c
000002b0: 2d8e 8f3d f642 39be 2355 41be cbc9 263e
000002c0: 07c5 32be 3d25 5cbe d1f0 493d c7c0 e73d
000002d0: 725f 9a3d 16dd 053e 409e 843b 00a9 87bc
000002e0: 888e 883d 242d 9f3d b5f9 80be 449e d1bd
000002f0: 962b 6f3e b445 dd3d 4003 62bc aa3a 2bbe
00000300: b2c1 2dbe 5367 7ebe a226 b9bd 2f26 a33d
00000310: d6ed 583e ae4c f23e 749c 5abd d835 2bbf
00000320: 2439 c9bd 3a18 3d3e 0e14 b93d 5e66 4d3e
00000330: 420d 8bbb 0057 96be a0ec eb3f af97 0fbf
00000340: 748a 8ebd 97e4 73be cca0 07bf 9476 883e
00000350: b810 333f a7ab 5f3d 1ac1 ccbd 001b 60be
00000360: 3262 3abf 2cfc 8b3d 3836 bd3e 5566 d0bf
00000370: 056d bc3f 78c2 8f3d 00ff 31bb 18fd 57be
00000380: 3154 73be 92d2 84be dc85 e83d 2770 0bbe
00000390: d0a0 64bd 7e72 23be bc02 4fbd c8e4 47be
000003a0: 0693 39be 846a bc3d 2f66 a7bd 72f8 313e
000003b0: 6ac3 bbbd 0dcf 5abe 9dd6 89bd af4b 44be
000003c0: 87d3 81bd ec91 94be 9672 1b3e 4fa2 67be
000003d0: ded0 f23d 8110 2a3e 0fdb 2a3e 8723 c1be
000003e0: 747f 9f3e 1921 3abe 3535 723d 3ef1 023f
000003f0: 704b a5be 8186 1d3f 44cd fa3b e0c8 7dbe
0.028012784 -0.07588456 0.21363269 0.083152704 -0.40738988 0.06678826 0.16676284 -0.18086706
-0.11100264 0.062629394 -0.37390134 0.8402037 -0.789434 -0.19078659 0.008108794 -0.29137453
0.23232983 -0.25237185 0.19613697 0.06330291 -0.11023154 0.1496383 0.048200358 0.20273446
0.0636075 -0.11930321 0.10002421 -0.0011104513 -0.09811888 0.29629597 -0.0069367783 -0.15012331
0.05281686 0.13007152 0.37588271 -0.2847457 -0.52461565 -0.08303433 -1.9506972 0.12616687
0.10499232 0.08277225 0.04225483 -0.2873828 0.3204056 0.060700394 -0.10186684 -0.08692225
-0.10754597 -0.3115892 0.7261115 -0.35629028 0.21582049 -0.18691556 -0.18977197 -0.19460365
0.22622271 0.062204946 0.28962365 -0.25777256 -0.3053313 -0.23696886 -0.21501698 0.16119769
0.075040065 0.22605579 -0.036900606 -0.38372883 0.26446497 -0.17770673 0.32781857 -0.0015825151
0.01905303 0.027260305 -0.2565371 -0.059164047 -0.018031063 -1.886005 -0.026452608 -0.0023732672
-0.25468037 -0.5101387 0.62153727 -0.29958874 -0.11433304 -0.14238541 -0.62087077 0.013627711
0.573702 -0.8598849 -1.8888965 -0.18945272 -0.2353029 -0.15272634 -0.24274015 -0.17659935
0.27724162 0.052384496 0.08546811 -0.25868008 -0.18215628 -0.092317596 0.04336953 -0.24404627
-0.11950268 -0.16604078 0.0007686019 -0.103202865 -0.01921919 -0.18794066 -0.19037177 -0.16180655
-0.09493622 -0.21890713 0.2325497 -0.055044025 0.2386311 0.09092364 -0.38424215 0.30480653
-0.15970072 -0.18339527 -1.4362806 -0.10944342 0.3612299 -0.007319826 0.013944201 -0.1592891
0.55961365 -0.4180849 -0.12953454 0.027994718 0.086698234 0.14397372 0.12740123 -0.23235878
0.11482311 -0.18511862 -0.034798395 -0.3191132 0.14192416 -0.095929824 -0.7262593 0.016632775
-0.01431516 -0.25849274 0.2586378 -0.05741182 -0.13619933 -0.1623495 -0.058907438 -0.15146099
-0.22083205 0.1251855 0.40998846 -0.8447311 -0.17781015 -0.0479775 0.11846588 -0.07114018
-0.20600465 -0.13261892 -0.1651068 0.07232689 0.18168534 -0.30125833 0.019705739 0.1785473
-0.03996184 -0.20853718 0.004963325 0.020078601 0.0700954 -0.1809195 -0.18880133 0.16287915
-0.17457972 -0.2149858 0.049301926 0.11316066 0.07537736 0.13072619 0.004047185 -0.016560078
0.06667811 0.07772282 -0.2519051 -0.10235265 0.2335647 0.108043104 -0.01379472 -0.16721597
-0.1696842 -0.24844103 -0.09040572 0.07966267 0.21184477 0.47324127 -0.05337186 -0.66879034
-0.09825352 0.18466273 0.09037028 0.20058581 -0.004243524 -0.2936325 1.8431587 -0.56090826
-0.069600016 -0.23817669 -0.5297973 0.26652968 0.69947386 0.05460706 -0.09997769 -0.218853
-0.72806084 0.06835207 0.36955428 -1.6281229 1.472077 0.07019514 -0.0027160048 -0.21092641
-0.23762585 -0.25941902 0.11353657 -0.13617001 -0.055817425 -0.15961644 -0.050539717 -0.19520867
-0.18122491 0.09200004 -0.08173787 0.1737993 -0.09168132 -0.21368046 -0.06730387 -0.19169496
-0.06339174 -0.2901758 0.1518043 -0.2262051 0.118562445 0.16607858 0.16685127 -0.37722418
0.31151927 -0.18176688 0.059132773 0.51149356 -0.32284117 0.6153336 0.007653864 -0.24783659

deep.0.bias f4 [64]
00000000: 86c9 ac3c dea6 9ebd f7cc 503e 282c 943e
00000010: 507f 723d f6b8 29bb f2cb 05bf 44bc cd3d
00000020: 98b6 0cbe df98 483e bf62 2a3e f157 8cbc
00000030: 7061 663e d777 fe3d c08a 703d 1935 fc3a
00000040: dd28 a4bd 88c2 06be 8f48 16be 2b18 6d3e
00000050: ef9d c93e d65e 79bd 8e70 e33e b25d bdbe
00000060: 30d9 ebbc 4625 7d3e 8384 9c3e 5087 c23c
00000070: dc81 89bd 28f2 abbd 5099 3b3e 301d 8c3c
00000080: 0b16 033f 661f 96bd 8c2b f83d 841a 093e
00000090: a489 153d aaf5 d13d 725e f53d 4f59 c73e
000000a0: 3f83 1a3e 02e3 14be 2f75 9a3e 615b dbbd
000000b0: d062 4bbd 74f0 9dbe 2344 383e b480 f2bc
000000c0: bd90 bebd a325 f93e d396 0fbe c494 e9bd
000000d0: 6257 13be deac c2be 6ace 4a3e 77c6 ec3d
000000e0: f617 e53d c119 d2bc 8a9a 023f 84f7 c43d
000000f0: d194 1fbf 31a1 823c 94f2 b13e ba3a 1fbe
0.021092188 -0.07746671 0.20390688 0.2893994 0.059203446 -0.0025897599 -0.5226432 0.100456744
-0.13741529 0.19589566 0.16639231 -0.017131777 0.22498107 0.124252014 0.058726072 0.0019241899
-0.080156066 -0.13160145 -0.14676116 0.2315375 0.39378306 -0.06088146 0.4442181 -0.36985546
-0.028790087 0.2472125 0.30569848 0.023746163 -0.06714222 -0.08395797 0.18320203 0.017103761
0.5120551 -0.073302075 0.12117681 0.13389021 0.036508217 0.10251935 0.11980905 0.38935325
0.15089129 -0.14539722 0.3016753 -0.107107885 -0.04965478 -0.30847514 0.17994742 -0.029602386
-0.093049504 0.48661527 -0.14022379 -0.11405328 -0.14388803 -0.38022512 0.19805303 0.11561292
0.11186211 -0.025647046 0.5101706 0.09617522 -0.6233645 0.015946003 0.34755385 -0.15549746

deep.2.weight f4 [32, 64]
00000000: 9069 fabd 58a1 e23d 61b4 133d 2bb7 433b
00000010: b649 f43d 9d4d a8bd 71c3 afbd 4cda 413d
00000020: 2831 a9bc de32 71bd 1681 e3bd 0a7f bfbc
00000030: 30b5 9abd cb96 4e3b 0098 f93d 5653 5abd
00000040: afcd ffbd b672 9a3d 0681 25bd c2c0 24bd
00000050: e8c7 8a3b e48b a1bd 21bf 04be 976b b8bd
00000060: 24f3 0dbd 80f1 72bd 59c1 07be d0d1 4e3d
00000070: 6f3e c93d ed6b 2dbd b6fc 91bd 5035 21bd
00000080: 3701 26be 0cf8 85bd 88f1 e6bd 3d79 283d
00000090: 719b debd 6500 ddbd 1629 d1bd 3287 94bc
000000a0: 24ec d8bd 4e4d 1abd 500c 463c a9ab 203d
000000b0: c4c9 923d 834d 0dbe b1e3 17be 6cb1 f4bd
000000c0: 57de 733c 579f 62bd 39bd c0bd 0030 4d3a
000000d0: e57f 0fbe 10b3 d7bd 88c9 0cbd fbc2 bd3d
000000e0: 885a 593c 588e b2bc 5b9c 43bd f8cb 13bd
000000f0: fa6e febc 3afb c53c 26e3 72bc d890 47bd
00000100: dae0 46bb 491b debc 86b5 d4be 5365 5d3e
00000110: 7706 053e 2e24 423e 84df 95be a489 2ebd
00000120: 3605 823d 93e4 aabe 1bb9 06be 4286 babd
00000130: 49a5 d6bd d22a 8cbd 64c1 533d 7c40 b73e
00000140: d625 503e ec74 663d a197 82bc e25a 10be
00000150: 8d1e e63e 5d20 51bf 8149 f3be 40d1 0cbe
00000160: 2028 f6bb 8e7a fabd 36e5 a23d 0891 68bd
00000170: 815f a9bd 7434 afbf 6ff2 72bd 30a0 6cbd
00000180: cd92 c43d 9fd4 17bd 94d4 55bd 8d60 b63b
00000190: 49bc 983d 0ec5 ffbd 02a0 bdbd bb22 143f
000001a0: efee 1c3c 6e43 e33d 5fc7 543d 1fff bcbe
000001b0: 6c8a 713d 5d79 0fbc 02cb 63bf 6ece 03be
000001c0: 7544 27be 4ff5 22bf f4ea 80bc 18e7 98bc
000001d0: a1ea 843d e092 a23d fb74 2e3c 8d88 97bd
000001e0: 299e dc3d 79f1 69bd e2ed 36bf 161d debd
000001f0: 4724 df3d 6f46 113e 0b32 363f 2496 88bd
00000200: c255 c23d 5015 c93b 5bb5 0fbe 4f08 de3c
00000210: 2a60 ebbc c43a 243d 98f1 ebbe 1893 6fbd
00000220: d0d8 a83c 2eec 453e fa07 d1bc 2887 9e3c
00000230: fb9a 003e 07d9 a03c 3cc7 9cbd 6334 b6be
00000240: 28e9 a3bd 0000 ca36 2df1 953e 51d5 4bbf
00000250: f955 a73d bd41 173d 3d70 37be e78a 20be
00000260: bcfe da3d 596e 003e b076 ce3e 0476 8a3d
00000270: e089 60bd 1be5 3f3e 911a d93d 681c c63d
00000280: d1d0 47be 3b02 073e 4072 1f3b ef27 753d
00000290: 9c1c 163e 334c 6d3d f132 82bd 29fe 28bd
000002a0: 9018 97bd dcf6 aebd 32f6 aa3c c4bf 95be
000002b0: a988 b63c c64c 98be 6bfb a93d 3153 b63d
000002c0: fe73 41bd 9d7e 293f 1a8e de3c be2f fdbd
000002d0: 8944 0cbb 90a6 833e 70e0 c4bd cb5a 793c
000002e0: cda4 4a3d 13ec e43c 5b6f 2f3d 6ae3 d13d
000002f0: 98d3 75be 865a 1d3d b6c7 513f 62fa 943d
00000300: 9857 01be 804f fd3d e789 8ebd 3029 223c
00000310: 200c cd3c 553a 853c 5953 e2bc e84b 523d
00000320: 2063 55bd 9f6c fcbd 22bc 45bd 1b11 853d
00000330: 48cb 06bd 58ee 203d c84c 3dbd 8b88 de3b
00000340: 2fd1 5f3b 34be 343d 7edb 82bd 6c2f d1bd
00000350: dbe1 c2bb 1080 aebd 5243 893c 8e1c 0cbe
00000360: eccb 643d c235 ff3d 2f09 2a3d c494 2e3d
00000370: 0bf8 f6bd a23e f63d 1827 afbc 6435 efbd
00000380: 130e 163d 1a41 68bd 20e4 10bc f44b dc3d
00000390: 9a75 b1bd e04b c0bd 2885 a63c 986d aebd
000003a0: d9b2 ad3c 3855 d7bd 3bbe b7bd d359 03be
000003b0: 28b4 7bbd 9821 f8bd 5231 abbb 8042 c53c
000003c0: df74 20be eb78 b03d e635 f43c 4804 be3c
000003d0: 0473 26be 320d 84bd 92aa f63d 2096 af3d
000003e0: 94cc 0bbe a6ae e93d 96c6 6fbd 1041 763d
000003f0: 401b 8ebb d4b7 023d 6f52 d8bd 822b e03d
-0.12227166 0.1106593 0.036060695 0.0029863815 0.11928122 -0.082179286 -0.08582199 0.047327325
-0.020653322 -0.0588864 -0.111086056 -0.023376007 -0.0755409 0.0031522985 0.12187195 -0.05330213
-0.12490403 0.075414106 -0.04040625 -0.04022289 0.0042352565 -0.0788801 -0.12963535 -0.09004896
-0.034655705 -0.059312344 -0.1325735 0.05049306 0.098263614 -0.042339254 -0.07128279 -0.039357483
-0.16211401 -0.06541452 -0.11276537 0.041131247 -0.10869492 -0.10791091 -0.10212915 -0.018130872
-0.10591915 -0.03767138 0.0120878965 0.039226208 0.0716739 -0.137991 -0.14832951 -0.11947903
0.014884553 -0.05532774 -0.09411091 0.0007827282 -0.14013632 -0.105322 -0.034371883 0.09265705
0.013266213 -0.02179639 -0.047756534 -0.03608319 -0.031058777 0.024167646 -0.014824664 -0.04872212
-0.0030346424 -0.02711262 -0.4154474 0.21620683 0.12990747 0.18959114 -0.2927209 -0.042611733
0.0634865 -0.33377513 -0.1315655 -0.09107639 -0.104807444 -0.06844105 0.051698104 0.35791385
0.20326933 0.05626385 -0.015941443 -0.14097169 0.44945183 -0.8169001 -0.47517017 -0.13751698
-0.0075121075 -0.12230407 0.07953875 -0.056778938 -0.08270169 -1.3687882 -0.059313234 -0.057769954
0.095983125 -0.037068006 -0.052204683 0.005565709 0.074577875 -0.12488757 -0.09259035 0.57865494
0.009578451 0.110968456 0.051947948 -0.36913392 0.0589699 -0.008756963 -0.8898164 -0.12871715
-0.16334708 -0.6365556 -0.015737034 -0.018664882 0.064900644 0.079381704 0.0106480075 -0.07399092
0.10772354 -0.057115052 -0.7145673 -0.108453915 0.10895591 0.14187025 0.7117011 -0.06669262
0.09489013 0.006136574 -0.14034025 0.027103571 -0.028732378 0.040095106 -0.4608276 -0.05848989
0.020611197 0.19328377 -0.025516499 0.019351557 0.1255912 0.019634737 -0.076551884 -0.35586843
-0.080034554 6.020069e-06 0.29285565 -0.7962237 0.08170695 0.036927927 -0.1791391 -0.15677987
0.10693118 0.12542094 0.40324926 0.06760791 -0.054818988 0.1873974 0.1060077 0.09673387
-0.19513251 0.13184445 0.0024329573 0.059852537 0.14659351 0.057933997 -0.063573726 -0.04125801
-0.07377732 -0.085431784 0.020869348 -0.29247868 0.022281962 -0.29746073 0.08299907 0.08902586
-0.04722976 0.6620882 0.027167369 -0.12362622 -0.0021403155 0.25713015 -0.096131206 0.015219401
0.049473573 0.0279446 0.042830806 0.10248454 -0.24006498 0.038416408 0.8194536 0.07274319
-0.1263107 0.12368679 -0.069598965 0.009897515 0.025030196 0.016263166 -0.027627634 0.05134192
-0.052096486 -0.12325405 -0.04827512 0.06497403 -0.032908708 0.039289802 -0.046215802 0.0067911795
0.0034151783 0.044126704 -0.06389521 -0.10214123 -0.005947334 -0.0852052 0.016755734 -0.13682768
0.055858538 0.12461425 0.041512664 0.042622343 -0.12059029 0.12023665 -0.021380946 -0.11680105
0.036634516 -0.05670271 -0.008843452 0.107566744 -0.08665009 -0.09389472 0.020327166 -0.08516997
0.021203445 -0.10514301 -0.089718305 -0.12827234 -0.061451107 -0.121157825 -0.0052243853 0.024079561
-0.15669583 0.08616813 0.029810857 0.0231954 -0.16254812 -0.06447829 0.120442525 0.08573556
-0.13652259 0.11410265 -0.058538996 0.060120642 -0.0043367445 0.031913593 -0.10562598 0.109457985

deep.2.bias f4 [32]
00000000: 1575 a5bd d248 583e 674d 0e3e 19c2 0bbe
00000010: 6acb ea3e 200d eb3e 21f1 93bd 5eef 39be
00000020: e4ce 84bd 364c 94be 5360 22be be55 0abe
00000030: 8918 6a3d 2292 12be b5b0 9a3e 2dcf a4be
00000040: 458e 3ebe 8d9e 423e e817 b83e 0b8d ae3e
00000050: 5a38 1a3d 7c5e 4a3b caeb 5d3d ed18 50be
00000060: b755 f53e 0b1e ac3e 62ea 0ebe e199 0f3d
00000070: 42ef 38be 8345 e7be 7149 19be 5ad9 b1bd
-0.08078972 0.21121529 0.13896714 -0.13648261 0.45858318 0.4590845 -0.07223726 -0.18157718
-0.06484774 -0.28964394 -0.15857057 -0.1350927 0.057152305 -0.14313558 0.30212942 -0.32189313
-0.18608959 0.19005795 0.3595574 0.34091982 0.037651397 0.003087907 0.054179944 -0.20322008
0.47916958 0.3361667 -0.13956597 0.03505886 -0.1806002 -0.4517022 -0.14969422 -0.08684035

output.weight f4 [1, 33]
00000000: 9c2c 50be cdd3 55bc 41d0 1e3e 1263 3bbe
00000010: 3a1f 6d3c ba84 f0bd 8498 91bd d56d d33d
00000020: 251a a73c dc16 e7bc f110 0a3e 5728 dc3d
00000030: af02 9fbb 0cf2 6ebe b4fe 6f3c f65f 9ebd
00000040: 01bd de3c 511a 08bd e497 d1be baa6 1ebe
00000050: 5e17 43be 044d c53d c26e 71bc e012 253e
00000060: d0f6 013d 8069 85be e547 153e e0b4 0d3e
00000070: eccb be3d 4068 ba39 5dd4 fbbc 320a 61be
00000080: 419b a53d
-0.20329517 -0.0130509855 0.1550913 -0.18299511 0.014472777 -0.117440656 -0.07109168 0.10323683
0.020398209 -0.028209142 0.13483025 0.10749882 -0.004852615 -0.23334521 0.014648128 -0.07733147
0.027189733 -0.033228222 -0.40936196 -0.15493289 -0.19051883 0.0963383 -0.014735879 0.16120481
0.03172952 -0.26057053 0.14578207 0.1383853 0.09316239 0.00035554357 -0.030740911 -0.21976545
0.08086253
