Results/DFM_batch1024_epoch10_lr0.001/treatment_deepfm.pth (torch, 16241 bytes, 7 tensors)

linear.weight f4 [1, 13]
0	0xbcfbecdc	-0.030752592
1	0x3dd8e16c	0.10589871
2	0xbe49a40b	-0.19691484
3	0x3d8789f9	0.06618113
4	0xbca6f90c	-0.020382427
5	0xbd6c6138	-0.057709903
6	0xbcbd66d7	-0.023120327
7	0x3d2287ea	0.0396804
8	0x3dcfaa6b	0.101399265
9	0xbc30af9a	-0.010784054
10	0x3e2d80c1	0.16943647
11	0xbe91ccc2	-0.2847653
12	0x3e74fa38	0.23923576

embeddings.weight f4 [13, 10]
0	0x3beb7b8b	0.0071863583
1	0x3ae01e82	0.0017098936
2	0xbbe37a92	-0.0069421018
3	0xbc92653d	-0.01787054
4	0x3b8cb22d	0.004293701
5	0xbadebb96	-0.0016993161
6	0x3be2c5d7	0.006920557
7	0x3c8bf555	0.017084757
8	0xbac955e6	-0.0015360683
9	0xbb313c3d	-0.0027043961
10	0xba06abca	-0.0005137293
11	0x3bec2e72	0.007207685
12	0x3d04fc17	0.032466974
13	0xbcbdb190	-0.023155957
14	0x3ab6af53	0.0013937749
15	0xbc06536f	-0.008198603
16	0x3c9a8124	0.018860407
17	0x3b1a85a6	0.0023578196
18	0xbb7d5600	-0.0038655996
19	0x3b780219	0.0037843047
20	0x3b8ef10e	0.004362232
21	0x3be4beab	0.006980737
22	0x3ca8dca2	0.020613018
23	0xbd10534a	-0.03523568
24	0x3b0b8c88	0.002129348
25	0x3c6f68b4	0.0146123655
26	0x3ca43bfb	0.020048132
27	0xb946a232	-0.00018943174
28	0xbb810505	-0.003937366
29	0x3b4caec8	0.0031232107
30	0xbd854990	-0.065081716
31	0xbd0f6c64	-0.03501548
32	0x3df47ebb	0.119382344
33	0x3dbc6286	0.09198479
34	0xbbd0cd16	-0.0063721044
35	0xbc514227	-0.01277212
36	0xbc26a4a2	-0.010171087
37	0xbd58d0a0	-0.052933335
38	0x3d061d7c	0.032742962
39	0x3d814cbd	0.06313465
40	0xbc3b1f6c	-0.011421066
41	0x3beb9ea4	0.0071905423
42	0x3d02fb71	0.031978074
43	0x3c95b9b7	0.018277032
44	0x3aea9eec	0.0017900146
45	0xbba6689c	-0.0050783884
46	0x3ca6a083	0.02034021
47	0x3ad1e800	0.0016014576
48	0xbb85c8b4	-0.0040827636
49	0x3b572513	0.0032828494
50	0x3cf26fae	0.029594269
51	0x3aee0107	0.0018158265
52	0xbe86887f	-0.26276013
53	0xbdf3598f	-0.11882316
54	0x3bf7aecd	0.0075586797
55	0x3dec2246	0.11529975
56	0x3d0f1b8e	0.034938388
57	0xbd80aa50	-0.062824845
58	0x3b3f8f0f	0.0029229557
59	0xbbdf73ff	-0.0068192477
60	0xbb840466	-0.0040288446
61	0xbba58757	-0.005051534
62	0x3b0236e8	0.0019869152
63	0xbd8d0a79	-0.06886763
64	0x3b87b931	0.0041419496
65	0x3ca10d68	0.019659713
66	0xbbae30d5	-0.00531588
67	0xbc04c71b	-0.008104111
68	0x3b8f1af1	0.0043672253
69	0x3c96f0fa	0.018425453
70	0xbab87f2f	-0.001407599
71	0xbcd3b875	-0.025844792
72	0x3d3ad52c	0.045613453
73	0x3d82c685	0.06385521
74	0x3cde2207	0.027115835
75	0xbc5d3ecf	-0.013503744
76	0xbc5ad7fd	-0.01335716
77	0xbc1d4fde	-0.009601561
78	0x3cb60c35	0.022222618
79	0x3b12a64b	0.002237695
80	0x3ca5b0b5	0.020225862
81	0x3c028f93	0.007968801
82	0xbdd63997	-0.10460203
83	0xbdd99bef	-0.10625445
84	0x3aa35ee2	0.001246419
85	0xbdab2a48	-0.08357674
86	0x3c8340dd	0.01602214
87	0x3c0a2fcf	0.00843425
88	0xbc1c75fe	-0.009549616
89	0x3c4f6687	0.012658722
90	0xbc26847f	-0.0101634255
91	0x3bccb669	0.006247331
92	0x3c40f12b	0.011776249
93	0xbc4d6a72	-0.012537586
94	0x398416b2	0.0002519391
95	0x3ac8e11e	0.0015325879
96	0x3c8f5c13	0.01749996
97	0x39c080a1	0.0003671693
98	0xbb2107d7	-0.0024571323
99	0x3b7314ad	0.003709118
100	0x3c1284c5	0.008942788
101	0x3c6bc630	0.014390513
102	0x3db8bc2f	0.09020268
103	0xbdb0222e	-0.08600269
104	0xbb616d15	-0.0034397293
105	0x3df3ba53	0.11900773
106	0x3cd95095	0.026527682
107	0xbc2890e5	-0.010288452
108	0xbc3c8fc2	-0.011508884
109	0x3bcba9cf	0.006215311
110	0x3e21bce5	0.15794714
111	0xbeea92dc	-0.4581517
112	0x3e84557e	0.25846475
113	0x3ed4cdfb	0.415634
114	0x3f0a9890	0.5413904
115	0x3c058022	0.008148225
116	0xbed64935	-0.41852728
117	0x3e4f0d5d	0.20219941
118	0x3e34d40f	0.17659019
119	0xbe40e912	-0.1883891
120	0xbe8497b9	-0.25897005
121	0xbec499f2	-0.383987
122	0xbc929cfb	-0.01789712
123	0xbdc4b9e9	-0.09605772
124	0xbbb90bd9	-0.0056471643
125	0xbe67cc8c	-0.22636622
126	0xbefbbea7	-0.49168894
127	0x3ddd53a3	0.10806968
128	0x3eb9155d	0.3614911
129	0x3da5dacf	0.08098375

deep.0.weight f4 [64, 13]
0	0xbd5e3817	-0.05425271
1	0xbe0836f9	-0.1330222
2	0xbe8ae50d	-0.27127877
3	0xbe852676	-0.26005906
4	0x3dac034e	0.08399068
5	0xbe309370	-0.17243743
6	0xbe22071f	-0.15823029
7	0xbd349780	-0.044089794
8	0xbde7e16d	-0.113222934
9	0xbddd40b9	-0.108033605
10	0xbc2c3993	-0.010511774
11	0xbd201a61	-0.039087657
12	0xbdf55393	-0.11978831
13	0xbe22cea5	-0.15899141
14	0xbe80f1e5	-0.2518455
15	0x3e536d00	0.20647049
16	0xbdaeec4a	-0.08541162
17	0x3d416d8d	0.047223616
18	0xbdf61c1d	-0.12017081
19	0x3d47f6a1	0.048819188
20	0x3e6dfd20	0.23241091
21	0x3dd138c1	0.10215903
22	0xbe8879c0	-0.26655388
23	0x3dac4ff3	0.084136866
24	0x3e8ec4c2	0.2788449
25	0x3d49fce6	0.04931345
26	0x3e3cc79e	0.18435523
27	0x3f0c55bf	0.5481834
28	0x3e6a11cd	0.22858353
29	0xbe31a107	-0.17346583
30	0xbf092272	-0.53568184
31	0x3df9ee36	0.12203638
32	0x3d7634c0	0.0601089
33	0x3d7ff8ac	0.06249301
34	0x3eddb982	0.43305594
35	0xbdeb372e	-0.11485134
36	0xbe81c344	-0.25344288
37	0x3fbe5073	1.4868301
38	0xbfc93f89	-1.5722514
39	0xba3b5841	-0.0007146635
40	0x3ef6ee07	0.48228475
41	0x3ec4cf8f	0.38439605
42	0xbdf61f30	-0.12017667
43	0xbf0ffad9	-0.5624214
44	0x3e7a3ecd	0.24438019
45	0xbe372b3b	-0.17887585
46	0xbdd46b9a	-0.10372086
47	0x3f45c7c9	0.7725797
48	0xbd50d629	-0.05098549
49	0xbd3279a5	-0.04357304
50	0x3fc0f2a3	1.5074047
51	0xbf9a0969	-1.2034122
52	0xbe003c61	-0.12523033
53	0xbedc66e4	-0.4304725
54	0xbed062bc	-0.40700328
55	0xbd56297f	-0.052285668
56	0x3f3c6c4f	0.73602766
57	0xbe1001b2	-0.14063147
58	0xbe2e29b9	-0.17008103
59	0x3e25c76a	0.16189352
60	0xbecdff16	-0.40233678
61	0x3d814d63	0.063135885
62	0x3ee60436	0.44925088
63	0xbfdee6af	-1.7414149
64	0x3d883fb7	0.06652778
65	0xbd98e4a2	-0.07465483
66	0x3db811c8	0.089877665
67	0xbdea3016	-0.11434953
68	0xbe159caf	-0.14610551
69	0x3d91fa3d	0.07127807
70	0xbe2a0431	-0.16603161
71	0x3cd325cf	0.025774864
72	0xbebbe030	-0.3669448
73	0xbd19db0c	-0.037562415
74	0xbd2ca0ec	-0.042145655
75	0xbdbcc2f3	-0.09216871
76	0x3ec726f7	0.38896915
77	0xbf49c25b	-0.7881219
78	0xbebb5783	-0.36590204
79	0xbdc1bf5b	-0.09460326
80	0x3eb2c204	0.34913647
81	0x3ef3cf30	0.4761901
82	0xbf0f626d	-0.5600956
83	0xbe22da74	-0.15903646
84	0x3f60c923	0.8780691
85	0xbe8c0764	-0.2734939
86	0xbdf83900	-0.12120247
87	0x3e61df4d	0.22057839
88	0x3eb2fbc8	0.3495772
89	0x401458b6	2.3179145
90	0xbf5d1348	-0.86357546
91	0xbe1268b1	-0.14297749
92	0x3cc5da89	0.024152057
93	0x3e944d70	0.2896533
94	0xbe3cbd9f	-0.1843171
95	0x3f0b9892	0.5452968
96	0xbe27696e	-0.16348812
97	0xbcd263a4	-0.025682278
98	0xbda44b50	-0.08022177
99	0x3c95397c	0.018215887
100	0xbe0fbdae	-0.14037201
101	0x3e516a13	0.2045062
102	0xbdd407f1	-0.10353077
103	0xc06056a9	-3.5052893
104	0x3cd4c3f4	0.025972344
105	0xbe9b96b5	-0.30388418
106	0xbeb749a5	-0.35798374
107	0x3de03465	0.109474935
108	0x3f0b6010	0.54443455
109	0xbdc29859	-0.09501714
110	0xbcef1d33	-0.029188728
111	0x3e994645	0.29936424
112	0xbedc6319	-0.43044356
113	0xbc079712	-0.008275764
114	0x3d0c1119	0.034195993
115	0xc0057aab	-2.085612
116	0x3faf71e4	1.3706632
117	0xbe07c267	-0.13257752
118	0xbe105dd8	-0.14098299
119	0x3db0f76c	0.08640942
120	0xbda55ace	-0.0807396
121	0xbdde3820	-0.10850549
122	0x3e8763df	0.26443383
123	0x3dc5da18	0.09660739
124	0x3e4a780a	0.19772354
125	0xbe097dbd	-0.13426872
126	0xbde803b4	-0.11328831
127	0x3dd0c48c	0.10193738
128	0xbe3d39fa	-0.18479148
129	0xbe39a7fc	-0.18130487
130	0xbd027a86	-0.03185513
131	0xbe8e2c2f	-0.27768084
132	0xbedb2c68	-0.42807317
133	0x3e1d90eb	0.15387313
134	0x3f2c8b06	0.6739963
135	0xbcc3d026	-0.023902964
136	0xbcaba118	-0.020950839
137	0xbddd7341	-0.108129986
138	0xbf111149	-0.56667
139	0x3d3b0e8b	0.045668166
140	0x3e8e3ef1	0.27782395
141	0xbfe57141	-1.7925187
142	0x3fae8290	1.3633595
143	0x3e477574	0.19478399
144	0xbeab9d13	-0.33518276
145	0x3e2adef3	0.16686611
146	0xbe055cc6	-0.13023672
147	0xbe1455e6	-0.14485893
148	0xbe2ea21a	-0.17054024
149	0x3cbe01e0	0.023194253
150	0xbe41fd8f	-0.18944381
151	0x3d3c10b8	0.04591438
152	0xbd35cfb6	-0.04438754
153	0x3e201af8	0.15635288
154	0x3f3ba671	0.73300844
155	0xbe5f4bb3	-0.2180622
156	0xbe25e88d	-0.16201992
157	0x3ea3f3ee	0.3202204
158	0x3edbd8c6	0.42938823
159	0x3dabe390	0.083930135
160	0xbeade709	-0.33965328
161	0xbf20a8db	-0.62757653
162	0xbe11da5e	-0.14243457
163	0xbdd61a29	-0.104542084
164	0x3ed11e53	0.40843448
165	0xbdbbe132	-0.09173812
166	0xbe17840f	-0.1479647
167	0x3fd40d1d	1.6566502
168	0xbf7ea701	-0.9947358
169	0xbed38bbb	-0.41317543
170	0xbe36b64b	-0.17842977
171	0xbe48a5d3	-0.19594507
172	0xbe0e0584	-0.13869292
173	0xbec960df	-0.3933172
174	0xbf1807ad	-0.5938671
175	0xbe08ef80	-0.13372612
176	0xbec15e1b	-0.3776711
177	0xbecab857	-0.39593765
178	0x3dcb94e3	0.09940507
179	0xbd872d15	-0.066003956
180	0x3ed8349f	0.42227647
181	0x3f6668fe	0.90003955
182	0x3e8da29d	0.27663127
183	0x3e52d1ff	0.2058792
184	0xbf04228c	-0.51615214
185	0x3ebb0b7e	0.36532205
186	0xbd6febf6	-0.05857464
187	0xbc310918	-0.010805391
188	0x3c33435d	0.010941354
189	0x3d1a6c1c	0.037700757
190	0x3f270250	0.65237904
191	0xbe9ecf8b	-0.31017718
192	0xbe841cac	-0.25803125
193	0xbe4420c0	-0.19153118
194	0xc033095c	-2.7974463
195	0xbe71ba42	-0.23606208
196	0x3e2223af	0.15833925
197	0xbe152acc	-0.14567107
198	0x3ecb71a6	0.39735144
199	0x3eeb3e83	0.4594613
200	0x3e34f360	0.17670965
201	0x402c2e78	2.6903362
202	0xbe4ff6c9	-0.20308985
203	0xbcafc82a	-0.02145775
204	0xbe2a9f6a	-0.16662374
205	0x3da2c2ac	0.07947287
206	0xbf7451c8	-0.9543729
207	0x40003636	2.0033088
208	0xbd9334aa	-0.07187779
209	0xbdf01baa	-0.117240265
210	0xbd898d84	-0.06716445
211	0xbe0935df	-0.13399456
212	0x3d412b18	0.047160238
213	0x3e53ff06	0.20702752
214	0x3e5e1630	0.21688151
215	0x3e026506	0.1273385
216	0xbe510264	-0.20411068
217	0xbe186d7a	-0.14885512
218	0xbd799910	-0.060936987
219	0xbd5165a4	-0.051122323
220	0x3cbadf00	0.022811413
221	0xbec59891	-0.3859296
222	0xbc183656	-0.009290298
223	0xbec04c63	-0.37558278
224	0xbea4491e	-0.32087034
225	0xbe8c3739	-0.27385882
226	0x3e82f654	0.25578558
227	0xbe53b903	-0.20676045
228	0x3d79311b	0.060837846
229	0xbe262540	-0.16225147
230	0xbabd57a2	-0.0014445672
231	0x3d70244d	0.05862837
232	0xbe82576b	-0.2545732
233	0x3f0dad55	0.5534261
234	0x3e800e1b	0.25010762
235	0xbeccbca5	-0.39987674
236	0x3f0f0bae	0.55877197
237	0xbe4231aa	-0.18964258
238	0xbea9ea81	-0.33186725
239	0xbd8db2b0	-0.069188476
240	0x3d06c64b	0.03290395
241	0xbe51d57a	-0.20491591
242	0xbe6c8bab	-0.23100154
243	0x3d9cc7ff	0.07655334
244	0x3f155fee	0.583495
245	0x3ff5a53c	1.919105
246	0xc01634a9	-2.3469641
247	0xbdb9a6ec	-0.09065041
248	0xbeb05cf6	-0.34445924
249	0x3d6a6025	0.057220597
250	0xbe589599	-0.21150817
251	0x3c55f40e	0.013058675
252	0xbe668c97	-0.22514568
253	0x3dce6bef	0.100791804
254	0x3e881488	0.26578164
255	0xbe2716e3	-0.16317324

deep.0.bias f4 [64]
0	0xbc2780dc	-0.010223594
1	0xbe3ed5bb	-0.18636219
2	0x3f22511c	0.63405013
3	0x3e3796fe	0.17928693
4	0xbe2e0d0b	-0.16997163
5	0x3e5889e4	0.21146351
6	0x3d61098e	0.054940753
7	0x3e0456fd	0.12923808
8	0xbf09db86	-0.5385059
9	0x3e88978b	0.26678118
10	0xbeae9da8	-0.34104657
11	0xbebcd1b3	-0.36878738
12	0x3f012a7d	0.50455457
13	0xbeaf0580	-0.34183884
14	0x3e670332	0.22559813
15	0x3e87e1e1	0.2653952
16	0xbe44df9e	-0.19225928
17	0xbeac629c	-0.33668983
18	0x3ca0752a	0.019587118
19	0xbe550977	-0.20804392
20	0xbdc4e7c6	-0.0961452
21	0xbe6e32a0	-0.232615
22	0xbd7622da	-0.06009183
23	0xbe3c36a4	-0.18380219
24	0xbe0b9ec0	-0.13634777
25	0xbe928717	-0.2861869
26	0x3e1695e0	0.1470561
27	0xbdf2c366	-0.118536755
28	0xbe999d63	-0.3000289
29	0x3f0e1e6d	0.55515176
30	0xbc6115b4	-0.013738085
31	0xbd5bcfb7	-0.05366489
32	0xbeb5e999	-0.35529783
33	0x3d2b5160	0.041825652
34	0x3f2f7f78	0.68553877
35	0x3d071f6c	0.03298895
36	0xbe50929f	-0.20368432
37	0x3e65f886	0.22458085
38	0x3cb01b30	0.021497339
39	0xbe42c6e3	-0.19021182
40	0x3e0ae5c3	0.1356421
41	0x3e721e3e	0.23644349
42	0xbe7d15bd	-0.24715324
43	0x3c9ef61f	0.019404469
44	0xbe8dfadb	-0.2773045
45	0xbc3b0f27	-0.011417187
46	0xbe467412	-0.19380215
47	0xbe3ec925	-0.18631418
48	0xbdb0206f	-0.08599936
49	0x3db286f6	0.08717148
50	0x3e33033d	0.17481704
51	0x3cb332b0	0.021874756
52	0x3f10d028	0.5656762
53	0xbd5dc467	-0.054142382
54	0x3e1ee4a2	0.15516904
55	0x3e168b28	0.14701521
56	0x3e5bdf5a	0.2147192
57	0xbde8771b	-0.113508426
58	0x3cb4a7f0	0.022052735
59	0x3d69ca70	0.057077825
60	0xbe292463	-0.16517787
61	0xbe8d388f	-0.27582213
62	0x3e2cfa97	0.16892467
63	0xbecc54bc	-0.39908397

deep.2.weight f4 [32, 64]
0	0xbc214325	-0.009842669
1	0xbceaf740	-0.028682351
2	0x3e8cb5da	0.27482492
3	0x3ef739c8	0.4828627
4	0xbeb5d9cc	-0.35517728
5	0x3d66d70b	0.056357425
6	0x3de230a8	0.11044437
7	0xbebc6ce6	-0.36801833
8	0xbd901398	-0.07034987
9	0xbdcf1f88	-0.10113436
10	0xbe05b4d7	-0.13057266
11	0xbcd9c1aa	-0.026581604
12	0xbd37c48a	-0.04486517
13	0xbeece721	-0.46270087
14	0x3e3b6dc7	0.18303595
15	0xbe8f20a6	-0.27954596
16	0xbd393694	-0.045218065
17	0x3d02e939	0.0319607
18	0xbe695dd8	-0.22789705
19	0xbd9af184	-0.07565597
20	0xbdcb4ac0	-0.09926367
21	0xbbec9760	-0.0072201937
22	0x3d1b3c12	0.037899084
23	0x3da33fa6	0.07971124
24	0x3deb31d0	0.1148411
25	0xbd783046	-0.060592912
26	0x3da492b2	0.080357924
27	0x3dad7ffa	0.08471675
28	0xbdcb835f	-0.099371664
29	0x3e9d8e5a	0.30772668
30	0x3e0e04a3	0.13868956
31	0xbd1a9671	-0.03774113
32	0x3e34f1d8	0.17670381
33	0xbd330198	-0.04370269
34	0x3e44a9f3	0.19205455
35	0xbe24f492	-0.16108921
36	0x3e68176f	0.22665189
37	0xbccfd520	-0.02537018
38	0x3d7851e0	0.060624957
39	0xbf3ca637	-0.73691124
40	0x3dfe8db2	0.1242937
41	0x3df7e86e	0.12104879
42	0xbd5d7eec	-0.05407612
43	0xbd355990	-0.044274867
44	0x3d22ec70	0.039776266
45	0xbcca9b17	-0.024732156
46	0x3d0b38f0	0.033989847
47	0xbe7ccc9e	-0.2468743
48	0xbd6837e9	-0.056693945
49	0xbec27551	-0.3798013
50	0x3dbb083e	0.091324314
51	0x3d0ba01c	0.03408824
52	0xbd8f509a	-0.069977954
53	0x3e89d8c1	0.26923183
54	0xbd867608	-0.065654814
55	0xbc94810d	-0.018127942
56	0x3cbf5670	0.023356646
57	0xbd8bc86e	-0.06825338
58	0x3dae84fc	0.085214585
59	0x3c600370	0.013672695
60	0xbd8635a5	-0.06553201
61	0x3ef420e6	0.4768135
62	0xbcef71e0	-0.029229105
63	0xbf0baece	-0.54563606
64	0xbc806b93	-0.015676295
65	0xbe18540b	-0.1487581
66	0x3ee291ba	0.44251806
67	0xbee66df3	-0.4500576
68	0xbdb15bfc	-0.08660123
69	0x3da59d37	0.08086627
70	0xbeb554ca	-0.3541625
71	0xbf2ba8a5	-0.67054206
72	0x3e555196	0.20831904
73	0xbdd8191c	-0.10551664
74	0x3e6c56bb	0.2307996
75	0x3df4f9d8	0.119617164
76	0xbe6c2318	-0.23060262
77	0xbd2ce7d1	-0.042213265
78	0xbe71dc1f	-0.23619126
79	0x3f507133	0.8142273
80	0xbd8ed224	-0.06973675
81	0x3e75b35b	0.239942
82	0x3c11e3ed	0.008904439
83	0xbdd79391	-0.10526193
84	0x3deab5c6	0.11460452
85	0x3d256c94	0.04038675
86	0xbc64c7a0	-0.01396361
87	0xbd585c69	-0.052822504
88	0xbddae7e4	-0.10688761
89	0x3d627117	0.055283632
90	0x3dda3fb0	0.10656679
91	0x3ce8f271	0.028435918
92	0xbda1ce3a	-0.07900663
93	0x3f0d39a9	0.5516611
94	0xbf0abd95	-0.5419553
95	0xbe77c20e	-0.2419512
96	0x3d16a39e	0.03677713
97	0xbd8e75e0	-0.069560766
98	0xbe873b92	-0.26412636
99	0x3e32df9e	0.17468116
100	0xbf2c52a2	-0.6731359
101	0xbd8c7b61	-0.0685947
102	0x3d22ecac	0.03977649
103	0x3e5bad3e	0.21452805
104	0x3e093d95	0.13402398
105	0x3d941c18	0.07231921
106	0xbd92e3bb	-0.071723424
107	0xbd926c9a	-0.0714962
108	0x3da2aafe	0.079427704
109	0x3dbb7d34	0.0915474
110	0xbdf1bf7c	-0.11804101
111	0xbee617a6	-0.44939917
112	0xbe727f20	-0.23681307
113	0xbf091a38	-0.5355563
114	0xbca1fc09	-0.0197735
115	0x3c618e30	0.01376681
116	0xbe158fd0	-0.14605641
117	0xbe47cbf4	-0.19511396
118	0xbd898fbe	-0.0671687
119	0xbeac5436	-0.33657998
120	0x3daa3e0e	0.08312617
121	0xbe6d9a57	-0.23203407
122	0x3a9eb800	0.001210928
123	0x39b5d600	0.00034682453
124	0x3d78f6c4	0.06078221
125	0xbf2e428a	-0.6807028
126	0xbe128552	-0.1430867
127	0x3caeb2db	0.02132552
128	0x3dc424ca	0.095773295
129	0xbcb8efe6	-0.02257533
130	0x3d5588a8	0.05213228
131	0x3e41b0ab	0.1891505
132	0xbec76096	-0.38940877
133	0x3c573db1	0.013137267
134	0x3e8d5b4b	0.27608714
135	0xbeddfdbf	-0.43357655
136	0x3ccfc78b	0.025363704
137	0x3c8dbe28	0.017302588
138	0xbe956c43	-0.2918416
139	0xbe01322e	-0.12616798
140	0xbe3e419c	-0.18579715
141	0x3e5d636d	0.21619959
142	0x3e28b626	0.16475734
143	0xbe4484d3	-0.19191293
144	0xbdbc7276	-0.09201519
145	0x3c0837fd	0.00831413
146	0x3c6884c2	0.014191808
147	0x3e16b2f7	0.14716707
148	0xbdb69906	-0.08915906
149	0x3d9e5aba	0.077321485
150	0x3d1e178a	0.038596667
151	0x3c5aced2	0.013354974
152	0x3df7fe7a	0.121090844
153	0xbc919e83	-0.01777578
154	0xbcee4d10	-0.02908948
155	0xbdd9929a	-0.10623665
156	0xbb85f0dd	-0.004087551
157	0x3e986edf	0.29772088
158	0x3d997b03	0.07494166
159	0xbde3f291	-0.1113025
160	0x3c617b8e	0.013762368
161	0x3d2e2878	0.042519063
162	0x3e6c4dc4	0.2307654
163	0xbe111f73	-0.14172153
164	0xbc8b0f8e	-0.01697519
165	0xbd969791	-0.07353128
166	0x3d3a5378	0.04548976
167	0xbe6ba4cf	-0.23012088
168	0x3dc2a064	0.09503248
169	0xbc35e2d0	-0.01110144
170	0xbe1e2f9b	-0.15447848
171	0x3da319f4	0.079639345
172	0xbb5355d5	-0.0032247205
173	0x3a939013	0.0011258147
174	0xbda8baf6	-0.08238785
175	0xbd89c3ed	-0.06726823
176	0xbe6655b0	-0.22493625
177	0xbe4ca0f9	-0.19983281
178	0x3e7ffa02	0.24997714
179	0xbde09036	-0.10965006
180	0x3ce4530e	0.027871635
181	0xbaa6345d	-0.00126804
182	0x3dd72b70	0.10506332
183	0xbbba7421	-0.005690113
184	0x3c0034e0	0.007825106
185	0x3c922196	0.01783828
186	0xbd2b29e4	-0.041787997
187	0xbdf887ce	-0.12135278
188	0xbcb99b75	-0.022657136
189	0x3e309f95	0.17248376
190	0x3df89e0b	0.12139519
191	0xbe887ef7	-0.26659366
192	0x3dc4328a	0.09579952
193	0x3d9ceb32	0.076620474
194	0x3d035b1e	0.032069318
195	0xbe237d93	-0.15965872
196	0x3d8c913f	0.06863641
197	0xbe044c3d	-0.12919708
198	0x3de581c0	0.112063885
199	0xbce28b0d	-0.027654195
200	0xbe1c6589	-0.15273108
201	0x3d0e622c	0.034761593
202	0xbd62e9ef	-0.055398878
203	0xbe0e3508	-0.13887417
204	0xbd939791	-0.072066434
205	0x3c5328d0	0.012888148
206	0x3d891285	0.066929854
207	0xbd5c7b52	-0.053828545
208	0x3d980e48	0.07424599
209	0x3c803be8	0.015653566
210	0xbd1b33f4	-0.037891343
211	0xbc9c54f4	-0.019083478
212	0xbdb96675	-0.09052745
213	0xbdd4c968	-0.10389978
214	0xbd2d0e68	-0.042250067
215	0xbe05fa37	-0.1308373
216	0xbd6ec580	-0.05829382
217	0x3bbc70a0	0.0057507306
218	0xbda89a9e	-0.08232616
219	0xbd546024	-0.0518495
220	0xbd5bed1b	-0.05369292
221	0xbd54b182	-0.051927097
222	0xbd90d3df	-0.07071661
223	0xbd193e60	-0.037413
224	0xbd323aef	-0.043513235
225	0x3d126e04	0.03574945
226	0xbd05095f	-0.03247964
227	0xbdbdc4e7	-0.09266072
228	0xbd3045fc	-0.043035492
229	0xbabcd680	-0.0014407188
230	0xbd9fbd80	-0.07799816
231	0xbcd081ee	-0.02545258
232	0xbc2df45f	-0.010617345
233	0x3d46a520	0.04849732
234	0x3cf25880	0.029583216
235	0x3d134cff	0.0359621
236	0xbc97b1c6	-0.018517386
237	0xbddce6fd	-0.10786245
238	0x3d64de5c	0.05587612
239	0xbdba54af	-0.09098183
240	0xbd75264a	-0.05985097
241	0xbd6470ab	-0.05577151
242	0xbd42468c	-0.04743056
243	0xbd3d6e88	-0.04624799
244	0x3da927be	0.08259533
245	0x3cf83c4b	0.030302187
246	0x3d0de4f4	0.034642175
247	0x3dba6162	0.091006055
248	0xbde7fe2a	-0.11327775
249	0xbc6226aa	-0.013803164
250	0x3da3e29a	0.08002205
251	0x3daa0ee8	0.083036244
252	0xbe11873f	-0.14211749
253	0x3c7cfab9	0.015440636
254	0xbd9bdaf4	-0.07610121
255	0xbd2e361f	-0.042532083

deep.2.bias f4 [32]
0	0x3edb6e0a	0.4285739
1	0x3e8bd993	0.27314433
2	0x3edf09f2	0.43562275
3	0x3d6690f8	0.056290597
4	0xbf2dd138	-0.6789737
5	0x3e2a0bbb	0.16606037
6	0xbe2353dc	-0.15949959
7	0x3e94d445	0.290682
8	0x3e9dfe99	0.30858305
9	0xbcb8bde7	-0.02255149
10	0x3f184d17	0.5949263
11	0xbcf1202a	-0.029434282
12	0x3eaacb7a	0.33358365
13	0x3eae7232	0.340715
14	0x3d9fcca6	0.078027055
15	0xbd0aefee	-0.03392022
16	0xbd85afdf	-0.065276854
17	0xbdca6009	-0.098815985
18	0xbd73b1da	-0.059495784
19	0xbcd12444	-0.025529988
20	0xbdc03f8b	-0.0938712
21	0xbe70ab4d	-0.23502846
22	0x3eed018b	0.4629024
23	0xbe052f2b	-0.13006274
24	0xbdc03041	-0.09384204
25	0xbdd70688	-0.104992926
26	0xbe3b5fe3	-0.18298297
27	0xbdd58548	-0.10425812
28	0x3eb28846	0.34869593
29	0xbe8ac9cd	-0.27107087
30	0xbe854843	-0.26031694
31	0xbd9f3fbe	-0.0777583

output.weight f4 [1, 34]
0	0xbb446d0b	-0.0029972221
1	0x3b40ed3d	0.002943828
2	0xbdee6093	-0.11639514
3	0x3e03ba8a	0.12864128
4	0xbc8f2387	-0.017472995
5	0x3d61d05e	0.055130355
6	0xbe0476a8	-0.12935889
7	0xbd8955b7	-0.06705802
8	0xbe150635	-0.14553149
9	0xbd89e92d	-0.06733928
10	0xbe1674c2	-0.14692977
11	0x3d4ee31d	0.05050956
12	0xbe2cfc0a	-0.1689302
13	0x3d2de005	0.04244997
14	0xbdba9865	-0.09111098
15	0xbe27d18b	-0.16388528
16	0x3e133542	0.14375785
17	0x3e090bf4	0.13383466
18	0xbc2f2664	-0.010690305
19	0x3d83cf74	0.06436053
20	0x3c6bd4be	0.014393983
21	0x3d60de88	0.054899722
22	0x3dd06a16	0.10176484
23	0x3d84a147	0.06476074
24	0xbe6bff50	-0.23046613
25	0x3c22c6d1	0.009935097
26	0x3ce43b3d	0.027860278
27	0x3cde37fb	0.027126303
28	0x3c269c07	0.010169036
29	0x3bbd5313	0.0057777255
30	0xbeb45cce	-0.35227054
31	0x3e092a22	0.13394979
32	0xbe186274	-0.14881307
33	0xbe1c06a1	-0.15236904
