Results/WD/20250107_120011_batch1024_epoch10_lr0.001_reg0.0005_WD/control_wide_deep.pth (torch, 173714 bytes, 10 tensors)

wide.weight f4 [1, 13]
000000 d0 ad 82 b7 70 d3 74 b6 fe 58 f0 b5 93 fd c1 36
       -1.5578145e-05 -3.6481906e-06 -1.7907294e-06 5.781368e-06
000010 98 66 25 b6 b4 d9 f9 34 dd c7 27 37 6f bd e8 b4
       -2.4646633e-06 4.6538264e-07 1.000051e-05 -4.3351199e-07
000020 c3 32 15 b4 dd 91 11 37 d7 20 27 b5 5a 1c 49 35
       -1.3895173e-07 8.676635e-06 -6.2260136e-07 7.491959e-07
000030 7d 1b 00 00
       9.861e-42

deep.0.weight f4 [13, 13]
000000 e8 d1 7b 9f c8 eb 57 82 95 1b 00 00 a3 1b 00 80
       -5.3324948e-20 -1.5863371e-37 9.895e-42 -9.914e-42
000010 d0 4a 90 8e a0 1b 00 00 5e 1b 00 80 d0 1f 00 00
       -3.5570783e-30 9.91e-42 -9.817e-42 1.1412e-41
000020 9d 1b 00 00 82 43 97 af a5 1b 00 80 34 1d 00 00
       9.906e-42 -2.7514707e-10 -9.917e-42 1.0476e-41
000030 85 1b 00 80 74 d2 1f 1e 17 78 6a 00 70 1b 00 00
       -9.872e-42 8.460911e-21 9.777643e-39 9.843e-42
000040 62 1b 00 00 28 2f a1 89 5c 1b 00 80 88 1b 00 00
       9.823e-42 -3.8803686e-33 -9.815e-42 9.876e-42
000050 7e 1b 00 80 af 1b 00 00 0b 80 04 ae 62 1b 00 80
       -9.862e-42 9.931e-42 -3.012705e-11 -9.823e-42
000060 55 1c 00 00 ed 1b 00 80 58 e9 57 bb 84 2c 91 bd
       1.0164e-41 -1.0018e-41 -0.003294548 -0.07088569
000070 98 4b a3 bd 05 81 10 ba 7f 7d 08 3e 8d 79 b0 bc
       -0.07973403 -0.00055123895 0.13329123 -0.021542335
000080 4d a2 65 bc 7d 7b c3 bb 79 48 e8 bc 18 6c b9 3c
       -0.014015746 -0.0059656487 -0.02835487 0.02263455
000090 a9 51 c2 bb 79 e4 51 bc cc 1b 00 80 30 bc de bb
       -0.005930145 -0.01281082 -9.972e-42 -0.006797336
0000a0 a7 e4 c3 3d 46 0a bb 3d 79 89 aa 3c c0 cb fb bd
       0.09565096 0.09132819 0.020817505 -0.122947216
0000b0 44 b6 2a 3d 1f 78 20 3d 3e 3a 1a bb 2b e6 1f 3d
       0.04167773 0.039177056 -0.002353325 0.039037865
0000c0 3d cc 3a 3c b4 8e e5 3b aa e5 69 3c 77 1b 00 00
       0.011401233 0.007005537 0.014275948 9.853e-42
0000d0 33 cb 01 39 7e 04 d3 37 a6 09 90 36 b6 c2 08 2f
       0.00012378096 2.5155252e-05 4.2926576e-06 1.2438303e-10
0000e0 52 cb 88 b8 49 40 1c 2f 2c 56 1f 35 88 90 0f b2
       -6.522857e-05 1.4210956e-10 5.935751e-07 -8.356558e-09
0000f0 00 b3 8d 2e 3d 1f 7e ba f2 0d 20 b2 8a 1b 00 80
       6.4437344e-11 -0.0009693986 -9.3163965e-09 -9.879e-42
000100 bb 1b 00 80 72 bd 60 3d 2d bf 85 be 12 a0 80 be
       -9.948e-42 0.05486817 -0.26122418 -0.25122124
000110 b9 be 67 3c 0c 1e e4 3e 8b 9a cf bd fa f8 de bc
       0.014144593 0.44554174 -0.101368986 -0.02721833
000120 a4 81 16 bd d0 52 eb bd 1d cc 0c 3d 5f e2 84 3c
       -0.03674473 -0.114904046 0.034374345 0.016221223
000130 cf 8e 81 bd a5 1b 00 00 f3 34 fb b9 1e de a5 b7
       -0.06326067 9.917e-42 -0.000479139 -1.9772964e-05
000140 15 1f 76 b6 b8 38 9b a2 3c e5 6d b8 b8 35 e5 27
       -3.6674949e-06 -4.2072887e-18 -5.6718694e-05 6.361851e-15
000150 de a6 62 36 23 f7 73 b3 cc 58 a5 a9 44 47 8b b9
       3.3773754e-06 -5.6802616e-08 -7.342876e-14 -0.00026565243
000160 ce 64 a8 b2 75 12 34 20 5a 1b 00 00 e3 f6 a7 bc
       -1.9603615e-08 1.52527e-19 9.812e-42 -0.020503467
000170 96 03 56 be 15 0d 3e be d6 45 f1 39 85 39 a2 3e
       -0.20899805 -0.18559678 0.00046019134 0.3168451
000180 47 66 8a bd 24 08 8b bd 7b d2 92 3c 98 e4 c5 bd
       -0.06757789 -0.06788662 0.01792263 -0.096627414
000190 d1 90 de 3d a1 e7 13 bc 0d 50 34 bd 19 1c 00 00
       0.10867465 -0.009027393 -0.044021655 1.008e-41
0001a0 35 63 82 3d 93 72 cf 3d f9 aa 3a 3e 87 3d 2f 3c
       0.063665785 0.10129275 0.18229283 0.010695822
0001b0 8c e1 17 be 11 82 63 3d 58 88 f8 3c d2 a1 ee 3c
       -0.14832133 0.055543963 0.030338451 0.029129896
0001c0 a5 48 9c 3d 09 7d e2 3d f1 fb 02 3d a6 ca 0e 3d
       0.07631043 0.11059005 0.03197855 0.03486123
0001d0 73 1b 00 00 b6 24 be bd 1c 0c 06 3d d6 8e 84 3d
       9.847e-42 -0.09284346 0.032726392 0.06472556
0001e0 f6 c0 95 3c 27 cc 8d be 77 a3 a8 ba 1d bf d1 bc
       0.018280488 -0.27694818 -0.0012866099 -0.025603825
0001f0 2f 01 bb 3c e6 d1 59 3c 75 ff 08 3e 2b 00 27 3c
       0.022827713 0.013294673 0.13378699 0.010192911
000200 8c 0a 18 3d aa 1b 00 80 e5 1f 93 bd bd 0d 8d 3b
       0.037119433 -9.924e-42 -0.07183818 0.0043046162
000210 fe 4f f2 3c 1d ab 1f 3d 93 e9 25 be d8 cd 85 3c
       0.029579159 0.038981546 -0.16202383 0.016333506
000220 7f 07 5d 3d 33 d7 4a bb a9 fb f3 3a 5f 41 be 3d
       0.053962227 -0.0030951023 0.0018614429 0.09289812
000230 75 99 12 3a c1 49 8d 3c 95 1e 00 00 05 43 b1 3d
       0.0005592325 0.017247083 1.0971e-41 0.08655361
000240 e3 f1 30 3e 3c 80 fe 3d 4d 18 d3 3c 11 9b 9f 3a
       0.17279772 0.124268025 0.025768423 0.0012176951
000250 9e 1e be 3d 37 a4 11 3e 38 49 1f bc 9d 68 a7 3d
       0.092831835 0.14222799 -0.009722047 0.0817425
000260 c9 8a 2a be 59 0f 0e 3c cd 9a 49 3b 8a 1b 00 80
       -0.16654505 0.008670651 0.0030762434 -9.879e-42
000270 fb cf e2 3d b9 de bf 3e f2 13 b9 3e 24 d3 34 3d
       0.110748254 0.3747461 0.3614803 0.044146672
000280 44 1b a1 be ff 33 0d 3e 60 53 40 bc ba ba 35 3d
       -0.31466115 0.13789366 -0.011738628 0.04436753
000290 13 38 4b 3e 66 89 a9 bd be 05 b6 3d 9d 1f a2 3d
       0.1984561 -0.0827816 0.08887814 0.07916186
0002a0 29 1d 00 00
       1.046e-41

deep.0.bias f4 [13]
000000 ea 1b 00 00 5e 1b 00 80 59 97 ab bb 34 b9 18 3c
       1.0014e-41 -9.817e-42 -0.005236548 0.0093215
000010 0e b7 07 80 88 f0 d7 bc 03 e5 9a a1 be f3 99 bc
       -7.08516e-40 -0.026359811 -1.0496065e-18 -0.018792983
000020 05 af 71 3c fa 74 78 3b 82 7d 8a b7 41 f7 55 3c
       0.014751201 0.003791152 -1.6509326e-05 0.013059438
000030 37 91 39 3d
       0.045304503

deep.2.weight f4 [512, 13]
000000 a0 c0 80 33 80 20 00 80 5f e3 8d 37 c9 fc 50 35
       5.995503e-08 -1.1659e-41 1.6914388e-05 7.785389e-07
000010 fc 58 00 00 fb 9f 88 b7 11 f7 cc b0 95 61 22 b5
       3.1922e-41 -1.628696e-05 -1.4913174e-09 -6.0491703e-07
000020 b4 da 5f b7 7d 5c b9 37 88 a1 88 b4 b8 6a 1b b7
       -1.3342757e-05 2.2096787e-05 -2.5449503e-07 -9.263567e-06
000030 81 7c 64 36 0e 1f 00 00 90 1b 00 00 b6 78 74 ad
       3.4047118e-06 1.114e-41 9.888e-42 -1.3896597e-11
000040 7d ef ba ae f4 1b 00 80 80 5c 58 ad a1 8d f8 14
       -8.5008424e-11 -1.0028e-41 -1.2298718e-11 2.5097463e-26
000050 cc 05 50 ae de 25 44 af ab ff de ae d3 74 23 ae
       -4.7298873e-11 -1.7839549e-10 -1.0140807e-10 -3.716567e-11
000060 a9 de 48 ae f6 9b 7e af 7d 21 00 80 66 1b 00 80
       -4.5672497e-11 -2.3156574e-10 -1.2013e-41 -9.829e-42
000070 25 8e 71 31 32 15 ca b1 4e 20 00 80 63 d1 60 b1
       3.5150916e-09 -5.8813834e-09 -1.1589e-41 -3.2715313e-09
000080 27 c7 a8 87 ec d9 31 b2 0b 5d ff b2 3f d4 3e 31
       -2.5394882e-34 -1.0352306e-08 -2.9728218e-08 2.7769287e-09
000090 ac 72 7d 31 07 21 91 31 8e 26 02 b3 5f 80 00 00
       3.688153e-09 4.22381e-09 -3.030305e-08 4.6051e-41
0000a0 cc 1b 00 80 63 28 ed a9 15 b5 0d ac 09 1c 00 00
       -9.972e-42 -1.053192e-13 -2.0137826e-12 1.0057e-41
0000b0 66 fb 28 ac 04 66 e6 14 9a a8 31 aa be 77 f3 ab
       -2.401379e-12 2.3264303e-26 -1.5779253e-13 -1.7299424e-12
0000c0 7b e4 1a 2b c0 8c 39 a9 d0 74 62 ad 93 fa f7 ac
       5.502887e-13 -4.1200333e-14 -1.287255e-11 -7.0479816e-12
0000d0 c1 21 00 80 bf 1b 00 80 9a 1b 00 80 5f 1b 00 00
       -1.2109e-41 -9.953e-42 -9.902e-42 9.819e-42
0000e0 cf 1b 00 80 01 1c 00 80 8c 1c 00 80 60 1b 00 80
       -9.976e-42 -1.0046e-41 -1.024e-41 -9.82e-42
0000f0 86 1b 00 80 9d 1d 00 80 03 1c 00 80 77 1b 00 00
       -9.874e-42 -1.0623e-41 -1.0049e-41 9.853e-42
000100 49 1c 00 80 a1 1b 00 00 8f 1b 00 80 d7 c5 9e bc
       -1.0147e-41 9.911e-42 -9.886e-42 -0.019381447
000110 37 9a 04 3d 65 e7 b2 1a 8e 44 e5 bd e9 99 8c 34
       0.032373633 7.399291e-23 -0.111947164 2.6189016e-07
000120 6b 11 93 bd 13 d5 8a 3d de 0c 7e 3d 27 8c ed 3c
       -0.071810566 0.06778922 0.06202399 0.028997494
000130 eb b3 a5 3d eb 17 2b 3e 58 1b 00 00 7c 1b 00 00
       0.08090957 0.16708343 9.809e-42 9.86e-42
000140 e8 4b 01 b5 7b 62 fd b3 5a 1b 00 00 47 5f 9b b5
       -4.8166703e-07 -1.1799144e-07 9.812e-42 -1.1576129e-06
000150 e0 48 34 95 f7 ab ba b5 c5 5a 85 b5 82 ae 40 b2
       -3.64082e-26 -1.3908128e-06 -9.93569e-07 -1.1215549e-08
000160 6d 26 9e b3 3c 01 e7 b3 18 0d 78 b5 49 37 06 b6
       -7.364438e-08 -1.0757e-07 -9.2406253e-07 -1.9999736e-06
000170 73 1c 00 00 fa 1b 00 80 98 1b 00 80 e4 22 00 00
       1.0206e-41 -1.0036e-41 -9.899e-42 1.2516e-41
000180 c3 1b 00 00 17 1a 01 80 ba cc 89 0c 75 be b2 a2
       9.959e-42 -1.01195e-40 2.1231408e-31 -4.844865e-18
000190 b8 1b 00 00 eb 1b 00 00 bb 1b 00 00 2c 99 5f 05
       9.944e-42 1.0015e-41 9.948e-42 1.0513543e-35
0001a0 84 05 01 80 28 1e 00 00 e5 1b 00 00 66 1b 00 80
       -9.3814e-41 1.0818e-41 1.0007e-41 -9.829e-42
0001b0 90 20 00 80 b1 1b 00 00 5f 1b 00 00 79 1b 00 80
       -1.1681e-41 9.934e-42 9.819e-42 -9.855e-42
0001c0 e5 39 a6 93 76 1b 00 00 82 1b 00 00 71 1c 00 00
       -4.196138e-27 9.851e-42 9.868e-42 1.0203e-41
0001d0 79 1b 00 80 c1 9d 00 00 1d 20 00 00 55 f6 23 2f
       -9.855e-42 5.6591e-41 1.152e-41 1.4912278e-10
0001e0 4e fa 5a ae 74 1b 00 00 4b 21 5e af 60 1b 00 00
       -4.9789776e-11 9.848e-42 -2.020261e-10 9.82e-42
0001f0 36 02 70 b0 09 24 d8 b0 09 9e 8b ae 0e de db ae
       -8.7314633e-10 -1.572631e-09 -6.349061e-11 -9.998412e-11
000200 69 b4 12 2c 9b d5 cb b0 77 74 d5 a3 5f 1b 00 00
       2.0847996e-12 -1.4830904e-09 -2.3142831e-17 9.819e-42
000210 b3 41 72 2c 55 56 44 2c c7 1f 00 80 e1 51 3e 2d
       3.4426739e-12 2.79012e-12 -1.14e-41 1.081843e-11
000220 6d 35 d4 b6 92 b6 ad 2b 18 8d 49 ad ab a1 0d ac
       -6.324312e-06 1.2343063e-12 -1.1456856e-11 -2.0127049e-12
000230 86 de ba ab 4e 27 bf 2a 7a d9 40 ac a5 1b 00 80
       -1.3277858e-12 3.395569e-13 -2.7405565e-12 -9.917e-42
000240 ad 1b 00 80 7a 3f 40 bc 8f d2 95 3c 9e 52 00 00
       -9.928e-42 -0.011733884 0.018288879 2.9637e-41
000250 40 09 75 bd c4 7a 56 a2 78 a2 3f bd dd b2 c3 3c
       -0.059823275 -2.90674e-18 -0.0467858 0.023889
000260 ea 24 03 3d 1e 46 95 3c 2f 73 18 3d 88 c7 6b 3d
       0.032017626 0.018221911 0.037219223 0.057563335
000270 5b 1b 00 00 92 d7 00 00 b6 4d 54 35 eb 45 90 34
       9.813e-42 7.7332e-41 7.908924e-07 2.6872962e-07
000280 eb 1c 00 80 c4 0c 16 36 86 72 e8 ae b2 9e df 34
       -1.0374e-41 2.2359172e-06 -1.0570482e-10 4.1652453e-07
000290 51 09 2b b6 a3 6d cd b4 4e 62 4c 33 5d af 5f b5
       -2.5486409e-06 -3.8263997e-07 4.758686e-08 -8.332916e-07
0002a0 bd 66 81 35 d3 1c 00 80 72 1b 00 80 a8 64 0c 80
       9.64115e-07 -1.034e-41 -9.846e-42 -1.138135e-39
0002b0 b2 f0 06 80 a8 1b 00 80 d5 db 27 80 cb 1f 00 00
       -6.37358e-40 -9.921e-42 -3.660445e-39 1.1405e-41
0002c0 a7 29 0d 80 ba fb 55 80 50 aa 09 00 0f 66 02 00
       -1.208803e-39 -7.89632e-39 8.87616e-40 2.20283e-40
0002d0 8e b7 0a 00 44 1f 79 80 e6 a6 7f 25 8d 21 00 80
       9.84202e-40 -1.1123311e-38 2.2174272e-16 -1.2036e-41
0002e0 c0 e3 1f b3 6b 0c 27 b2 74 1c 00 80 ba b1 40 b3
       -3.722721e-08 -9.723503e-09 -1.0207e-41 -4.4865125e-08
0002f0 28 e5 83 98 86 a0 c7 b7 5e 5e a3 b8 8f 27 8a b2
       -3.4094095e-24 -2.3797398e-05 -7.790023e-05 -1.6083304e-08
000300 18 26 8a 32 6a d3 f8 b1 82 fa a7 b8 5b 1b 00 00
       1.6082637e-08 -7.241785e-09 -8.009841e-05 9.813e-42
000310 be 1c 00 00 31 4a da 3c ee bd 05 bd 69 1b 00 00
       1.0311e-41 0.026646705 -0.032651834 9.833e-42
000320 45 c5 6c 3d cb c1 1b ad 17 b2 58 3d dc 7e ce 3c
       0.05780532 -8.853761e-12 0.052904215 0.025206976
000330 5f e4 17 3c 04 88 9a bb ea 8e 63 bd 1b e3 85 bc
       0.0092707565 -0.0047159214 -0.055556215 -0.016343644
000340 60 1d 00 00 29 21 00 80 34 22 b4 af 34 fa 9c ad
       1.0538e-41 -1.1896e-41 -3.2766112e-10 -1.784626e-11
000350 82 05 00 00 d2 ae 68 b0 24 f7 47 9a 98 93 3c b0
       1.976e-42 -8.4649543e-10 -4.1351874e-23 -6.8603745e-10
000360 47 9c 40 b0 ed e7 15 b0 30 a7 42 ae fe a5 e5 2e
       -7.0071277e-10 -5.453547e-10 -4.4258985e-11 1.04432005e-10
000370 fc 4d a8 af 5c 1b 00 00 9f 22 00 80 16 34 a9 af
       -3.0614433e-10 9.815e-42 -1.242e-41 -3.077793e-10
000380 3a 94 98 ad 08 21 00 80 8d 4d 1e b0 57 0b 89 8e
       -1.7346225e-11 -1.185e-41 -5.759027e-10 -3.3784027e-30
000390 03 88 f0 af 97 34 23 b0 9e d5 92 af 88 e5 a6 2f
       -4.3752388e-10 -5.937379e-10 -2.670903e-10 3.0358316e-10
0003a0 76 bc 88 b0 17 af 26 b0 3e 1d 00 80 a9 20 00 80
       -9.948866e-10 -6.0639266e-10 -1.049e-41 -1.1716e-41
0003b0 71 00 0d b1 9f b0 dc af d2 52 00 80 89 4d 22 b0
       -2.0518451e-09 -4.0143264e-10 -2.971e-41 -5.904544e-10
0003c0 24 99 3e a9 35 e2 76 af 29 95 03 b1 23 26 86 b1
       -4.2321303e-14 -2.2453935e-10 -1.9147797e-09 -3.904249e-09
0003d0 56 26 56 b0 bf 45 67 2f 92 01 2d 30 60 1b 00 80
       -7.7907225e-10 2.1034106e-10 6.2939265e-10 -9.82e-42
0003e0 a0 20 00 80 c9 8c 2d b3 1f 02 4d b2 f9 1f 00 00
       -1.1704e-41 -4.0407745e-08 -1.1933053e-08 1.147e-41
0003f0 36 ba c1 b3 3f 18 a2 b2 68 01 1e b4 52 8c 19 b4
       -9.0211344e-08 -1.8870308e-08 -1.4715408e-07 -1.4300284e-07

deep.2.bias f4 [512]
000000 27 fc 38 b6 b1 7a be ae 44 ca 01 32 ce f7 64 ac
       -2.7564909e-06 -8.661994e-11 7.554778e-09 -3.2538308e-12
000010 f2 1b 00 80 16 22 a0 3c cc 0d fb b4 cc 1b 00 80
       -1.0025e-41 0.019547503 -4.6762432e-07 -9.972e-42
000020 0c 1c 00 00 64 87 09 30 0d 48 8f ab e8 4a 9e 3b
       1.0061e-41 5.003271e-10 -1.0180759e-12 0.004830707
000030 6c e2 b4 b5 0d 0e 08 00 a3 4a df b2 23 78 08 3a
       -1.3476943e-06 7.39724e-40 -2.5994558e-08 0.000520589
000040 73 6b 39 af 06 19 2d b0 f5 24 bd b0 82 30 2e 33
       -1.6863826e-10 -6.2972594e-10 -1.3762064e-09 4.055665e-08
000050 b2 e8 69 ac 75 7b f9 a8 93 1b 00 80 df cd 60 b5
       -3.3240463e-12 -2.7698094e-14 -9.892e-42 -8.3746085e-07
000060 ac 1b 00 80 c7 94 3d b6 10 8f 5e 39 26 7a ed b5
       -9.927e-42 -2.8249794e-06 0.00021224865 -1.7693426e-06
000070 72 0d 2b ad bd 4f 9b bb ec 1d 00 80 66 c0 99 b3
       -9.72321e-12 -0.00473973 -1.0734e-41 -7.159615e-08
000080 5c 34 5f b0 5d a3 19 3c 8e ee 08 b0 c2 b9 02 30
       -8.1201335e-10 0.009377328 -4.981552e-10 4.75577e-10
000090 b1 22 59 06 f1 5d 40 2c 36 7c 5e b6 93 6b f8 0d
       4.083865e-35 2.733699e-12 -3.3152878e-06 1.5310078e-30
0000a0 ad 93 c1 b1 04 bf 05 b6 38 bc 27 97 e5 2a 44 3c
       -5.633828e-09 -1.992973e-06 -5.4198176e-25 0.0119731175
0000b0 87 1c 00 80 8c ec 38 b3 ce c5 40 34 b7 7c bf 31
       -1.0234e-41 -4.3055977e-08 1.7953354e-07 5.57301e-09
0000c0 57 04 8a 2b 54 bb b4 29 31 d0 56 2d b5 0c 00 80
       9.806694e-13 8.026102e-14 1.2210719e-11 -4.558e-42
0000d0 95 1f 00 00 1d 1f 00 80 a1 ff 9a b0 6f 1d 00 80
       1.133e-41 -1.1161e-41 -1.1277629e-09 -1.0559e-41
0000e0 e5 38 85 ab 03 20 00 80 4d bd 80 8e de 65 b7 b2
       -9.46601e-13 -1.1484e-41 -3.1736726e-30 -2.1350328e-08
0000f0 1c e3 be 28 66 49 1d 3c d7 ea 64 b0 da 94 58 2b
       2.119273e-14 0.009600019 -8.3279644e-10 7.694519e-13
000100 67 53 e0 a8 49 1e 00 80 12 eb c5 3a 12 1f 00 80
       -2.4905166e-14 -1.0864e-41 0.0015099964 -1.1146e-41
000110 a4 a3 11 39 ba 1b 00 00 58 94 ed 31 4c 42 89 2e
       0.00013889238 9.946e-42 6.9144726e-09 6.2418154e-11
000120 b3 1c 00 80 43 1d 00 00 83 b0 fc ab 64 89 21 ba
       -1.0295e-41 1.0497e-41 -1.7954669e-12 -0.00061621354
000130 6f 50 0a 32 e7 1b 00 80 0a 85 3c 3a 4a d8 a7 2c
       8.050946e-09 -1.001e-41 0.0007191455 4.7704384e-12
000140 03 d3 3a 30 45 30 1c 2e 52 21 00 80 fa 1e 1c 0c
       6.796627e-10 3.5513165e-11 -1.1953e-41 1.2027125e-31
000150 cc 1b 00 80 8c f4 2d 2c 98 1d 00 80 02 be a9 bb
       -9.972e-42 2.472053e-12 -1.0616e-41 -0.0051801214
000160 dc 44 1d b2 11 19 c7 ab c9 b3 63 2b 21 95 6f bb
       -9.15426e-09 -1.4146758e-12 8.08961e-13 -0.0036557394
000170 98 f5 fa b5 d6 88 0c ac 4a 71 a1 b0 72 e5 12 b9
       -1.8697929e-06 -1.9971156e-12 -1.174649e-09 -0.0001400912
000180 d3 dd 1b 3a 3f 8e 3c 31 5a 4f 84 30 3f a5 c7 b6
       0.0005945835 2.7438458e-09 9.626817e-10 -5.9498993e-06
000190 e0 1d 00 80 75 ae aa a8 82 b0 34 b3 bf f8 ee 03
       -1.0717e-41 -1.894945e-14 -4.207005e-08 1.4045492e-36
0001a0 1f e8 f2 b0 bd b1 8a b9 0d a7 7e 31 6c 7a fa b0
       -1.767379e-09 -0.00026453836 3.7056822e-09 -1.8224688e-09
0001b0 88 be 23 3c 01 d3 42 33 eb 1b 00 00 e9 7b 41 af
       0.009994157 4.5361052e-08 1.0015e-41 -1.759727e-10
0001c0 ea 1c 00 80 52 05 01 34 22 1b 00 80 99 6b 22 ae
       -1.0372e-41 1.2015997e-07 -9.733e-42 -3.69301e-11
0001d0 70 64 a6 3b ff 1b 00 80 5e 21 00 80 7e c4 01 39
       0.005077891 -1.0043e-41 -1.197e-41 0.00012375598
0001e0 3a db d9 29 b6 51 47 a9 1f 1f 00 80 a9 0c 41 31
       9.6747656e-14 -4.425775e-14 -1.1164e-41 2.8092393e-09
0001f0 e1 1b 00 80 07 ac 9a b7 e5 e5 b4 b8 fe 6b 11 af
       -1.0001e-41 -1.8438337e-05 -8.62589e-05 -1.322604e-10
000200 0b 11 ab bb a1 da a2 33 65 50 39 ab 81 e7 46 36
       -0.0052205375 7.583481e-08 -6.5836773e-13 2.9639052e-06
000210 c5 1c 5d b0 35 73 ba af b1 28 cf 10 ee 19 00 80
       -8.0440216e-10 -3.3915062e-10 8.17098e-29 -9.302e-42
000220 7b 1e 00 80 7e d4 48 2f 68 1e 00 80 9e a7 f9 b9
       -1.0934e-41 1.8265386e-10 -1.0908e-41 -0.00047617865
000230 01 5f 3b 30 eb dd 35 ab a7 68 10 b5 e7 67 2f 28
       6.816521e-10 -6.461209e-13 -5.379647e-07 9.736982e-15
000240 3f 65 61 3c 62 7c 02 b1 85 39 91 1a fc ba 12 b9
       0.013757049 -1.8988193e-09 6.006352e-23 -0.00013993302
000250 5c b7 ba b0 15 7d 78 b7 92 98 a2 b5 1d 15 11 af
       -1.3585395e-09 -1.4811075e-05 -1.2114344e-06 -1.3195174e-10
000260 f8 19 2d b0 94 1c 00 80 01 d8 63 bb c1 1b 00 80
       -6.2973937e-10 -1.0252e-41 -0.00347662 -9.956e-42
000270 99 c0 f9 ae 9b 1b 00 80 0b 07 7c 30 91 b3 b1 34
       -1.1357421e-10 -9.903e-42 9.1687075e-10 3.309947e-07
000280 68 1b 00 80 d7 fc a7 a6 e4 1d 00 80 e7 1d 00 80
       -9.832e-42 -1.1656485e-15 -1.0723e-41 -1.0727e-41
000290 03 1f 00 80 0f 48 3f b3 0e 1f 00 80 6f 14 00 00
       -1.1125e-41 -4.453619e-08 -1.114e-41 7.33e-42
0002a0 a0 60 c9 af a1 1e 00 80 2a 1c 00 80 8c 5a 2f ad
       -3.6630343e-10 -1.0988e-41 -1.0103e-41 -9.967704e-12
0002b0 54 21 00 80 ce bc 60 92 c7 a8 a7 0e dd 3c bb 33
       -1.1956e-41 -7.0914657e-28 4.1331205e-30 8.718937e-08
0002c0 84 1b 00 00 f5 a2 ef b3 3a 04 74 b4 6a 21 00 00
       9.871e-42 -1.11589465e-07 -2.2725808e-07 1.1987e-41
0002d0 30 d0 65 b3 4e c1 07 ae 50 79 0c 3b 11 4e 5a ad
       -5.3507563e-08 -3.0867135e-11 0.0021434613 -1.24091995e-11
0002e0 e5 1b 00 00 03 b1 8c b0 89 26 d7 b8 90 1b 00 00
       1.0007e-41 -1.023665e-09 -0.000102591766 9.888e-42
0002f0 0b 69 e0 b7 6f f8 6d 34 56 6f 4c 2e 85 62 89 3c
       -2.6751795e-05 2.2162725e-07 4.6483116e-11 0.01677061
000300 0e 45 a6 ad f8 57 f0 af ff 4c c3 b9 f9 1e d9 0d
       -1.8902682e-11 -4.371825e-10 -0.00037250665 1.3381114e-30
000310 6a 81 4a 30 fd 47 3e ba d2 20 7b bb d0 94 29 ae
       7.367108e-10 -0.0007258652 -0.0038319123 -3.8558323e-11
000320 44 c2 f2 30 06 4e cc b0 80 87 b5 2c 68 1c 00 80
       1.7663031e-09 -1.4865129e-09 5.159373e-12 -1.019e-41
000330 0b c1 00 00 9f 1b 00 80 ae ed 6e 2e ce 1b 00 80
       6.9251e-41 -9.909e-42 5.4326037e-11 -9.974e-42
000340 ac 05 2d bb aa 1b 00 80 91 f8 40 b0 fb 8d 46 ae
       -0.0026401086 -9.924e-42 -7.0202427e-10 -4.514609e-11
000350 de df 1c 30 50 1c 00 80 b2 18 45 27 e4 92 92 28
       5.7070604e-10 -1.0157e-41 2.735263e-15 1.627296e-14
000360 99 c6 1d ae ed 21 92 b5 a5 1c 00 00 5e 4f b8 38
       -3.5874057e-11 -1.0887721e-06 1.0276e-41 8.788587e-05
000370 7e 85 66 b2 7a 97 51 31 9b 1e 00 00 ff 25 af bb
       -1.3418115e-08 3.0499607e-09 1.0979e-41 -0.0053451057
000380 f1 df 1d 2c fb 87 4d ac 3a ea 96 b1 49 a3 a7 ba
       2.2435354e-12 -2.9207736e-12 -4.392203e-09 -0.0012789752
000390 42 a6 9f 8e f7 1b 00 80 65 75 ee b6 97 f0 72 b0
       -3.9356627e-30 -1.0032e-41 -7.1066193e-06 -8.8380986e-10
0003a0 40 bc 05 35 9e f8 10 00 47 1b 20 2f cd b8 55 b1
       4.98203e-07 1.558555e-39 1.4561606e-10 -3.1100627e-09
0003b0 51 2d d4 37 4d a4 69 2e 56 dc 19 b5 60 ad 24 b3
       2.5293471e-05 5.3123995e-11 -5.731757e-07 -3.834191e-08
0003c0 99 8b 66 bb 9f 52 a7 b4 78 c0 82 32 08 1d 00 80
       -0.0035178422 -3.116629e-07 1.5221516e-08 -1.0414e-41
0003d0 00 d5 26 b3 f4 52 f5 b0 2b b5 9b 8e 44 20 00 80
       -3.884361e-08 -1.7849673e-09 -3.838491e-30 -1.1575e-41
0003e0 0f 3a f4 31 a4 36 b8 b1 8f 77 a4 2c 3a 08 00 80
       7.107935e-09 -5.3613167e-09 4.674434e-12 -2.951e-42
0003f0 1a 63 04 bb 0f e6 a7 af 3f 24 99 33 17 f6 fc 3b
       -0.002020067 -3.054059e-10 7.131211e-08 0.007719766

deep.4.weight f4 [64, 512]
000000 8d c4 c0 85 53 f3 0b 00 88 98 43 80 2d 1f 00 00
       -1.8127795e-35 1.097479e-39 -6.207696e-39 1.1184e-41
000010 e3 1b 00 80 dc 15 91 8a d5 dd 68 00 b3 1c 00 80
       -1.0004e-41 -1.3971215e-32 9.63047e-39 -1.0295e-41
000020 5b 21 00 00 12 22 00 00 32 64 09 80 1e 97 fc 09
       1.1966e-41 1.2222e-41 -8.62463e-40 6.0808903e-33
000030 9c 58 92 82 11 1c 00 00 df eb 96 04 e4 71 70 0b
       -2.1503631e-37 1.0068e-41 3.5481444e-36 4.6308e-32
000040 66 dc 00 80 b2 86 02 80 ff 8b 02 00 14 05 39 00
       -7.9064e-41 -2.3199e-40 2.33892e-40 5.236445e-39
000050 21 1d 00 80 02 23 00 80 9e 1b 00 00 ff 4b 6e 85
       -1.045e-41 -1.2558e-41 9.907e-42 -1.12046645e-35
000060 76 1b 00 80 30 48 1d 06 b9 c1 81 04 ad 62 ab 01
       -9.851e-42 2.9581453e-35 3.050566e-36 6.295707e-38
000070 5c 57 00 80 4e 14 93 89 b4 1b 00 00 e8 cb 2e 87
       -3.1339e-41 -3.5408057e-33 9.938e-42 -1.3150228e-34
000080 d9 d6 00 80 67 f9 69 0a 5e e6 03 80 da 36 00 00
       -7.7073e-41 1.1265449e-32 -3.58147e-40 1.9677e-41
000090 45 20 00 00 6f 20 00 80 9f e8 90 04 4b 1c 00 80
       1.1576e-41 -1.1635e-41 3.4067866e-36 -1.015e-41
0000a0 ec 0a 00 80 05 35 86 01 e0 44 00 80 ad cd 33 0a
       -3.918e-42 4.9299905e-38 -2.4708e-41 8.65722e-33
0000b0 3b 1c 00 00 28 f0 fe 81 f6 dc a0 83 35 f2 01 00
       1.0127e-41 -9.364947e-38 -9.454685e-37 1.78723e-40
0000c0 2d 88 00 80 85 2e 00 80 96 e5 05 00 b7 1b 00 00
       -4.885e-41 -1.6688e-41 5.41537e-40 9.942e-42
0000d0 2d 1c 00 00 cd 1b 00 00 bd e3 1b 00 71 1b 00 00
       1.0108e-41 9.973e-42 2.561255e-39 9.844e-42
0000e0 35 1e 00 00 90 1b 00 00 59 1b 00 00 75 ae 1d 00
       1.0836e-41 9.888e-42 9.81e-42 2.725813e-39
0000f0 c0 20 00 00 84 53 3d 8a 05 bd 02 00 93 03 00 00
       1.1748e-41 -9.1157265e-33 2.51478e-40 1.282e-42
000100 ae 21 00 80 75 1c 00 00 8f ce 9e 07 52 1d 00 80
       -1.2082e-41 1.0208e-41 2.3894602e-34 -1.0518e-41
000110 7e 2a 73 05 1f 1c 00 80 39 22 00 80 a8 b1 00 00
       1.143361e-35 -1.0088e-41 -1.2277e-41 6.3731e-41
000120 40 1c 00 80 9f 1f 00 80 c8 1f 00 00 c2 ea d2 84
       -1.0134e-41 -1.1344e-41 1.1401e-41 -4.9586354e-36
000130 6c 02 a8 03 a8 1b 00 80 04 8a 54 06 7b 4f 00 00
       9.874709e-37 -9.921e-42 3.9974166e-35 2.8512e-41
000140 6f 0a 00 00 8f bb 00 00 d9 1b 00 80 16 1f 00 00
       3.743e-42 6.7283e-41 -9.99e-42 1.1152e-41
000150 76 1c 00 00 6d 91 00 80 ad 1b 00 00 f3 5e d3 89
       1.021e-41 -5.2169e-41 9.928e-42 -5.0885692e-33
000160 a8 c6 0b 00 22 00 00 00 f1 1f 00 00 fa 3a b1 8b
       1.081455e-39 4.8e-44 1.1458e-41 -6.826666e-32
000170 31 0a 9c 01 e3 40 00 80 1d 8c 01 00 90 bc f8 87
       5.7319974e-38 -2.3277e-41 1.42099e-40 -3.742572e-34
000180 98 d4 3d 0a 50 3f 00 00 d1 26 00 80 0f 84 21 06
       9.1400034e-33 2.2712e-41 -1.3925e-41 3.0377756e-35
000190 34 1c 00 80 77 1b 00 80 4f 7d ba 02 7d 1c 00 80
       -1.0117e-41 -9.853e-42 2.7402167e-37 -1.022e-41
0001a0 a3 2c 01 80 6a 5d 84 07 a1 a7 22 00 fb 6e 05 80
       -1.07848e-40 1.9916056e-34 3.182541e-39 -4.9899e-40
0001b0 8a 41 02 0a a5 7f 1e 84 64 1b 00 80 da 1c 17 04
       6.271599e-33 -1.8631422e-36 -9.826e-42 1.7763213e-36
0001c0 a9 1b 00 80 56 61 8c 81 e2 1b 00 00 d5 3c 00 80
       -9.923e-42 -5.156755e-38 1.0002e-41 -2.1822e-41
0001d0 6c f9 ed 09 1d 1d 00 00 3b 1c 00 80 e5 2e 4c 07
       5.729023e-33 1.0444e-41 -1.0127e-41 1.5361035e-34
0001e0 e2 1e 00 00 43 1c 00 00 6e 1c 00 80 b9 ad 15 00
       1.1079e-41 1.0138e-41 -1.0199e-41 1.990865e-39
0001f0 92 1b 00 00 fb 37 76 83 e8 74 7a 87 1e 10 00 00
       9.89e-42 -7.2357165e-37 -1.8842265e-34 5.782e-42
000200 df 90 53 8a 65 5a e9 01 f9 20 00 80 67 b7 70 86
       -1.0186528e-32 8.572039e-38 -1.1828e-41 -4.5273726e-35
000210 fa 8e 00 00 04 45 0f 00 de 7d 00 00 90 1b 00 80
       5.129e-41 1.40229e-39 4.5153e-41 -9.888e-42
000220 23 15 00 80 10 18 00 00 b1 1b 00 80 ba fa 40 06
       -7.582e-42 8.632e-42 -9.934e-42 3.629539e-35
000230 15 2f 00 00 4a 0a 00 80 70 13 af 00 a7 1f 00 80
       1.689e-41 -3.691e-42 1.6078185e-38 -1.1355e-41
000240 76 bb 52 8a a8 90 56 80 af 1c 00 00 ca 96 9d 06
       -1.014639e-32 -7.949746e-39 1.029e-41 5.92784e-35
000250 b8 25 12 00 35 f2 06 09 ac be 00 84 29 29 06 00
       1.66657e-39 1.6243548e-33 -1.513388e-36 5.65778e-40
000260 62 66 01 00 75 1b 00 80 37 04 c6 89 d1 1b 00 80
       1.28564e-40 -9.85e-42 -4.767073e-33 -9.979e-42
000270 0c 20 00 00 03 1c 00 80 d0 7a 00 00 27 23 13 03
       1.1496e-41 -1.0049e-41 4.4057e-41 4.323977e-37
000280 68 1d 00 80 de 47 00 00 7d 14 00 00 c2 1b 00 80
       -1.0549e-41 2.5781e-41 7.35e-42 -9.958e-42
000290 bf 1b 00 00 3b 37 3f 88 a1 1c 00 80 6d 1b 00 00
       9.953e-42 -5.7541895e-34 -1.027e-41 9.839e-42
0002a0 26 74 89 02 c9 1b 00 80 b2 1b 00 00 82 2b 00 00
       2.0197007e-37 -9.967e-42 9.935e-42 1.5608e-41
0002b0 92 1b 00 80 7f 1d 00 80 5f 1b 00 80 ab e7 0f 80
       -9.89e-42 -1.0581e-41 -9.819e-42 -1.460639e-39
0002c0 d2 1e 00 00 55 5d cf 00 34 73 52 82 ac 0b 00 80
       1.1056e-41 1.9043429e-38 -1.5461425e-37 -4.187e-42
0002d0 f7 c4 d0 80 a3 03 00 00 f6 11 9b 09 8d 00 00 00
       -1.9172441e-38 1.305e-42 3.7331783e-33 1.98e-43
0002e0 6b 1b 00 00 21 52 35 82 5a a5 92 03 06 1c 00 80
       9.836e-42 -1.332135e-37 8.619072e-37 -1.0053e-41
0002f0 38 07 45 03 4f 84 84 03 1d 75 40 84 46 c4 91 8a
       5.7901383e-37 7.788639e-37 -2.2623267e-36 -1.4036822e-32
000300 0d ec 00 80 f2 4e 00 00 94 b3 27 05 00 1c 00 00
       -8.4679e-41 2.832e-41 7.8852856e-36 1.0045e-41
000310 11 3d 04 00 fc e3 92 06 06 c0 7d 8a 8c 1c 00 80
       3.89248e-40 5.525409e-35 -1.22176225e-32 -1.024e-41
000320 9b 8f 32 09 e9 42 da 80 af ba 2d 82 ae 1b 00 80
       2.1493494e-33 -2.0044141e-38 -1.2763608e-37 -9.93e-42
000330 64 22 00 00 f1 1b 00 80 1b 1f 00 00 06 1c 00 00
       1.2337e-41 -1.0023e-41 1.1159e-41 1.0053e-41
000340 37 9d da 86 9c 1b 00 80 97 55 1b 00 ab 21 00 80
       -8.223349e-35 -9.904e-42 2.510262e-39 -1.2078e-41
000350 71 c0 07 00 b2 1b 00 00 f6 01 00 00 a4 10 00 80
       7.11883e-40 9.935e-42 7.03e-43 -5.97e-42
000360 68 53 00 80 1b 49 bd 06 c4 1b 00 80 10 48 0c 09
       -2.992e-41 7.120132e-35 -9.96e-42 1.688577e-33
000370 9f 82 14 80 6d 09 00 80 0b 1d 00 80 78 fe 57 8b
       -1.883568e-39 -3.381e-42 -1.0419e-41 -4.1598935e-32
000380 ba 2d 00 80 36 1e 00 00 43 38 0a 00 fa 41 9b 87
       -1.6404e-41 1.0838e-41 9.38538e-40 -2.3360585e-34
000390 77 2d 00 00 57 1d 00 80 26 56 88 81 9a 00 01 80
       1.631e-41 -1.0525e-41 -5.0082127e-38 -9.2051e-41
0003a0 3f 4c 92 80 d7 1b 00 00 40 18 00 80 f9 db 01 00
       -1.3435334e-38 9.987e-42 -8.699e-42 1.70747e-40
0003b0 28 ee a4 04 68 1c 00 80 15 89 66 05 d6 bd fe 00
       3.8774927e-36 -1.019e-41 1.0839726e-35 2.3394316e-38
0003c0 54 a7 a2 8a 24 2f 52 06 11 11 f2 84 4f 1c 00 80
       -1.5662974e-32 3.9531244e-35 -5.69096e-36 -1.0155e-41
0003d0 01 12 01 08 0c ca 20 85 b4 83 00 00 90 1b 00 80
       3.884069e-34 -7.560274e-36 4.7246e-41 -9.888e-42
0003e0 11 fe cc 84 cd 4d 20 80 d4 13 4c 00 cd 1b 00 80
       -4.8193493e-36 -2.966646e-39 6.98661e-39 -9.973e-42
0003f0 1c 19 c2 85 4f 4b 00 80 a6 20 6c 00 9a b8 4c 0a
       -1.8252896e-35 -2.7016e-41 9.929946e-39 9.8569624e-33

deep.4.bias f4 [64]
000000 ec c4 79 8a 45 e9 cc b6 ba 8e e6 b6 9f 0e 69 b8
       -1.2025951e-32 -6.10683e-06 -6.8711497e-06 -5.5565146e-05
000010 99 4d 7d b3 5f b2 11 3d b3 fa fa b6 fb 08 00 80
       -5.8976728e-08 0.0355705 -7.479766e-06 -3.222e-42
000020 40 45 01 b6 57 f5 cf 39 39 b2 02 80 a9 b3 bf 34
       -1.9262807e-06 0.0003966491 -2.47605e-40 3.5707242e-07
000030 fb 4c 04 3d 06 35 31 b5 12 a4 a0 32 a4 47 6a b7
       0.032299977 -6.60148e-07 1.8701062e-08 -1.3964167e-05
000040 56 51 bd a3 c8 ce 61 b6 7f f6 fb b7 6e 90 06 00
       -2.0525868e-17 -3.3647975e-06 -3.0036315e-05 6.02825e-40
000050 ec 35 7f 8a f0 1a a5 b7 97 9a fa 38 4b 51 b5 b8
       -1.2287945e-32 -1.9682077e-05 0.000119497236 -8.6458946e-05
000060 4a a0 1f 3d 53 d5 a5 3a 00 ea fb b3 65 48 c8 35
       0.038971223 0.0012652077 -1.1730663e-07 1.4922231e-06
000070 45 70 31 ba 7c af 01 80 a6 17 de 3b 9f 16 12 82
       -0.00067687436 -1.54787e-40 0.0067777215 -1.0732878e-37
000080 88 bb 7f b6 e2 e9 10 3d 87 74 0b 3c b3 28 b3 b4
       -3.8107119e-06 0.035379298 0.008511669 -3.337096e-07
000090 af d9 1a b6 5e 91 e9 34 0c 54 ae b6 45 00 85 ba
       -2.3074497e-06 4.35054e-07 -5.1953884e-06 -0.0010147175
0000a0 fd a8 bf 81 6b 9c c2 37 af 81 02 b9 73 81 b4 00
       -7.0404805e-38 2.319944e-05 -0.00012446077 1.6576827e-38
0000b0 1b 32 58 b6 90 d5 91 b6 6a ea 0f 89 09 b6 1e b2
       -3.2215673e-06 -4.3461987e-06 -1.732322e-33 -9.2382e-09
0000c0 5e 24 77 b9 13 a3 1b b7 ff 9b 00 b5 08 21 95 b0
       -0.00023569303 -9.276689e-06 -4.791072e-07 -1.0850565e-09
0000d0 8b 2b d9 b5 68 24 bb b5 7c cf 43 b7 8b 1e 7f b5
       -1.6180433e-06 -1.3943181e-06 -1.1671214e-05 -9.503935e-07
0000e0 28 2d ef b4 bc 35 81 b9 98 71 cf b5 f6 38 23 b5
       -4.4550075e-07 -0.00024644833 -1.5455762e-06 -6.080512e-07
0000f0 7c 21 8a b5 7c 14 ce b9 1f 83 55 36 48 aa 67 80
       -1.0291546e-06 -0.00039306644 3.1815796e-06 -9.520142e-39

deep.6.weight f4 [32, 64]
000000 52 29 09 00 32 7b b2 2d 4b f4 55 b5 30 7a 1d b0
       8.41342e-40 2.0290967e-11 -7.9704176e-07 -5.7289906e-10
000010 e9 a2 90 a8 d4 a3 19 b0 d1 e7 27 38 f5 17 00 00
       -1.6057863e-14 -5.589389e-10 4.00318e-05 8.594e-42
000020 dd c8 55 2f 73 58 1f af 57 07 00 80 92 2f 5f ae
       1.9443598e-10 -1.4492389e-10 -2.633e-42 -5.074658e-11
000030 ec 55 9e af b6 a4 15 af b8 a5 8d 2a 58 fe 16 2f
       -2.8801084e-10 -1.3609988e-10 2.5161622e-13 1.3732782e-10
000040 62 9b 8d 93 93 d3 86 2c 47 e8 48 2d 5c 1b 00 00
       -3.5746623e-27 3.8319985e-12 1.142026e-11 9.815e-42
000050 3e 90 07 00 cc fe cb 2a 15 27 6b b6 ab 08 4e 2e
       6.94593e-40 3.6236845e-13 -3.5040478e-06 4.6846676e-11
000060 79 dd 6d b0 f4 48 e8 33 91 9c 4a af dc 32 9b 30
       -8.653483e-10 1.0816612e-07 -1.8427417e-10 1.1292189e-09
000070 fe 2f 36 af da 42 00 80 49 56 8a 30 7c f3 01 80
       -1.6569854e-10 -2.3982e-41 1.0065345e-09 -1.79181e-40
000080 ee fa b0 b2 5e 5a 15 b0 95 b6 86 30 c7 a4 f0 aa
       -2.0603206e-08 -5.4334304e-10 9.801676e-10 -4.2746901e-13
000090 5e df 0d 33 58 8a 26 2d b5 9f 0e b1 08 9b 15 af
       3.3032272e-08 9.466726e-12 -2.0754503e-09 -1.3606549e-10
0000a0 e9 1d 00 00 a1 96 85 b4 3c 7c 63 b5 5a 1b 00 80
       1.073e-41 -2.4882777e-07 -8.4744875e-07 -9.812e-42
0000b0 e9 ff ca 34 2e af 76 2a 12 ce 27 00 38 6b fc 25
       3.781163e-07 2.1909967e-13 3.655508e-39 4.3787686e-16
0000c0 64 79 41 35 ff 8f e5 ac c7 45 b7 aa 68 34 55 b7
       7.207475e-07 -6.5245582e-12 -3.2555748e-13 -1.2707991e-05
0000d0 83 4b 3a ae 90 7b 3b ab da 8c 7f 33 b9 59 17 b0
       -4.235857e-11 -6.6607223e-13 5.9499918e-08 -5.5060984e-10
0000e0 9b 09 60 2f b0 57 a3 30 7b 5d 39 b7 14 bb 07 ad
       2.0376094e-10 1.1884733e-09 -1.1048624e-05 -7.715401e-12
0000f0 0d 17 59 2b 27 22 f1 2d c2 e1 c5 2e 58 1b 00 80
       7.7125876e-13 2.7413695e-11 8.9986255e-11 -9.809e-42
000100 52 e0 85 0a 5c c0 64 b6 a8 90 99 b6 bf 03 1f 38
       1.2891814e-32 -3.4086615e-06 -4.5765955e-06 3.7912043e-05
000110 5e 60 50 b4 38 33 1f 3e cb 75 03 36 6d 0f 00 80
       -1.9406568e-07 0.15546882 1.9589086e-06 -5.534e-42
000120 d7 cb cb b5 54 58 02 3c 21 b2 00 00 8d b7 60 34
       -1.5184004e-06 0.007955629 6.39e-41 2.0928401e-07
000130 ad 90 13 3e d1 c9 f4 3a 76 b9 99 33 ed 7d 0e 39
       0.14410658 0.0018675869 7.158353e-08 0.00013589086
000140 84 cb c3 a0 bf 6e 27 b7 67 0f 58 37 fd ed 28 00
       -3.316896e-19 -9.979761e-06 1.2878189e-05 3.758794e-39
000150 14 5d 2b 0a f0 4c ae b7 c6 30 66 b7 25 cd 91 b9
       8.2508566e-33 -2.0778243e-05 -1.3720424e-05 -0.000278094
000160 24 fb 2d 3e ad ee 55 3a 36 e9 8d b2 95 d4 bc 36
       0.16990334 0.00081608706 -1.6520612e-08 5.6275844e-06
000170 e1 38 e8 b9 46 27 14 00 d6 ca 28 3d 86 2e d5 02
       -0.00044292866 1.850799e-39 0.041209064 3.132424e-37
000180 e9 c6 01 b6 53 7e 1e 3e 65 8a 48 3d 55 25 37 36
       -1.933828e-06 0.15477876 0.04896011 2.7290855e-06
000190 a5 23 e5 b4 76 19 aa 34 57 7f bd 36 76 5c 77 39
       -4.268051e-07 3.1683493e-07 5.6474632e-06 0.000235902
0001a0 ff 1b 47 02 cb 45 26 38 27 2b 82 b9 43 f7 e8 00
       1.4628245e-37 3.9642484e-05 -0.00024827683 2.1394536e-38
0001b0 af 82 0a b7 81 da 1b b6 08 b8 a5 88 0b 1b a4 b2
       -8.255868e-06 -2.3223986e-06 -9.973842e-34 -1.910441e-08
0001c0 e1 93 06 39 21 db 0c 38 1b af bd b4 0f 67 a0 2f
       0.00012834325 3.358268e-05 -3.53314e-07 2.9177058e-10
0001d0 03 c9 0a 35 4d 71 02 b6 ae f1 f2 b6 f5 a2 d8 b4
       5.1701517e-07 -1.943746e-06 -7.2402972e-06 -4.0351702e-07
0001e0 bc 5d 77 b4 9d 49 5f b9 5f 8e 9b 36 44 02 75 b5
       -2.3037768e-07 -0.0002129436 4.635934e-06 -9.127291e-07
0001f0 77 42 c5 34 a9 3a fd b7 3c 46 83 b6 16 8c 3f 00
       3.674247e-07 -3.0187266e-05 -3.9122806e-06 5.83589e-39
000200 e1 ad 38 80 55 54 8c 24 c3 e3 83 28 01 01 13 a9
       -5.205164e-39 6.0858186e-17 1.4642698e-14 -3.2641428e-14
000210 12 af e4 22 bd 69 bc af f1 b3 1d a8 1c 21 00 80
       6.1984887e-18 -3.4272132e-10 -8.754269e-15 -1.1877e-41
000220 99 d2 6f a5 63 a6 65 2c 5c 1c 00 00 e1 9f 73 a9
       -2.0801299e-16 3.263522e-12 1.0173e-41 -5.4095512e-14
000230 c7 71 94 af fa 09 56 ac c5 cf 86 21 a2 0b 90 1d
       -2.7001887e-10 -3.0416767e-12 9.135189e-19 3.812851e-21
000240 17 f4 86 94 cc d4 1b 9a 64 ea 27 a6 5c 1c 00 80
       -1.3626819e-26 -3.2225145e-23 -5.825742e-16 -1.0173e-41
000250 06 0b 00 80 0e fb b9 29 bd 66 72 af 19 0f b9 aa
       -3.954e-42 8.2592014e-14 -2.2046272e-10 -3.2873078e-13
000260 df 29 04 b0 46 25 49 2b ae b0 7a 28 69 87 33 25
       -4.808082e-10 7.146127e-13 1.3916099e-14 1.5571654e-16
000270 8c 3a a8 b2 dd 1c 00 80 84 4a 5e 2e d9 21 00 80
       -1.9584398e-08 -1.0354e-41 5.054314e-11 -1.2142e-41
000280 72 e1 13 a7 52 81 b9 af 28 ce 65 2e 7b ab 63 23
       -2.0522562e-15 -3.3743192e-10 5.2251675e-11 1.2342007e-17
000290 be ec 89 26 bb 57 42 a8 68 8a 95 27 9d 96 f9 ac
       9.570454e-16 -1.0788187e-14 4.150587e-15 -7.093727e-12
0002a0 31 1e 00 80 4a c3 b1 a7 50 4f 06 a8 39 1c 00 80
       -1.083e-41 -4.93391e-15 -7.455692e-15 -1.0124e-41
0002b0 03 8d 1c a7 77 0e 0e a9 c6 4a 00 00 0e 89 3b 27
       -2.1725792e-15 -3.154288e-14 2.6824e-41 2.602576e-15
0002c0 0d 9f 92 26 77 58 06 2a 4b 05 d1 98 0a f7 2c a3
       1.0173896e-15 1.1932283e-13 -5.403058e-24 -9.376451e-18
0002d0 d9 83 11 24 f4 55 cd a7 54 7d 52 a0 6d 66 d9 22
       3.1553542e-17 -5.699212e-15 -1.782916e-19 5.8926415e-18
0002e0 12 c9 3e a7 d4 53 e1 a8 c6 3f 6c 28 97 22 8b 26
       -2.6476797e-15 -2.5016373e-14 1.311446e-14 9.654438e-16
0002f0 3d f5 26 2d de 21 9f 2a d7 89 c6 a5 8c 20 00 80
       9.490461e-12 2.8267574e-13 -3.444093e-16 -1.1676e-41
000300 94 d0 f2 07 ef 68 83 36 14 bc 05 b6 3d 82 26 35
       3.6534704e-34 3.91632e-06 -1.992802e-06 6.202934e-07
000310 23 d5 23 b3 7f bb 64 3a c9 a4 0d 34 de 19 00 00
       -3.814524e-08 0.0008725449 1.3191597e-07 9.28e-42
000320 65 d2 38 b7 78 19 0a b9 fe 37 00 00 47 e5 2a 33
       -1.1016241e-05 -0.00013170193 2.0086e-41 3.9789736e-08
000330 67 16 57 3a ba a0 03 b9 27 99 03 b2 18 f6 96 37
       0.00082049373 -0.00012553009 -7.660026e-09 1.799599e-05
000340 c0 f1 31 95 5a 30 f4 36 13 d3 90 b3 c4 b4 04 80
       -3.5935572e-26 7.2773955e-06 -6.743917e-08 -4.32188e-40
000350 55 f1 2d 08 73 79 97 b4 78 e7 aa 36 6f d8 b8 b6
       5.234398e-34 -2.8214308e-07 5.0933413e-06 -5.5088235e-06
000360 ca 9f 6b 3a 22 91 f2 b9 31 88 01 b0 b8 56 18 b4
       0.0008988349 -0.0004626597 -4.7123466e-10 -1.4187651e-07
000370 49 ef b1 b7 65 1a 01 00 31 50 20 39 21 85 14 81
       -2.121147e-05 1.01304e-40 0.00015288663 -2.7278822e-38
000380 9c 05 50 b3 95 20 64 3a d5 ef 26 39 78 60 fe b6
       -4.8433876e-08 0.0008702365 0.00015920338 -7.5810203e-06
000390 94 92 a4 b3 7f de 5f b3 04 f7 1c b5 cc 88 1a 37
       -7.6635075e-08 -5.2123593e-08 -5.8473984e-07 9.210966e-06
0003a0 cf e6 06 80 bc 1b dd 35 69 cf 9c 36 ee 26 23 80
       -6.33811e-40 1.6473855e-06 4.673308e-06 -3.228208e-39
0003b0 b9 1b 95 33 98 76 36 b4 66 07 94 86 e9 7d 98 b1
       6.943396e-08 -1.6993215e-07 -5.5682283e-35 -4.4380966e-09
0003c0 c2 57 62 36 d2 b3 9b b6 74 4d 99 b5 30 57 83 2c
       3.3727706e-06 -4.640294e-06 -1.142193e-06 3.7329237e-12
0003d0 24 5e 82 b5 87 77 ad b4 ae ae 72 37 6c 66 64 b2
       -9.713153e-07 -3.231073e-07 1.4464995e-05 -1.3294635e-08
0003e0 3d 0f 8b 36 48 2f bf b8 8a 19 68 34 d1 1b 96 34
       4.144297e-06 -9.1163965e-05 2.1615975e-07 2.7959916e-07
0003f0 2f 77 f4 b3 17 2d 0b 37 90 8a 8e 34 38 07 01 00
       -1.1383815e-07 8.295544e-06 2.655038e-07 9.4425e-41

deep.6.bias f4 [32]
000000 91 f7 9e ae a9 e3 ac 3c a8 be 56 2d 7d 8c 7c 39
       -7.228985e-11 0.02110465 1.2206826e-11 0.00024084929
000010 99 85 6c 3c 92 7d 40 37 4f a8 aa 3c 6c 1f 05 af
       0.014436149 1.1473328e-05 0.020832209 -1.2107443e-10
000020 a8 b0 bb b9 2a d5 a1 ab a0 17 97 32 04 02 f5 30
       -0.0003579904 -1.1498903e-12 1.7589457e-08 1.7826669e-09
000030 1b 95 9a 3c 51 16 77 3c 05 0e 9d 3c 92 e0 c4 34
       0.018869927 0.015081004 0.019171724 3.667124e-07
000040 77 ab 42 3c c6 6c 00 30 d2 75 7d 3c 87 c3 cd b2
       0.011881701 4.6720705e-10 0.015469985 -2.3954057e-08
000050 fd 4f 64 3c 68 84 5f af 10 a4 18 3d c2 4b 0b 3d
       0.013935086 -2.0328772e-10 0.037265837 0.034007795
000060 3f db 77 30 0f c7 2d 3c 8d 7d 0d 26 26 a3 db 3b
       9.0169644e-10 0.010606541 4.9089355e-16 0.0067027984
000070 3c b9 da 32 99 fd 83 30 cb b5 16 b2 83 03 b1 2f
       2.5462775e-08 9.603581e-10 -8.772484e-09 3.2198608e-10

output.weight f4 [1, 33]
000000 cb 15 b0 35 ae 28 15 b1 23 8c 9f be fe 16 56 b2
       1.3119364e-06 -2.1705477e-09 -0.31161603 -1.2461667e-08
000010 bb 42 b8 ba ac 6f 69 be a1 c3 61 37 8f d2 9d be
       -0.0014057973 -0.22796506 1.34565935e-05 -0.30824706
000020 d1 bf ff ad cf 5a a1 b9 c3 d7 cc ad eb 16 8b 32
       -2.9075327e-11 -0.0003077597 -2.3287932e-11 1.6192152e-08
000030 b0 18 b2 30 19 56 91 be cc d7 71 be 3e 43 93 be
       1.2958221e-09 -0.28386 -0.23617476 -0.2876224
000040 0c 9f 67 34 42 d1 47 be 4b 8e 21 2f 0e e6 76 be
       2.1571412e-07 -0.1951342 1.4693417e-10 -0.24111196
000050 2b a7 97 32 8d e2 62 be de 33 15 30 30 d5 01 bf
       1.7654733e-08 -0.22156735 5.427959e-10 -0.50715923
000060 66 c8 ef be 06 ac 51 30 04 d2 36 be a7 33 ac 27
       -0.4683258 7.6278217e-10 -0.17853552 4.779559e-15
000070 7c b5 01 be bc 22 9d b4 3d 44 62 b1 d7 ef 78 b3
       -0.12666887 -2.9268801e-07 -3.2926117e-09 -5.7960133e-08
000080 d4 8d 51 af
       -1.9058827e-10
