Results/DFM/20250107_184715_batch1024_epoch10_lr0.01_reg0.0001_DFM/treatment_deepfm.pth (torch, 176124 bytes, 9 tensors)

linear.weight f4 [1, 13]
0	0x3f4df598	0.8045287
1	0x3f0afae1	0.5428906
2	0x3efab632	0.4896713
3	0x3ea99b9f	0.33126542
4	0x3f0c0d46	0.54707754
5	0x3eb09c40	0.3449421
6	0xbe99ad27	-0.30014917
7	0x3ec6d3c0	0.38833427
8	0x3eafc687	0.34331152
9	0x3f427547	0.759602
10	0x3ec78287	0.38966772
11	0xbd286f74	-0.041121915
12	0x2b5086eb	7.408368e-13

embeddings.weight f4 [13, 64]
0	0xbe99262b	-0.29911932
1	0x3e9189cc	0.28425443
2	0x3e9009ec	0.2813257
3	0x3e67d7ad	0.22640868
4	0xbe74a5fb	-0.23891442
5	0xbe96b0f3	-0.29431877
6	0xbea4eda1	-0.32212546
7	0x3e4cd50c	0.20003146
8	0xbea43cbd	-0.3207759
9	0x3e989bf3	0.2980648
10	0xbe97f0eb	-0.29675993
11	0xbe819096	-0.25305623
12	0xbe96c59e	-0.29447645
13	0xbebf03d0	-0.37307596
14	0xbe7369be	-0.23770806
15	0xbe8deaca	-0.27718192
16	0xbee1bf94	-0.44091475
17	0xbe95e202	-0.29273993
18	0x3e88767a	0.2665289
19	0xbe9785a6	-0.29594153
20	0x3e7b9423	0.24568228
21	0x3e7144eb	0.23561446
22	0xbee199c0	-0.44062614
23	0x3eb53511	0.3539205
24	0xbebb8436	-0.36624306
25	0x3e643f0e	0.22289678
26	0x3e91d326	0.28481406
27	0x3e986ea2	0.29771906
28	0x3e99d89c	0.30048072
29	0x3e657adb	0.22410147
30	0xbe96d43f	-0.29458806
31	0x3ead358f	0.33829924
32	0xbe9ea411	-0.30984548
33	0x3e974df8	0.29551673
34	0xbea57c1c	-0.3232125
35	0xbe9442a4	-0.28957093
36	0x3e92add7	0.28648254
37	0x3e971277	0.29506275
38	0x3e932fe8	0.28747487
39	0x3e964a9a	0.2935379
40	0xbeb4ae4d	-0.3528923
41	0x3eaa53fb	0.33267197
42	0x3e97172c	0.29509866
43	0x3e9b08d7	0.30280182
44	0xbdf60af5	-0.12013809
45	0xbdee6107	-0.116396
46	0xbe979eb4	-0.29613268
47	0x3e93c429	0.28860596
48	0x3e978d5d	0.2960004
49	0xbe9596b9	-0.29216555
50	0x3edba9f0	0.4290309
51	0xbe962f61	-0.29333022
52	0x3e98bc42	0.2983113
53	0x3e472d9f	0.19450997
54	0x3e782e79	0.24236478
55	0xbe85a31a	-0.26101
56	0x3e976095	0.29565874
57	0x3e67218f	0.22571395
58	0x3eac192c	0.33612955
59	0x3e9c462b	0.30522284
60	0xbe481357	-0.19538628
61	0x3ebd372d	0.36956158
62	0xbe97ac59	-0.29623678
63	0x3e8ad47f	0.27115247
64	0xbe953fdb	-0.2915028
65	0x3e9513f2	0.2911678
66	0x3e948f07	0.2901537
67	0x3e8c01c1	0.27345088
68	0xbe87c4ae	-0.26517242
69	0xbe957f24	-0.29198563
70	0xbe9b1ebe	-0.30296892
71	0xbe827ae5	-0.25484386
72	0xbe9b28c2	-0.30304533
73	0x3e92825b	0.28615078
74	0xbe9540f6	-0.29151124
75	0xbe96d9ff	-0.29463193
76	0xbe957d4f	-0.29197165
77	0xbeb69d25	-0.35666767
78	0xbe928e85	-0.2862436
79	0xbe93f194	-0.28895247
80	0xbec65e72	-0.3874393
81	0xbe958ac5	-0.29207435
82	0x3e90dab7	0.28291866
83	0xbe946969	-0.28986672
84	0x3e952baa	0.29134876
85	0x3e90f643	0.28312883
86	0xbec6087a	-0.38678342
87	0x3eb1cc90	0.3472638
88	0xbeb1d4cf	-0.34732673
89	0x3e8926f4	0.2678753
90	0x3e9557ff	0.29168698
91	0x3e923e20	0.28563023
92	0x3e964b5e	0.29354376
93	0x3e8a18f3	0.2697216
94	0xbe93dd5b	-0.28879818
95	0x3ea4de82	0.3220101
96	0xbe95c1ab	-0.2924932
97	0x3e942875	0.28937116
98	0xbea28f60	-0.3175001
99	0xbe9575bb	-0.29191384
100	0x3e955afc	0.29170978
101	0x3e93eb77	0.28890583
102	0x3e953812	0.2914434
103	0x3e937488	0.28799844
104	0xbeaf9499	-0.3429306
105	0x3e99e8e2	0.30060488
106	0x3e9572ef	0.2918925
107	0x3e9568f4	0.29181635
108	0x3e990678	0.29887748
109	0x3e99471a	0.2993706
110	0xbe97c570	-0.2964282
111	0x3e95661e	0.29179472
112	0x3e952fb3	0.29137954
113	0xbe958134	-0.29200137
114	0x3eb2b335	0.3490235
115	0xbe9335ce	-0.28751987
116	0x3e9252e7	0.28578874
117	0xbe132f56	-0.14373526
118	0x3e94358b	0.289471
119	0xbe984f1a	-0.2974785
120	0x3e943ba5	0.28951755
121	0x3e8c14c0	0.2735958
122	0x3e99a652	0.30009705
123	0x3e975903	0.29560098
124	0x3e7c15e1	0.24617721
125	0x3eb4fcdb	0.35349163
126	0xbe93c7d3	-0.2886339
127	0x3e92a71b	0.28643116
128	0xbe93eee5	-0.288932
129	0x3e93fc1d	0.28903285
130	0x3e939c3a	0.2883013
131	0x3e88791e	0.26654905
132	0xbe84a44b	-0.25906596
133	0xbe947810	-0.2899785
134	0xbe9886e1	-0.29790404
135	0xbe7cb792	-0.24679402
136	0xbe99a736	-0.30010384
137	0x3e920c00	0.2852478
138	0xbe93ed6d	-0.2889208
139	0xbe93cd87	-0.28867742
140	0xbe94688a	-0.28986007
141	0xbeb27bfb	-0.34860215
142	0xbe8f8418	-0.28030467
143	0xbe931296	-0.28725117
144	0xbeba2efd	-0.36363974
145	0xbe9470db	-0.28992352
146	0x3e8f81ff	0.28028867
147	0xbe93988b	-0.2882732
148	0x3e92347e	0.28555673
149	0x3e8e3f4e	0.27782673
150	0xbeb9a5e3	-0.36259374
151	0x3eadfcd3	0.33981952
152	0xbeaef9f5	-0.34175077
153	0x3e856523	0.26053724
154	0x3e948a42	0.29011732
155	0x3e91d098	0.28479457
156	0x3e9518f5	0.29120603
157	0x3e8662a5	0.26247135
158	0xbe9237c7	-0.2855818
159	0x3ea176b1	0.31535867
160	0xbe94b454	-0.2904383
161	0x3e937dc4	0.2880689
162	0xbea17dff	-0.3154144
163	0xbe945aa4	-0.28975403
164	0x3e946d23	0.28989515
165	0x3e934ae0	0.28768063
166	0x3e940ae0	0.28914547
167	0x3e92c2a5	0.28664127
168	0xbeabda1d	-0.33564845
169	0x3e97f4f5	0.29679075
170	0x3e9464ab	0.28983054
171	0x3e948505	0.29007736
172	0x3e95a395	0.29226366
173	0x3e987458	0.29776263
174	0xbe96ed38	-0.2947786
175	0x3e945708	0.2897265
176	0x3e942fee	0.28942817
177	0xbe945fa7	-0.28979227
178	0x3ea73759	0.32659414
179	0xbe92a60a	-0.28642303
180	0x3e91f1b1	0.28504708
181	0xbe05def5	-0.13073333
182	0x3e913d6d	0.28367177
183	0xbe94fdd8	-0.29099917
184	0x3e939155	0.28821817
185	0x3e889c8c	0.26681936
186	0x3e9807dc	0.29693496
187	0x3e9529ed	0.2913355
188	0x3e7289fb	0.23685448
189	0x3eb10f0e	0.34581798
190	0xbe92f284	-0.2870065
191	0x3e91eb1a	0.2849968
192	0xbe8aeda5	-0.27134433
193	0x3e8901cc	0.26759183
194	0x3e87c10f	0.2651448
195	0x3e6035ed	0.21895571
196	0xbe51ef66	-0.2050148
197	0xbe8bd168	-0.27308202
198	0xbe9039b3	-0.2816902
199	0xbe4ddb38	-0.20103157
200	0xbe91bdf5	-0.28465238
201	0x3e8b06d9	0.27153662
202	0xbe8b695e	-0.27228826
203	0xbe86552d	-0.2623686
204	0xbe8b714c	-0.27234876
205	0xbe9a15eb	-0.30094847
206	0xbe7ba5dc	-0.24574989
207	0xbe86752e	-0.26261276
208	0xbe9a20b8	-0.30103087
209	0xbe8af8c2	-0.27142912
210	0x3e7e295c	0.24820465
211	0xbe8c39dc	-0.27387893
212	0x3e831f3a	0.2560976
213	0x3e77165e	0.24129626
214	0xbe9a400c	-0.3012699
215	0x3e951080	0.2911415
216	0xbe980c3c	-0.29696834
217	0x3e544cd9	0.2073244
218	0x3e8a21e3	0.2697898
219	0x3e8b06bd	0.27153578
220	0x3e8d6783	0.27618036
221	0x3e5822e9	0.21107067
222	0xbe874d0f	-0.2642598
223	0x3e950a19	0.29109266
224	0xbe8ee318	-0.27907634
225	0x3e8c90dd	0.27454272
226	0xbe976359	-0.29567984
227	0xbe8a8365	-0.2705337
228	0x3e8a23ed	0.26980534
229	0x3e8c76b1	0.27434304
230	0x3e8944c0	0.26810265
231	0x3e8bad97	0.27280876
232	0xbe948344	-0.29006398
233	0x3e90d159	0.2828472
234	0x3e8baa7c	0.27278507
235	0x3e8e5ce0	0.27805233
236	0x3e8b7f47	0.27245542
237	0x3e8bf110	0.27332354
238	0xbe901e91	-0.2814832
239	0x3e8a20ac	0.26978052
240	0x3e8bf143	0.27332506
241	0xbe8abc25	-0.27096668
242	0x3e942c39	0.2893999
243	0xbe8c14f2	-0.2735973
244	0x3e8b4b57	0.27205917
245	0xbdba688f	-0.09101974
246	0x3e81390b	0.25238833
247	0xbe88d835	-0.26727453
248	0x3e8caaf3	0.27474174
249	0x3e60ca19	0.21952094
250	0x3e915c12	0.28390557
251	0x3e8e640f	0.27810714
252	0x3e414dba	0.18877307
253	0x3e99720a	0.29969817
254	0xbe8c31af	-0.27381656
255	0x3e83cbbb	0.25741372

deep.0.weight f4 [512, 13]
0	0x800088c5	-4.9064e-41
1	0x800089bd	-4.9411e-41
2	0x80008918	-4.918e-41
3	0x800088da	-4.9093e-41
4	0x800089ff	-4.9504e-41
5	0x000089ea	4.9474e-41
6	0x0000890f	4.9167e-41
7	0x0000899d	4.9366e-41
8	0x000089cf	4.9436e-41
9	0x800089e9	-4.9473e-41
10	0x0000890a	4.916e-41
11	0x800088ba	-4.9048e-41
12	0x00008c63	5.0361e-41
13	0x80008c8a	-5.0416e-41
14	0x00009218	5.2409e-41
15	0x8000948d	-5.329e-41
16	0x80008cb9	-5.0482e-41
17	0x00008d7e	5.0758e-41
18	0x80009e0c	-5.6697e-41
19	0x00008f72	5.1458e-41
20	0x80009e5c	-5.6809e-41
21	0x0000a677	5.9716e-41
22	0x800088d3	-4.9083e-41
23	0x0000985b	5.4655e-41
24	0x0000ad93	6.2267e-41
25	0x000088c3	4.9061e-41
26	0x28cecd79	2.2959704e-14
27	0xb98c31a7	-0.00026739875
28	0x2f85d724	2.4345426e-10
29	0x306d4d4e	8.6329954e-10
30	0x2aebfc39	4.19194e-13
31	0xb10c9331	-2.045635e-09
32	0x2ad17520	3.720713e-13
33	0xb15363c8	-3.076126e-09
34	0x2f9e3fd4	2.8785385e-10
35	0x0004315e	3.85052e-40
36	0x2a8a2421	2.4538794e-13
37	0xb68c28c7	-4.1770722e-06
38	0xb1ccd73d	-5.961651e-09
39	0x0eae9fd1	4.304821e-30
40	0x8000a187	-5.7945e-41
41	0x80008a23	-4.9554e-41
42	0x00008f08	5.131e-41
43	0x80008925	-4.9198e-41
44	0x80008b34	-4.9937e-41
45	0x800088d8	-4.909e-41
46	0x80008956	-4.9267e-41
47	0x80008a4f	-4.9616e-41
48	0x00008a11	4.9529e-41
49	0x80008b90	-5.0066e-41
50	0x80007c79	-4.4652e-41
51	0x27140ac4	2.0544962e-15
52	0x8000af78	-6.2946e-41
53	0x0005d69e	5.36168e-40
54	0x1302889c	1.647566e-27
55	0x1ebae92f	1.9789958e-20
56	0x00046468	4.03361e-40
57	0x9da50fd8	-4.369152e-21
58	0x3549bacf	7.515018e-07
59	0x2409669b	2.979405e-17
60	0x9c736bc8	-8.054126e-22
61	0x800088e8	-4.9113e-41
62	0x29b7dcd4	8.16514e-14
63	0x360812c3	2.02765e-06
64	0x3238d2d0	1.0758143e-08
65	0x0004f4cf	4.55163e-40
66	0x00038c7c	3.25903e-40
67	0xb5f557b5	-1.8279449e-06
68	0x34b59ce6	3.3828036e-07
69	0x0cd07129	3.211558e-31
70	0xb3182f53	-3.54333e-08
71	0xae9db651	-7.171919e-11
72	0x2444dc3f	4.268728e-17
73	0xae0404ba	-3.0017523e-11
74	0x00058efd	5.10472e-40
75	0x1f227822	3.4404206e-20
76	0xae8eb079	-6.48876e-11
77	0xad6937c3	-1.3256898e-11
78	0x000347f0	3.01313e-40
79	0x8000048c	-1.631e-42
80	0x8000955a	-5.3577e-41
81	0x80003832	-2.0159e-41
82	0x00002f34	1.6933e-41
83	0x80000bc6	-4.224e-42
84	0x0000ae3e	6.2506e-41
85	0x80024b70	-2.10733e-40
86	0x80008b2a	-4.9923e-41
87	0x000160f6	1.26619e-40
88	0x0004f697	4.55802e-40
89	0xaec72bfa	-9.057284e-11
90	0xb54b181b	-7.565847e-07
91	0x130cd259	1.7774194e-27
92	0x3087a25e	9.86869e-10
93	0xa72a49f2	-2.3632325e-15
94	0x381718da	3.602435e-05
95	0x31c94e99	5.8588054e-09
96	0x3596d537	1.1237925e-06
97	0xaf3ce017	-1.7178113e-10
98	0xa6987fae	-1.0581726e-15
99	0xb1ad09d6	-5.036081e-09
100	0x80060264	-5.5187e-40
101	0x2ffc9e03	4.5950807e-10
102	0xabc8e04b	-1.4273109e-12
103	0x2dab0470	1.944242e-11
104	0x00008704	4.8434e-41
105	0x00014479	1.16399e-40
106	0x80009352	-5.2849e-41
107	0x80006c34	-3.8816e-41
108	0x8001918f	-1.44052e-40
109	0x800088cc	-4.9073e-41
110	0x000088e1	4.9103e-41
111	0x80034dc9	-3.0341e-40
112	0x800088f6	-4.9132e-41
113	0x0000aa69	6.1132e-41
114	0x80012ce0	-1.07934e-40
115	0xb9be5853	-0.0003630543
116	0xb91e0923	-0.00015071458
117	0x37e8cde4	2.775243e-05
118	0xa5ba627f	-3.23326e-16
119	0x1bb19980	2.938139e-22
120	0xac4a5981	-2.8755611e-12
121	0xa7360e1e	-2.5265227e-15
122	0x338df590	6.610492e-08
123	0xb951f464	-0.00020022836
124	0xb7cd2542	-2.4455254e-05
125	0xb121c7e6	-2.3542213e-09
126	0x000249fe	2.10214e-40
127	0xb6b512d3	-5.396412e-06
128	0xb96ad58e	-0.00022395534
129	0x359a8b22	1.1514387e-06
130	0xb563fad7	-8.492911e-07
131	0xacb33d65	-5.094302e-12
132	0x29bc587b	8.364226e-14
133	0xac07bcba	-1.9289418e-12
134	0xb9b762b1	-0.0003497801
135	0xb96d8fea	-0.00022655693
136	0xb3f1cc14	-1.12595586e-07
137	0x36bdde66	5.6585295e-06
138	0x2ad37ced	3.7567814e-13
139	0x1c1f9394	5.2799427e-22
140	0xa99cc270	-6.961521e-14
141	0x2c5644a0	3.0449324e-12
142	0xb8ee764c	-0.00011370759
143	0x80008961	-4.9282e-41
144	0x80008a11	-4.9529e-41
145	0x80008a1c	-4.9544e-41
146	0x00008975	4.931e-41
147	0x80008971	-4.9305e-41
148	0x800089d5	-4.9445e-41
149	0x0000896e	4.93e-41
150	0x800088fe	-4.9144e-41
151	0x000088eb	4.9117e-41
152	0x800088f3	-4.9128e-41
153	0x00008957	4.9268e-41
154	0x00008ab8	4.9763e-41
155	0x80008cab	-5.0462e-41
156	0xba4f1171	-0.00078990223
157	0x2ddc4524	2.5041809e-11
158	0x32a0e0ad	1.8728622e-08
159	0x2bd65813	1.523006e-12
160	0xb7cc6e22	-2.436998e-05
161	0x3a287867	0.0006426633
162	0x385ba42a	5.236656e-05
163	0xb37ef42b	-5.9361053e-08
164	0xb92e802e	-0.00016641684
165	0x2a865adf	2.3866236e-13
166	0xb8a0a0e1	-7.6593606e-05
167	0x2ed1887b	9.5284634e-11
168	0x2be3e7eb	1.619369e-12
169	0x00008996	4.9357e-41
170	0x80008ae0	-4.9819e-41
171	0x8000897d	-4.9322e-41
172	0x000089a8	4.9382e-41
173	0x00008ade	4.9816e-41
174	0x80008d37	-5.0658e-41
175	0x0000895b	4.9274e-41
176	0x00008b3d	4.9949e-41
177	0x800088e2	-4.9104e-41
178	0x00008a59	4.963e-41
179	0x80008a61	-4.9641e-41
180	0x8001561f	-1.2273e-40
181	0x36d8d760	6.4623746e-06
182	0x80008bb2	-5.0113e-41
183	0x8000894a	-4.925e-41
184	0x00008918	4.918e-41
185	0x00009383	5.2917e-41
186	0x00008d54	5.0699e-41
187	0x000088d4	4.9085e-41
188	0x0000a7fa	6.0259e-41
189	0x00009286	5.2563e-41
190	0x80008ad6	-4.9805e-41
191	0x80008c2b	-5.0283e-41
192	0x80008ae5	-4.9826e-41
193	0x800090aa	-5.1896e-41
194	0x80008916	-4.9177e-41
195	0x800587e0	-5.0792e-40
196	0x2365c222	1.2455224e-17
197	0xb542177f	-7.2304823e-07
198	0x36395a95	2.7619874e-06
199	0x00060be3	5.55277e-40
200	0xb7ca4d70	-2.4116336e-05
201	0x3a285e4b	0.0006422742
202	0x1c347637	5.9709793e-22
203	0x32cd90cf	2.3930992e-08
204	0x800089ad	-4.9389e-41
205	0x9f901e90	-6.1036934e-20
206	0xb39f5c20	-7.420772e-08
207	0x2a66de78	2.0505288e-13
208	0x80008916	-4.9177e-41
209	0x800089db	-4.9453e-41
210	0x80008995	-4.9355e-41
211	0x800089d2	-4.944e-41
212	0x80008911	-4.917e-41
213	0x8000898d	-4.9344e-41
214	0x00008a06	4.9513e-41
215	0x00008a09	4.9518e-41
216	0x0000927f	5.2553e-41
217	0x80008990	-4.9348e-41
218	0x000088ba	4.9048e-41
219	0x80008b1e	-4.9906e-41
220	0x80008a82	-4.9687e-41
221	0x000089b8	4.9404e-41
222	0x80008955	-4.9265e-41
223	0x00008a9e	4.9726e-41
224	0x00008f2a	5.1358e-41
225	0x000089f2	4.9485e-41
226	0x80008cb2	-5.0472e-41
227	0x000088c5	4.9064e-41
228	0x80008a59	-4.963e-41
229	0x80008cb6	-5.0478e-41
230	0x000089fb	4.9498e-41
231	0x00008ba9	5.01e-41
232	0x0000afbb	6.304e-41
233	0xb03e0f90	-6.9143713e-10
234	0x0000898c	4.9343e-41
235	0x8000893c	-4.923e-41
236	0x00008d50	5.0693e-41
237	0x0000a884	6.0452e-41
238	0x00008a92	4.971e-41
239	0x00009929	5.4944e-41
240	0x00008d62	5.0719e-41
241	0x800091c1	-5.2287e-41
242	0x8000a7ee	-6.0242e-41
243	0x00008a08	4.9516e-41
244	0x000088ea	4.9116e-41
245	0x80006161	-3.4933e-41
246	0x33a5ebdd	7.7263145e-08
247	0x8000937e	-5.291e-41
248	0x80008a66	-4.9648e-41
249	0x00008949	4.9249e-41
250	0x800089fc	-4.95e-41
251	0x000088fd	4.9142e-41
252	0x80008900	-4.9146e-41
253	0x00008a15	4.9534e-41
254	0x00008928	4.9202e-41
255	0x800088c8	-4.9068e-41

deep.0.bias f4 [512]
0	0x0000892f	4.9212e-41
1	0x80008919	-4.9181e-41
2	0x35fd85ad	1.8888874e-06
3	0x80009b9e	-5.5825e-41
4	0xb0878d2d	-9.862667e-10
5	0x374f967c	1.2373199e-05
6	0xa819158a	-8.497877e-15
7	0x381a269c	3.675242e-05
8	0x000088d9	4.9092e-41
9	0x37d1eda1	2.5025396e-05
10	0xaf71aaa7	-2.197945e-10
11	0x80008974	-4.9309e-41
12	0x37da54e6	2.6027159e-05
13	0x8000a1e0	-5.807e-41
14	0x80008bbe	-5.013e-41
15	0xb8004f92	-3.0591684e-05
16	0x00008a12	4.953e-41
17	0x80008d9a	-5.0797e-41
18	0x800093f1	-5.3071e-41
19	0x00008de7	5.0905e-41
20	0x80008f16	-5.133e-41
21	0x00009e07	5.669e-41
22	0x00008cf2	5.0562e-41
23	0x00008d0c	5.0598e-41
24	0x0000a596	5.9401e-41
25	0x80009177	-5.2183e-41
26	0x00008a0a	4.9519e-41
27	0x80008ea8	-5.1175e-41
28	0x2a826332	2.316147e-13
29	0x000089de	4.9457e-41
30	0x80008906	-4.9155e-41
31	0x0000aced	6.2034e-41
32	0x00008bd7	5.0165e-41
33	0x00009e70	5.6837e-41
34	0x00003c55	2.1643e-41
35	0x80008a60	-4.964e-41
36	0x00008ecc	5.1226e-41
37	0xafb2e7d5	-3.2542738e-10
38	0x00009061	5.1793e-41
39	0x80008a8f	-4.9705e-41
40	0x0000994b	5.4991e-41
41	0xa465b593	-4.981026e-17
42	0x00008b04	4.987e-41
43	0x0c5857fa	1.6666509e-31
44	0x8000a173	-5.7917e-41
45	0x000091b0	5.2263e-41
46	0x8000896f	-4.9302e-41
47	0x80008987	-4.9336e-41
48	0x37eed2b9	2.8469936e-05
49	0x00008aaf	4.975e-41
50	0x1145ca22	1.5602847e-28
51	0x31c3bf51	5.696997e-09
52	0x00008a5e	4.9637e-41
53	0x80008a70	-4.9662e-41
54	0x00006e87	3.965e-41
55	0x37b0e542	2.1087591e-05
56	0x2b8ef6eb	1.015824e-12
57	0x800097bb	-5.443e-41
58	0x800088ff	-4.9145e-41
59	0xb1a9d7d8	-4.943086e-09
60	0x0000899c	4.9365e-41
61	0xb7448a92	-1.1714774e-05
62	0x36bbbfa1	5.595343e-06
63	0x2e8c2705	6.373394e-11
64	0x0000af6c	6.293e-41
65	0x2c8d0c8d	4.0088544e-12
66	0x80008914	-4.9174e-41
67	0x29bcc582	8.383139e-14
68	0xabdc9eda	-1.567603e-12
69	0x80009dca	-5.6604e-41
70	0x8000a6b8	-5.9807e-41
71	0x0000a0ee	5.773e-41
72	0x80008a0f	-4.9526e-41
73	0x00009ea0	5.6904e-41
74	0x308669d6	9.779864e-10
75	0xab9cb974	-1.113594e-12
76	0x0000a374	5.8636e-41
77	0x80008ad1	-4.9798e-41
78	0x00008902	4.9149e-41
79	0x800088ea	-4.9116e-41
80	0x8001e62d	-1.74407e-40
81	0x80008a7b	-4.9677e-41
82	0x3888b096	6.517877e-05
83	0x000092ee	5.2708e-41
84	0x0000a229	5.8172e-41
85	0x80008ad5	-4.9804e-41
86	0x00009493	5.3298e-41
87	0x8000a513	-5.9217e-41
88	0x8000aead	-6.2662e-41
89	0xb0f3953b	-1.7722991e-09
90	0x3775d3b1	1.4652426e-05
91	0x20877382	2.2946326e-19
92	0x800097ba	-5.4429e-41
93	0x800088cc	-4.9073e-41
94	0x80008903	-4.915e-41
95	0x80008aaa	-4.9743e-41
96	0x80008a46	-4.9603e-41
97	0x000088c0	4.9057e-41
98	0x80008a3b	-4.9588e-41
99	0x00028d3c	2.34336e-40
100	0x8000a2ab	-5.8354e-41
101	0x0000a6b1	5.9798e-41
102	0x8000913c	-5.21e-41
103	0x8000897b	-4.9319e-41
104	0x0000901f	5.1701e-41
105	0x9c8bde34	-9.255687e-22
106	0xaf1b9ed7	-1.4153599e-10
107	0x0000adce	6.235e-41
108	0x00008c02	5.0225e-41
109	0x80016cfd	-1.30933e-40
110	0x80009002	-5.166e-41
111	0x000089c2	4.9418e-41
112	0x000096fb	5.4162e-41
113	0x00008d3b	5.0664e-41
114	0x8000893c	-4.923e-41
115	0x80008d74	-5.0744e-41
116	0x80009e3f	-5.6768e-41
117	0xa552422c	-1.8237016e-16
118	0x00009091	5.186e-41
119	0x000093ba	5.2994e-41
120	0x800091c7	-5.2295e-41
121	0x80009d09	-5.6334e-41
122	0x80009b2d	-5.5667e-41
123	0x0000895d	4.9277e-41
124	0x8000912c	-5.2078e-41
125	0x80008977	-4.9313e-41
126	0x80010b64	-9.5922e-41
127	0x3a23bc5b	0.00062460237
128	0x1cb6520f	1.2064961e-21
129	0x000088bd	4.9052e-41
130	0x800089e3	-4.9464e-41
131	0x345967b5	2.0247428e-07
132	0x8000af13	-6.2805e-41
133	0xb2404769	-1.1192108e-08
134	0x800089d6	-4.9446e-41
135	0x8000986d	-5.468e-41
136	0x800097ac	-5.441e-41
137	0x00008a38	4.9584e-41
138	0x00008be1	5.0179e-41
139	0x000088c7	4.9066e-41
140	0x80009535	-5.3525e-41
141	0x000088e6	4.911e-41
142	0x2b9cb920	1.1135849e-12
143	0x00009a18	5.5278e-41
144	0x0000ace1	6.2017e-41
145	0x0000a072	5.7557e-41
146	0x80008902	-4.9149e-41
147	0x80009653	-5.3926e-41
148	0x2c29dbf2	2.4138439e-12
149	0x00009746	5.4267e-41
150	0x80009ded	-5.6653e-41
151	0x00009a4b	5.535e-41
152	0x80008a9b	-4.9722e-41
153	0x2fc004b8	3.492795e-10
154	0x00008f7d	5.1474e-41
155	0x80009780	-5.4348e-41
156	0x0000a8a3	6.0495e-41
157	0x8000ad71	-6.2219e-41
158	0x00008ed3	5.1236e-41
159	0x00082120	7.46567e-40
160	0x000089c2	4.9418e-41
161	0x00009512	5.3476e-41
162	0x00008951	4.926e-41
163	0x80009823	-5.4576e-41
164	0x00009834	5.46e-41
165	0x800088d8	-4.909e-41
166	0x80008909	-4.9159e-41
167	0x80008cfc	-5.0576e-41
168	0x2f25f898	1.5094981e-10
169	0x2eb67d51	8.2986625e-11
170	0x00009c0a	5.5976e-41
171	0x8000962c	-5.3872e-41
172	0x0000899d	4.9366e-41
173	0x0000a4c4	5.9107e-41
174	0x80008e20	-5.0985e-41
175	0x80008b92	-5.0068e-41
176	0x0000a417	5.8864e-41
177	0x00008b5d	4.9994e-41
178	0x00008a90	4.9707e-41
179	0x00008b49	4.9966e-41
180	0x0004a9e0	4.28282e-40
181	0x8000960d	-5.3828e-41
182	0x8000a41d	-5.8873e-41
183	0x000088c3	4.9061e-41
184	0x00008b64	5.0004e-41
185	0x00009391	5.2937e-41
186	0xad39ca8f	-1.05610095e-11
187	0x800099ed	-5.5218e-41
188	0x1cafa4a7	1.162309e-21
189	0x0000896e	4.93e-41
190	0x0000a63e	5.9636e-41
191	0x80008ccb	-5.0507e-41
192	0x00009873	5.4688e-41
193	0xafb0368e	-3.2052977e-10
194	0x2f574d8f	1.958169e-10
195	0x00008a03	4.9509e-41
196	0x2c806020	3.648651e-12
197	0x3733cea3	1.0717343e-05
198	0x2c8e8518	4.050659e-12
199	0x00087184	7.75406e-40
200	0xaead5432	-7.882085e-11
201	0x000088b9	4.9047e-41
202	0x00009e2e	5.6744e-41
203	0x80009400	-5.3092e-41
204	0x80009d66	-5.6464e-41
205	0x0000a284	5.83e-41
206	0x800088e3	-4.9106e-41
207	0x80008f1c	-5.1338e-41
208	0xb095d4aa	-1.090162e-09
209	0x31749e6a	3.5596721e-09
210	0x8000a92c	-6.0687e-41
211	0xad303e3f	-1.0018263e-11
212	0x80008b8f	-5.0064e-41
213	0x00008fbe	5.1565e-41
214	0x2b5336a3	7.503808e-13
215	0x0000921e	5.2417e-41
216	0x80008d8b	-5.0776e-41
217	0x34f1221b	4.4914563e-07
218	0x398452e1	0.00025238752
219	0x00009898	5.474e-41
220	0x02801da7	1.882493e-37
221	0x0000946f	5.3248e-41
222	0x000097af	5.4414e-41
223	0x3762d450	1.3520083e-05
224	0x800088d7	-4.9089e-41
225	0x00009834	5.46e-41
226	0x000097bd	5.4433e-41
227	0x00008b4c	4.997e-41
228	0xb681ca3b	-3.8680423e-06
229	0x0000ab2f	6.1409e-41
230	0x2cc78b2c	5.6713714e-12
231	0x000088cf	4.9078e-41
232	0x00008939	4.9226e-41
233	0x2eeee517	1.08636815e-10
234	0xb110bfd5	-2.1063802e-09
235	0x8000969f	-5.4033e-41
236	0x00008c35	5.0297e-41
237	0x80008dba	-5.0842e-41
238	0x8000a3bc	-5.8737e-41
239	0xac9369c1	-4.1897323e-12
240	0x0000a905	6.0633e-41
241	0x0000afbf	6.3046e-41
242	0x80003e70	-2.2398e-41
243	0x0000af57	6.29e-41
244	0x0000a003	5.7401e-41
245	0x80008c93	-5.0429e-41
246	0x000089a6	4.9379e-41
247	0x0000951f	5.3495e-41
248	0x80008b08	-4.9875e-41
249	0x8000990e	-5.4906e-41
250	0x00008be9	5.019e-41
251	0x00021327	1.90542e-40
252	0x8000964a	-5.3914e-41
253	0x0000a4df	5.9145e-41
254	0x399d7963	0.00030035814
255	0x80023651	-2.03156e-40

deep.2.weight f4 [64, 512]
0	0x8000893b	-4.9229e-41
1	0x80008cd3	-5.0518e-41
2	0x33ca7816	9.4282015e-08
3	0x00008c44	5.0318e-41
4	0x0000a508	5.9202e-41
5	0xa823ae30	-9.0860885e-15
6	0x00019fca	1.49157e-40
7	0xb1f6051e	-7.160124e-09
8	0x0003ec06	3.60176e-40
9	0x2f6a6bdd	2.1320497e-10
10	0xab358446	-6.4487684e-13
11	0x000088e6	4.911e-41
12	0x2cb85465	5.238964e-12
13	0x80008c00	-5.0223e-41
14	0x80008ba1	-5.009e-41
15	0xa8329b24	-9.914626e-15
16	0x80008a52	-4.962e-41
17	0x80008c08	-5.0234e-41
18	0x8000a39c	-5.8692e-41
19	0x00008bc9	5.0145e-41
20	0x80008b5b	-4.9991e-41
21	0x00008c34	5.0295e-41
22	0x3242a72b	1.1330296e-08
23	0x00008a2d	4.9568e-41
24	0x80009c41	-5.6053e-41
25	0x00008913	4.9173e-41
26	0x80009505	-5.3458e-41
27	0x800089f7	-4.9492e-41
28	0x38839ee6	6.276164e-05
29	0x000088df	4.91e-41
30	0x8000893a	-4.9228e-41
31	0x0000893f	4.9235e-41
32	0x80008c34	-5.0295e-41
33	0x00008d44	5.0677e-41
34	0x80008909	-4.9159e-41
35	0x0000891d	4.9187e-41
36	0x80008976	-4.9312e-41
37	0xb08fe1ec	-1.046883e-09
38	0x80008c73	-5.0384e-41
39	0x00008aa8	4.974e-41
40	0x800089ac	-4.9387e-41
41	0x000088f7	4.9134e-41
42	0x8000890e	-4.9166e-41
43	0x8004dcfe	-4.46619e-40
44	0x00009092	5.1862e-41
45	0x80008e1a	-5.0976e-41
46	0x2c48693a	2.8480122e-12
47	0x2abfb768	3.405568e-13
48	0x000145f3	1.16929e-40
49	0x800088f0	-4.9124e-41
50	0x800093ac	-5.2975e-41
51	0x800c4380	-1.12624e-39
52	0x80008a3c	-4.9589e-41
53	0x80008c13	-5.0249e-41
54	0x8000a021	-5.7443e-41
55	0x362015fc	2.3854655e-06
56	0x39005e4c	0.0001224216
57	0x00008b19	4.9899e-41
58	0x80009081	-5.1838e-41
59	0x2c8a7bdf	3.9359484e-12
60	0x000089bb	4.9408e-41
61	0x0000529b	2.9633e-41
62	0x2e17b7c6	3.449665e-11
63	0x2e3b6499	4.2608226e-11
64	0x80008976	-4.9312e-41
65	0xac53e584	-3.011231e-12
66	0x0000891c	4.9186e-41
67	0x3488fd4a	2.5516266e-07
68	0xb1e9dc06	-6.8062063e-09
69	0x800088ca	-4.907e-41
70	0x00008923	4.9195e-41
71	0x00008a9d	4.9725e-41
72	0x00008a21	4.9551e-41
73	0x00008b87	5.0053e-41
74	0x9ad5564f	-8.8234174e-23
75	0x9b8b6cfa	-2.3066045e-22
76	0x8000a789	-6.01e-41
77	0x80008d32	-5.0651e-41
78	0x8000892f	-4.9212e-41
79	0x00008937	4.9223e-41
80	0x80008921	-4.9193e-41
81	0x39b558a1	0.00034589044
82	0xb852b7a4	-5.023893e-05
83	0x00008d44	5.0677e-41
84	0x00008ade	4.9816e-41
85	0x000089c4	4.9421e-41
86	0x80008c06	-5.0231e-41
87	0x00008dc8	5.0862e-41
88	0x0000974b	5.4274e-41
89	0xb0b70fcb	-1.3319491e-09
90	0x0000800a	4.5932e-41
91	0x80027e1d	-2.28912e-40
92	0x80008aa1	-4.973e-41
93	0x8000a849	-6.037e-41
94	0x800088e9	-4.9114e-41
95	0x80008a21	-4.9551e-41
96	0x000088d0	4.9079e-41
97	0x80008a20	-4.955e-41
98	0x2c8a5cae	3.9324854e-12
99	0x00007e95	4.5409e-41
100	0x800088d1	-4.908e-41
101	0x800096e1	-5.4125e-41
102	0xb32ed65d	-4.0707494e-08
103	0x000089eb	4.9476e-41
104	0x00008a9f	4.9728e-41
105	0x8001ebd6	-1.76437e-40
106	0x3416840e	1.401788e-07
107	0x8000982d	-5.459e-41
108	0x8000a2de	-5.8426e-41
109	0x8000a395	-5.8682e-41
110	0x80008c01	-5.0224e-41
111	0x000088eb	4.9117e-41
112	0x000089f5	4.949e-41
113	0x00008d81	5.0762e-41
114	0xb98a58e0	-0.00026387628
115	0x00009025	5.171e-41
116	0x800088ef	-4.9123e-41
117	0x800b6ae5	-1.048537e-39
118	0x80008bb1	-5.0112e-41
119	0x0000a184	5.7941e-41
120	0x00008a26	4.9558e-41
121	0x00008b89	5.0056e-41
122	0x80008dab	-5.0821e-41
123	0x800089b4	-4.9399e-41
124	0x00008b5c	4.9993e-41
125	0x000097ea	5.4496e-41
126	0x00008b5c	4.9993e-41
127	0x2cca49cb	5.749378e-12
128	0x000094b2	5.3342e-41
129	0x000088c9	4.9069e-41
130	0x000088d6	4.9087e-41
131	0x8001bc5f	-1.5941e-40
132	0x80008cf4	-5.0564e-41
133	0xa2265f2d	-2.254758e-18
134	0x000089fb	4.9498e-41
135	0x80008cbf	-5.049e-41
136	0x00008b9c	5.0082e-41
137	0x000088d7	4.9089e-41
138	0x00008c76	5.0388e-41
139	0x000089ff	4.9504e-41
140	0x000088c7	4.9066e-41
141	0x80008a09	-4.9518e-41
142	0x80008917	-4.9179e-41
143	0x00008ad9	4.9809e-41
144	0x00008d00	5.0581e-41
145	0x80008a19	-4.954e-41
146	0x320b0546	8.092064e-09
147	0x8000896b	-4.9296e-41
148	0x35c8caa2	1.4960135e-06
149	0x00008bf5	5.0207e-41
150	0x80009408	-5.3104e-41
151	0x00008aaf	4.975e-41
152	0x800088d5	-4.9086e-41
153	0x2d461140	1.1258827e-11
154	0x80008cab	-5.0462e-41
155	0x00008994	4.9354e-41
156	0x00008dcc	5.0867e-41
157	0x800089d9	-4.945e-41
158	0x00008909	4.9159e-41
159	0xabfb0f3e	-1.7838853e-12
160	0x800089d6	-4.9446e-41
161	0x00008b20	4.9909e-41
162	0x80008ab0	-4.9752e-41
163	0x80008a81	-4.9686e-41
164	0x800089f7	-4.9492e-41
165	0x80008dab	-5.0821e-41
166	0x800088bd	-4.9052e-41
167	0x00008d46	5.068e-41
168	0x282fdab4	9.761875e-15
169	0x800249eb	-2.10188e-40
170	0x0000891c	4.9186e-41
171	0x80008bc7	-5.0143e-41
172	0x0000893b	4.9229e-41
173	0x80008b26	-4.9917e-41
174	0x80008b13	-4.989e-41
175	0x00008990	4.9348e-41
176	0x00008c43	5.0316e-41
177	0x00008a31	4.9574e-41
178	0x00008a19	4.954e-41
179	0xa5a5b8ad	-2.8748079e-16
180	0x80009d81	-5.6502e-41
181	0x80008cfe	-5.0578e-41
182	0x8000901e	-5.17e-41
183	0x80012252	-1.04147e-40
184	0x0000892d	4.921e-41
185	0x00008d13	5.0608e-41
186	0x2d9e0f3b	1.7969284e-11
187	0x00008b95	5.0073e-41
188	0x000052e1	2.9731e-41
189	0x80008904	-4.9152e-41
190	0x00008af5	4.9848e-41
191	0x00008ddc	5.089e-41
192	0x80008df8	-5.0929e-41
193	0x2e665fde	5.2381093e-11
194	0x2d038ce5	7.477773e-12
195	0x00008be6	5.0186e-41
196	0x2fbf90d7	3.4845613e-10
197	0x0003e7f3	3.58714e-40
198	0x3aac43e3	0.001314279
199	0x8000a6d9	-5.9854e-41
200	0xb7a52e20	-1.9691011e-05
201	0x00008dcb	5.0866e-41
202	0x00008aca	4.9788e-41
203	0x800089a0	-4.937e-41
204	0x80008de9	-5.0908e-41
205	0x00008bfb	5.0216e-41
206	0x36ef69d8	7.135077e-06
207	0x00008976	4.9312e-41
208	0x00008d80	5.076e-41
209	0x80000582	-1.976e-42
210	0x00008991	4.935e-41
211	0xa7bbac61	-5.208982e-15
212	0x00008ae0	4.9819e-41
213	0x80008c30	-5.029e-41
214	0x2f521512	1.9106874e-10
215	0x00008cbd	5.0487e-41
216	0x38d76761	0.00010271255
217	0x8000a650	-5.9662e-41
218	0x2b38351c	6.5443636e-13
219	0x00008d4b	5.0686e-41
220	0x8001bdf4	-1.59978e-40
221	0x8000891f	-4.919e-41
222	0x000089fd	4.9501e-41
223	0x3ad484ca	0.0016213891
224	0x00009e94	5.6887e-41
225	0x80008bfd	-5.0218e-41
226	0x80008b7a	-5.0035e-41
227	0x00008aaa	4.9743e-41
228	0x000236b4	2.03295e-40
229	0x80008c85	-5.0409e-41
230	0x80019950	-1.46834e-40
231	0x800089b9	-4.9406e-41
232	0x00008a19	4.954e-41
233	0x2b7129e0	8.5678513e-13
234	0xb09d20c6	-1.1432568e-09
235	0x80008b97	-5.0075e-41
236	0x00008942	4.9239e-41
237	0x80008923	-4.9195e-41
238	0x00008c29	5.028e-41
239	0x3278b872	1.4477438e-08
240	0x00008c92	5.0427e-41
241	0x80009165	-5.2158e-41
242	0x80009c4d	-5.607e-41
243	0x80008ab3	-4.9756e-41
244	0x80008919	-4.9181e-41
245	0x00008908	4.9158e-41
246	0x80008b88	-5.0054e-41
247	0x800089ad	-4.9389e-41
248	0x000088be	4.9054e-41
249	0x80008cf0	-5.0559e-41
250	0x000089e4	4.9466e-41
251	0x00008afa	4.9855e-41
252	0x00009ee9	5.7006e-41
253	0x80008b44	-4.9959e-41
254	0x2b2e0c6d	6.183446e-13
255	0x80009e06	-5.6688e-41

deep.2.bias f4 [64]
0	0x00009c98	5.6175e-41
1	0x0000891d	4.9187e-41
2	0x80007005	-4.0185e-41
3	0x8000a7fc	-6.0261e-41
4	0x80008a36	-4.9581e-41
5	0x32a95add	1.971551e-08
6	0xada94036	-1.9241591e-11
7	0x00009b67	5.5748e-41
8	0x00009943	5.498e-41
9	0x80009618	-5.3843e-41
10	0x8000a47e	-5.9009e-41
11	0x8000a8b4	-6.0519e-41
12	0x8000adbf	-6.2328e-41
13	0x80008ad4	-4.9802e-41
14	0x80009617	-5.3842e-41
15	0x80008c5c	-5.0351e-41
16	0x0000ab81	6.1524e-41
17	0x000090a0	5.1882e-41
18	0x00009b59	5.5728e-41
19	0x0001fefb	1.83305e-40
20	0x8001f76c	-1.80594e-40
21	0x80003a8a	-2.1e-41
22	0x80009079	-5.1827e-41
23	0x8001993a	-1.46803e-40
24	0x80009bb8	-5.5861e-41
25	0x00016e9b	1.31513e-40
26	0x00009bd6	5.5903e-41
27	0x00008900	4.9146e-41
28	0x00009ab2	5.5494e-41
29	0x00009d95	5.653e-41
30	0x80008917	-4.9179e-41
31	0x800099bd	-5.5151e-41
32	0x8001472d	-1.17369e-40
33	0x8000acc2	-6.1974e-41
34	0x00009507	5.3461e-41
35	0x800097f5	-5.4512e-41
36	0x2a3f8def	1.7013451e-13
37	0x8000a3f2	-5.8812e-41
38	0x000088dc	4.9096e-41
39	0x8000933e	-5.282e-41
40	0x800649e9	-5.77527e-40
41	0x800099fc	-5.5239e-41
42	0x00010b1c	9.5821e-41
43	0x80008b6c	-5.0015e-41
44	0x0000a27e	5.8291e-41
45	0x8003cd0d	-3.49065e-40
46	0x800088f0	-4.9124e-41
47	0x0000982c	5.4589e-41
48	0x00009717	5.4201e-41
49	0x8000aa89	-6.1176e-41
50	0x800099da	-5.5192e-41
51	0x00013ea0	1.14301e-40
52	0x2cabd78b	4.8840424e-12
53	0x00009ca3	5.619e-41
54	0x000093eb	5.3063e-41
55	0x8000aafb	-6.1336e-41
56	0x80008c0b	-5.0238e-41
57	0x3688f197	4.0812406e-06
58	0x80009924	-5.4937e-41
59	0x00008d47	5.0681e-41
60	0x80008e61	-5.1076e-41
61	0x000088ed	4.912e-41
62	0x80022490	-1.96787e-40
63	0xb0e4c1f2	-1.6644306e-09

deep.4.weight f4 [32, 64]
0	0x000090c3	5.1931e-41
1	0x80009f62	-5.7176e-41
2	0xaab9053d	-3.2866236e-13
3	0x80009fbb	-5.73e-41
4	0x00008d31	5.065e-41
5	0x31410dda	2.809307e-09
6	0x31d37190	6.153819e-09
7	0x00008f24	5.1349e-41
8	0x8000a471	-5.899e-41
9	0x0000a86d	6.042e-41
10	0x0000a0b0	5.7644e-41
11	0x800088d5	-4.9086e-41
12	0x000091b7	5.2273e-41
13	0x800088d8	-4.909e-41
14	0x0000af48	6.2879e-41
15	0xb2183783	-8.860186e-09
16	0x800088cb	-4.9072e-41
17	0x0000a4b3	5.9083e-41
18	0x0000a6f4	5.9891e-41
19	0x398e6ef9	0.00027167032
20	0xaea57c93	-7.52546e-11
21	0xb62000f2	-2.3842408e-06
22	0x33b73d2c	8.532729e-08
23	0x34a53539	3.077237e-07
24	0x00008e2d	5.1003e-41
25	0xb4d3b01a	-3.9429943e-07
26	0x388f4bdb	6.8329005e-05
27	0xb0a28780	-1.1825563e-09
28	0x0000aa22	6.1032e-41
29	0x80008e29	-5.0997e-41
30	0x80008c3d	-5.0308e-41
31	0x278600d2	3.719336e-15
32	0x8d8dbf63	-8.735871e-31
33	0x80055b0f	-4.91843e-40
34	0x000088f8	4.9135e-41
35	0x0000a740	5.9998e-41
36	0xb0a3af0a	-1.190956e-09
37	0x80008942	-4.9239e-41
38	0x0000ad7a	6.2232e-41
39	0x0000abf1	6.1681e-41
40	0xab901b07	-1.0239317e-12
41	0x0000aa52	6.11e-41
42	0xb0a46285	-1.1960571e-09
43	0x8000aefd	-6.2774e-41
44	0x00008e96	5.115e-41
45	0x2a0363c8	1.1669756e-13
46	0xac9b1561	-4.4077385e-12
47	0xb2977f39	-1.7636568e-08
48	0x800094bc	-5.3356e-41
49	0x800088d2	-4.9082e-41
50	0x8000a12f	-5.7822e-41
51	0x380947d8	3.2730255e-05
52	0x3acb5887	0.0015514054
53	0x8000a580	-5.937e-41
54	0x800093af	-5.2979e-41
55	0x00008932	4.9216e-41
56	0x8000ae7d	-6.2595e-41
57	0xae4acbd9	-4.6110536e-11
58	0x306d075c	8.6230556e-10
59	0x0000af60	6.2913e-41
60	0x000088f6	4.9132e-41
61	0x80008d84	-5.0766e-41
62	0xb72240f9	-9.67108e-06
63	0x383b8606	4.4709093e-05
64	0xb047c0a5	-7.266954e-10
65	0x2c54a5ef	3.0219124e-12
66	0xb4c8d0de	-3.7404874e-07
67	0x32de1cd7	2.5857316e-08
68	0xac0f4481	-2.035955e-12
69	0xae55987d	-4.856603e-11
70	0x36f5d0c5	7.325873e-06
71	0x30214ef4	5.868366e-10
72	0x30381422	6.696742e-10
73	0x2da0e3a9	1.8290995e-11
74	0xafe64472	-4.188539e-10
75	0xb14e6b31	-3.0037877e-09
76	0xb35125fd	-4.8696155e-08
77	0x355c9ece	8.218748e-07
78	0xb6324aa3	-2.6567511e-06
79	0x2d32d970	1.0166409e-11
80	0x35b88795	1.3748528e-06
81	0x3a243381	0.0006263778
82	0xb0d5b249	-1.5548461e-09
83	0xb507c1d1	-5.057346e-07
84	0xb9736ee1	-0.00023215592
85	0x315a19de	3.173788e-09
86	0xaabe8482	-3.3842726e-13
87	0x2a94bbe5	2.642046e-13
88	0xb7b61fc5	-2.1710885e-05
89	0xaf8fad74	-2.6134794e-10
90	0x2b9af40b	1.1010094e-12
91	0x2cb57108	5.1568784e-12
92	0xb4859703	-2.4883056e-07
93	0x2c09fd6e	1.9609553e-12
94	0x331847f5	3.5455702e-08
95	0x2d0a9ff1	7.879906e-12
96	0xb78fb201	-1.7129818e-05
97	0x3865daa9	5.4801498e-05
98	0xab357451	-6.446554e-13
99	0x2a657274	2.0378995e-13
100	0x2b29af9d	6.0284574e-13
101	0x2a4c8c84	1.8167591e-13
102	0x2f03e1f4	1.1994655e-10
103	0x28b6bb06	2.0287168e-14
104	0xb6c75cbe	-5.9414588e-06
105	0xacb31d80	-5.090761e-12
106	0x365ff325	3.3371118e-06
107	0x2e56ce53	4.884122e-11
108	0x2b04cfdc	4.7184283e-13
109	0x3a4e0028	0.00078582997
110	0x33063b77	3.125339e-08
111	0x2e58bf46	4.92826e-11
112	0x318c69b0	4.0865515e-09
113	0x3907aa84	0.00012938125
114	0xb6ae9260	-5.2026444e-06
115	0x3535ae8c	6.7681754e-07
116	0xab9a8fa3	-1.0982225e-12
117	0x2e788020	5.650247e-11
118	0x36d87114	6.4504657e-06
119	0xab31e372	-6.3198676e-13
120	0x2e1bea70	3.5451142e-11
121	0xb3880318	-6.333556e-08
122	0xb9956492	-0.00028494425
123	0x3a4ba890	0.0007768953
124	0x2cd88999	6.1543656e-12
125	0x88cdf8ce	-1.2396482e-33
126	0xb5b7690d	-1.3665136e-06
127	0x37390ae8	1.1029399e-05
128	0x2abd3f7f	3.3617204e-13
129	0x31826a68	3.795595e-09
130	0x8001104f	-9.7686e-41
131	0x2a93f193	2.628007e-13
132	0x3178d1a9	3.6207928e-09
133	0x80009177	-5.2183e-41
134	0x3417f293	1.4151219e-07
135	0x2d1729a8	8.592606e-12
136	0x2aa9c6c7	3.015836e-13
137	0x2012fde0	1.2450681e-19
138	0x240a1457	2.994121e-17
139	0x000088cc	4.9073e-41
140	0x242d30c2	3.7554695e-17
141	0x2291a4f0	3.9476963e-18
142	0x2c7a84b5	3.5600804e-12
143	0x00009190	5.2218e-41
144	0x20f4aa7a	4.144802e-19
145	0x23efac6b	2.5985454e-17
146	0x2bfca516	1.7951497e-12
147	0x8000aaf3	-6.1325e-41
148	0x800271f9	-2.24557e-40
149	0x00009b90	5.5805e-41
150	0x80008a7b	-4.9677e-41
151	0xabbe5b32	-1.3525624e-12
152	0x21fa3fc6	1.695754e-18
153	0xa4c52d06	-8.5511404e-17
154	0x8000a207	-5.8124e-41
155	0x0001c5c4	1.6278e-40
156	0x2f1db56e	1.4343524e-10
157	0x2f7c9663	2.2972695e-10
158	0x30b96fb0	1.3492265e-09
159	0x80009208	-5.2386e-41
160	0x800095c4	-5.3726e-41
161	0x0000969e	5.4031e-41
162	0x28ced1f1	2.2961642e-14
163	0x303f45ad	6.958441e-10
164	0x00036646	3.12195e-40
165	0x213251c1	6.0416946e-19
166	0x206dfaf2	2.0157712e-19
167	0x27ebcbf7	6.544674e-15
168	0x80008d95	-5.079e-41
169	0x293d263f	4.1999604e-14
170	0x00008931	4.9215e-41
171	0x23ad21b9	1.877098e-17
172	0x23f91aca	2.700798e-17
173	0x0001df90	1.72035e-40
174	0x0000914c	5.2123e-41
175	0x000096e7	5.4134e-41
176	0x16fc0b8b	4.072008e-25
177	0x20fb1b51	4.253913e-19
178	0x23b2f089	1.940067e-17
179	0x80009e77	-5.6846e-41
180	0xbabbfaca	-0.0014341709
181	0x2fb8325f	3.3505196e-10
182	0x30af5e4b	1.2759725e-09
183	0x23684834	1.2592035e-17
184	0x29909292	6.4203105e-14
185	0x8003fc45	-3.66004e-40
186	0x8001d647	-1.68704e-40
187	0x239ce820	1.7011863e-17
188	0x239aa425	1.6766231e-17
189	0x1fcdc8ef	8.7153294e-20
190	0x8000a35b	-5.8601e-41
191	0x80029810	-2.38221e-40
192	0x15ab5fb3	6.9217337e-26
193	0x247e8154	5.5187016e-17
194	0x00006341	3.5606e-41
195	0x1537c096	3.710848e-26
196	0x247ff4fb	5.5501817e-17
197	0x800031c0	-1.7847e-41
198	0xade07f37	-2.5522346e-11
199	0x1b20373c	1.3252737e-22
200	0x158188ee	5.231872e-26
201	0x0000819f	4.6499e-41
202	0x0387b9fc	7.977287e-37
203	0x80008987	-4.9336e-41
204	0x03c3e3cd	1.151337e-36
205	0x8007e263	-7.24061e-40
206	0x19acc5db	1.7864296e-23
207	0x000069ba	3.7928e-41
208	0x00000dd2	4.958e-42
209	0x035a22a4	6.4104208e-37
210	0x188dd7f4	3.6665703e-24
211	0x0001c40c	1.62164e-40
212	0x00019221	1.44257e-40
213	0x000088ee	4.9121e-41
214	0x80008bd8	-5.0166e-41
215	0x2f3cf8f2	1.7186944e-10
216	0x800dbd72	-1.261822e-39
217	0x2c7e3490	3.612475e-12
218	0x0000890f	4.9167e-41
219	0x0001a32f	1.50375e-40
220	0x1f981409	6.440765e-20
221	0x2068db2e	1.9723685e-19
222	0x22f61c2c	6.670826e-18
223	0x00008921	4.9193e-41
224	0x80008b88	-5.0054e-41
225	0x80009528	-5.3507e-41
226	0x10ae9878	6.8865814e-29
227	0x22044a46	1.7928656e-18
228	0x0000514e	2.9167e-41
229	0x000006b1	2.4e-42
230	0x00007113	4.0563e-41
231	0x0e12e162	1.8104407e-30
232	0x8000a1cd	-5.8043e-41
233	0x11dbc67c	3.4674433e-28
234	0x80013c91	-1.13563e-40
235	0x02e92b82	3.4261245e-37
236	0x028c706a	2.0635674e-37
237	0x801af044	-2.473914e-39
238	0x0000a7a4	6.0138e-41
239	0x800092c7	-5.2654e-41
240	0x800088ca	-4.907e-41
241	0x800006a3	-2.381e-42
242	0x028bb2e3	2.052689e-37
243	0x8000890a	-4.916e-41
244	0x369ee4b3	4.735391e-06
245	0x20f50a96	4.151162e-19
246	0x22e67ce7	6.247387e-18
247	0x02200632	1.1756721e-37
248	0x12ac609a	1.087854e-27
249	0x2cb70aa8	5.202356e-12
250	0x1dcd41ad	5.4330955e-21
251	0x02b931ae	2.7211822e-37
252	0x02983bb6	2.2368665e-37
253	0x000089c5	4.9422e-41
254	0x0000965a	5.3936e-41
255	0x8000a98c	-6.0822e-41

deep.4.bias f4 [32]
0	0x8001798d	-1.3544e-40
1	0x00071963	6.51956e-40
2	0x800089ec	-4.9477e-41
3	0x800095a0	-5.3675e-41
4	0x0000a900	6.0626e-41
5	0x00009df9	5.667e-41
6	0x00008cdc	5.0531e-41
7	0x00009726	5.4222e-41
8	0x00008ac3	4.9778e-41
9	0x80008f77	-5.1465e-41
10	0x0000aeca	6.2703e-41
11	0x80006281	-3.5337e-41
12	0x000089db	4.9453e-41
13	0x80008ab2	-4.9755e-41
14	0x8001509c	-1.20753e-40
15	0x8002da19	-2.6191e-40
16	0x80018678	-1.40074e-40
17	0x80008fa9	-5.1536e-41
18	0x000bb3ec	1.074734e-39
19	0x8001816a	-1.3826e-40
20	0x8000a3ea	-5.8801e-41
21	0x0000a07f	5.7575e-41
22	0x0000ef74	8.59e-41
23	0x0005b1f5	5.23016e-40
24	0x80008976	-4.9312e-41
25	0x0005c7c7	5.30844e-40
26	0x80008913	-4.9173e-41
27	0x80008963	-4.9285e-41
28	0x0000a034	5.747e-41
29	0x00008f4f	5.141e-41
30	0x800097b1	-5.4417e-41
31	0x8000914b	-5.2121e-41

output.weight f4 [1, 34]
0	0xbf930e6b	-1.1488775
1	0x3db67326	0.089086816
2	0x8000ab33	-6.1415e-41
3	0x376af875	1.4005335e-05
4	0xbd453388	-0.048144847
5	0xbca43844	-0.02004636
6	0x00008938	4.9225e-41
7	0x8000a5c8	-5.9471e-41
8	0xbd9deec7	-0.07711559
9	0xbd1a589e	-0.03768217
10	0xbbbaa609	-0.0056960625
11	0x80009819	-5.4562e-41
12	0x0000893c	4.923e-41
13	0x00003e29	2.2299e-41
14	0xbd771633	-0.060323905
15	0x00008d9d	5.0801e-41
16	0xbb6c5a08	-0.0036064405
17	0x80014434	-1.16302e-40
18	0x8001493b	-1.18106e-40
19	0xbd4e665a	-0.05039058
20	0x30b00126	1.2806012e-09
21	0x80009605	-5.3817e-41
22	0xbbca4130	-0.0061723217
23	0xbbe7d8ad	-0.0070753903
24	0x80006863	-3.7447e-41
25	0x000054b2	3.0383e-41
26	0xbcbbeebe	-0.02294099
27	0x80004ead	-2.8224e-41
28	0x02fdfe0b	3.7320822e-37
29	0xbb34fd6e	-0.0027616876
30	0x0000abb2	6.1593e-41
31	0x80008fe9	-5.1625e-41
32	0xbc04f8f4	-0.008115996
33	0xbbbb1b0f	-0.0057100127
