Results/FFM/20250107_015146_batch1024_epoch10_lr0.001_k10_reg0.0001_FFM/treatment_ffm.pth (torch, 8574 bytes, 2 tensors)

v f4 [13, 13, 10]
000000 ae 3f 84 3d 7e a5 35 be da 4b 46 3e 42 6d c6 3c
       0.064574584 -0.17738912 0.19364873 0.02422202
000010 2f 59 b9 bd 40 1c 71 3c 8c ef 6e 3d 45 d6 e3 3d
       -0.090502135 0.014716208 0.05833392 0.11124853
000020 a2 96 a8 3d 91 8f 17 bd bf 27 50 3c 4c fd 52 3c
       0.08231856 -0.03700215 0.012704789 0.0128777735
000030 06 9f c6 3b 57 44 59 3c 7f 61 16 bb 06 86 d9 39
       0.0060614375 0.013260922 -0.0022946296 0.0004148932
000040 c6 62 bc bc 2e ab 0c bb ce 72 61 bc ad 53 0d bc
       -0.022996318 -0.0021464336 -0.013760282 -0.008625907
000050 f7 f7 10 bb 10 45 8b 3c 9f 90 4f 3b 9d b0 89 bb
       -0.0022120455 0.017000705 0.0031671894 -0.004201962
000060 78 55 06 bc ed 70 57 3b 17 5c 7c bc 63 b5 21 3c
       -0.008199088 0.0032873705 -0.015402815 0.009869906
000070 46 ba 0e bc d5 90 c3 bb 28 57 4f bc 69 7b ac 3c
       -0.008711403 -0.005968193 -0.012655057 0.02105494
000080 b5 08 31 bc f8 01 66 bb e6 4d 14 bc f0 3d d6 bb
       -0.010805299 -0.0035096388 -0.009051776 -0.0065381452
000090 51 1e 4b 3a 6b e1 aa 3b 18 7d 9e bb 06 c7 41 3c
       0.0007748353 0.00521486 -0.0048366897 0.011827236
0000a0 c4 b9 61 bc 2c 51 51 bc 7f fa 63 bc b0 58 bb 39
       -0.0137772 -0.012775701 -0.013914703 0.00035733497
0000b0 42 fc 24 ba 11 f8 db 3b dc 8f 7d ba 52 b1 95 3c
       -0.0006293693 0.0067129214 -0.0009672621 0.01827303
0000c0 3a 87 61 3c 29 ae 90 bb 12 f0 69 3c ed e5 0a 3c
       0.013765151 -0.0044152928 0.014278429 0.00847767
0000d0 cd 49 b4 3c b0 03 aa 3b 0b c3 61 3b 36 d0 ff ba
       0.022007847 0.005188428 0.003444853 -0.0019517008
0000e0 a4 f0 92 bb 2f 10 fa bb cd 46 e0 ba f1 37 aa 3b
       -0.004484253 -0.0076313238 -0.0017110944 0.005194657
0000f0 a4 03 13 3a b2 45 8a 3b 4d 00 bb 3b 1a dd d0 bb
       0.00056081475 0.004219734 0.005706823 -0.0063740136
000100 8e 4e 5c 3b 91 c7 89 3c 49 81 e2 38 eb 94 5c bb
       0.0033616158 0.016818793 0.00010800601 -0.0033658098
000110 8e 3d 5a bc d2 65 be bb 1a 48 ae 3b eb 7d aa 3b
       -0.01332034 -0.005810478 0.005318654 0.005202999
000120 62 df 6d bc a7 f9 67 3c fb f1 f0 3b 9c 63 9c bb
       -0.014518591 0.014158643 0.007353065 -0.0047726166
000130 2d 87 2a bc 16 78 c4 3b 87 ac 8b bc 86 34 06 bc
       -0.010408205 0.0059957607 -0.01705004 -0.0081912335
000140 f9 a6 a1 bb dd 1e 9a 3b 57 2a cc bc e0 7d 9e 3b
       -0.004933235 0.004703386 -0.024922533 0.004836783
000150 ae 42 fe 3b fc c6 94 39 d5 8b d0 3b b9 b3 bd 3b
       0.0077594137 0.00028377015 0.0063643255 0.005789247
000160 a2 25 0e 3b c2 ab b3 3b 37 00 f0 ba c1 d4 f3 3b
       0.0021689911 0.0054831216 -0.0018310611 0.0074411337
000170 ed 36 83 3b 04 16 e7 3a d2 31 2c 3b ee 2d 4f 3c
       0.0040043504 0.0017630463 0.0026274812 0.012645228
000180 da 79 10 bc f2 de 84 3b ff e2 6b bc 64 b7 84 ba
       -0.008818114 0.0040548975 -0.014397382 -0.0010125455
000190 fb e9 c2 bb c6 e7 9a 3b ed 1e eb 3b bf 1d 6c 3a
       -0.005948303 0.0047273366 0.0071753175 0.0009007118
0001a0 12 e2 23 3d c4 35 50 3c b4 99 03 b9 03 6b 1c 3b
       0.04001052 0.012708131 -0.00012550392 0.0023867495
0001b0 df 4c ac 3a ea 97 f7 3b 6b fd 31 3c 9f 55 5d 3b
       0.0013145468 0.0075559514 0.010863642 0.0033772958
0001c0 3d 88 bc bb 09 3f dc ba c1 c8 9c 3c 07 5e 24 3c
       -0.0057535456 -0.0016803454 0.019138696 0.0100321835
0001d0 05 82 68 bc 23 b3 37 bc ff e2 b0 ba 68 8e 84 3c
       -0.014191155 -0.011212143 -0.0013495384 0.016181186
0001e0 95 30 dd 3b ba ef 8e 3b b2 9b 39 3c 49 3f 41 39
       0.006750176 0.0043620737 0.011328625 0.0001842949
0001f0 dc 83 92 bc ef 34 16 3c 19 27 73 bb 35 d8 27 3c
       -0.017885141 0.009167894 -0.0037102161 0.010244419
000200 f6 7e 66 bc ed 0d 97 ba 48 f2 1d bc 04 9e 1b 3c
       -0.014068356 -0.0011524536 -0.009640284 0.009498123
000210 7a 3a 83 3c c0 d5 6a 3c e2 30 2f 3b 9d 74 08 bb
       0.016019095 0.0143331885 0.0026732017 -0.002082146
000220 02 f4 68 bc 0c 6e a9 3b 35 24 63 3b 39 1d 1d 3c
       -0.014218332 0.0051705893 0.0034659032 0.009589487
000230 f7 bc f8 3b c8 0b 3e 3b 8f 3d 49 be 76 4e 37 bc
       0.0075908857 0.0028998721 -0.19652389 -0.01118814
000240 ac 09 24 3b 45 4c 04 3d fe b8 88 bd 1f d5 fc bc
       0.002503018 0.0322993 -0.066759095 -0.030863343
000250 3b 41 44 bd a3 83 e2 3c f1 8f 3a 3b 45 a6 ec bb
       -0.04791377 0.02765066 0.0028467143 -0.0072219693
000260 8e 8e 6c 3c 4c 95 49 bb 1f d5 81 bc fe 3d 5c 3c
       0.014438285 -0.0030759154 -0.015848694 0.013442514
000270 bb be 51 3c 48 ac 07 3a 60 9a 7a bc df 1f f5 3b
       0.012801821 0.0005175513 -0.015295595 0.007480606
000280 1b 6f be bb 53 c1 7c bb f7 5e ba 39 3f a4 9c 3a
       -0.0058115846 -0.0038567379 0.0003554744 0.0011950805
000290 5e 95 02 bc ff 9e 06 bb 1b 46 17 bc 5d ea 80 bc
       -0.007970182 -0.0020541546 -0.009233023 -0.015736753
0002a0 ca ec 72 bb 3f 30 02 3c 3e 93 a8 bb dc 22 73 bc
       -0.0037067407 0.007946073 -0.0051445058 -0.014839854
0002b0 40 6a 9c bc 23 29 a6 3a 7a 2d 26 3c db b4 b4 bb
       -0.019093633 0.0012677055 0.010142678 -0.0055147237
0002c0 70 e8 f2 bb e8 a1 c0 bb 01 f1 8f 3c 08 92 15 bc
       -0.0074129626 -0.0058786757 0.017570974 -0.009129055
0002d0 75 45 1c 3c 24 73 5b bb 72 26 3f bc c6 d2 67 3b
       0.009538044 -0.0033485377 -0.011666881 0.0035373433
0002e0 e4 b4 e4 bb 32 15 e8 bb ab f6 aa 3b 07 9a ab 3c
       -0.0069795717 -0.007082605 0.0052173934 0.02094747
0002f0 a8 39 a9 bb 8d 48 17 bc 99 dc ef 3a 91 ad 2d 3c
       -0.005164344 -0.009233606 0.0018299996 0.0106004635
000300 cb ee bb bb c0 e0 53 3b 4f 0d 04 bc 43 e7 25 bc
       -0.0057352534 0.0032330006 -0.008059814 -0.010125938
000310 94 c2 a0 bb 0d a7 c0 bb 39 d9 c8 3a 9b 03 8f 3b
       -0.004906008 -0.005879289 0.0015323526 0.0043644435
000320 a2 67 4b 3b 5d 3a ae b9 a6 ff 80 bb 43 9c 2f 3c
       0.0031037112 -0.0003323135 -0.0039367257 0.010718408
000330 d1 78 90 bc c6 3e 74 3c e0 5e 49 3b 59 86 a2 bb
       -0.017635735 0.0149075445 0.0030726716 -0.004959863
000340 76 d6 d7 3b e6 7c e4 3b 02 8a 3b b8 8d 20 87 3c
       0.006586845 0.006972897 -4.4712804e-05 0.016495014
000350 6d 54 c8 3a 9e 4b 2c bc 62 3b ba bb f1 a6 59 3a
       0.001528395 -0.010516075 -0.0056833485 0.0008302769
000360 b7 10 90 3b 22 6b ea bb 62 4b 3b ba bd 09 13 bc
       0.004396524 -0.0071538845 -0.0007144717 -0.00897449
000370 fe 69 a6 bc 23 b4 2f bc fa 5f 37 39 f4 a5 4b 3a
       -0.020314213 -0.0107241 0.00017487994 0.00077685644
000380 d6 61 e7 3a 46 12 a8 ba ef cf 16 bc 86 96 33 3b
       0.0017653059 -0.0012822829 -0.009204849 0.0027402951
000390 84 29 af bb 99 29 96 3b 10 6f 0d bc 08 c3 8c b9
       -0.005345525 0.0045825955 -0.008632436 -0.0002684819
0003a0 d5 72 5e 3b cc a6 0f bb 1d 46 4c 3c 9b 71 e7 bb
       0.0033942957 -0.0021919487 0.012467888 -0.0070631034
0003b0 5b 7d 0a 3c 34 ae a6 3b 4d 71 af 3b 62 e3 b7 3b
       0.008452739 0.0050866846 0.0053540827 0.005611823
0003c0 5a d7 be 3b 62 34 44 b9 bf 33 df bb 23 40 b7 3b
       0.0058240118 -0.0001871153 -0.0068115885 0.0055923625
0003d0 45 1a 74 bc 7f 87 82 bc 79 7e 6f bc 2d 3b 8c 3b
       -0.014898841 -0.01593375 -0.014617556 0.0042795152
0003e0 a5 c3 e6 bb 2b 84 0e 3b f8 8d 81 bc 51 9f 8d ba
       -0.0070423656 0.0021746259 -0.015814766 -0.0010804926
0003f0 0b 86 e7 3b 28 c9 cb 39 20 89 54 3c c8 30 20 3b
       0.0070655397 0.0003886905 0.012972146 0.0024443138

linear.weight f4 [1, 13]
000000 ee c5 c5 bc cc f9 27 3d 17 72 6e be 31 b8 26 3e
       -0.024142232 0.04100971 -0.2328571 0.16281201
000010 06 71 54 be 77 6d ee bc 27 e1 f8 bd 8a 71 80 3d
       -0.2074624 -0.029104931 -0.121523194 0.06271656
000020 bf 0d 28 3e f4 cb 7f be c3 f9 1b 3e 31 c9 54 3d
       0.16411494 -0.24980146 0.15231995 0.051949684
000030 19 9b 72 3e
       0.23691978
