Results/WD/20250107_131927_batch1024_epoch10_lr0.01_reg0.0001_WD/control_wide_deep.pth (torch, 173714 bytes, 10 tensors)

wide.weight f4 [1, 13]
0	0xbd6bf00c	-0.057601973
1	0xbf7315a3	-0.9495489
2	0xbf812c32	-1.0091612
3	0xbd9455af	-0.07242905
4	0x3f97fb04	1.1873479
5	0xbe4e9ca5	-0.20176943
6	0xbdcd1aca	-0.10014875
7	0xbd994e55	-0.07485644
8	0xbf0aa936	-0.54164445
9	0x3db7cde5	0.08974818
10	0xbafc6729	-0.0019256818
11	0xbe7f0730	-0.24905086
12	0x80009a13	-5.5271e-41

deep.0.weight f4 [13, 13]
0	0xb9b4f00f	-0.00034511133
1	0xb86682f5	-5.4958236e-05
2	0x38b275b6	8.509627e-05
3	0x3851e976	5.004691e-05
4	0xb8ca300d	-9.641061e-05
5	0x3886f0c9	6.434468e-05
6	0xb8257999	-3.9452312e-05
7	0xb85e440e	-5.2992305e-05
8	0x38833683	6.2567204e-05
9	0xb9f92ef7	-0.00047527972
10	0xb88cb3e8	-6.7092304e-05
11	0x36adcdad	5.1797456e-06
12	0x8000a666	-5.9693e-41
13	0xbd8df330	-0.0693115
14	0xbd5e639f	-0.054294225
15	0xbd3306e6	-0.04370775
16	0x374f88d3	1.2370018e-05
17	0xbd93c700	-0.072156906
18	0xbb42cc85	-0.0029723954
19	0x3c697ee2	0.014251443
20	0xbc2b054c	-0.010438275
21	0xbc22409f	-0.009903102
22	0xbddb774a	-0.10716112
23	0xbce6c5c7	-0.02817048
24	0x35a9c6de	1.2649359e-06
25	0x800088e6	-4.911e-41
26	0x0000897a	4.9317e-41
27	0x8000898f	-4.9347e-41
28	0x800088e1	-4.9103e-41
29	0x80008bff	-5.0221e-41
30	0x000088f8	4.9135e-41
31	0x00008b43	4.9958e-41
32	0x800088d6	-4.9087e-41
33	0x00008ac1	4.9776e-41
34	0x000089c6	4.9424e-41
35	0x9870d32c	-3.1125888e-24
36	0x80008ad2	-4.98e-41
37	0x80008b37	-4.9941e-41
38	0x000097a8	5.4404e-41
39	0xa432205c	-3.8625007e-17
40	0x03b4184c	1.0585027e-36
41	0x800426ad	-3.81216e-40
42	0x00001954	9.086e-42
43	0x8ed4f06d	-5.2493557e-30
44	0x00008929	4.9204e-41
45	0x03042dd5	3.8843926e-37
46	0x80008a2f	-4.9571e-41
47	0x80008b54	-4.9982e-41
48	0xaf24b31b	-1.4979344e-10
49	0x80006190	-3.4999e-41
50	0x80009410	-5.3115e-41
51	0x000096ca	5.4093e-41
52	0x3eae7896	0.34076375
53	0x3ee754c3	0.45181856
54	0x3e8d4c49	0.27597263
55	0x3cfff1bf	0.031243203
56	0xbe1fcd46	-0.1560565
57	0x3e647300	0.22309494
58	0x3eb14ebe	0.34630388
59	0xbd63ca78	-0.05561301
60	0x3e44980c	0.19198626
61	0xbef68986	-0.48151797
62	0xbcd60771	-0.026126595
63	0x3b517dc4	0.0031965831
64	0x0000962d	5.3873e-41
65	0xb60ad2d8	-2.068633e-06
66	0xb341ac98	-4.5093287e-08
67	0xb09fc120	-1.1623662e-09
68	0x0c9573fc	2.302689e-31
69	0xb67d4667	-3.7740917e-06
70	0x988f72da	-3.7080604e-24
71	0x23babc2f	2.024586e-17
72	0x9f89d443	-5.8372914e-20
73	0x15119f3a	2.9408124e-26
74	0xbbdd816c	-0.006759813
75	0xa65049eb	-7.2264674e-16
76	0x8291043e	-2.130827e-37
77	0x80008b9a	-5.008e-41
78	0xbcdb396c	-0.02676078
79	0xbb0a6fdc	-0.0021123802
80	0xb933447d	-0.00017096284
81	0x364e95c1	3.078356e-06
82	0xbbe41cfe	-0.006961464
83	0xb78a279c	-1.6469327e-05
84	0x3c89e779	0.016834008
85	0xb7f423fd	-2.9103825e-05
86	0x37c526fd	2.3502385e-05
87	0xbd98a4f1	-0.07453335
88	0xb69f4c79	-4.747472e-06
89	0x36612476	3.3548836e-06
90	0x00008932	4.9216e-41
91	0x3afea4ae	0.001942774
92	0x39eb3e59	0.00044869145
93	0xbb198964	-0.0023427838
94	0xbb01ac15	-0.0019786407
95	0x3b005227	0.0019580217
96	0x39e47bd0	0.00043579796
97	0xba0cfb28	-0.00053780014
98	0xbbc60e99	-0.0060442206
99	0x3aac1c93	0.0013131074
100	0xbbc38ae0	-0.005967483
101	0xbb85084f	-0.0040598284
102	0x39bc1c26	0.00035879127
103	0x00009aa0	5.5469e-41
104	0xb234e616	-1.05296944e-08
105	0xa9d1ba04	-9.313733e-14
106	0xa6276c70	-5.8086724e-16
107	0x845d2620	-2.5995931e-36
108	0xab95b4c6	-1.0637261e-12
109	0x80ee01fa	-2.1857557e-38
110	0x27d42245	5.8878975e-15
111	0x989e27da	-4.0882283e-24
112	0x80bfcde8	-1.7614445e-38
113	0xb214623f	-8.637072e-09
114	0x1376fc1c	3.1173865e-27
115	0x8000a3e2	-5.879e-41
116	0x80009eee	-5.7013e-41
117	0x099549fe	3.5940027e-33
118	0x00008959	4.9271e-41
119	0x000089ed	4.9478e-41
120	0x80008930	-4.9214e-41
121	0x00008997	4.9358e-41
122	0x000089cd	4.9434e-41
123	0x000089f6	4.9491e-41
124	0x00008a02	4.9508e-41
125	0x000088ed	4.912e-41
126	0x9fb280f1	-7.559925e-20
127	0x8000893c	-4.923e-41
128	0x000093c4	5.3008e-41
129	0x0000a536	5.9267e-41
130	0xafc1def1	-3.5264905e-10
131	0x9f1b07d0	-3.282899e-20
132	0x9563b20f	-4.5982748e-26
133	0x00008a4b	4.961e-41
134	0xa69a3508	-1.0700271e-15
135	0x00008a35	4.958e-41
136	0x29af7d39	7.793284e-14
137	0x89ca6074	-4.8720435e-33
138	0x80008a56	-4.9626e-41
139	0xb5ec04f1	-1.7584808e-06
140	0x00005295	2.9625e-41
141	0x00008e61	5.1076e-41
142	0xad01a62e	-7.3697e-12
143	0xaa8ea265	-2.533695e-13
144	0x9b4fc1f4	-1.7185308e-22
145	0x12fa2605	1.5786591e-27
146	0x0f660027	1.1339905e-29
147	0xa5cd051d	-3.5565296e-16
148	0x0f80ca9f	1.2699821e-29
149	0x93dde3e2	-5.6012953e-27
150	0x0f76f2d4	1.21755034e-29
151	0x104fe317	4.0998495e-29
152	0xb90a2785	-0.00013175428
153	0x0f59e26e	1.0742535e-29
154	0x8ed3a2bb	-5.217222e-30
155	0x0000891c	4.9186e-41
156	0xb49eebd4	-2.960138e-07
157	0xb3c27b39	-9.056243e-08
158	0x33022415	3.03008e-08
159	0x34074e6a	1.2601382e-07
160	0xb30e061a	-3.30675e-08
161	0x3430903e	1.6443752e-07
162	0x311477ed	2.1605004e-09
163	0x33fee13b	1.1868766e-07
164	0x3440818e	1.7928525e-07
165	0x3238aecc	1.0749954e-08
166	0x34265edd	1.5494466e-07
167	0xb10224a1	-1.893831e-09
168	0x35bd07cd	1.4083868e-06

deep.0.bias f4 [13]
0	0x37f30355	2.8969409e-05
1	0x3718cc92	9.107536e-06
2	0x00008e90	5.1142e-41
3	0x80008c66	-5.0365e-41
4	0x3cf88ac4	0.030339606
5	0x82ecd3a0	-3.479855e-37
6	0xb7171c29	-9.006858e-06
7	0xb9c3ba77	-0.00037332225
8	0x800089fc	-4.95e-41
9	0x80008a80	-4.9684e-41
10	0x80008bdf	-5.0176e-41
11	0x8f51b889	-1.0340036e-29
12	0x330052fe	2.9877803e-08

deep.2.weight f4 [512, 13]
0	0x34dc1d2b	4.0999416e-07
1	0xb626e4ea	-2.4869173e-06
2	0xb8556bcd	-5.0883555e-05
3	0x00044a34	3.93961e-40
4	0xb9b98a97	-0.00035389207
5	0x2625b003	5.7484415e-16
6	0xb377dff2	-5.7712846e-08
7	0xb7921c61	-1.7417771e-05
8	0x8000a3a0	-5.8698e-41
9	0xafe658ec	-4.189994e-10
10	0x80008b15	-4.9893e-41
11	0x043f84c5	2.2512907e-36
12	0x2890003b	1.5987312e-14
13	0x36198245	2.2874603e-06
14	0x2ef887bf	1.13018477e-10
15	0x000088c3	4.9061e-41
16	0x80009f85	-5.7225e-41
17	0x3a9076de	0.0011021753
18	0x82aaa18f	-2.5071985e-37
19	0x2f8e5457	2.5889577e-10
20	0x37c46952	2.3414064e-05
21	0x0000ac01	6.1703e-41
22	0x8000a1fa	-5.8106e-41
23	0x91adcc09	-2.7420334e-28
24	0x303ba20a	6.8260475e-10
25	0x25fc01ab	4.3716162e-16
26	0x32a22606	1.8876573e-08
27	0x2ef0091e	1.0915556e-10
28	0x8000ab0f	-6.1364e-41
29	0x8000a82e	-6.0332e-41
30	0x37bbb3e1	2.23759e-05
31	0x800bf4b9	-1.09798e-39
32	0x364332ca	2.9086827e-06
33	0xb6a53817	-4.923913e-06
34	0x000094a0	5.3317e-41
35	0x00008a7e	4.9682e-41
36	0x800452a6	-3.9699e-40
37	0x86010d84	-2.4272133e-35
38	0xa5a8a81d	-2.9257272e-16
39	0xb558bc72	-8.0740494e-07
40	0x29439309	4.342623e-14
41	0x80009763	-5.4307e-41
42	0x00009650	5.3922e-41
43	0xb0dda711	-1.612735e-09
44	0x82003b06	-9.420894e-38
45	0x29a69bcc	7.398907e-14
46	0x2834ffe2	1.0047493e-14
47	0x80009e99	-5.6894e-41
48	0x1d49d07c	2.6709912e-21
49	0x800c5779	-1.133405e-39
50	0x00008c8b	5.0417e-41
51	0xa41acb60	-3.3565692e-17
52	0x36f6414b	7.3389724e-06
53	0xb5e5d90d	-1.7125e-06
54	0x2f942cfa	2.6953e-10
55	0x800701f0	-6.43544e-40
56	0xbaf2122f	-0.0018468554
57	0x0296cac5	2.2156903e-37
58	0xb0036e12	-4.781394e-10
59	0xb98bfaf3	-0.00026699118
60	0x800097c8	-5.4449e-41
61	0xa9a0085e	-7.106879e-14
62	0x800098bf	-5.4795e-41
63	0x0cc34a6d	3.00893e-31
64	0xa9aacc43	-7.58495e-14
65	0x2963bc14	5.0567257e-14
66	0xa1cebb19	-1.4008627e-18
67	0x00008db5	5.0835e-41
68	0x0000a916	6.0657e-41
69	0xa9fad15a	-1.1138547e-13
70	0x807c3239	-1.1405618e-38
71	0x00008dbd	5.0846e-41
72	0x2819ec6e	8.544474e-15
73	0x0000a298	5.8328e-41
74	0x80008b61	-5e-41
75	0x000088cc	4.9073e-41
76	0x09c13042	4.650844e-33
77	0x970980bb	-4.442957e-25
78	0x3330070a	4.0984595e-08
79	0x36975ffb	4.5113243e-06
80	0xb7450770	-1.1743847e-05
81	0x045ee7dc	2.620244e-36
82	0xbbb65ac2	-0.0055650184
83	0xa58644ab	-2.3291826e-16
84	0x360a9c17	2.0654459e-06
85	0x38d056bd	9.934369e-05
86	0x80008927	-4.9201e-41
87	0x384dd851	4.907727e-05
88	0x8000291f	-1.4751e-41
89	0xb19b1d63	-4.5144346e-09
90	0xb4c140a5	-3.5996086e-07
91	0x3742e429	1.1616424e-05
92	0xbc5d1627	-0.013494051
93	0x000089d7	4.9448e-41
94	0xa28fc549	-3.896911e-18
95	0x3c5d08d2	0.013490872
96	0xa6be150c	-1.3189603e-15
97	0xb631bfd2	-2.648671e-06
98	0xb8e665fd	-0.000109862514
99	0x825b6b1f	-1.6120321e-37
100	0x800089d1	-4.9439e-41
101	0xa28b8df0	-3.7826308e-18
102	0xa4d3effc	-9.191321e-17
103	0xab2d01ae	-6.146428e-13
104	0x340bf3b2	1.303404e-07
105	0x32b929b7	2.1555804e-08
106	0x80005814	-3.1596e-41
107	0x00002559	1.3398e-41
108	0x388cbcc3	6.71088e-05
109	0x80023c74	-2.05357e-40
110	0x34a71e01	3.1128005e-07
111	0x352bc123	6.3983515e-07
112	0x000032a6	1.8169e-41
113	0x290a208d	3.067039e-14
114	0x80007635	-4.2405e-41
115	0x2e77da99	5.635545e-11
116	0xa8f49e60	-2.7158126e-14
117	0xb723746d	-9.742665e-06
118	0xb4b7bdf4	-3.4224615e-07
119	0x00008f96	5.1509e-41
120	0x80028187	-2.30137e-40
121	0x38763aa4	5.8705584e-05
122	0x0002c074	2.5271e-40
123	0x346fb206	2.2323374e-07
124	0xb322104d	-3.773339e-08
125	0x80009d3c	-5.6405e-41
126	0x00008a4e	4.9614e-41
127	0x80008b1d	-4.9904e-41
128	0xada9411c	-1.924199e-11
129	0xb81d27c5	-3.7468755e-05
130	0x36c20077	5.7817047e-06
131	0xb4a3b87b	-3.0495343e-07
132	0x343b8002	1.7462301e-07
133	0xa8af26c1	-1.944571e-14
134	0xba2ee382	-0.00066714745
135	0x011b5fcf	2.8537743e-38
136	0xaf82288c	-2.3675673e-10
137	0x3900099d	0.00012210612
138	0x800094d7	-5.3394e-41
139	0x2e811cd4	5.871362e-11
140	0x000088f6	4.9132e-41
141	0x8db296fc	-1.1006445e-30
142	0xad30e188	-1.005452e-11
143	0x373ab61a	1.1128863e-05
144	0x35578c6a	8.029807e-07
145	0x800088f5	-4.9131e-41
146	0x800020e4	-1.1799e-41
147	0xbba6d622	-0.0050914446
148	0x01fbed48	9.254332e-38
149	0xb32eaecd	-4.0671512e-08
150	0xb813361e	-3.509793e-05
151	0x80009fd4	-5.7336e-41
152	0x8000892d	-4.921e-41
153	0x000088e8	4.9113e-41
154	0x8d011a57	-3.97829e-31
155	0xabd44434	-1.5082436e-12
156	0xb6058284	-1.9894514e-06
157	0x286486df	1.2685788e-14
158	0x80008e5f	-5.1073e-41
159	0x8000aca0	-6.1926e-41
160	0x3820c037	3.8325987e-05
161	0x8425a156	-1.9469739e-36
162	0xadadcadb	-1.9757909e-11
163	0xb81ded9a	-3.7653e-05
164	0x8000ddf1	-7.9618e-41
165	0x0000aae0	6.1298e-41
166	0x000088d7	4.9089e-41
167	0xb089789b	-1.000234e-09
168	0x1613eebb	1.1949895e-25
169	0xa8acd29f	-1.9187178e-14
170	0xb3a3be90	-7.624942e-08
171	0x8005a7e1	-5.19401e-40
172	0x800327b5	-2.8975e-40
173	0xb75329ec	-1.2586341e-05
174	0x20afeff9	2.9804954e-19
175	0xb496f9fe	-2.812157e-07
176	0x2b0bfe2e	4.9735465e-13
177	0x80009edf	-5.6992e-41
178	0x000088f2	4.9127e-41
179	0x00019ffb	1.49226e-40
180	0x8c10ac00	-1.1145116e-31
181	0x312e4d19	2.5364157e-09
182	0xb64729e8	-2.9677703e-06
183	0xb5938404	-1.0990775e-06
184	0x2025eb93	1.4053989e-19
185	0x80047c8a	-4.12018e-40
186	0x39eb35a5	0.0004486266
187	0x8000a47a	-5.9003e-41
188	0x801db6c6	-2.728796e-39
189	0x3a1e4437	0.00060373865
190	0x0000a9c3	6.0899e-41
191	0x00008cb7	5.0479e-41
192	0x2af944a4	4.4278914e-13
193	0x3a3528ad	0.0006910663
194	0x291247d8	3.2480827e-14
195	0xb5b655cf	-1.358503e-06
196	0xb33063f1	-4.106909e-08
197	0x0000890d	4.9165e-41
198	0x8000c882	-7.1929e-41
199	0xbc0df99f	-0.008665471
200	0x00022cc8	1.99735e-40
201	0x3729b821	1.0116056e-05
202	0xb7cde1ac	-2.4542991e-05
203	0x80008ecb	-5.1224e-41
204	0x00008a5c	4.9634e-41
205	0x1a796b8b	5.1578866e-23
206	0x30a63dbb	1.2095634e-09
207	0x2aa3138c	2.896818e-13
208	0xb72ad398	-1.0182055e-05
209	0x3772d329	1.4473489e-05
210	0x0000ad62	6.2198e-41
211	0x00024c66	2.11078e-40
212	0x3c917551	0.017756136
213	0x0246d959	1.4609118e-37
214	0x3663a370	3.392077e-06
215	0xb90eb5af	-0.00013609858
216	0x0000a75f	6.0041e-41
217	0x000088bc	4.9051e-41
218	0x00008fd9	5.1603e-41
219	0x227fd85e	3.4673488e-18
220	0x2ccf4d80	5.891898e-12
221	0xb4aca423	-3.2156922e-07
222	0xb6959b12	-4.4585986e-06
223	0x1a7dc3f3	5.247746e-23
224	0x80025a2d	-2.1602e-40
225	0x3e72c58f	0.23708175
226	0x01821456	4.778364e-38
227	0xb71e4f5c	-9.436011e-06
228	0x378c9d0c	1.6762431e-05
229	0x80009a5d	-5.5375e-41
230	0x00008ef0	5.1276e-41
231	0x80008e87	-5.1129e-41
232	0x34ebc66f	4.391654e-07
233	0xa9e7150f	-1.0262114e-13
234	0xb73471c8	-1.0755328e-05
235	0xb55fa113	-8.330837e-07
236	0x0005d522	5.35635e-40
237	0xb5b324e6	-1.3347278e-06
238	0x3e335980	0.1751461
239	0x8001316d	-1.09566e-40
240	0x321a2dc6	8.9743875e-09
241	0x3951d044	0.00020009378
242	0x80008913	-4.9173e-41
243	0x00008eaf	5.1185e-41
244	0x8003009e	-2.75728e-40
245	0xac3b592c	-2.6623799e-12
246	0xaadd27e1	-3.9285158e-13
247	0xb65bf8dd	-3.27784e-06
248	0x387dfc54	6.05549e-05
249	0xa039c6f5	-1.5735939e-19
250	0x00054bd5	4.86381e-40
251	0xba9139e0	-0.001107987
252	0x81a68a65	-6.1177356e-38
253	0x37476ede	1.1887138e-05
254	0xb9b65d37	-0.00034783196
255	0x0000aaf6	6.1329e-41

deep.2.bias f4 [512]
0	0x39fecb49	0.00048598115
1	0x3baf89d3	0.005357006
2	0x38046eb4	3.1574353e-05
3	0xaf87d578	-2.4708036e-10
4	0x3c4d4f17	0.0125310635
5	0xa90a1485	-3.0659953e-14
6	0xbacd8b91	-0.0015681853
7	0xbc0d8523	-0.008637699
8	0x3b4cbeff	0.0031241772
9	0x39c652c4	0.00037827168
10	0xb904c69e	-0.00012662492
11	0xbb1709a1	-0.002304651
12	0x3842ff0d	4.649074e-05
13	0xb5b00699	-1.3114942e-06
14	0xb81d5eb7	-3.7519927e-05
15	0x387b5e1d	5.9930713e-05
16	0x3b8f9ab9	0.004382458
17	0x3e5086c0	0.20363903
18	0x3e3d2df0	0.18474555
19	0xba4c4f3a	-0.0007793788
20	0x3bd7b561	0.0065829013
21	0xb62375d4	-2.4357478e-06
22	0xba08b43e	-0.00052148465
23	0xb9af4d20	-0.00033436064
24	0x3e6fad47	0.23405944
25	0x309a21d8	1.1214594e-09
26	0x3ba9c370	0.0051807687
27	0xbc50bbda	-0.0127401
28	0xb93cc931	-0.00018004027
29	0xbbdad0a5	-0.0066777044
30	0x3d503172	0.050828405
31	0x3afb1986	0.0019157387
32	0xb9702c61	-0.00022904716
33	0x3e14b08a	0.1452047
34	0xbb179bc4	-0.0023133615
35	0x39f1afc0	0.00046098046
36	0xb7e161a8	-2.6867565e-05
37	0xbadf6af4	-0.0017045424
38	0x3bc8afa3	0.006124453
39	0xb6758b3d	-3.6588892e-06
40	0x3cf11cb2	0.029432628
41	0x3e1e0efb	0.15435402
42	0xbbcca3ec	-0.006245127
43	0x39f6d1c5	0.00047077067
44	0x3c4c5226	0.012470758
45	0xb9da2fa9	-0.0004161571
46	0x3d8e773b	0.06956335
47	0x39de319f	0.0004238011
48	0x38c37703	9.320492e-05
49	0x3d989f41	0.0745225
50	0xbb3bbe72	-0.002864745
51	0x3cf2ab2b	0.029622635
52	0x3946d063	0.00018960382
53	0xbbbcff0f	-0.00576771
54	0x3a82541e	0.0009943282
55	0x3c6d9a50	0.014502123
56	0xb3cef709	-9.637558e-08
57	0x3ba30dae	0.004975996
58	0x3cfcf5e7	0.030878974
59	0x3d0dbb50	0.034602463
60	0x3e30f05c	0.1727919
61	0xba22a0a8	-0.0006203749
62	0x39ad06e5	0.00033002268
63	0x3ca4e66c	0.020129405
64	0xb734c9d0	-1.0775824e-05
65	0x3bc7b692	0.006094762
66	0xbcd6c908	-0.026218906
67	0xbaa7e457	-0.001280914
68	0x3d03a31c	0.032137975
69	0xb1f47da3	-7.115618e-09
70	0xbc2b3a38	-0.010450892
71	0xba39016f	-0.00070574036
72	0x3add4de2	0.0016884173
73	0x3b09871d	0.0020985075
74	0xb58df427	-1.0576376e-06
75	0xb91f7a1a	-0.00015208908
76	0x3c9ae670	0.01890871
77	0x3e03dcd6	0.12877211
78	0x3d4566f8	0.0481939
79	0xb7f59269	-2.9274453e-05
80	0x3c480de1	0.01221034
81	0x3d9bf864	0.07615736
82	0x398f6916	0.0002735338
83	0x34a605a4	3.0924014e-07
84	0x3d039832	0.032127567
85	0xb873c335	-5.8117515e-05
86	0x3a0f6263	0.0005469678
87	0x3919c658	0.00014665106
88	0x3c3c0232	0.011475133
89	0x3cc202c6	0.023682963
90	0x39b91d2f	0.00035307693
91	0xbaab0f56	-0.0013050835
92	0xba749d79	-0.00093313266
93	0x3dc6d56c	0.09708676
94	0x3e40fa37	0.1884545
95	0xb966ac6a	-0.00021998739
96	0x3a6d2011	0.0009045611
97	0x2243a22e	2.6513285e-18
98	0xb8474b32	-4.751533e-05
99	0x3a97985a	0.001156579
100	0x3cbf11a9	0.02332385
101	0x3cebc71b	0.028781464
102	0x3442a5d8	1.8127992e-07
103	0xba004db0	-0.0004894389
104	0x3d5d0692	0.053961344
105	0x3ac992a8	0.001537879
106	0x3a8783f4	0.0010339008
107	0xb9056f67	-0.00012725369
108	0x39a9cdfd	0.00032387665
109	0x39651821	0.0002184813
110	0x3d54d517	0.05196103
111	0x36d6be5c	6.3998577e-06
112	0xb1f4efc8	-7.1285946e-09
113	0x379ea5cc	1.8912273e-05
114	0x3c870039	0.016479598
115	0x3e069166	0.13141403
116	0xbb8b502d	-0.004251501
117	0x3b741442	0.003724352
118	0x38dbb5f7	0.00010476627
119	0x3a8b45d7	0.0010625672
120	0xbbd87492	-0.006605693
121	0x3d308b71	0.04310173
122	0x3da69c9c	0.081353396
123	0x3859881a	5.1863586e-05
124	0x396d7dcc	0.00022648944
125	0x38b3cc44	8.5734326e-05
126	0xb8e82bbb	-0.000110707675
127	0x3bc97a3c	0.0061486047
128	0xb8805ddf	-6.1210005e-05
129	0x3c0cf552	0.008603411
130	0xba01a286	-0.00049451774
131	0xbbf7118a	-0.0075399326
132	0x39487493	0.00019116914
133	0x3891e8e0	6.957515e-05
134	0x36402dd8	2.8636914e-06
135	0xbbbdda45	-0.005793842
136	0xba49442d	-0.00076777005
137	0x39e94fb1	0.00044500598
138	0x3df528de	0.119706854
139	0x3c6f104d	0.014591289
140	0xbafb2ff3	-0.001916407
141	0x3c1d15bd	0.009587702
142	0x3da5d7bb	0.08097788
143	0xbb6647e6	-0.003513807
144	0x396f0f41	0.00022798499
145	0x3c769aed	0.015051586
146	0x0415f102	1.7625531e-36
147	0xb792f096	-1.7516588e-05
148	0x39680185	0.0002212581
149	0xbab5b35e	-0.001386266
150	0xb9e9415b	-0.00044489917
151	0xb8aa855b	-8.131071e-05
152	0x3b17fca0	0.0023191348
153	0x3b5912e5	0.0033122834
154	0xba1d3dff	-0.0005998313
155	0x3ba6e934	0.005093718
156	0x3cb0cbe5	0.0215816
157	0xba10fa98	-0.00055305054
158	0x3df3567b	0.11881729
159	0x399c5c73	0.0002982352
160	0xbca87e44	-0.02056802
161	0xb98b78b8	-0.00026602088
162	0x3ce96707	0.02849151
163	0xb91179b2	-0.00013873613
164	0xb99cdd13	-0.00029919352
165	0x3d3c8297	0.046022978
166	0x3c8cbd2d	0.01718005
167	0x3c94b465	0.018152425
168	0xbc95fa8c	-0.018307947
169	0xb81b4d2a	-3.7026744e-05
170	0x3a0db6f9	0.0005405988
171	0x3e17cce6	0.14824256
172	0x3e0ab80c	0.13546771
173	0xb89b5a78	-7.407827e-05
174	0x3b8b6025	0.0042534047
175	0x3bf22877	0.0073900777
176	0x3b6d7a60	0.0036236271
177	0x3df5b6ad	0.11997733
178	0x33061d04	3.1225696e-08
179	0xba29589a	-0.0006460041
180	0x3b9dcf07	0.0048159393
181	0x3e3b8ce1	0.1831546
182	0xbb892583	-0.00418538
183	0x3a2ad770	0.0006517088
184	0xb7139300	-8.796109e-06
185	0x3b175a81	0.0023094716
186	0x3c2ecf7f	0.010669588
187	0x3963bb97	0.0002171829
188	0xba223521	-0.00061877264
189	0xb970b283	-0.00022954684
190	0x3ace1e51	0.0015725588
191	0xbb12afa3	-0.002238252
192	0xbbb9bc6f	-0.005668215
193	0x3e1147b7	0.14187513
194	0xb53ac3de	-6.9575424e-07
195	0x10a0f6ca	6.348911e-29
196	0xb6b77d11	-5.4683846e-06
197	0x3c54b4e9	0.0129825855
198	0xb600df0b	-1.9203314e-06
199	0xbafd1626	-0.0019308969
200	0xbc9d1b54	-0.01917807
201	0x37d51f7b	2.5406238e-05
202	0x3d0f692f	0.03501242
203	0x3a498b4b	0.0007688298
204	0x3be30ae0	0.0069287866
205	0x39148525	0.0001416398
206	0x39ef7521	0.000456729
207	0xb607e488	-2.024959e-06
208	0x3cd72af5	0.0262656
209	0x3da43cd5	0.08019415
210	0xb9bdb33e	-0.00036182435
211	0x39a636e5	0.00031702887
212	0x29de9ae8	9.8856524e-14
213	0x38a2c103	7.760713e-05
214	0x3c837e77	0.016051514
215	0xb71af4e6	-9.236135e-06
216	0xbb88b515	-0.0041719773
217	0x37ba032e	2.2174409e-05
218	0xba9337d3	-0.0011231847
219	0x3c8be508	0.017076984
220	0xbb1d981e	-0.0024046968
221	0x32e98822	2.7186676e-08
222	0x3c29577f	0.010335802
223	0x39077257	0.00012917198
224	0xbbc90203	-0.006134273
225	0x3a340f0c	0.0006868697
226	0xb9a7e724	-0.00032024935
227	0xb9c86745	-0.00038223914
228	0xbafef474	-0.0019451515
229	0xbb16caea	-0.002300913
230	0x3aa874bc	0.0012852172
231	0x3e616843	0.22012429
232	0x3547be68	7.4410355e-07
233	0x32cd91f5	2.3931515e-08
234	0xbb8a3cb3	-0.0042186617
235	0x39895ece	0.0002620131
236	0xba4d310f	-0.00078274397
237	0xbaa2c9c9	-0.0012419756
238	0xb9a0624f	-0.00030590824
239	0xb603aded	-1.962176e-06
240	0xbba59a89	-0.0050538224
241	0x3cab93ec	0.020944558
242	0x3cbc7e4e	0.023009446
243	0x3caab3a4	0.020837612
244	0x37472767	1.1870498e-05
245	0x3d0fd5e2	0.035116084
246	0x3d09dc4f	0.03365737
247	0xba9ac601	-0.0011808277
248	0xba30559d	-0.00067266246
249	0xbc67d60c	-0.014150154
250	0x3a1fa59f	0.0006090048
251	0xb982b1bc	-0.00024927955
252	0x39e2e993	0.00043280105
253	0x38bfd306	9.146896e-05
254	0x3bd31308	0.0064414777
255	0x3a58866b	0.0008259776

deep.4.weight f4 [64, 512]
0	0x31547bcd	3.0920433e-09
1	0xb251322e	-1.2176811e-08
2	0x2f9182af	2.6468203e-10
3	0xa89e81c2	-1.7597797e-14
4	0x34d271b4	3.9198278e-07
5	0x9fa57dd1	-7.0088364e-20
6	0xb63c9994	-2.8103577e-06
7	0xb6989e00	-4.5483466e-06
8	0xb4046b65	-1.2332528e-07
9	0x33dcb215	1.0276941e-07
10	0xb20e4db8	-8.283159e-09
11	0x359b4d1f	1.1570845e-06
12	0xb0e3c5b5	-1.6572616e-09
13	0xa6c3b5c1	-1.3580108e-15
14	0xb506bc77	-5.019314e-07
15	0x34d838e1	4.027452e-07
16	0x338c71d0	6.5399604e-08
17	0xb8e3aa6d	-0.00010855948
18	0xb884af09	-6.326853e-05
19	0xb3db4c40	-1.0211852e-07
20	0xb49f7597	-2.9701616e-07
21	0xae68e666	-5.2955328e-11
22	0x33672869	5.382063e-08
23	0x33302fbb	4.1021604e-08
24	0x378da146	1.6883609e-05
25	0x2895332b	1.6564514e-14
26	0xb3ab07e7	-7.9642454e-08
27	0xb6e99cfc	-6.9622165e-06
28	0x300a8917	5.0398924e-10
29	0x367947f9	3.7145785e-06
30	0x371893a9	9.094286e-06
31	0xb1ea9299	-6.8269626e-09
32	0x31e271b9	6.5903945e-09
33	0x36caf77e	6.048881e-06
34	0x34828fc6	2.4318996e-07
35	0x3486c33a	2.510149e-07
36	0xb6934d28	-4.3899236e-06
37	0xb3b44145	-8.3937756e-08
38	0x34e2b65d	4.2228467e-07
39	0x301dd0ab	5.74128e-10
40	0xb65ae4a2	-3.2617613e-06
41	0x3720b58e	9.579015e-06
42	0xb6e34292	-6.772877e-06
43	0xb5f7050e	-1.8404405e-06
44	0xb7b5066b	-2.157987e-05
45	0x31dcdc06	6.4278565e-09
46	0xb7bd0bae	-2.2535995e-05
47	0x32473fe6	1.1597853e-08
48	0x321e13c8	9.201308e-09
49	0x374d54db	1.2238709e-05
50	0xb41bdfe9	-1.4516958e-07
51	0xb45257db	-1.9589736e-07
52	0xb33935a8	-4.312247e-08
53	0xb345fd8f	-4.6098247e-08
54	0x337d623a	5.899549e-08
55	0xb3aff4c0	-8.193592e-08
56	0x2973cc5c	5.4134092e-14
57	0xb5154c8a	-5.5618204e-07
58	0x364dbced	3.065735e-06
59	0xb7568360	-1.2785982e-05
60	0x3910cef8	0.00013810012
61	0x323176bc	1.0329753e-08
62	0xb4382cb1	-1.7152594e-07
63	0x3653ab68	3.1541222e-06
64	0x2f6b7b1c	2.1416863e-10
65	0x3490bbc8	2.695872e-07
66	0x37e7b1f0	2.7620204e-05
67	0x35a1e105	1.2060924e-06
68	0x3768eb2f	1.38830355e-05
69	0xa71d510d	-2.1832065e-15
70	0xba0e5daa	-0.0005430827
71	0xaf7c8a73	-2.2968454e-10
72	0xb4a36fe2	-3.044252e-07
73	0xb1bc8f8b	-5.487839e-09
74	0xada769b4	-1.9032644e-11
75	0x33dde01e	1.0331881e-07
76	0xb3ad7a4d	-8.078187e-08
77	0x355dadc4	8.258178e-07
78	0x37ac6a17	2.05534e-05
79	0xb2594308	-1.2646304e-08
80	0xb6cd5944	-6.119868e-06
81	0x37ac3fa1	2.0533627e-05
82	0xb2136af6	-8.580846e-09
83	0xafe49ad3	-4.1582968e-10
84	0xb67e529d	-3.7897037e-06
85	0x308e08b6	1.0334336e-09
86	0x304de68e	7.4906203e-10
87	0x3336745a	4.2481e-08
88	0xb4c48822	-3.6606895e-07
89	0x36202065	2.3860714e-06
90	0x326bd332	1.3726821e-08
91	0xb43de562	-1.7685446e-07
92	0xb5313ee8	-6.602918e-07
93	0xb695654d	-4.452339e-06
94	0x387f0987	6.080561e-05
95	0x318e2674	4.1371155e-09
96	0xb2a0776a	-1.8680755e-08
97	0x9d62f5d5	-3.0037943e-21
98	0x3187fecc	3.957984e-09
99	0xb2f25d92	-2.8215059e-08
100	0x35a332c9	1.2159227e-06
101	0x36e7d189	6.9087296e-06
102	0x2a977ec0	2.691094e-13
103	0x35a48cb0	1.2259898e-06
104	0xb77c494b	-1.5037435e-05
105	0x368a95b1	4.130147e-06
106	0xb31745d6	-3.5220943e-08
107	0x31eb4897	6.8476527e-09
108	0xb1a0dd27	-4.681755e-09
109	0xb0d5cc74	-1.5555899e-09
110	0x34492ece	1.8736611e-07
111	0x2d5d4497	1.2577626e-11
112	0xa8caba29	-2.250724e-14
113	0x3115ef13	2.1818252e-09
114	0xb5b37a0f	-1.3372063e-06
115	0xb7cc9b7b	-2.4391096e-05
116	0xb5e63dc4	-1.7154312e-06
117	0xb35fe747	-5.213158e-08
118	0xaff63af9	-4.4789042e-10
119	0x338c0fc8	6.5221286e-08
120	0x344584e7	1.8395404e-07
121	0xb75340ed	-1.2591697e-05
122	0xb737e2ec	-1.0960484e-05
123	0xb295ca6a	-1.743793e-08
124	0x3077124d	8.9884084e-10
125	0x336ae027	5.4686236e-08
126	0xb244a514	-1.1446236e-08
127	0x3579a500	9.2999835e-07
128	0xb46c99b6	-2.2035132e-07
129	0xb4ee8ac9	-4.4431934e-07
130	0x368ef03c	4.2598967e-06
131	0xb4b41ce0	-3.3548622e-07
132	0xb2181081	-8.851317e-09
133	0xb16bff4d	-3.4342122e-09
134	0xa8b00e4d	-1.9546127e-14
135	0x33d8646c	1.00765504e-07
136	0x33fa80b8	1.1664946e-07
137	0x3169c871	3.40199e-09
138	0xb7ba941d	-2.2241898e-05
139	0xb34f3c25	-4.8250644e-08
140	0x333a40c0	4.336539e-08
141	0x33e241fc	1.05359476e-07
142	0xb7e5447d	-2.733082e-05
143	0xb408fc5e	-1.2757798e-07
144	0x33eb08b1	1.0944621e-07
145	0xb5bdbea5	-1.4137082e-06
146	0x800089eb	-4.9476e-41
147	0x30f10449	1.7536276e-09
148	0xb269bcdc	-1.3605327e-08
149	0xb49f9e9c	-2.973146e-07
150	0x342d794c	1.6156008e-07
151	0x3211aa86	8.478883e-09
152	0xb381be11	-6.0416035e-08
153	0xb4349fbe	-1.682192e-07
154	0x33b86b0c	8.5876394e-08
155	0x34a28bd6	3.0276595e-07
156	0x36850e6c	3.965388e-06
157	0xb410e82e	-1.3495512e-07
158	0x3667d996	3.4548334e-06
159	0xb2cde385	-2.3968605e-08
160	0x3742040d	1.1564244e-05
161	0x342d1e68	1.6122942e-07
162	0x369a4129	4.5971433e-06
163	0x328033c2	1.4924698e-08
164	0x349c9396	2.9164647e-07
165	0xb733985d	-1.0704706e-05
166	0xb539fef7	-6.9288893e-07
167	0xb61d67b6	-2.345519e-06
168	0xb73ac2ee	-1.11318495e-05
169	0xb02f7eef	-6.384501e-10
170	0x32496994	1.17237455e-08
171	0x37082e97	8.117079e-06
172	0x37efda34	2.8592629e-05
173	0x350162ec	4.8200195e-07
174	0x339a17c1	7.1755046e-08
175	0x350bbf9d	5.206037e-07
176	0x3610a8f1	2.155601e-06
177	0xb68f95b8	-4.2791617e-06
178	0xae9c960b	-7.120712e-11
179	0x30e4ec29	1.6656304e-09
180	0xb52ebe88	-6.509731e-07
181	0x371aa7c4	9.218176e-06
182	0xb63a2dda	-2.774285e-06
183	0xb3193b6c	-3.5677132e-08
184	0xae8fa549	-6.532248e-11
185	0x322dddb7	1.01203375e-08
186	0xb56a5474	-8.729469e-07
187	0xb0f390f5	-1.7721776e-09
188	0x346b0c58	2.1890571e-07
189	0x335c53da	5.1299004e-08
190	0x30985d5d	1.1085991e-09
191	0xb95afa11	-0.00020883257
192	0xb5c46233	-1.4631718e-06
193	0xb768eea5	-1.3883841e-05
194	0x31084388	1.9828992e-09
195	0x8113f198	-2.717297e-38
196	0x31905039	4.200072e-09
197	0x326c33db	1.37487985e-08
198	0xac722158	-3.4408778e-12
199	0xb40c4633	-1.3064054e-07
200	0xb67c84a3	-3.762813e-06
201	0x296ac945	5.213301e-14
202	0x36bdaaae	5.6525087e-06
203	0x30b752e1	1.3338558e-09
204	0x32d021b9	2.4229722e-08
205	0x2faa03f5	3.0925632e-10
206	0x32a19c43	1.8813926e-08
207	0x2ee78e08	1.05298936e-10
208	0xb75125d2	-1.24661765e-05
209	0xb727cf9a	-1.0002312e-05
210	0xb22312ab	-9.492093e-09
211	0x33c1d802	9.0265544e-08
212	0x2774e368	3.398508e-15
213	0xb08c6104	-1.0213914e-09
214	0x35c95db8	1.5002943e-06
215	0x30e70969	1.6810137e-09
216	0x3677afbb	3.6908157e-06
217	0x322fc118	1.0230245e-08
218	0x34906040	2.689212e-07
219	0x321344f1	8.572202e-09
220	0xb3f08f51	-1.120194e-07
221	0x2aa69f8e	2.9598237e-13
222	0x345d2fe9	2.0599659e-07
223	0xb3d21e19	-9.784362e-08
224	0x367dd771	3.7825341e-06
225	0xb2144c03	-8.632017e-09
226	0xb50da80e	-5.2771145e-07
227	0x348eab20	2.657407e-07
228	0x329327b5	1.7131109e-08
229	0xb363a661	-5.3003877e-08
230	0xb2b9a015	-2.1609631e-08
231	0x362b0b59	2.548759e-06
232	0xabc2da6f	-1.3845157e-12
233	0x2b90c034	1.0285162e-12
234	0x35ddaecb	1.6516655e-06
235	0xb26d185b	-1.3800753e-08
236	0x35879dc3	1.0104199e-06
237	0x371a23f0	9.187483e-06
238	0x35bb3b21	1.3949794e-06
239	0xb1248baa	-2.394453e-09
240	0x361c67fd	2.330634e-06
241	0xb716563e	-8.9607765e-06
242	0xb5956f1c	-1.1133702e-06
243	0xb5746633	-9.10458e-07
244	0xadd81497	-2.45655e-11
245	0x341c5564	1.4559697e-07
246	0xb74c2bd7	-1.2169555e-05
247	0x34867e1d	2.5051204e-07
248	0x35b37f72	1.3373631e-06
249	0x368b6ec0	4.155416e-06
250	0xb3cf1498	-9.6429346e-08
251	0x33be8b22	8.8728726e-08
252	0xb64bcc14	-3.0368146e-06
253	0x2f9217c3	2.657413e-10
254	0x34aedabb	3.2569173e-07
255	0x33efbea3	1.11639814e-07

deep.4.bias f4 [64]
0	0xb7e9c8b3	-2.7869222e-05
1	0x391e6bb3	0.00015108175
2	0x3c151ef7	0.009101621
3	0xbafb82fd	-0.0019188818
4	0xbabfebf6	-0.0014642465
5	0xbaaecee7	-0.0013336808
6	0xbbae70df	-0.005323514
7	0x39d82173	0.00041223652
8	0x38dfa229	0.00010663673
9	0x39fbbb91	0.000480142
10	0xb98cbdbb	-0.0002684424
11	0x3cab8b82	0.020940546
12	0xb9ac15c9	-0.00032822628
13	0xbaa8ed0d	-0.001288803
14	0xb9afc167	-0.00033522697
15	0x3592acfb	1.0928192e-06
16	0xb7ecaf2c	-2.8214963e-05
17	0xb9bb66da	-0.0003574405
18	0x37b8d7a9	2.2034934e-05
19	0x3a8038fd	0.0009782609
20	0xbb1828ea	-0.0023217746
21	0x39f55d88	0.00046799728
22	0xbc4e2ed9	-0.012584412
23	0x3aa41ccc	0.0012520789
24	0xba67bcda	-0.0008840092
25	0x3b50e1ae	0.0031872797
26	0x39be955f	0.00036350914
27	0x3a3e52ed	0.0007260282
28	0x3a7ffc35	0.000976506
29	0xbc9accdd	-0.018896515
30	0xbb993ce9	-0.0046764505
31	0xbd307c23	-0.043087136
32	0x3c925ad5	0.017865578
33	0x3abfcfc0	0.0014634058
34	0x39f3a66a	0.0004647256
35	0xba019100	-0.0004942566
36	0xbbafd2c4	-0.0053657014
37	0xbc090ee8	-0.00836537
38	0x3a64d8a1	0.000872979
39	0xb9aea2d7	-0.0003330919
40	0xb9d148a4	-0.00039917708
41	0x3a968ddc	0.0011486369
42	0x3cd1c114	0.025604762
43	0xbbb0334a	-0.005377208
44	0xbb68dd9e	-0.0035532485
45	0x372e2708	1.0380296e-05
46	0xb9d52f45	-0.00040661744
47	0xbb13ecd3	-0.0022571578
48	0xbb15f1bd	-0.0022879683
49	0xba7b0d81	-0.00095769024
50	0xbaaf4c28	-0.0013374137
51	0xbd20653a	-0.039159037
52	0xbace1919	-0.0015724032
53	0x3a57c65b	0.00082311564
54	0xb8e1ecc4	-0.00010772937
55	0xba25c7b6	-0.000632401
56	0xbc46d996	-0.0121368375
57	0x397b88d4	0.00023988198
58	0x3acb577d	0.0015513744
59	0x3931cff8	0.0001695751
60	0xb8bafd1d	-8.916317e-05
61	0xb8b6d0a5	-8.717299e-05
62	0x3aec9e20	0.0018052496
63	0x3a030055	0.0004997303

deep.6.weight f4 [32, 64]
0	0xb122e1d9	-2.3702482e-09
1	0xb7285fc8	-1.0035881e-05
2	0x3bed25ab	0.0072371564
3	0xb7bd7f1a	-2.2589742e-05
4	0xb607184f	-2.0130717e-06
5	0xb745b8e2	-1.1785161e-05
6	0xb7ae8a19	-2.0806723e-05
7	0xbaea9989	-0.001789854
8	0xb8d57a8b	-0.00010179457
9	0x39edf558	0.00045386958
10	0x38bf27c6	9.114998e-05
11	0xbccec005	-0.025238046
12	0x35fe3111	1.8938755e-06
13	0xb11df1cc	-2.2983953e-09
14	0x39c3e32e	0.0003736256
15	0xba2b4cab	-0.0006534557
16	0x3731ca44	1.0597116e-05
17	0x3601d4c9	1.9346355e-06
18	0xb7f02545	-2.8627584e-05
19	0x372b9ec1	1.0229357e-05
20	0xb03a6978	-6.7816286e-10
21	0x3ababee1	0.001424756
22	0x373a0212	1.1086946e-05
23	0xba7f4b24	-0.0009738675
24	0x34241d91	1.5284446e-07
25	0x3b6ce6cd	0.003614831
26	0xb6eb0798	-7.00443e-06
27	0x35ef5e6b	1.7834367e-06
28	0x37d0cfd8	2.4892317e-05
29	0xb087493d	-9.843358e-10
30	0xbb0df76b	-0.0021662365
31	0xba1cd8fe	-0.0005983262
32	0x3a2a94bd	0.0006507149
33	0x3b5b5cfb	0.0033472169
34	0x338e2b43	6.6202595e-08
35	0xb240fab1	-1.12328715e-08
36	0xb85ef011	-5.3152504e-05
37	0x38531991	5.033013e-05
38	0x3229c255	9.881281e-09
39	0x360dbb91	2.1119815e-06
40	0xb3bd7deb	-8.823903e-08
41	0xb6d89fe6	-6.4559163e-06
42	0xbd5abffd	-0.05340575
43	0x353dec9c	7.07523e-07
44	0xb7460606	-1.1803122e-05
45	0x35173259	5.632515e-07
46	0x397de658	0.0002421377
47	0x385c4114	5.2512696e-05
48	0x34d2bfc5	3.925508e-07
49	0xb6faf61d	-7.479232e-06
50	0x3a3150ce	0.0006764055
51	0xb8c14624	-9.216022e-05
52	0xb7a0b98d	-1.915989e-05
53	0x37a8553f	2.0066856e-05
54	0xb8a59c88	-7.896969e-05
55	0x360fe03b	2.143918e-06
56	0x39998db0	0.00029288
57	0x3a1886db	0.0005818435
58	0x3c369eb6	0.011146238
59	0x3532e87e	6.664849e-07
60	0xb53859a8	-6.867581e-07
61	0xb61242d3	-2.1794592e-06
62	0xb91a942a	-0.0001474178
63	0x34e8c217	4.3354586e-07
64	0x80337e49	-4.728913e-39
65	0xa81f1272	-8.830273e-15
66	0x9e969abd	-1.5945866e-20
67	0x1bbbb175	3.1051234e-22
68	0xa5bf9e61	-3.324054e-16
69	0x29227f49	3.6081628e-14
70	0x271e0283	2.1928266e-15
71	0x247192f1	5.238301e-17
72	0xabd55edb	-1.5160888e-12
73	0x24fde292	1.10105085e-16
74	0x22dcc380	5.9838113e-18
75	0xa87381d9	-1.3517366e-14
76	0xa629526a	-5.8745345e-16
77	0xa64be179	-7.0735346e-16
78	0xa725d5d8	-2.3014275e-15
79	0xa71e79f1	-2.199301e-15
80	0xa03aa2b0	-1.5808642e-19
81	0x260a15b8	4.79078e-16
82	0x2529557f	1.468738e-16
83	0xa5b1f9bf	-3.087384e-16
84	0xa5e325bd	-3.9403795e-16
85	0x2799fda7	4.274104e-15
86	0x1fd8f09f	9.187763e-20
87	0x2469d1f5	5.0701662e-17
88	0x26e9f40f	1.6233775e-15
89	0x9f866c13	-5.693e-20
90	0xa7bc30df	-5.223347e-15
91	0xa7490739	-2.7898269e-15
92	0x27618827	3.129883e-15
93	0x25f40470	4.233026e-16
94	0xb22b8377	-9.983402e-09
95	0x1c699c0e	7.729493e-22
96	0xa090bbad	-2.4518742e-19
97	0x27d95f0e	6.0332658e-15
98	0x289f03e6	1.7654237e-14
99	0xa5d6678d	-3.719325e-16
100	0xa485a8c5	-5.796546e-17
101	0x24215094	3.4979562e-17
102	0x255081fe	1.8085167e-16
103	0xa59c589a	-2.7121725e-16
104	0xa35113d2	-1.133411e-17
105	0xa69f9a51	-1.1074669e-15
106	0xa820ac58	-8.919155e-15
107	0x24a4711e	7.131529e-17
108	0xa410aae1	-3.1369763e-17
109	0xa62742af	-5.8030137e-16
110	0x2772ad7b	3.367829e-15
111	0x9f0e21a9	-3.0097513e-20
112	0x2945e943	4.394511e-14
113	0x212b08f5	5.794891e-19
114	0x284d31d2	1.1390589e-14
115	0x296e7847	5.295094e-14
116	0x9de04602	-5.9364693e-21
117	0x263ed367	6.6205996e-16
118	0xa5a0f0e7	-2.7918817e-16
119	0xa685e70b	-9.291353e-16
120	0x279077f8	4.00981e-15
121	0xa6438da6	-6.7846185e-16
122	0xa64d8432	-7.130282e-16
123	0xa8453d07	-1.094893e-14
124	0xa7aad992	-4.742037e-15
125	0xa5162c9e	-1.3025543e-16
126	0x258a29cb	2.3967504e-16
127	0xa645bfce	-6.860805e-16
128	0xa9f54029	-1.08913157e-13
129	0x2b24f736	5.860758e-13
130	0x2e078409	3.0812717e-11
131	0xabbbe734	-1.3351321e-12
132	0x2c15aaa6	2.1268902e-12
133	0x2ba7735d	1.1898083e-12
134	0x2d886fa0	1.5510981e-11
135	0x2c467d4c	2.8207046e-12
136	0xab5055e9	-7.401567e-13
137	0x2c9cdc18	4.458222e-12
138	0xacf8894c	-7.063827e-12
139	0x2febdd5f	4.2903545e-10
140	0xac9bae02	-4.4246837e-12
141	0xab8fe938	-1.0225492e-12
142	0x2c96d237	4.286595e-12
143	0x287f20ff	1.41624985e-14
144	0xaa9aed08	-2.752037e-13
145	0x2cc95134	5.721779e-12
146	0xa95f7710	-4.9619217e-14
147	0xad1cb04b	-8.906718e-12
148	0xa949340d	-4.4676112e-14
149	0x29c49032	8.7291624e-14
150	0xab2787a3	-5.951855e-13
151	0xaead0696	-7.868299e-11
152	0x2c386bcb	2.620781e-12
153	0x2e20b909	3.6544132e-11
154	0xaba873c3	-1.1969248e-12
155	0xaac69715	-3.52767e-13
156	0xaaceec81	-3.6757058e-13
157	0xa8eb1c17	-2.6102423e-14
158	0xb107197c	-1.9659572e-09
159	0xafbab9db	-3.396526e-10
160	0x2e768282	5.604984e-11
161	0x2c79e48c	3.5511897e-12
162	0xa9d6c9a9	-9.5384916e-14
163	0x298935bf	6.0933456e-14
164	0x2e46fef7	4.5246442e-11
165	0x2eda8d28	9.9385666e-11
166	0x2847af88	1.1084781e-14
167	0x2db43929	2.0489015e-11
168	0xaae2fb2b	-4.0319947e-13
169	0x2b9e430e	1.1245187e-12
170	0x3163dc10	3.3157939e-09
171	0xab5c514a	-7.827251e-13
172	0x2cd01705	5.9142712e-12
173	0x297f6b58	5.671448e-14
174	0xabf2a7d2	-1.7241714e-12
175	0xae8ef0d6	-6.5001934e-11
176	0xae3fcce8	-4.3610365e-11
177	0xacd121a8	-5.943874e-12
178	0xabbf4470	-1.3590361e-12
179	0x2fb2b650	3.2507552e-10
180	0x2e501e88	4.732084e-11
181	0xadea621d	-2.6646291e-11
182	0x2cd0c8a7	5.9339924e-12
183	0x2cc37527	5.55524e-12
184	0x2fc81a40	3.639844e-10
185	0x2d1ccf63	8.9136224e-12
186	0xadda300c	-2.4805068e-11
187	0x29778ed5	5.4968904e-14
188	0x292cd775	3.837855e-14
189	0x2a36531c	1.6193682e-13
190	0x2c0020c5	1.8208085e-12
191	0xa94deab3	-4.5722713e-14
192	0x9c1fb93c	-5.2848097e-22
193	0x22e444b9	6.1872287e-18
194	0x9ff38cdb	-1.0314753e-19
195	0xa710f264	-2.0115415e-15
196	0x243e613e	4.128205e-17
197	0x21341488	6.1013545e-19
198	0xa50cb4b9	-1.2204296e-16
199	0xa1e0e213	-1.5238672e-18
200	0xa1b3b1ce	-1.2176576e-18
201	0x22516735	2.837942e-18
202	0xa32cc3f3	-9.3656325e-18
203	0x2432f985	3.880895e-17
204	0xa1eb2cdf	-1.5936097e-18
205	0x225058c9	2.8236259e-18
206	0xa3bf2fa2	-2.0728435e-17
207	0x22228a0c	2.2028175e-18
208	0x226fc8e1	3.2496884e-18
209	0xa5b35512	-3.1109196e-16
210	0xa2f0198d	-6.5079183e-18
211	0x22d2ee04	5.7172623e-18
212	0xa0a9476f	-2.8676984e-19
213	0xa12653ba	-5.63538e-19
214	0x25e1dc33	3.918049e-16
215	0x2280f6ea	3.49559e-18
216	0xa3a84a94	-1.8246182e-17
217	0x2429f2e9	3.6851786e-17
218	0xa4197074	-3.3271838e-17
219	0x9c8f59e8	-9.486186e-22
220	0x1fe06948	9.5041863e-20
221	0x99ad88a4	-1.794297e-23
222	0xa76fdcae	-3.3287544e-15
223	0x2615e3ed	5.2003657e-16
224	0xa5be9958	-3.3063656e-16
225	0xa3303375	-9.5518756e-18
226	0x23a97d52	1.8376092e-17
227	0xa1827994	-8.841324e-19
228	0xa3a2e716	-1.7661944e-17
229	0xa452b439	-4.5689146e-17
230	0xa0e87474	-3.937939e-19
231	0xa2e71160	-6.263107e-18
232	0x221f6231	2.16005e-18
233	0x21c4c25f	1.3332926e-18
234	0xa6745392	-8.4767765e-16
235	0xa4a181c0	-7.0042425e-17
236	0x25e1df59	3.9182624e-16
237	0x1dfc518c	6.6788162e-21
238	0xa242addd	-2.6383945e-18
239	0xa51432f7	-1.2854221e-16
240	0x2430fa6a	3.8376025e-17
241	0x24870676	5.855786e-17
242	0x24300296	3.8166107e-17
243	0xa519f6c2	-1.335424e-16
244	0xa4c82744	-8.680269e-17
245	0x2307c038	7.3590686e-18
246	0x2109c529	4.6678345e-19
247	0xa61fcd29	-5.544225e-16
248	0xa3fc00c0	-2.7322212e-17
249	0xa25c0d83	-2.9822713e-18
250	0xa217c493	-2.0568382e-18
251	0x1f83b96d	5.578742e-20
252	0x22efb390	6.49712e-18
253	0xa2944f67	-4.019955e-18
254	0xa24c54a1	-2.7691958e-18
255	0x23379234	9.95141e-18

deep.6.bias f4 [32]
0	0x3a5142af	0.0007982654
1	0xb0c43aea	-1.4277621e-09
2	0xb01fcdf3	-5.8136534e-10
3	0xa806ef54	-7.49039e-15
4	0x3b66c221	0.0035210925
5	0xb88dd37f	-6.762798e-05
6	0x3dd37495	0.10324971
7	0x32da1136	2.5386367e-08
8	0x3cc07d6c	0.023497306
9	0xbd2e55d1	-0.04256231
10	0xbc899cc0	-0.016798377
11	0x3a67ee4c	0.00088474597
12	0x29137daf	3.274957e-14
13	0xba8e9a9a	-0.0010879815
14	0x39d9ab84	0.00041517254
15	0x3d6274c5	0.05528714
16	0x0f957a70	1.4739696e-29
17	0x3427713f	1.5594286e-07
18	0x0f2e9f89	8.609588e-30
19	0xbb3fa863	-0.0029244653
20	0xbd521ff4	-0.051300004
21	0x3cc2dc8c	0.023786806
22	0x38207584	3.8256418e-05
23	0x39a2eacd	0.00031073988
24	0xbbca153f	-0.0061670835
25	0x398e4ab5	0.00027140012
26	0xbb20486c	-0.002445723
27	0xbd00ea96	-0.03147372
28	0xbcbadd05	-0.022810468
29	0x3c8be449	0.017076628
30	0x37a90aa7	2.015133e-05
31	0xbb682a39	-0.0035425557

output.weight f4 [1, 33]
0	0x3f2497ed	0.6429432
1	0x3c94f8c6	0.01818503
2	0x3789b379	1.6415246e-05
3	0xaf9569f8	-2.7178237e-10
4	0xa5828ef7	-2.2648282e-16
5	0xbc8d812b	-0.017273506
6	0x3ce6ac29	0.028158264
7	0xbef7eb0a	-0.48421508
8	0x361b2398	2.3117518e-06
9	0x3d95e3df	0.073188536
10	0xbc1786c1	-0.009248436
11	0x3d4676b7	0.04845306
12	0x3b208714	0.0024494575
13	0x2a930a4e	2.6119596e-13
14	0x3bb37c12	0.005477437
15	0x3c8fb77c	0.017543547
16	0xbcdd2af6	-0.026998024
17	0x1223f0af	5.1730396e-28
18	0x38047fef	3.15904e-05
19	0x12300694	5.5543916e-28
20	0xb9accd91	-0.00032959555
21	0x3db31c70	0.087456584
22	0x3d714e22	0.058912404
23	0x3c08b78e	0.008344544
24	0x3be5f4c4	0.0070177037
25	0x3d6b7fd3	0.05749495
26	0x3d0dfa61	0.034662608
27	0x3cf686d0	0.03009358
28	0xb9de0fed	-0.00042355005
29	0x3dcd5279	0.10025496
30	0x3d80cd20	0.062891245
31	0xba75612a	-0.0009360487
32	0x3c23cb65	0.0099972235
