Results/FM/20250106_233013_batch1024_epoch10_lr0.01_k10_FM/control_fm.pth (torch, 2345 bytes, 2 tensors)

v f4 [13, 10]
0	0x3c79bb9c	0.0152424835
1	0x3cfdab78	0.030965552
2	0xbd0314e6	-0.032002352
3	0x3bc0753e	0.0058733514
4	0x3c8f86d8	0.017520353
5	0x3cf1d470	0.029520243
6	0xbc62be12	-0.013839262
7	0x3c921416	0.017831843
8	0xb9be8a5d	-0.00036342713
9	0x3c98c772	0.01864979
10	0x3b706d01	0.0036686065
11	0xbcacbb1e	-0.021085318
12	0x3c196f38	0.0093648955
13	0xbc5b8cf5	-0.013400306
14	0x3c2ef64a	0.010678837
15	0xbc658cc2	-0.01401061
16	0x3c2c9b75	0.010535111
17	0xbc45904e	-0.012058331
18	0x3c7d37b6	0.015455177
19	0xbb9684ba	-0.004593459
20	0xbd0b6680	-0.0340333
21	0xbd875e4a	-0.06609781
22	0xbc9578bb	-0.018246045
23	0xbb5f8a4e	-0.0034109536
24	0xbd4d153f	-0.05006909
25	0xbcace33f	-0.021104453
26	0xbc2c1ce3	-0.010504934
27	0xbc72c3da	-0.014817202
28	0x3ba43fc6	0.005012485
29	0xbc368dbf	-0.011142193
30	0xbc31803c	-0.010833796
31	0x3c4667bd	0.012109694
32	0x3c9be7a1	0.019031348
33	0xbc290fd8	-0.010318719
34	0x3c3ddfbb	0.011588986
35	0x3a0a2a4f	0.00052705867
36	0x3bf0ab73	0.007344657
37	0x3bbf2d94	0.0058342908
38	0xbccd98d5	-0.02509729
39	0x3bbbc522	0.005730287
40	0x3de200a3	0.11035278
41	0x3de69c3e	0.112602696
42	0x36779e81	3.689813e-06
43	0x3c95b0bb	0.018272748
44	0x3d6d5d32	0.057950206
45	0x3d404072	0.04693646
46	0x3c38ceac	0.011279743
47	0x3d761cd8	0.0600861
48	0xbd4f4a32	-0.050607868
49	0x3bd8037b	0.006592212
50	0xbbba1fce	-0.005680061
51	0x3b2af830	0.0026087873
52	0x3c31c223	0.010849508
53	0x3a3ce9a3	0.00072064454
54	0xbb3113e5	-0.0027019915
55	0xbc9f68e3	-0.019459194
56	0x3c14bd14	0.009078283
57	0x3a9c6c04	0.0011934047
58	0x3bddbc41	0.0067668264
59	0xbb508452	-0.003181715
60	0xbd0bce07	-0.03413203
61	0x3ce492de	0.027902063
62	0x3d4097a6	0.047019623
63	0x3b36be8f	0.0027884578
64	0xbcea0bea	-0.028570134
65	0xbce0e6e2	-0.027453844
66	0x3aea967f	0.0017897635
67	0xbc84fd3c	-0.016234033
68	0x3c2dff5a	0.010619963
69	0x3beecc0f	0.0072875093
70	0x3be3fa51	0.0069573303
71	0xbce47fb0	-0.027892917
72	0xbc7328fe	-0.014841316
73	0xbc0f7e12	-0.008758085
74	0x3c58a614	0.01322319
75	0x3c0f99ab	0.008764665
76	0xbb1af736	-0.0023645884
77	0xbb8facc7	-0.0043846103
78	0x3ac5d254	0.001509259
79	0xbca92563	-0.02064771
80	0x3bd78062	0.0065765837
81	0xbc709695	-0.014684339
82	0x3c3a7fd9	0.01138302
83	0x3cb82642	0.02247918
84	0xbb7ff0c0	-0.003905341
85	0x3c1643ae	0.0091714095
86	0x3bf28795	0.0074014165
87	0xbc68bdd9	-0.014205419
88	0xbc8168c3	-0.015797025
89	0xbca0438f	-0.019563464
90	0x3d2d1062	0.042251952
91	0x3d967f01	0.07348443
92	0x3ce515e3	0.027964538
93	0x3c364239	0.011124187
94	0x3c92b2f1	0.017907592
95	0x3c13944f	0.0090075275
96	0x3c1fca9a	0.009752894
97	0x3cc11372	0.023568843
98	0xbcbcd98f	-0.023052959
99	0x3bd3e26e	0.0064662015
100	0x3d6ff3c5	0.058582086
101	0x3d4f4d17	0.050610628
102	0xba7cb95b	-0.0009640657
103	0x3c19bfda	0.00938412
104	0x3d3a9899	0.045555685
105	0x3cff2a84	0.031148203
106	0x3bce48b1	0.0062952866
107	0x3cffb588	0.03121449
108	0xbc4cf3d4	-0.012509305
109	0x3ab4b8e3	0.0013788011
110	0xbc0f072c	-0.008729737
111	0xbb028680	-0.0019916594
112	0x3cba670c	0.022754215
113	0xbc146ec2	-0.00905961
114	0xbb834941	-0.0040065353
115	0xbc80b393	-0.015710628
116	0x3bdfc32c	0.006828686
117	0xbbe3970b	-0.006945496
118	0x3b92cf3d	0.004480271
119	0x38ae1ebf	8.3026935e-05
120	0x3c9514d3	0.018198406
121	0x3c6d0962	0.014467569
122	0x3c56fd43	0.013121906
123	0x3b97812c	0.004623553
124	0x3c0a25c9	0.00843186
125	0x3b8ce9a9	0.0043003154
126	0xba9b65d3	-0.0011855908
127	0xbc243126	-0.0100214835
128	0xbc3266e3	-0.010888788
129	0x3b797670	0.003806498

linear.weight f4 [1, 13]
0	0xbe88ceba	-0.2672022
1	0x3db168ec	0.086625904
2	0xbe421de9	-0.18956722
3	0xbdeffd80	-0.11718273
4	0xbe54022c	-0.20703954
5	0x3dd85cfd	0.10564611
6	0x3cf301bf	0.029663919
7	0x3d8df30e	0.06931125
8	0xbe4fec34	-0.20304948
9	0xbde1f520	-0.11033082
10	0xbe560605	-0.20900734
11	0x3e2ea123	0.17053656
12	0x3de7757f	0.113017075
