Results/WD/20250107_123419_batch1024_epoch10_lr0.001_reg0.001_WD/treatment_wide_deep.pth (torch, 173746 bytes, 10 tensors)

wide.weight f4 [1, 13]
00000000: 2c56 6836 f5dc d335 49a6 a135 0f90 9335
00000010: 2f3b b635 34f3 5d35 9953 24b5 9ca0 3a35
00000020: 47f8 e234 1f6b 89b6 7f09 4f35 cc6a 6b33
00000030: 3f4c c234
3.4620853e-06 1.5785032e-06 1.204383e-06 1.099428e-06 1.3577281e-06 8.268282e-07 -6.121641e-07 6.9524117e-07
4.2276426e-07 -4.0953887e-06 7.712733e-07 5.4812332e-08 3.6190792e-07

deep.0.weight f4 [13, 13]
00000000: 1756 013d d0c1 e33d 8bb8 b23d 8bfb 063d
00000010: 41dd e6bd eac7 643d 82f7 bb3d 8fe1 f4bb
00000020: 62d7 3a3d ba72 cdbc b499 9d3b 3a61 2e3c
00000030: fbfc a3bd e2ca 13b6 4916 29b5 3d74 90b5
00000040: dc32 5ab6 9874 20b5 f5f4 f2b5 54f2 04b6
00000050: 8543 80b3 5dfc 72b5 373e 64b5 e758 cab5
00000060: f2c2 ae33 f8bf 73b5 edc6 a9b1 c161 44b1
00000070: fd46 13b1 dcff e430 3b40 81b1 38f6 0931
00000080: 74b7 5930 833a 982f 805e f530 5ee0 05b2
00000090: b693 b22f a374 a330 dc93 282f a4d5 833c
000000a0: 61d9 cc3e cd30 c23e ac3f 063b 85e4 eebe
000000b0: 9342 f63d 6cef 043c ac70 993c bb91 623e
000000c0: 03c7 e0bc 1c39 25bc 2056 a13d 71a5 40bf
000000d0: f7d0 0180 a116 0080 d70a 0080 1611 0080
000000e0: 2616 0080 6b0e 0080 1009 0000 230e 0000
000000f0: 6c0e 0080 be1e 8ea4 3f01 0080 6d10 0080
00000100: 180f 0000 0e7c 359d ca19 0480 c70d 0080
00000110: b50f 0000 a931 1502 b50d 0000 0cd3 0400
00000120: b00d 0000 d00d 0080 80c4 3bae ba0d 0000
00000130: 0c0f 0080 d50d 0000 d743 9a2c 763b b8a4
00000140: 4c0d 8e9e b70d 0000 1923 9728 b00d 0000
00000150: 843f 7f26 9bfd 0791 b60d 0000 7a83 c5b4
00000160: fa8e 8506 8e0e 0080 e70d 0000 90fa f7b6
00000170: fd8d 90b6 1d27 95b6 f6e0 3134 3720 aab6
00000180: 58a8 a1b4 62a1 8d36 5de6 60b6 b34a e9b5
00000190: c3c7 deb6 8d9f 6ab6 91af 1435 f82d b835
000001a0: 3e40 16b9 e3cc e0b6 0744 e3b4 466c 8a23
000001b0: 2a1c e8b7 2d2e 39a4 57cd e438 50eb bfb0
000001c0: f317 9b22 46c0 8dbb 3d92 93af 1bc9 d1a3
000001d0: 8c0d 50a4 8fbd aa97 c436 0180 280e 0000
000001e0: d00d 0080 3e71 3d00 ac0d 0000 8a2f 5f04
000001f0: c70d 0080 d40d 0080 a121 ceae cb0d 0000
00000200: 7d0e 0000 1811 0000 6189 fe3d fa99 0e3e
00000210: 9a1c bb3d a9c0 c23c 1382 173d 75c5 673d
00000220: 6522 b13d 831e e8bb d051 773d a77c 3abe
00000230: 10c5 f43b 2d4b c43a 527f aebd b32e 7db4
00000240: 5d36 daae cf09 abab 63cf 0c00 6394 0eb1
00000250: bbd9 8588 e29b 892e f000 d3a3 07b7 250c
00000260: c260 dfb8 5f69 aca2 540e 0080 c80d 0000
00000270: edce a0bb c956 65bb 1f49 5cbb f856 03ba
00000280: 4731 77bb c4a1 aeba ec1d 893b 8888 43bb
00000290: ede5 a9ba 0454 b6bb c811 30bb 5b46 9539
000002a0: 0b02 853a
0.031576242 0.11120951 0.08726605 0.032954734 -0.112726696 0.055854715 0.09178068 -0.0074731777
0.04561556 -0.02507912 0.0048095826 0.010643298 -0.080072366 -2.20228e-06 -6.2989835e-07 -1.0762666e-06
-3.2514135e-06 -5.977431e-07 -1.8101697e-06 -1.9810586e-06 -5.972746e-08 -9.051926e-07 -8.5027153e-07 -1.5076047e-06
8.137967e-08 -9.0803906e-07 -4.9411626e-09 -2.857732e-09 -2.1431668e-09 1.6661903e-09 -3.7616963e-09 2.0076083e-09
7.920484e-10 2.7690214e-10 1.7852955e-09 -7.792634e-09 3.2482966e-10 1.1892961e-09 1.5332041e-10 0.016093083
0.40009597 0.37927857 0.0020484729 -0.46658722 0.12024417 0.008113723 0.018730484 0.22125904
-0.027438646 -0.010084417 0.07877755 -0.75252444 -1.66798e-40 -8.118e-42 -3.889e-42 -6.129e-42
-7.945e-42 -5.172e-42 3.251e-42 5.071e-42 -5.174e-42 -6.163476e-17 -4.47e-43 -5.892e-42
5.415e-42 -2.4019285e-21 -3.76593e-40 -4.942e-42 5.635e-42 1.0961043e-37 4.917e-42 4.43051e-40
4.91e-42 -4.955e-42 -4.2693404e-11 4.924e-42 -5.398e-42 4.962e-42 4.384475e-12 -7.989801e-17
-1.5040334e-20 4.92e-42 1.6779589e-14 4.91e-42 8.8556977e-16 -1.072777e-28 4.919e-42 -3.678977e-07
5.0239125e-35 -5.221e-42 4.987e-42 -7.390343e-06 -4.308064e-06 -4.4450994e-06 1.656625e-07 -5.070145e-06
-3.0111073e-07 4.220915e-06 -3.351269e-06 -1.7381593e-06 -6.639371e-06 -3.4961588e-06 5.538978e-07 1.3722447e-06
-0.00014329047 -6.699572e-06 -4.233154e-07 1.5007846e-17 -2.766967e-05 -4.0154593e-17 0.00010910135 -1.3963959e-09
4.203819e-18 -0.0043258993 -2.6843053e-10 -2.2744997e-17 -4.5114285e-17 -1.1033844e-24 -1.11482e-40 5.078e-42
-4.955e-42 5.642589e-39 4.905e-42 2.6235353e-36 -4.942e-42 -4.96e-42 -9.373769e-11 4.948e-42
5.197e-42 6.132e-42 0.12428547 0.13925925 0.09136315 0.023773508 0.036989283 0.056584794
0.08649138 -0.0070837154 0.060380757 -0.18211614 0.0074697807 0.0014976017 -0.08520378 -2.357945e-07
-9.923149e-11 -1.2153003e-12 1.176422e-39 -2.0748068e-09 -8.0558345e-34 6.257729e-11 -2.2877063e-17 1.2766215e-31
-0.00010651491 -4.673226e-18 -5.14e-42 4.944e-42 -0.00490748 -0.0034994355 -0.003361292 -0.0005010213
-0.003771858 -0.0013323356 0.004184475 -0.0029836018 -0.00129622 -0.0055642147 -0.0026866067 0.00028471914
0.0010147704

deep.0.bias f4 [13]
00000000: 8808 e63b e4f6 1ab5 0076 99b0 06d7 523d
00000010: 6a10 0080 eb0d 0000 dc0d 0000 a91e ce35
00000020: ef48 1324 cf0d 0080 12ce f43b e90d 0080
00000030: 275b 813a
0.00702006 -5.7728744e-07 -1.1165753e-09 0.051474594 -5.888e-42 4.993e-42 4.972e-42 1.5357119e-06
3.193732e-17 -4.954e-42 0.0074708546 -4.99e-42 0.0009869084

deep.2.weight f4 [512, 13]
00000000: ba7e 8cb3 8b8a 142d ceb9 f6b6 80ec 0eb3
00000010: 59e3 02b2 2fc8 83aa 162e 0080 23ff 7f2f
00000020: 8a33 8c21 0499 71ac 60f1 aab2 bc1e 0080
00000030: 9701 2c37 2342 b9b3 4579 b332 f065 a8b2
00000040: f10e 3c33 8c41 a62a 040e 0000 8410 0080
00000050: ae35 4cae 5eea 9133 9656 0000 2906 81b4
00000060: c1b1 0080 7db2 e52f 696e 0c33 7e5c 3d2d
00000070: 6efe e7b4 84b2 9232 fd21 e229 3d13 a106
00000080: 7310 0000 cd13 56b2 49f5 c9b7 2e0f 0080
00000090: 9786 1034 7d1b 0080 61bf beb6 e34f 03b5
000000a0: fad1 5cb4 21be 6f29 e010 85b7 2756 06af
000000b0: cc10 0080 ac0d 0080 1b1a afb1 f699 c4b1
000000c0: b40d 0000 aea4 1637 9023 0080 4d34 9cb6
000000d0: 2ce6 ef38 792f e337 fac7 b028 805d 2eba
000000e0: 33de 3230 ec02 0080 8f0f 0080 afd4 4a34
000000f0: 909b 80b2 af0d 0080 c5ab 7839 ae0f 0080
00000100: e154 f4b8 78fe 5a32 9586 da33 a00d c52b
00000110: 0be9 1032 518d 00b5 fbee 6da2 3237 0080
00000120: fddd 1531 ce75 feb4 80ea 0038 d57c a2b3
00000130: 9b07 0000 0102 6934 59b2 3fb1 1625 94b7
00000140: 3a69 52b2 0470 59b2 a714 0000 9c0f 0000
00000150: 3c02 0080 25de 4134 892d 02b5 9dac 90b8
00000160: 76a5 89b2 960f 0080 9473 8fb1 0cd3 a035
00000170: 5b07 7330 e209 42a9 f02b 6ab5 ad0d 0080
00000180: 7311 0000 e89f 0080 f309 b42f 41ec 2cb3
00000190: 1edd 1b27 c137 ed36 8511 0080 fc8f d5b1
000001a0: 8007 fbb2 a419 d7b5 8f22 6bb6 d8aa c3b4
000001b0: 74bc 0080 3376 0000 877c 0080 22ce ffb6
000001c0: 1941 89b7 7039 2109 9725 4133 550e 0000
000001d0: f4a0 00b4 ad8a 83b4 3c04 462d ba4c 9aa8
000001e0: cf1f 68b4 2077 3ca7 3b02 0000 c10e 0000
000001f0: b8cb aeb3 21ea e434 741e 9b2f cc6a 8eb4
00000200: 2d04 0080 290b bdb2 9c7b 1732 d18b a235
00000210: 4634 f3b2 c941 4032 e6fc 0e33 6e11 0000
00000220: 9853 0000 6fe6 642a 295f adae e40d 0080
00000230: c22f 9fb1 650f 0000 b351 2c32 a83c a3b2
00000240: 8cbc 52b2 b57f 4030 069b ecb4 14e4 49ac
00000250: b20d 0000 b50d 0000 f29b 692f 06ab 7331
00000260: 56c3 3730 0321 6db4 51ec 53aa 71fa 96b6
00000270: 79c2 6834 9d88 8532 6725 5d2a 7cec 08b5
00000280: de53 10b1 2c61 fc25 7708 0100 c110 7730
00000290: 0d30 94ad ea0d 0080 22a4 5734 d077 c0b1
000002a0: 3f56 52b4 8f89 9132 a7d0 2cb0 43bb 682a
000002b0: 6bea 5532 6138 0000 040f 0080 ad0d 0000
000002c0: 2b09 64b8 8a5c 83ab e810 0000 c9a7 65b1
000002d0: d30d 0080 6fb0 12b1 df10 7db5 d5a0 402f
000002e0: cfb9 4d31 1898 9237 9cf4 cbae 770f 0080
000002f0: 8455 0080 7cf8 8e30 48e4 87a0 780e 0080
00000300: bf73 95b6 d044 0000 db92 9432 e97b cab2
00000310: 1e7f 94ac 4162 a0a7 c8d8 75b2 8f89 8c33
00000320: 2d74 0000 d80f 0080 a645 9131 df09 4921
00000330: a1b0 a6ad c4bb 47b2 ae0d 0000 76fc afb5
00000340: aacb 8bb3 8cf3 6535 8929 4c35 56df 52b3
00000350: 91a4 4b2d b30d 0000 8e72 0000 4548 85aa
00000360: 1a50 a099 804d 02a8 869b 0bb4 e90d 0000
00000370: 365d d5b3 6cec 9bb9 7f9d ad32 07c3 722f
00000380: b543 303b 987a 7bb4 b60d 0080 3f0b 0080
00000390: 488e b135 1d2c 579f ea0d 0000 70d1 8dba
000003a0: 6b0e 0000 3ec1 a138 740d 7ab3 a1c7 fdb0
000003b0: 3481 78ab 7337 87b2 152e 4baf fe0e 0000
000003c0: 5611 0080 aa7d fb32 048b 48b0 b20d 0080
000003d0: 52d9 6e33 6f94 a21c 2efc 0a31 de51 9034
000003e0: b775 8a38 519f 1faf c050 8eb5 5885 a1aa
000003f0: 0410 0080 a831 0080 37af 5732 2b5a 35b7
-6.5423094e-08 8.443589e-12 -7.353002e-06 -3.3277047e-08 -7.618689e-09 -2.340918e-13 -1.6533e-41 2.3282758e-10
9.500411e-19 -3.43331e-12 -1.990037e-08 -1.1025e-41 1.0252369e-05 -8.626764e-08 2.089349e-08 -1.960413e-08
4.378575e-08 2.9533006e-13 5.028e-42 -5.925e-42 -4.6431907e-11 6.79472e-08 3.1061e-41 -2.4032605e-07
-6.3766e-41 4.178168e-10 3.2696708e-08 1.07639436e-11 -4.3212225e-07 1.7077816e-08 1.0042312e-13 6.0589737e-35
5.901e-42 -1.2460942e-08 -2.4075287e-05 -5.445e-42 1.3460009e-07 -9.861e-42 -5.6847207e-06 -4.8917553e-07
-2.0565486e-07 5.323357e-14 -1.5862694e-05 -1.2217836e-10 -6.026e-42 -4.905e-42 -5.096138e-09 -5.721854e-09
4.916e-42 8.979039e-06 -1.2757e-41 -4.655251e-06 0.00011439281 2.7082615e-05 1.9626651e-14 -0.0006651506
6.5071787e-10 -1.048e-42 -5.581e-42 1.889009e-07 -1.4971903e-08 -4.909e-42 0.00023715112 -5.625e-42
-0.000116506366 1.274713e-08 1.01758964e-07 1.4001474e-12 8.434891e-09 -4.788936e-07 -3.2246005e-18 -1.98e-41
2.180854e-09 -4.73969e-07 3.0735973e-05 -7.56642e-08 2.728e-42 2.1700545e-07 -2.7895537e-09 -1.7660244e-05
-1.22475345e-08 -1.2656532e-08 7.409e-42 5.6e-42 -8.02e-43 1.8055341e-07 -4.8495036e-07 -6.898607e-05
-1.6024142e-08 -5.591e-42 -4.1749875e-09 1.1982352e-06 8.841334e-10 -4.3085225e-14 -8.723573e-07 -4.906e-42
6.26e-42 -5.7364e-41 3.2748879e-10 -4.0261742e-08 2.163044e-15 7.069641e-06 -6.285e-42 -6.215485e-09
-2.9223656e-08 -1.6026211e-06 -3.5037845e-06 -3.6445886e-07 -6.7604e-41 4.2402e-41 -4.4672e-41 -7.623589e-06
-1.6361986e-05 1.9406677e-33 4.4970502e-08 5.141e-42 -1.1979483e-07 -2.450155e-07 1.1255937e-11 -1.713071e-14
-2.1618256e-07 -2.6154819e-15 8e-43 5.293e-42 -8.1395626e-08 4.263866e-07 2.8215974e-10 -2.6527266e-07
-1.498e-42 -2.200757e-08 8.817462e-09 1.2110632e-06 -2.8312694e-08 1.1190829e-08 3.329196e-08 6.253e-42
2.9988e-41 2.0330416e-13 -7.884033e-11 -4.983e-42 -4.6329385e-09 5.523e-42 1.0030294e-08 -1.900328e-08
-1.2266479e-08 7.0030676e-10 -4.407122e-07 -2.8690427e-12 4.913e-42 4.917e-42 2.124663e-10 3.545837e-09
6.68526e-10 -2.2084355e-07 -1.8822553e-13 -4.4995036e-06 2.1677432e-07 1.5545362e-08 1.964172e-13 -5.100808e-07
-2.100243e-09 4.3780878e-16 9.4872e-41 8.9881885e-10 -1.684699e-11 -4.991e-42 2.0083147e-07 -5.6015566e-09
-1.958915e-07 1.6942776e-08 -6.286975e-10 2.0670709e-13 1.2451532e-08 2.0225e-41 -5.387e-42 4.906e-42
-5.4367974e-05 -9.333795e-13 6.065e-42 -3.341926e-09 -4.959e-42 -2.1346087e-09 -9.4274395e-07 1.7519437e-10
2.9937046e-09 1.747538e-05 -9.2748226e-11 -5.548e-42 -3.0677e-41 1.0402483e-09 -2.3020953e-19 -5.19e-42
-4.4540207e-06 2.4685e-41 1.729625e-08 -2.3572243e-08 -4.220526e-12 -4.451545e-15 -1.4310167e-08 6.54428e-08
4.1676e-41 -5.684e-42 4.2279735e-09 6.8114513e-19 -1.8950454e-11 -1.16260175e-08 4.907e-42 -1.3111992e-06
-6.509738e-08 8.5663555e-07 7.6056364e-07 -4.9097558e-08 1.1575755e-11 4.914e-42 4.1094e-41 -2.3675693e-13
-1.6575965e-23 -7.233255e-15 -1.3001963e-07 4.99e-42 -9.9355404e-08 -0.00029740052 2.0211472e-08 2.207906e-10
0.0026895825 -2.3420796e-07 -4.919e-42 -4.034e-42 1.3228937e-06 -4.556451e-20 4.991e-42 -0.0010819864
5.172e-42 7.7130724e-05 -5.8219896e-08 -1.8464911e-09 -8.8286605e-13 -1.5741284e-08 -1.8479114e-10 5.378e-42
-6.219e-42 2.9277391e-08 -7.295713e-10 -4.913e-42 5.5611345e-08 1.075863e-21 2.022499e-09 2.6881656e-07
6.602279e-05 -1.4517566e-10 -1.0603326e-06 -2.869187e-13 -5.745e-42 -1.7813e-41 1.2554486e-08 -1.0809435e-05

deep.2.bias f4 [512]
00000000: 34f5 07b4 cc49 98b3 1dc4 1b30 a6f2 39b7
00000010: cfe3 1038 bd19 9533 defc 09b2 8db8 3136
00000020: b809 73b4 21b0 44b4 26df db32 58f8 99b3
00000030: 3783 a734 44e0 fdb3 a751 c2b5 5842 1fb3
00000040: 4353 52b1 ab55 65b9 5ff9 a832 a4e4 ba35
00000050: 4871 0037 8d92 bbb4 43e3 31b3 74b3 d0b2
00000060: f3c7 89b3 e2f4 32b5 71d6 4fb2 a5c7 21b5
00000070: e7a6 6834 0e79 1433 eb4e dc39 0c9b 91b2
00000080: 35f1 1f34 064a 8e33 c5b1 1732 fff3 5533
00000090: ad53 f6b3 60c5 333a 30b7 fb32 8d63 a2b4
000000a0: 7cca 23b0 59ec 5930 fe8a 5134 c151 1eb6
000000b0: 9c4e d3b5 6486 0db4 7b0e 0080 7bf7 1530
000000c0: ce6d 50b8 2412 1236 b73b 3eb4 d8ec 04b3
000000d0: ce32 cb38 05a6 22b5 ce99 2db2 d480 9633
000000e0: a238 8838 9cd4 0f36 30d8 f731 1d63 87b4
000000f0: 67b8 3ab9 faa4 bf3b 0818 0d30 75e9 6738
00000100: 0dc6 71b3 93ca 0cb4 cbfa e7b1 b39b 5535
00000110: f186 54b7 6080 4cae c048 2d33 05ed a0b0
00000120: bfe7 39b1 fb8f 05b3 f731 40b5 6140 d131
00000130: fcad c733 fb6a cab3 a3e2 6b35 930c 4624
00000140: fc1c 17b1 0aad b237 a056 deb2 2405 0a3b
00000150: b765 23b7 01e9 b9b1 4103 a632 9662 41b4
00000160: d02b d3b5 faa7 3f34 e372 1db6 3817 a0b4
00000170: 3276 2c33 41c4 62b2 88eb 72b4 6ee7 08b2
00000180: c14d 70b1 4acc f4b2 7ec2 d732 5b4a 09ba
00000190: ffe1 45b3 ab45 a930 e5af f0b2 57a1 76b5
000001a0: 0a11 3bb5 03d9 0db5 65cf 06b2 94f8 8731
000001b0: a83b 1833 1108 b3b4 17c2 0b33 d16b 612f
000001c0: af33 5eb4 23eb fbb9 1264 1f33 e31b 39b2
000001d0: 42e5 f933 0f87 8a31 3167 b6b0 6664 3b3a
000001e0: 247b f73b 1b6e a0b2 e7b5 3eb2 de36 f731
000001f0: 8d6b 7bb5 4bc4 8e33 0a6b 8034 519f beb4
00000200: 4cf4 8db1 6e52 f835 562a 9cb5 eda7 82b5
00000210: ad6b 0033 d018 822f 79de 8cb3 0ed6 0fb3
00000220: 4afa 5332 208a 6fb5 e811 5533 65df 48ae
00000230: 6681 00b3 88b7 d1b1 78d1 85b9 8e4e f0b1
00000240: bceb de33 e366 fab4 3d76 4eb1 ff9d 1934
00000250: de36 562d 1204 38b5 5dd0 84b5 a89a 0fb6
00000260: 6387 7e35 6636 3834 2e97 08b3 e6e7 6b31
00000270: 5c2b 2cb4 fa0b 29b3 65e5 bbb0 216e 4634
00000280: 3bd0 29b3 0e1a c334 b378 ba37 7002 93b7
00000290: 4055 f0b0 67de 2d37 5c38 b532 9b11 e13b
000002a0: 41ca c236 a130 2f32 75d6 7eb4 d0e4 07b4
000002b0: 43e4 c632 c12e 5bb5 f500 72b5 f2eb c5b0
000002c0: 6c5d b0b2 d470 862f 7c26 a734 3ab8 76b4
000002d0: 5385 53b2 1480 c9b1 0ec3 b6b2 5cd8 dab6
000002e0: 1eb0 0cb9 21b9 71b4 4844 a9b3 9fb9 80b4
000002f0: 0586 6d33 b9b4 bb35 0440 63b2 0a8c aab5
00000300: 6318 64b6 77a0 d0b1 b750 9ab2 20e9 6c34
00000310: 9a5c b7b1 f022 aeb2 2ef8 8533 6053 df33
00000320: 0f31 9cb4 2b07 9431 6e73 1ab5 b912 67b2
00000330: 9118 9cb4 c3e3 aa35 1af0 1433 998b 0cb9
00000340: a1a2 b1b1 92bf 34b4 708d ef3b 433f 50b6
00000350: 2846 11b1 33f3 35b9 b629 3f3b b034 a032
00000360: 072b 42b9 cf7d bfb7 3a68 5f32 7fe9 b7b3
00000370: 30d9 00b1 f11e 2f31 dea3 bbb3 a1db 08b5
00000380: 6dc2 9b2f 85ef 58b5 c941 d233 c916 48b3
00000390: 305f 1e35 3f21 2d35 498f e1b1 cdf9 66b1
000003a0: 2b81 3233 48f9 3db3 76f7 d231 daf7 3f2f
000003b0: 9434 8d3a 94c4 19b3 8cc5 e8b2 a657 14b5
000003c0: 671c 0ab7 3f11 e7b6 5c74 0fb6 e5a9 b93b
000003d0: a3bf 2c32 c191 1cb4 9bc3 68af a128 9735
000003e0: a6a9 9832 1446 00b4 f4db 0db7 acc2 2b30
000003f0: 0c26 1130 24fd 9334 35fd 0832 5619 da3b
-1.2662059e-07 -7.091475e-08 5.6667365e-10 -1.1083355e-05 3.454444e-05 6.943035e-08 -8.031945e-09 2.6482478e-06
-2.2634674e-07 -1.8317998e-07 2.5596432e-08 -7.169791e-08 3.1201645e-07 -1.1822024e-07 -1.447789e-06 -3.708041e-08
-3.060635e-09 -0.00021871056 1.9671175e-08 1.3924623e-06 7.65577e-06 -3.4938094e-07 -4.1417717e-08 -2.4295993e-08
-6.41593e-08 -6.666652e-07 -1.2097744e-08 -6.0267695e-07 2.1667402e-07 3.4569034e-08 0.00042020468 -1.6950729e-08
1.489578e-07 6.625855e-08 8.829777e-09 4.981484e-08 -1.1470488e-07 0.0006857719 2.930355e-08 -3.0247284e-07
-5.95868e-10 7.928001e-10 1.9515207e-07 -2.3591422e-06 -1.5743603e-06 -1.318054e-07 -5.195e-42 5.4557575e-10
-4.9693328e-05 2.1766255e-06 -1.7716853e-07 -3.0949053e-08 9.6892574e-05 -6.0591293e-07 -1.01048965e-08 7.008353e-08
6.495534e-05 2.1432415e-06 7.213224e-09 -2.5217824e-07 -0.00017807038 0.005848524 5.132965e-10 5.5292116e-05
-5.629231e-08 -1.3112212e-07 -6.7514967e-09 7.9575256e-07 -1.2667603e-05 -4.649825e-11 4.0345867e-08 -1.1708897e-09
-2.7052776e-09 -3.1097425e-08 -7.159828e-07 6.0900196e-09 9.298307e-08 -9.4258176e-08 8.787412e-07 4.2945057e-17
-2.1989868e-09 2.1299831e-05 -2.5883594e-08 0.0021060193 -9.739239e-06 -5.410698e-09 1.9326423e-08 -1.8010391e-07
-1.5733476e-06 1.784937e-07 -2.3461696e-06 -2.9819216e-07 4.015437e-08 -1.3199554e-08 -2.2623692e-07 -7.968863e-09
-3.4968795e-09 -2.8498238e-08 2.5117739e-08 -0.0005237215 -4.607318e-08 1.2316169e-09 -2.8019665e-08 -9.187692e-07
-6.9687724e-07 -5.2842387e-07 -7.846983e-09 3.957277e-09 3.5444515e-08 -3.3347217e-07 3.2539983e-08 2.0501935e-10
-2.0694164e-07 -0.0004804964 3.7111086e-08 -1.0774758e-08 1.1636668e-07 4.031683e-09 -1.3271572e-09 0.00071484444
0.0075525213 -1.8676522e-08 -1.1100815e-08 7.194884e-09 -9.3661293e-07 6.648096e-08 2.391974e-07 -3.5506176e-07
-4.1314134e-09 1.850143e-06 -1.1635227e-06 -9.734628e-07 2.9900253e-08 2.3664493e-10 -6.5597256e-08 -3.3489464e-08
1.2338726e-08 -8.9235436e-07 4.9609213e-08 -4.567315e-11 -2.992001e-08 -6.1035657e-09 -0.00025523803 -6.99385e-09
1.03805604e-07 -4.664099e-07 -3.0044156e-09 1.4306714e-07 1.2176675e-11 -6.8551265e-07 -9.895408e-07 -2.1398682e-06
9.481939e-07 1.7156125e-07 -3.1802465e-08 3.432882e-09 -1.6034522e-07 -3.935927e-08 -1.3671239e-09 1.8480252e-07
-3.9537763e-08 3.6340538e-07 2.2229133e-05 -1.75249e-05 -1.7486528e-09 1.0363386e-05 2.1096803e-08 0.006868554
5.805196e-06 1.0197398e-08 -2.3733612e-07 -1.2656096e-07 2.3154035e-08 -8.1651893e-07 -9.015342e-07 -1.4400696e-09
-2.053158e-08 2.4454627e-10 3.1134175e-07 -2.2977557e-07 -1.2312131e-08 -5.8644307e-09 -2.127629e-08 -6.522094e-06
-0.00013417049 -2.2512224e-07 -7.882096e-08 -2.3976915e-07 5.5302753e-08 1.3985183e-06 -1.32276945e-08 -1.2706744e-06
-3.3988842e-06 -6.0718395e-09 -1.7964664e-08 2.2064023e-07 -5.3365286e-09 -2.0272154e-08 6.238439e-08 1.03994125e-07
-2.909296e-07 4.308182e-09 -5.7537443e-07 -1.3450227e-08 -2.907514e-07 1.2732274e-06 3.4677306e-08 -0.00013403445
-5.1698668e-09 -1.6833499e-07 0.007310562 -3.1031238e-06 -2.1140156e-09 -0.00017352104 0.0029169149 1.8650411e-08
-0.0001851731 -2.2827558e-05 1.3004007e-08 -8.564074e-08 -1.8749908e-09 2.548344e-09 -8.737673e-08 -5.098355e-07
2.8332484e-10 -8.081482e-07 9.790853e-08 -4.658685e-08 5.89981e-07 6.44959e-07 -6.5646515e-09 -3.36114e-09
4.1561332e-08 -4.423171e-08 6.1399374e-09 1.7459403e-10 0.0010773116 -3.5801875e-08 -2.7098189e-08 -5.526184e-07
-8.232054e-06 -6.886344e-06 -2.137639e-06 0.005666005 1.0055291e-08 -1.4581657e-07 -2.116977e-10 1.1262201e-06
1.7772276e-08 -1.1946423e-07 -8.455467e-06 6.2486083e-10 5.280476e-10 2.7565068e-07 7.9738145e-09 0.0066558523

deep.4.weight f4 [64, 512]
00000000: f81a b937 1e2b 8daf b13e 2b31 82cf 1330
00000010: f517 a933 a08d 16af 4f47 802d 1f26 8232
00000020: fd1b 3bad 01fc d02e fa4b 7135 1cd5 7bb0
00000030: b56a 0036 ae26 66ae e58c 1332 ade6 dbb0
00000040: b40c aa35 9b31 27b5 6950 dbb5 16ba 1bb2
00000050: c6d3 9d31 f4bd 42af 90e9 1eb5 a590 ff34
00000060: a6f0 1bac 4159 2d33 bed6 8a34 972f 2734
00000070: 738c 0532 2f5d a0b3 35ad f7b1 aed6 99ad
00000080: a4e2 91af 6323 3933 09c5 29ae 9db8 59ae
00000090: 35c7 c632 50bf f2b3 10c8 ff32 d277 87b0
000000a0: d4a9 2a2d 1fd8 e132 57ce b4b1 f052 2eb2
000000b0: 9665 b534 2593 3b37 b10d 0080 0fa1 8c33
000000c0: a6df ccb3 396e 0c36 b891 51b1 8db7 81af
000000d0: 8c00 1ab3 d7b2 a5ae c424 b938 de4e a2b8
000000e0: 97fd 8632 3b04 3031 7eba ac2e 643e 97b6
000000f0: 71e4 62b3 2e68 94b5 81c3 8ab4 f4ad 56b1
00000100: 0f5c ba2e 2f37 23ae ae76 80b7 b4aa b537
00000110: 3878 ffb2 6f93 16ae 5fb8 4a2d e441 96ab
00000120: 603d c9b8 d0a9 9a33 868a ab32 203d a6af
00000130: a045 0533 ae9b 0bb4 9ff6 c7af a9a8 b6a0
00000140: 6e9b 8ead 2615 f6b2 1adf b8b3 5aeb cd35
00000150: 57fc e9b2 710a 9e28 5bf7 e230 f20d 62b7
00000160: 3b5e 54b3 14e8 5fb4 6ec9 10b1 06b0 6132
00000170: fd4c 8ab5 96cc e2b6 a8db 6032 6e2e 9f30
00000180: 2ec3 81b6 c49d 4c37 dc90 9bb6 2479 33b1
00000190: 8033 07b7 5bdd 03ac 05ba 79b1 5ead e9b1
000001a0: 6e55 33ad af39 c034 1a49 6bb0 041d 242d
000001b0: d144 4835 ddc8 70af 283c 1d32 b4ec 38b3
000001c0: 2d48 c0ae 4d74 20b2 009c 3db1 ed21 8bb0
000001d0: ec72 3834 9efc 0aaf 874b 8db5 3ab9 46b3
000001e0: cad0 49b7 d742 d630 4890 f2ab 29a6 34af
000001f0: 4cf1 c832 5b28 09b5 e6f9 87b1 28b7 c334
00000200: df62 462f 438b 2b30 4f0a 8636 1b8d fe31
00000210: 239b 38b6 94ff 5928 2125 0dad 1b49 0338
00000220: 3a45 71b0 471b 1b34 d0d4 47b0 6b8e a0ad
00000230: 9a78 6ab1 9401 22b1 99bc c8b3 57c8 562e
00000240: ac7f 7635 a6fe 2936 ac0d 00b3 6885 1c33
00000250: 5e25 4ab4 9f7a 4132 b78c b430 162d 0d32
00000260: 8c6c 05b3 e565 8538 e134 b9b4 0fac 71b0
00000270: f0f8 9eb4 c41e dd32 0420 14b5 9c6a c5b4
00000280: da17 3ab7 d923 c431 db19 5fb3 8c88 6431
00000290: 9b3d a0ac b4a7 07b2 3e8d ba33 fd4a 4cb7
000002a0: 97e8 c4b1 2846 6ab3 a0e3 fc36 02f1 0c2f
000002b0: 965e 1330 2c04 0732 5442 c430 39e9 c335
000002c0: 304b 9531 2e74 4b2e 959a d1ae cc5c 3730
000002d0: f27e 21b1 f753 c930 df3b 4e36 cd3d d533
000002e0: 23be fc33 a4a0 2eae a339 d9b3 30b1 4138
000002f0: 30a4 2db2 d901 58b2 320c 262d 4632 c5b0
00000300: 95ea b236 a5e6 3938 d76d aaae 6c35 95b2
00000310: f0cb 56b0 216d 67b7 1b6b 68b2 caef e031
00000320: 57d5 1a31 9b72 c8b2 c5f9 0030 6b85 20af
00000330: 91f0 4534 a5d9 adb1 5b1c c82f 02d9 97b3
00000340: 2a83 5635 cd4f a82f ed22 46b7 d76a e4b1
00000350: 88cf 92b5 7e78 ae31 2040 2435 cf00 abb4
00000360: 5c6b 04b8 a569 72b3 0a17 8a37 45ba 0a35
00000370: 8b8a 4ab0 6d03 cfb0 396c ea2c b403 0cb0
00000380: 130e 0eae 1f79 ab37 3070 3cb7 bdbc a9b3
00000390: 4405 adb2 8482 b236 1c1c fc2c 32d4 692e
000003a0: fac6 7bb0 4b2d 47b5 6203 e62a 720d 8737
000003b0: 3fdc 7c33 a1bb d4af 1d21 8db1 54b9 4431
000003c0: 2dd0 9132 cc03 6bb1 5774 d1b1 b0c8 4db7
000003d0: 0e2a 992d 16ae f635 4bee 96b0 6695 11b5
000003e0: 5755 992d 4f17 37ad 1b3a b6b1 a768 b6af
000003f0: 0d46 6734 8fb0 c3b0 8381 0635 a304 53b7
2.2066277e-05 -2.5678387e-10 2.491941e-09 5.3773175e-10 7.8740335e-08 -1.3692736e-10 1.4583583e-11 1.5151327e-08
-1.0635934e-11 9.50351e-11 8.9890057e-07 -9.1616115e-10 1.9135598e-06 -5.23303e-11 8.588562e-09 -1.5999909e-09
1.2669684e-06 -6.2284533e-07 -1.6340174e-06 -9.0644985e-09 4.5933772e-09 -1.7711682e-10 -5.9199465e-07 4.7602694e-07
-2.2160412e-12 4.0360877e-08 2.5860749e-07 1.55704e-07 7.773553e-09 -7.4675306e-08 -7.2083375e-09 -1.7489423e-11
-2.6536384e-10 4.3105853e-08 -3.8601154e-11 -4.9504057e-11 2.3140823e-08 -1.1303803e-07 2.9776885e-08 -9.856598e-10
9.701091e-12 2.6291728e-08 -5.2621476e-09 -1.0146991e-08 3.378779e-07 1.1180328e-05 -4.912e-42 6.5485544e-08
-9.540172e-08 2.0925784e-06 -3.0496334e-09 -2.3595384e-10 -3.5856417e-08 -7.5350996e-11 8.8283356e-05 -7.739452e-05
1.5714972e-08 2.5613776e-09 7.854782e-11 -4.507414e-06 -5.282749e-08 -1.105718e-06 -2.584675e-07 -3.123998e-09
8.4746536e-11 -3.7110922e-11 -1.5314054e-05 2.1656371e-05 -2.9740576e-08 -3.4237e-11 1.1523309e-11 -1.0676429e-12
-9.595859e-05 7.2020725e-08 1.9970013e-08 -3.0238656e-10 3.10298e-08 -1.300202e-07 -3.6373124e-10 -3.094361e-19
-1.6212556e-11 -2.8647786e-08 -8.6087496e-08 1.5342187e-06 -2.723952e-08 1.7546052e-14 1.6513967e-09 -1.3473897e-05
-4.94458e-08 -2.0852923e-07 -2.1069257e-09 1.3136747e-08 -1.0304208e-06 -6.759142e-06 1.308846e-08 1.1581969e-09
-3.8672215e-06 1.219608e-05 -4.636224e-06 -2.6116789e-09 -8.058618e-06 -1.8739097e-12 -3.6340009e-09 -6.800902e-09
-1.0193941e-11 3.5804757e-07 -8.5596386e-10 9.3287635e-12 7.4605947e-07 -2.1899234e-10 9.152281e-09 -4.305612e-08
-8.74397e-11 -9.3396695e-09 -2.7591796e-09 -1.0123223e-09 1.7178144e-07 -1.2640775e-10 -1.05273e-06 -4.626893e-08
-1.2029146e-05 1.5589546e-09 -1.723518e-12 -1.6429937e-10 2.3392793e-08 -5.10952e-07 -3.9574273e-09 3.6454844e-07
1.8043121e-10 6.240734e-10 3.9947113e-06 7.4084148e-09 -2.7508438e-06 1.21013395e-14 -8.023166e-12 3.130092e-05
-8.7773666e-10 1.4445423e-07 -7.2698203e-10 -1.825314e-11 -3.4120036e-09 -2.3575e-09 -9.3475315e-08 4.8835904e-11
9.182793e-07 2.5331187e-06 -2.9814757e-08 3.6442913e-08 -1.882631e-07 1.1261959e-08 1.3136717e-09 8.2175315e-09
-3.10652e-08 6.3609135e-05 -3.449741e-07 -8.79198e-10 -2.961092e-07 2.5741777e-08 -5.5180885e-07 -3.6771678e-07
-1.1092017e-05 5.708426e-09 -5.194475e-08 3.3255985e-09 -4.554313e-12 -7.8961655e-09 8.686992e-08 -1.2176807e-05
-5.730793e-09 -5.4546177e-08 7.5366843e-06 1.2818549e-10 5.3612703e-10 7.858983e-09 1.4279729e-09 1.4596509e-06
4.3450186e-09 4.6260044e-11 -9.531679e-11 6.6706884e-10 -2.3500744e-09 1.4648539e-09 3.0731242e-06 9.929827e-08
1.176925e-07 -3.9705697e-11 -1.0115334e-07 4.6179804e-05 -1.0107257e-08 -1.2573275e-08 9.4387154e-12 -1.4347925e-09
5.3321223e-06 4.432224e-05 -7.7502164e-11 -1.7370176e-08 -7.814256e-10 -1.37940815e-05 -1.352853e-08 6.546519e-09
2.253122e-09 -2.3335181e-08 4.692107e-10 -1.4599315e-10 1.8434572e-07 -5.059706e-09 3.6399936e-10 -7.070959e-08
7.991208e-07 3.0615724e-10 -1.18098515e-05 -6.6478196e-09 -1.0938247e-06 5.077765e-09 6.1188075e-07 -3.185182e-07
-3.157124e-05 -5.64411e-08 1.646161e-05 5.1680064e-07 -7.3684053e-10 -1.5062206e-09 6.662695e-12 -5.0936966e-10
-3.2299562e-11 2.044119e-05 -1.1231794e-05 -7.904007e-08 -2.0142245e-08 5.3200074e-06 7.1653915e-12 5.3166534e-11
-9.159603e-10 -7.4199187e-07 4.0858555e-13 1.6099515e-05 5.8873635e-08 -3.8695894e-10 -4.1074046e-09 2.86271e-09
1.6974889e-08 -3.419916e-09 -6.095927e-09 -1.2265678e-05 1.7412762e-11 1.8379094e-06 -1.0981663e-09 -5.423411e-07
1.7431985e-11 -1.0407521e-11 -5.303503e-09 -3.3179967e-10 2.1539036e-07 -1.4238298e-09 5.0107354e-07 -1.257766e-05

deep.4.bias f4 [64]
00000000: 5ed7 a136 0ff9 e4b3 c6c4 b6b8 f734 1d32
00000010: 968a 8737 1018 213c 5275 dbb5 778c 9934
00000020: ddeb 80b0 b96b 80b2 32c0 56b8 4941 0436
00000030: b31c 09b1 9f31 1ab6 c249 91b3 84d1 25b8
00000040: 0636 d5b1 64f4 6332 7729 56b5 099f 97b6
00000050: a60d 9f34 8954 93b6 31ce 5eb2 ca7e 85b8
00000060: b3e3 d7b0 a826 21b6 6b07 8432 14f6 b8b7
00000070: e84b 8235 6e3b 37b4 2bf8 a333 7852 e233
00000080: f25e 12ba cc88 61b2 15af afb7 bc62 6d33
00000090: e93b 0434 60f3 52b3 cfbb 1eb3 d700 32b4
000000a0: 4202 de35 783c 9ab7 7411 753c 4620 bab3
000000b0: 477d 6732 465d 5834 5690 d6b8 ad68 ad33
000000c0: 0aef 81b2 49a8 1832 f53b 8ab5 06dc 53b0
000000d0: 9b42 3e36 40d1 9cb2 d250 82b9 d2f0 3830
000000e0: 022d a732 adde c137 e787 c5b2 1e90 0fb4
000000f0: d68e cbb2 ad8b 15b2 7fff 2b35 60d5 c2b9
4.823246e-06 -1.0662381e-07 -8.715088e-05 9.150646e-09 1.6157788e-05 0.009832397 -1.6350916e-06 2.8600672e-07
-9.380262e-10 -1.4950148e-08 -5.120057e-05 1.9707534e-06 -1.9952437e-09 -2.2976672e-06 -6.765505e-08 -3.9534192e-05
-6.2052576e-09 1.3268707e-08 -7.978155e-07 -4.518665e-06 2.9625988e-07 -4.3907826e-06 -1.2968983e-08 -6.3655505e-05
-1.5708025e-09 -2.401337e-06 1.5370196e-08 -2.2049098e-05 9.707846e-07 -1.7064824e-07 7.6354205e-08 1.0538946e-07
-0.0005583606 -1.3127828e-08 -2.0943155e-05 5.527066e-08 1.2315253e-07 -4.9115783e-08 -3.6958053e-08 -1.6577847e-07
1.6540946e-06 -1.8386389e-05 0.014957774 -8.6671704e-08 1.3474454e-08 2.01505e-07 -0.000102312 8.074981e-08
-1.5126279e-08 8.885828e-09 -1.0299251e-06 -7.7074025e-10 2.8350976e-06 -1.8255946e-08 -0.00024855748 6.7281036e-10
1.9461826e-08 2.3111084e-05 -2.299562e-08 -1.3370342e-07 -2.3697265e-08 -8.7047e-09 6.407426e-07 -0.0003716154

deep.6.weight f4 [32, 64]
00000000: 8364 c532 5002 81ab b63d 9b35 d851 55b2
00000010: 2f79 dd2c eedb 13b3 c9f2 3f2b 4119 2f36
00000020: 2260 d4ae cb31 acb0 5723 4fb0 89f9 1aad
00000030: 2002 0eb3 c8c2 90b0 cd4e 8138 3f77 1e37
00000040: 912a 35b4 0cb3 1633 9ed1 a5ae f4a0 2832
00000050: 0e99 cc31 0feb 8938 e3a6 6a31 4d9c ae2e
00000060: 2494 a9b3 582b 2635 9fbb 9033 671c a638
00000070: d033 07b3 8356 83aa cf7e 0534 d94c 102d
00000080: fb23 a536 dd75 56ab 648a cf30 b1ff 3db2
00000090: 36cd 9fb2 dd96 84b7 c46d 0fb7 4150 aeb8
000000a0: 84fd 7cac 6caf 9e32 8d82 50b2 91c8 39b7
000000b0: 9499 74b2 7ae0 e030 81b7 c630 2682 a3b4
000000c0: b35b 8832 f252 6faa e72e e12a 021e 6ea8
000000d0: f948 3f2c 508f 24b8 7f9b db31 d9f1 e4b5
000000e0: 56dd 8a34 8dd8 8bb3 7f13 1ca9 d90c c5b5
000000f0: c3aa d72f ed25 f2b3 50a2 6a35 a1d5 91b4
00000100: a908 9935 5309 aab7 59ea 87b6 c329 09b7
00000110: bda3 88b5 2e35 533a a333 a7b4 eb5a 26b5
00000120: 8c86 0f34 7399 1238 d524 08b7 99b2 a135
00000130: 6013 9134 c17b f233 4de3 a3b6 1733 db34
00000140: a788 3638 4f6f 5f34 d8e9 52b5 2345 e134
00000150: 8a9b b9b3 f1bb 1135 5d9c 9f32 3a03 2fb7
00000160: 4884 9bb5 1339 22b6 6bfc cd36 1d54 ca35
00000170: 223a ed33 af9e 0cb6 e488 4c38 4a17 8f37
00000180: 8479 a938 98c5 03b6 f281 b135 c0cb dc36
00000190: abd7 4235 33c7 0433 bb02 7bb3 2629 4eb7
000001a0: 3d5a 71b5 7b77 a436 f6df 343b ee68 1338
000001b0: 7799 00b5 070a 2034 62e4 9237 44cf 5cb5
000001c0: d1dd 0d37 204f d4b3 fe85 2733 fc33 fb30
000001d0: c2ef ad35 c007 1e37 df22 e2b7 17e0 50b4
000001e0: 1719 5735 c427 69b8 1c42 db34 2a63 c933
000001f0: 727c 7035 d121 8032 063f adb4 f49a c5b9
00000200: 376c 3636 964e 1332 6cee 72b8 386e 5b32
00000210: fffd 9d36 9782 413e 024f 9db5 152d d834
00000220: faac deaf 9672 b6b2 f197 7936 2900 4136
00000230: dcc8 38b2 34cf 7cb5 2389 83b2 587c fdb7
00000240: a3fb c032 eef1 bd33 2262 1f37 639e 87b7
00000250: 9150 0135 cb9d c1b6 f9a9 28b0 c0b2 2bb8
00000260: fbc3 4fb2 bf37 0fb4 a680 f3b2 3026 a337
00000270: ecba 7336 80fb d6b3 3cce 1634 10f0 8f34
00000280: e1fc 30b9 0ed7 b932 e8eb 9137 5fe0 0a34
00000290: 3449 0035 4a8d b032 8df7 67b3 017a 36b4
000002a0: 9ee7 8336 bc29 f437 2e4e 8c3e 3c5a 89b2
000002b0: 0f53 b933 86db 8235 05e2 4338 add0 5634
000002c0: c36d 13b2 f5ef 5834 4d44 4034 59e5 27b2
000002d0: 2e10 1d36 c64b 4b31 8f69 67b9 cd98 c833
000002e0: cdb9 02b3 eafd 3239 a10a 0631 7b4c 6c33
000002f0: 9fbf 54b2 f51b 04b2 4a78 0136 9798 083b
00000300: 2dc3 0034 916f 932c 166e 87b4 8fa5 1034
00000310: 31aa edb7 49b5 08b8 6b5d f4b2 e451 f330
00000320: 89ec 4daf b051 b32c 524a 9133 0642 2936
00000330: 04a1 0caf 6d80 9db2 465f 0132 8969 d335
00000340: fb89 4232 9f55 59b1 aac6 5135 c961 a7b5
00000350: 9bcf a734 c808 1a35 e0a8 7ab0 2f80 3cb4
00000360: 1603 9caf bd9d b4b2 9edb 1bae e224 ca34
00000370: 9552 e932 1ea3 a7b1 7ad8 7eb1 194e e837
00000380: b310 03b6 8a43 eb2e 7d16 7db5 c39f f0b2
00000390: b9bd 2935 1254 72b7 bb7c 04b4 1088 7032
000003a0: 5084 0d38 add0 aab3 5476 eeb8 52d5 09af
000003b0: d312 2a32 f81f 7937 00ed 0934 bf18 41b3
000003c0: ae20 fd2e b3d6 56ae bcac 2437 ed35 0caf
000003d0: 63fe 2d34 12a0 c82c 3185 9836 9a2b 1333
000003e0: 217c a22c d8bc 94b7 cfcf 8337 c352 c134
000003f0: 0414 41b7 ebb1 47b5 e39f 5ab7 984c 3eb6
2.2979526e-08 -9.166643e-13 1.156636e-06 -1.2416841e-08 6.294652e-12 -3.442613e-08 6.8193763e-13 2.6091732e-06
-9.6577205e-11 -1.2528799e-09 -7.535638e-10 -8.8092944e-12 -3.3063884e-08 -1.0532739e-09 6.165877e-05 9.445298e-06
-1.6872424e-07 3.508744e-08 -7.540567e-11 9.8154835e-09 5.9545817e-09 6.576452e-05 3.4146346e-09 7.9403685e-11
-7.8966224e-08 6.190289e-07 6.7396506e-08 7.920787e-05 -3.147926e-08 -2.3330304e-13 1.2432723e-07 8.202516e-12
4.921572e-06 -7.619164e-13 1.5100565e-09 -1.1059385e-08 -1.8603355e-08 -1.5805877e-05 -8.549021e-06 -8.311915e-05
-3.5952083e-12 1.8473393e-08 -1.2136877e-08 -1.1073557e-05 -1.4237589e-08 1.6361945e-09 1.4458551e-09 -3.045581e-07
1.5874184e-08 -2.1256242e-13 4.0000574e-13 -1.3218161e-14 2.718324e-12 -3.9234117e-05 6.3914167e-09 -1.7057711e-06
2.5865546e-07 -6.512082e-08 -3.465587e-14 -1.4681383e-06 3.9229606e-10 -1.1275902e-07 8.740799e-07 -2.716379e-07
1.1401909e-06 -2.0269921e-05 -4.050595e-06 -8.17556e-06 -1.0180444e-06 0.00080569356 -3.1143745e-07 -6.197212e-07
1.336686e-07 3.4952023e-05 -8.114807e-06 1.2047414e-06 2.7022452e-07 1.1291514e-07 -4.88424e-06 4.0829102e-07
4.351945e-05 2.0808987e-07 -7.8571384e-07 4.195982e-07 -8.643026e-08 5.42902e-07 1.8581142e-08 -1.0431564e-05
-1.1586899e-06 -2.4173103e-06 6.1388614e-06 1.5074653e-06 1.1046747e-07 -2.0953992e-06 4.876488e-05 1.7057773e-05
8.081182e-05 -1.9635536e-06 1.3225347e-06 6.5802305e-06 7.258447e-07 3.0914816e-08 -5.8442975e-08 -1.2288137e-05
-8.991081e-07 4.9014902e-06 0.0027599311 3.5145255e-05 -4.7907037e-07 1.4904809e-07 1.7510905e-05 -8.2258e-07
8.455901e-06 -9.886412e-08 3.9004583e-08 1.8277428e-09 1.2959283e-06 9.419338e-06 -2.6957538e-05 -1.9453033e-07
8.013025e-07 -5.5588564e-05 4.084003e-07 9.37783e-08 8.958806e-07 1.491654e-08 -3.2269617e-07 -0.00037690217
2.7183103e-06 8.5743945e-09 -5.7919344e-05 1.2772539e-08 4.7085337e-06 0.18897472 -1.1720406e-06 4.0265937e-07
-4.0504472e-10 -2.1239696e-08 3.7192333e-06 2.8759334e-06 -1.075588e-08 -9.4178836e-07 -1.531277e-08 -3.0217852e-05
2.2466173e-08 8.845005e-08 9.499987e-06 -1.6167009e-05 4.8173484e-07 -5.7702177e-06 -6.135959e-10 -4.093605e-05
-1.2093547e-08 -1.3338193e-07 -2.8347426e-08 1.9448897e-05 3.6318625e-06 -1.0010899e-07 1.4044866e-07 2.6810494e-07
-0.00016878873 2.163463e-08 1.73952e-05 1.2933877e-07 4.779024e-07 2.0553347e-08 -5.4009025e-08 -1.6994456e-07
3.931068e-06 2.91065e-05 0.27403396 -1.5989933e-08 8.629842e-08 9.749645e-07 4.670212e-05 2.0006219e-07
-8.581483e-09 2.0203863e-07 1.7906241e-07 -9.772827e-09 2.340424e-06 2.958346e-09 -0.000220692 9.34102e-08
-3.043697e-08 0.00017069993 1.9505608e-09 5.501759e-08 -1.2383594e-08 -7.689768e-09 1.9292515e-06 0.0020842904
1.1991933e-07 4.1903776e-12 -2.5225808e-07 1.3471275e-07 -2.8331853e-05 -3.259376e-05 -2.844782e-08 1.7703852e-09
-1.8728676e-10 5.096555e-12 6.7656075e-08 2.5221393e-06 -1.279013e-10 -1.8335607e-08 7.530451e-09 1.575144e-06
1.1323659e-08 -3.1626326e-09 7.814766e-07 -1.2470929e-06 3.1257227e-07 5.738225e-07 -9.1189456e-10 -1.7555497e-07
-2.8378427e-10 -2.1026489e-08 -3.543798e-11 3.7652268e-07 2.7162324e-08 -4.878884e-09 -3.7084917e-09 2.7692922e-05
-1.9530241e-06 1.069856e-10 -9.428257e-07 -2.8012328e-08 6.323349e-07 -1.4443898e-05 -1.2338835e-07 1.4000776e-08
3.3740245e-05 -7.9542e-08 -0.00011370765 -1.2535864e-10 9.8995825e-09 1.4849e-05 1.284534e-07 -4.495882e-08
1.1510913e-10 -4.8848658e-11 9.81538e-06 -1.2752084e-10 1.6204426e-07 5.7021133e-12 4.5454585e-06 3.426576e-08
4.618098e-12 -1.7730912e-05 1.5713185e-05 3.6009268e-07 -1.1508357e-05 -7.439218e-07 -1.3031039e-05 -2.835679e-06

deep.6.bias f4 [32]
00000000: a666 bf31 af30 57ba c81f cc3b b18a bf38
00000010: 16d0 3331 c896 2033 2edc f83b d6fa d534
00000020: 3bfc b9b4 6fdd 973b 8a35 ceb3 e0bc 16b4
00000030: 5717 c03b 6003 1032 8bb3 f93b a509 6932
00000040: 5b68 813b 9194 c93b d4be d13b 5ffe 5636
00000050: 83c1 123b 9168 80b1 397e ba3b ff5f 0a33
00000060: 1712 4935 0e9c b22f d50d 0080 80ad c43b
00000070: 2fa5 1632 ad17 85b0 7275 0a35 6c6c e63b
5.5705014e-09 -0.00082088535 0.0062293746 9.133423e-05 2.6166211e-09 3.7390038e-08 0.007594607 3.985685e-07
-3.4642457e-07 0.0046345512 -9.602361e-08 -1.4038551e-07 0.0058621573 8.382671e-09 0.00762028 1.3564578e-08
0.0039492077 0.0061517437 0.0064009223 3.2036548e-06 0.0022393174 -3.737178e-09 0.0056913164 3.2217937e-08
7.490466e-07 3.2488895e-10 -4.962e-42 0.006002128 8.7687075e-09 -9.683753e-10 5.157991e-07 0.007031968

output.weight f4 [1, 33]
00000000: 33c5 e134 947f d4b3 72fc 7ebb 0bbe a9be
00000010: aee1 4239 4a54 f431 65ef 32b5 cc7f dcbe
00000020: a1d9 9235 09d3 a6b4 7065 77be a2a9 7d34
00000030: 5ddb f034 80dc a2be e606 8b32 5762 ddbe
00000040: 6f68 cc31 09a7 4dbe c9b0 a6be cfda b7be
00000050: 78e9 1c36 b582 f8bd fc6c 68b2 017b 9dbe
00000060: b849 65b3 c059 58b5 f9cc 3f31 f10d 0080
00000070: 98e7 9fbe acd8 47b3 41f5 86b3 af91 aeb4
00000080: cc4a c8be
4.2052997e-07 -9.8952256e-08 -0.0038907793 -0.33152804 0.00018585354 7.110917e-09 -6.665853e-07 -0.4306625
1.0941186e-06 -3.1073458e-07 -0.24159789 2.3624173e-07 4.486309e-07 -0.31808853 1.6184867e-08 -0.4323909
5.949054e-09 -0.2008325 -0.3255675 -0.35909125 2.3381708e-06 -0.121343054 -1.35289575e-08 -0.30757907
-5.3385264e-08 -8.0596874e-07 2.7910672e-09 -5.001e-42 -0.3123138 -4.653036e-08 -6.284473e-08 -3.2516024e-07
-0.39119565
