Results/FM/20250106_215635_batch1024_epoch10_lr0.01_k10_FM/treatment_fm.pth (torch, 2359 bytes, 2 tensors)

v f4 [13, 10]
-0.033542175 -0.120094605 0.020071223 -0.04772566 -0.012325576 0.02223363 0.08760725 -0.036732726
0.052806497 0.022667892 0.098328315 -0.020289928 -0.039123926 0.10092676 0.026788013 0.014839823
-0.08436708 -0.08164676 -0.15107928 -0.008973658 -0.04319522 0.12798692 0.02334172 -0.049501147
-0.044011995 -0.011573892 -0.053545382 0.09307149 0.025375292 -0.029783536 -0.052137922 0.010870804
-0.029379923 -0.025553016 -0.011697093 -0.018509101 0.041757252 0.02256475 0.03606523 0.035769034
-0.0071411617 -0.12685722 -0.0128935175 -0.009059621 0.010139697 0.03189912 0.05794242 -0.06282463
-0.015236314 0.032597616 0.0091682635 0.0050281747 0.01945234 0.0039643794 0.019569919 -0.00292991
0.013929729 0.0005722584 0.01023829 0.018107891 0.007835837 -0.03322962 -0.021734476 0.013889168
0.013458926 0.014825892 0.00060577237 -0.023653837 -0.03588387 0.011735513 -0.009908664 0.0040199766
0.008590413 -0.005772288 3.8821097e-05 -0.01709509 0.019292673 0.015029843 0.037282165 -0.005847722
0.006121628 0.1218923 -0.05148842 0.037032753 0.02422872 -0.024938336 -0.05182695 0.06312725
-0.0024026644 -0.01730628 0.010626357 -0.028980795 -0.005995293 0.010848436 0.0070300475 0.007025886
0.0014528568 -0.021831378 -0.018169973 0.0032231228 -0.035941962 -0.1058414 0.0013845392 -0.036442406
0.02457085 0.027992157 0.08522244 -0.033055216 0.036593582 0.038275845 0.016990177 0.1199633
0.019863656 0.0052436767 -0.02081738 -0.025782261 -0.03870586 0.06793347 0.028246107 -0.034759305
-0.06839037 -0.3770233 -0.034820072 -0.080538236 -0.010294772 0.0995237 0.22153848 -0.15918781
0.007428339 0.11640333
00000000: 8563 09bd 29f4 f5bd 686c a43c fb7b 43bd
00000010: 36f1 49bc 4d23 b63c 6e6b b33d 0e75 16bd
00000020: a04b 583d 04b2 b93c 5b60 c93d 1037 a6bc
00000030: 6940 20bd b0b2 ce3d 8972 db3c bb22 733c
00000040: a6c8 acbd 6b36 a7bd 87b4 1abe 4006 13bc
00000050: 79ed 30bd 010f 033e 2337 bf3c b7c1 4abd
00000060: ec45 34bd 6ca0 3dbc 6752 5bbd 449c be3d
00000070: d8df cf3c 9afc f3bc 938e 55bd 751b 323c
00000080: 2aae f0bc 8f54 d1bc 2aa5 3fbc 66a0 97bc
00000090: a709 2b3d b6d9 b83c 22b9 133d 8d82 123d
000000a0: 6800 eabb dce6 01be 553f 53bc ce6e 14bc
000000b0: f920 263c a7a8 023d 0855 6d3d 33aa 80bd
000000c0: bca1 79bc 1485 053d 7c36 163c 63c3 a43b
000000d0: 845a 9f3c a0e7 813b 1851 a03c bc03 40bb
000000e0: 8539 643c 9c03 163a 80be 273c 0057 943c
000000f0: e261 003c c81b 08bd 800c b2bc 658f 633c
00000100: d482 5c3c 4ce8 723c b2cc 1e3a b1c5 c1bc
00000110: f7fa 12bd 4f46 403c f357 22bc 02ba 833b
00000120: cebe 0c3c 7625 bdbb d6d3 2238 010b 8cbc
00000130: ab0b 9e3c bb3f 763c 2fb5 183d 3f9e bfbb
00000140: f097 c83b aca2 f93d 86e5 52bd a8af 173d
00000150: 4f7b c63c 7b4b ccbc 7f48 54bd dc48 813d
00000160: 0576 1dbb e6c5 8dbc 2c1a 2e3c 2269 edbc
00000170: 2a74 c4bb a3bd 313c 505c e63b 6739 e63b
00000180: c96d be3a b8d7 b2bc 32d9 94bc 073b 533b
00000190: e137 13bd 60c3 d8bd 6d79 b53a a244 15bd
000001a0: cf48 c93c cf4f e53c 1a89 ae3d e864 07bd
000001b0: 27e3 153d 22c7 1c3d fc2e 8b3c 52af f53d
000001c0: 1bb9 a23c 26d3 ab3b 3689 aabc 5235 d3bc
000001d0: 098a 1ebd b420 8b3d 6164 e73c c65f 0ebd
000001e0: 4010 8cbd 3309 c1be 7e9f 0ebd 3bf1 a4bd
000001f0: 67ab 28bc 15d3 cb3d fcda 623e 2102 23be
00000200: 6d69 f33b de64 ee3d

linear.weight f4 [1, 13]
-0.17270084 -0.080536924 -0.32052273 0.04080495 0.2154312 -0.10812853 -0.25680435 0.048490185
0.07007888 -0.024562579 0.15072781 0.012273954 0.33103582
00000000: 7dd8 30be 8bf0 a4bd 8e1b a4be 1723 273d
00000010: ff99 5c3e 7e72 ddbd dc7b 83be a59d 463d
00000020: 8485 8f3d 7637 c9bc 6458 1a3e b218 493c
00000030: 877d a93e
