Results/base/WD_batch1024_epoch10_lr0.001/control_wide_deep.pth (torch, 15416 bytes, 6 tensors)

wide.weight f4 [1, 13]
00000000: 1af9 4fbe ba33 10be 87fd 9abc a357 0e3e
00000010: 77e6 c43c 6315 033d 3b77 173e 7bcb 09be
00000020: f3af 59be 548e 163e e3bf b93d 94e4 b3be
00000030: a979 5bbe
-0.20309868 -0.14082232 -0.01891972 0.13900618 0.024035675 0.032002818 0.14791577 -0.13456528
-0.21258526 0.14702731 0.090698026 -0.3513533 -0.21433128

deep.0.weight f4 [64, 13]
00000000: bbaa 66be 9c15 7b3e 7128 5d3e fc3e 063e
00000010: 5ace 04bf 44cd 90bd 0dd7 c13c a3c1 393e
00000020: 1708 4f3d f0ac 773e ee56 403b f0c6 883f
00000030: 6ef9 f5bd 7ffb 313c 2783 63bd 6337 033e
00000040: 16d9 22be 406a aebd 4fa0 89be f073 663e
00000050: e248 6fbd ea59 65be 873c a2bc 58be cabb
00000060: dd74 9f3d f861 f9bc 9f85 093e 19cc c5bd
00000070: 3522 04be 0249 18be 558e 25bd 03d8 613e
00000080: 8fbb 9f3d c177 113e ea01 7b3e f8c2 71be
00000090: ec93 f6bd b32b 83bd 5447 ec3d dc51 90bd
000000a0: 7b6f d0bc bede 89bd 6780 0d3e 3916 8bbe
000000b0: 20d8 c1be fccf f2bd b099 3a3d 32fc bbbd
000000c0: 501b 553e 2654 b8be e3a2 a43d 86a7 7ebe
000000d0: 540b 213c 42e6 763e bc7d ddbd d02f 483e
000000e0: f650 a9be f8d8 a33e cb63 b6bd a1fa db3d
000000f0: 1bcd df3e 63a6 d8bc db24 9fbd d108 963f
00000100: 9225 73be 00ab 1d3d 3900 8abe eff4 373e
00000110: 33e8 32be d597 92be 5c7c c93d 941a 633d
00000120: cdf1 be3d 0c62 de3d 5957 a93d f900 c0be
00000130: 8a41 e73e c2d3 babd 23a3 e73d de56 463c
00000140: 4c19 b63e 03db e1bc 095b ccbe 68d9 d2bd
00000150: b86f bf3d 874d b8bd 252b f63e 34b6 593d
00000160: d6ff 213e 7c7d 963f e85d 1dbd 1206 14be
00000170: 704c a1be e691 c63d c6eb 66be 5fca f33d
00000180: b11e 23be d080 783e 660f 313e 6c8f 7dbe
00000190: b9ea 503d 9e30 ffbc 7754 3abe 9cde e73d
000001a0: bf3d c43c 54cb 293e 0606 adbe 8107 063e
000001b0: ce16 13bd cd29 5a3e dbda 8c3e 756a a3be
000001c0: 5c7f 273e 25e6 243d 6c9f 6bbe 4b32 163f
000001d0: 863e 5e3e 474d 523e 8bd7 973e 5401 a33e
000001e0: 7727 70be d09e 9fbe 6126 97bd 96a9 c13d
000001f0: 46c3 ce3c e686 3ebd ee6a 2dbd d6be 9dbe
00000200: e0f6 293f 4174 813e 1350 5abe 0f60 9c3d
00000210: 1808 0ebe 054e 8abe 42de adbd 84ff 643d
00000220: 00e7 e7bc 337c 123e 53aa c83d a70c 043e
00000230: 0bd9 cdbe 1e26 d1bd 1363 67be 5cfa e5bd
00000240: 98fd fdbd cd38 03bc b04a 8e3e faf1 3f3e
00000250: e58a 84be bb9f bdbd 6fb8 293e 84e9 57bd
00000260: d373 a2bd 1914 eabd b98f 6bbe 54b7 a13d
00000270: 4c5f 3abe 305c 393e 7088 0d3e ec9f 25be
00000280: 68ee e8bd 588a 85bd a0cb 303d c85b d0bd
00000290: e3d7 873e 63c7 88be 3485 20be c762 2cbe
000002a0: 6094 993d a65e 3f3d ccb3 b33d f84e a13e
000002b0: 297e cfbe 47b7 54ba de2d 48bd e8eb 4d3d
000002c0: 368b 6dbe 98ba b33c cd16 87be 445c 1d3d
000002d0: 6a06 5fbd 6290 143e a11d 2ebe f1a4 99bd
000002e0: 1cf2 d63d d528 9f3e 63e9 aebe 4ccc 413e
000002f0: 5c8f 8f3b ba7f 183d b1db 373e 205d c23d
00000300: 4723 b7bd a834 853f d020 dd3d 7c5e b53d
00000310: 7fbe 4abd c511 163e e98a f6bd 4991 343e
00000320: ae8e b4bd 1d87 b7bd 28a7 32be 3548 8abe
00000330: 6b49 00bd 6899 c7bc 474d 3f3e 005b 8ebc
00000340: 244a 2dbe 405d e93b 102d 10bd e4e9 b33d
00000350: 202b 4d3e 2b72 2bbe 8c47 1b3e 008d c0bb
00000360: 4853 22be 07cd 00be b494 903d 3089 6c3d
00000370: 80c6 12bc eb2f 1dbe d701 c93d 251c 5b3d
00000380: 734f e8bd 583c 57be 259f 0abe 6e89 46bd
00000390: 3cbd 68be 1479 83be 3fd4 4c3e de53 90be
000003a0: f594 663f 3442 5fbe 115f 88bd ae4c 36be
000003b0: a5e9 69be b738 e43d cc06 af3e 8b77 29be
000003c0: 1aed 7fbd 4b89 2c3e b300 0dbe 4886 c13c
000003d0: 28d9 483e 97bf 56bf c09d 1dbe 7815 d13d
000003e0: ea00 d0bd e90b 3dbe e041 0fbe 990d 04be
000003f0: 2f65 8d3e f87b 5a3d b0a0 f43d b098 183d
-0.22526066 0.24519962 0.21597458 0.13109964 -0.5187737 -0.07070401 0.023662115 0.18140273
0.050544824 0.24187064 0.002934869 1.0685711 -0.120104656 0.010863184 -0.055545 0.12814097
-0.15903124 -0.08516359 -0.26880118 0.22505164 -0.058419116 -0.2239758 -0.019804252 -0.0061872415
0.07785962 -0.030442223 0.13429879 -0.09658069 -0.12903674 -0.148716 -0.04041894 0.22055058
0.07799446 0.14205839 0.24512449 -0.23609531 -0.120399326 -0.06404819 0.11537042 -0.070468634
-0.025443783 -0.06731938 0.13818513 -0.27165392 -0.37860203 -0.11856076 0.045556724 -0.09178962
0.208112 -0.360017 0.08038881 -0.24868593 0.009829361 0.24111274 -0.108149976 0.19549489
-0.3306958 0.32001472 -0.08905753 0.10741163 0.4371117 -0.026446527 -0.077707015 1.172144
-0.237448 0.038493156 -0.26953295 0.17964529 -0.1747139 -0.28631464 0.09838173 0.05544527
0.093234636 0.10858545 0.08268613 -0.37500742 0.4516719 -0.09122421 0.11310413 0.012105672
0.35566175 -0.027570253 -0.39913204 -0.10295373 0.093474805 -0.08999162 0.48079792 0.053152278
0.1582025 1.1757045 -0.038419634 -0.1445544 -0.3150363 0.09695797 -0.22550878 0.119038336
-0.15929677 0.24267888 0.1729103 -0.24761742 0.0510051 -0.031151112 -0.18196283 0.11321756
0.023955224 0.1658147 -0.33793658 0.130888 -0.03591042 0.21305008 0.27510723 -0.31917158
0.16357177 0.040258545 -0.23010033 0.5867049 0.21703538 0.20537291 0.29656634 0.3183695
-0.23452555 -0.31175852 -0.07380367 0.09456174 0.025239598 -0.046515368 -0.042338304 -0.3080966
0.66392326 0.25284007 -0.21319608 0.07635509 -0.13870275 -0.2701265 -0.08489658 0.05590774
-0.028308392 0.1430519 0.09798112 0.12895451 -0.40204653 -0.102123484 -0.22596388 -0.11229393
-0.12401885 -0.008009148 0.27791357 0.1874465 -0.25887218 -0.09258982 0.16574262 -0.052712932
-0.07932248 -0.114296146 -0.23004045 0.07896295 -0.18200415 0.18101573 0.13821578 -0.16174287
-0.113735974 -0.065205276 0.043162942 -0.10173756 0.26531896 -0.2671462 -0.15675813 -0.16834556
0.074990034 0.046721123 0.08774528 0.3150556 -0.4052594 -0.00081144687 -0.048871867 0.050273806
-0.23197636 0.02193956 -0.26384583 0.03841807 -0.054449476 0.14508203 -0.1700349 -0.07502163
0.104953974 0.3108584 -0.34162435 0.1892559 0.0043811034 0.037231185 0.179549 0.094904184
-0.089422755 1.0406694 0.10797274 0.08855912 -0.049498077 0.14655216 -0.12038214 0.17633547
-0.088162765 -0.08961318 -0.17446578 -0.27008215 -0.031320017 -0.024365142 0.18681823 -0.017377377
-0.16922814 0.007121712 -0.035199225 0.087848455 0.20035982 -0.1674277 0.15164012 -0.0058761835
-0.15852082 -0.12578212 0.07059613 0.05774802 -0.008958459 -0.1535031 0.09814804 0.053493638
-0.11343279 -0.21019113 -0.13537271 -0.048470907 -0.22728437 -0.25678313 0.2000284 -0.28188986
0.9007104 -0.21802598 -0.066587575 -0.17802688 -0.22843035 0.1114363 0.34184873 -0.16549508
-0.062481977 0.16849248 -0.13769798 0.0236236 0.19614089 -0.8388609 -0.15392208 0.10209173
-0.10156424 -0.18461575 -0.13989973 -0.12895812 0.2761626 0.053340882 0.11944711 0.03725499

deep.0.bias f4 [64]
00000000: 33f1 d73d 2264 7d3e ba5e 1dbe b8e8 823d
00000010: fd26 8e3e bd98 933d dfae 9e3e 2134 37be
00000020: 93fc 2f3d 916b 00bc a5ef 71be 6654 423e
00000030: d268 6b3e 6d24 47bd c68f 723e ab14 bf3c
00000040: cc98 913d 5b51 793e 4af3 bcbd d2a7 b4bd
00000050: 84cd 0b3e f041 efbd ae5b 88bd 0371 22bd
00000060: afc5 8b3e cf4b 473e c6d1 09be 4050 b5bb
00000070: f53a e33d c07d 46be d845 a13d f020 abbe
00000080: a0de 53bc 8028 55bd 99a4 aabd 0dd0 123e
00000090: 93fb 693d 4b98 c63d e1b4 4bbc de23 133e
000000a0: a036 983d 9b3b 2f3e 3045 f9bd 9c16 5fbd
000000b0: 1b95 66be cf9f 073e 2897 3d3e 488a d93d
000000c0: d071 cc3d b724 9d3d 53ff 6c3e 2817 be3e
000000d0: 93b6 e73d aff0 ffbc a373 7abe 6083 8e3d
000000e0: affd 3d3e 470e 62be 9edd 57bd 99ae c0bd
000000f0: 645d 43be 0938 6d3d 8c6c 5f3e d09a 1cbd
0.10544052 0.24745229 -0.15368167 0.06392044 0.2776412 0.07206867 0.3099279 -0.1789098
0.042965483 -0.007838146 -0.23626573 0.18977508 0.22989205 -0.048618723 0.23687658 0.023325285
0.07109222 0.24347441 -0.09226091 -0.08821072 0.13652617 -0.116824985 -0.066581115 -0.039658558
0.27299258 0.19462512 -0.13458928 -0.005533248 0.110952295 -0.19383907 0.0787465 -0.33423567
-0.012931496 -0.052040577 -0.08332176 0.14337178 0.057124685 0.09697016 -0.012433262 0.14369151
0.07432294 0.17112581 -0.121713996 -0.05446492 -0.22517817 0.13244556 0.18514693 0.10622078
0.099826455 0.076730184 0.23144273 0.37127042 0.1131412 -0.031242697 -0.24458174 0.069586515
0.18553804 -0.22075759 -0.052701585 -0.09408302 -0.19078594 0.057914767 0.21818751 -0.03823358

deep.2.weight f4 [32, 64]
00000000: 68d7 d73b 48d3 efbc 4e81 7cbb d043 a9bd
00000010: e45c c3bd 9997 aabd 9e6e bd3d e8b7 1dbc
00000020: b4e7 05be 607b 683c a82a 2abe cf86 f2bc
00000030: ee84 c43d 34e5 84bc 88e2 f6ba 3c20 38be
00000040: 589a c0bc 5330 3b3c 36b2 1dbe a084 6fbd
00000050: 31f3 173d 1409 133d ac58 6f3d 21ce 16be
00000060: 58ee a23d a2cf b6bd 370d a3bc d4ec ce3d
00000070: edcd 14be 95c7 d9bc 0e6e e7bd ed3f 7d3d
00000080: e056 163d 40e1 633c c53b a5bd fe34 7bbc
00000090: c0e0 84bd 20d4 1dbd d441 983d 7d8c 1fbe
000000a0: 0816 12bd 7ad9 1dbb 88be b13c 804f e13a
000000b0: ee3d dc3d 256d 81bd 4c12 043d e365 123d
000000c0: 6105 61bd 66d3 503d e487 513d dcb6 d9bb
000000d0: 4e0e bdbd 761b 3d3d 1222 09be dc3d 1e3d
000000e0: f89b cd3c 1ab1 b43d 07be 28be 4137 10bc
000000f0: a667 09be a86c 793b 44d1 2f3d 7823 c7bd
00000100: 574c 2b3a 283e 1b3d e7bd e93d d56b 8c3d
00000110: a7c0 5c3e 02f6 a53c 3557 323e 0122 33be
00000120: d689 8f3d 82f5 9c3c 5ea5 9b3d c980 4c3c
00000130: 0001 d8bb 1fd1 613d 8233 dbbd e6f0 1abc
00000140: c472 603d 9c84 b4bd 259d 32be 0439 fdbd
00000150: fddd b6bd 1fcc 3a3d 8cf2 833d 6e00 13be
00000160: d82f 313d ab12 50bd 6ade ac3d d2b2 f9bd
00000170: 1933 723d 16c3 20be 3ec5 9bbd e4a2 16be
00000180: 8e48 ebbd 5490 c83d 4185 49be b179 53be
00000190: 8bab 78bd 7ec9 9dbd da50 09bb e4ec 6a3d
000001a0: 8ae7 d73d f17d 7d3d fb0f 2ebd c254 9f3d
000001b0: 80e3 d5bd e580 b43d c0ca 7cbc 0c2d 80bd
000001c0: 4e46 3abc b1e7 adbd 452a 6cb9 fc63 483d
000001d0: aa0b 9cbd 811e 10be 5e26 e5bd 3cb2 2c3d
000001e0: a2ed f5bc 6463 9a3d 1ed2 9ebc 882b 063e
000001f0: a60c 66bd 6c44 96be ae42 e23d 2001 12bc
00000200: 37e5 9a3c c4ae 2c3d c732 843c 8331 54be
00000210: ae3a 553e dacf 8fbc 31a8 fc3c f76d a5bd
00000220: b5ee 3fbc 9a3a 383d 154a 423d 00ac 9b3d
00000230: f40c 96bd ed73 20bd 2ca7 b6bc 52ce b4bb
00000240: e097 0f3c b4df f6bd 6066 93be 1a99 e5bd
00000250: 4c27 fd3d 7556 08bc 9068 4ebc e5d2 543d
00000260: 50e3 653d 2918 823d 22ad 03be 3456 00bd
00000270: 9abd aa3e 50c6 f1bd cc80 bcbd 98f9 1bbd
00000280: 007d 8d3b c82a bfbc 4cde 9fbe 2074 d1be
00000290: 8bc4 dc3c 6429 fe3c f70a 9e3e 0a3e c23a
000002a0: 60fe 443d 98c6 5ebd 54a1 8f3d 049f f43d
000002b0: 8e4f 853d 82ac 80bd c0b8 d03d 581d a7bd
000002c0: 93b5 8d3d 6ff2 17bc ee25 52be 7b86 aa3c
000002d0: 4b8e 93bd 97ca c1be 599e 6fbd e825 6b3d
000002e0: ec7b 493d 542b d33d fb5d 06bb dc98 4b3d
000002f0: 0b3d ac3c 65a6 b5be 12ec abbd 1632 9a3d
00000300: 1c12 c83d dc00 e0bd 66b6 72bc 09b5 7bbd
00000310: ceb0 c93d 1cf3 b53d 3c35 9e3d 7d24 513d
00000320: 6f5f e5bc fa03 cc3d be11 97bd 3c6b 1abc
00000330: 48b7 06bd ea30 49be a8ad 9dbd 4ecb 613c
00000340: 90b9 36bc a012 cdbd 50cd 02bd d8d9 b03c
00000350: ad61 d5bd 7305 813d eaa5 d9bd 9452 7abc
00000360: f469 d1bd 7354 02be 2e22 00bd d856 e83d
00000370: 1077 d13d 272a 003d e26c c63d bc11 acbd
00000380: 4e20 903d ca33 9c3d 48ed 0cbe 4381 dbbd
00000390: 85d6 343d af62 b6bb 8f89 5bbe 1483 f8bd
000003a0: c804 b93d 4e91 e0bb c0c7 97bc a27a f7bd
000003b0: d49c e03d 669b cbbd 0c24 643d a0c5 fabc
000003c0: 240e 43bc 2578 3b3d 1cb6 38bd 9543 72bd
000003d0: a778 a23d 6983 d4bd e507 223d d821 04bd
000003e0: b722 85bd ec5e ab3d 9453 9f3b f17f f6bd
000003f0: 971f c13d 2f1b 81bd ec4e dd3d 30b0 20bd
0.0065869577 -0.029275551 -0.003852922 -0.08264887 -0.09539202 -0.08329696 0.09249614 -0.009626366
-0.13076669 0.014189571 -0.16617835 -0.029605297 0.09595667 -0.016222574 -0.0018835822 -0.17981046
-0.023511097 0.011425096 -0.15400013 -0.05847609 0.03709716 0.03589733 0.058434173 -0.1472707
0.07955617 -0.089263216 -0.019903762 0.10103765 -0.1453168 -0.026584426 -0.11300288 0.061828543
0.036703944 0.013908684 -0.08068041 -0.015332459 -0.0648818 -0.038532376 0.07434431 -0.15580936
-0.035665542 -0.0024085925 0.021697298 0.001718983 0.10754 -0.06319646 0.03224401 0.035741698
-0.05493677 0.050982855 0.051154986 -0.006644113 -0.09231244 0.046168767 -0.13391903 0.038633212
0.025098786 0.08822842 -0.1647874 -0.008802236 -0.13418445 0.003805915 0.04292418 -0.09723562
0.0006534508 0.037901074 0.11413174 0.06856505 0.21557866 0.020258907 0.1741608 -0.1749344
0.07008712 0.019160036 0.07599901 0.012481877 -0.006591916 0.055131074 -0.10703184 -0.009456849
0.05479695 -0.08814356 -0.17442758 -0.123643905 -0.0892906 0.04560482 0.064427465 -0.14355633
0.043258518 -0.050799053 0.084408596 -0.121923104 0.05913076 -0.1569942 -0.0760598 -0.14710575
-0.11488448 0.097931534 -0.19679739 -0.2065189 -0.06071047 -0.07704447 -0.0020952732 0.057354823
0.105422094 0.061887685 -0.04249571 0.07779838 -0.10443783 0.08813647 -0.015429199 -0.06258592
-0.011369301 -0.08491457 -0.0002252246 0.048923478 -0.07619412 -0.14074136 -0.111889586 0.042162165
-0.030020539 0.075384885 -0.019387301 0.13102543 -0.056164406 -0.29349077 0.110478744 -0.008911401
0.018908126 0.042158857 0.016137494 -0.20722012 0.20823166 -0.017555166 0.030841919 -0.08077615
-0.011714627 0.04497776 0.04743393 0.07601166 -0.07326689 -0.039173055 -0.02229651 -0.0055177594
0.008764237 -0.12054387 -0.28789043 -0.112108424 0.12361011 -0.008321394 -0.012598172 0.051958937
0.056124985 0.063522644 -0.12859014 -0.03133221 0.3334778 -0.11805403 -0.092042536 -0.038079828
0.0043178797 -0.02333583 -0.31224287 -0.4090891 0.026949188 0.031025596 0.3086774 0.0014819514
0.048094153 -0.054388613 0.07013193 0.11944392 0.065093145 -0.06282903 0.10191488 -0.08159894
0.06919398 -0.009274109 -0.20522282 0.020816078 -0.072048746 -0.37849876 -0.05850062 0.057409197
0.049190447 0.103109986 -0.0020502794 0.049706325 0.021025201 -0.3547851 -0.08394636 0.075290844
0.09769079 -0.10937664 -0.014813995 -0.061451945 0.09848176 0.0888426 0.077249974 0.05106019
-0.027999608 0.09961696 -0.07376431 -0.009424981 -0.032889634 -0.19647565 -0.07699138 0.013781382
-0.01115264 -0.10013318 -0.031934083 0.021588251 -0.10419021 0.062998675 -0.10627349 -0.015278477
-0.10225287 -0.12727527 -0.031282596 0.11344689 0.102277875 0.0312902 0.096887365 -0.0840182
0.07037412 0.076270655 -0.1376239 -0.10718014 0.044149894 -0.005565963 -0.21439193 -0.12134376
0.09034115 -0.006853259 -0.018527865 -0.12083937 0.109674126 -0.09941749 0.05569844 -0.030611813
-0.011905227 0.045768876 -0.045095548 -0.059146482 0.07933169 -0.10376627 0.03955831 -0.03225884
-0.06500762 0.08367714 0.004862258 -0.12036122 0.094298534 -0.06304013 0.10806069 -0.039230525

deep.2.bias f4 [32]
00000000: fa37 263c 64df 9bbc b455 ba3d a972 f8bc
00000010: 9b07 633d a561 9cbc e79d d5bc 8870 e539
00000020: 0a04 4b3d c9cd e6bc 2456 863b fade 753c
00000030: 9940 683d 3500 3c3b 40f1 2d3d 047e 1c3e
00000040: 85a1 1e3e 3ffe 413e 46d1 643e a02d c73d
00000050: a456 663d d69f 3dbe 1557 52be d136 a63d
00000060: 0c5e 813e e689 7ebd 25f0 a3bc 6c09 96bd
00000070: b986 033c 26d5 0c3d 6ff6 183e cf42 bebd
0.010145182 -0.01902742 0.09098378 -0.030328112 0.055427175 -0.01908953 -0.02607627 0.00043762126
0.0495644 -0.028174298 0.004099624 0.015006775 0.05670223 0.0028686647 0.042466402 0.15282446
0.15491302 0.18944643 0.22345456 0.09725499 0.05623497 -0.18518004 -0.20541032 0.08115924
0.25267065 -0.06214323 -0.02001197 -0.07326016 0.008027726 0.03438296 0.14937757 -0.092900865

output.weight f4 [1, 33]
00000000: 19a2 0e3d 155e c93d 67de 70bc ab2d 83be
00000010: 6a2d b13d 7720 2abe 9d2f 0d3e 01c6 f93b
00000020: efe9 d73b bab7 0a3c a95f f4bd 4a5c d63b
00000030: 3b91 fdbd 90b4 d0bd b163 c73c 06ac f43d
00000040: 2208 43be ae25 16be 4715 9ebd f380 a1be
00000050: ec61 933d 652f 23be b6e9 4b3d 453f 413d
00000060: c317 2a3d b405 32be c8b1 9bbb 4c71 00be
00000070: f122 243d 324f 763c 2eca da3a 3465 a4be
00000080: 13f4 bd3c
0.034822557 0.09832398 -0.014701462 -0.2562078 0.0865124 -0.16613947 0.13787694 0.007622481
0.0065891664 0.008466655 -0.11932308 0.0065417634 -0.12381216 -0.101906896 0.024339529 0.11946873
-0.19046071 -0.14662811 -0.07718902 -0.31543693 0.071964115 -0.15936048 0.04978343 0.04717948
0.041526567 -0.17384988 -0.004751418 -0.1254322 0.040072385 0.01503353 0.0016692334 -0.32108462
0.023187673
